LSTM_for_PDE/codes/model/lstm_pinn2D.pth (torch, 567565 bytes, 17 tensors)

lstm.weight_ih_l0 f4 [280, 3]
000000 9c 0d 7b 3e 10 74 1d bf cc 4f eb 3e dc f0 0a be
       0.2451691 -0.6150522 0.45959318 -0.13568443
000010 07 89 d1 be f4 ec 31 3f df db cd 3e 70 7e 27 bf
       -0.40924856 0.69502187 0.4020681 -0.65427303
000020 e6 27 d7 3e 7c 97 d0 be b8 c4 70 3d 18 85 05 3e
       0.42022628 -0.40740573 0.058781356 0.13039052
000030 5d c4 48 bf 4e e4 25 3f 31 9e 03 3f be 97 d5 be
       -0.78424627 0.6480149 0.51413256 -0.41717333
000040 ba 93 ab 3e ab 4d c6 3c 09 46 e3 3e d0 34 ad be
       0.33511144 0.024206957 0.4438937 -0.33829355
000050 13 86 88 3f cf 06 c5 3e ae 96 20 bf 63 1c 1e 3e
       1.0665916 0.38481757 -0.6272992 0.15440516
000060 e9 67 95 3e 48 0e 5d 3e 0d 20 d7 bb 1a 3d 7f 3e
       0.2918084 0.21587479 -0.0065651 0.24925652
000070 9e d5 b1 be 90 a8 fe 3e 5e ef e4 be c6 5d db bd
       -0.3473329 0.49737978 -0.44713873 -0.10711245
000080 96 b3 db bd c4 2f ee 3e 9a 95 28 bf af 22 da 3e
       -0.10727613 0.46520817 -0.65853274 0.42604586
000090 de 56 b7 3e 0b 49 b3 3e da f6 06 3e aa 74 da 3e
       0.35808462 0.35016665 0.13180104 0.42667133
0000a0 8a ee 91 3e da 70 60 3d 79 5d 6a 3e a6 ab 5e bf
       0.28502303 0.054795124 0.2288722 -0.86980665
0000b0 b0 55 3f 3f b0 07 6e bf a0 7d 8d bf 21 bd a0 3f
       0.74740124 -0.9298048 -1.1053963 1.2557718
0000c0 36 9f 70 bf 19 f5 32 bf 7d 64 a1 3e b2 6c 28 bf
       -0.93992937 -0.6990524 0.3152198 -0.65790856
0000d0 fa df d4 bd b5 f0 b5 3e 55 c4 c6 be e8 e2 7d be
       -0.10394283 0.35535207 -0.38821664 -0.24793589
0000e0 18 92 07 3f 5b da 51 3e 22 fa 08 bf e7 87 27 3e
       0.52957296 0.20493452 -0.5350667 0.16360436
0000f0 26 4f 32 bf c3 a3 bf 3c 50 76 e8 3e 64 65 6f 3f
       -0.6965202 0.023393517 0.45402765 0.93514085
000100 bb 4e 7a 3f ac ae 79 bf 04 cd aa 3e 79 0f bc 3e
       0.97776383 -0.97532153 0.3335954 0.36730555
000110 6a 94 97 3e 74 13 1b bf c6 d8 4e bf ef d8 cd 3e
       0.29605418 -0.6057656 -0.8079952 0.4020457
000120 27 f3 f7 3e ff 1d 8f be b5 d8 1c bc 21 31 8b 3f
       0.48427698 -0.27952573 -0.009573151 1.0874368
000130 ba 26 a2 3f cc cb 55 bf f7 29 ab 3c 22 8d 13 3e
       1.2668068 -0.83514094 0.020894034 0.14409307
000140 0c d5 b1 3e e6 41 9a 3b 15 48 05 3e a1 75 ee 3d
       0.34732854 0.0047075627 0.13015778 0.1164353
000150 6d b2 2f bf 83 0b ae 3e 1f e7 2a 3f 82 93 d9 be
       -0.6863163 0.33993158 0.6675891 -0.42495352
000160 35 bb bf 3e 12 b1 8a 3e 58 49 a9 3d de 44 34 3b
       0.37447515 0.2708822 0.08265942 0.0027506868
000170 b3 17 93 bf 0f a3 df be 3b 88 c0 be 89 03 e4 bd
       -1.1491607 -0.4367909 -0.37603936 -0.11133487
000180 98 f8 dc be 96 9f 12 3e 64 14 89 be 71 31 d4 be
       -0.43158412 0.1431869 -0.2677337 -0.4144397
000190 2f 79 64 bf 81 c5 67 3f 14 b4 27 bf 48 e1 6a 3f
       -0.8924741 0.9053574 -0.6550915 0.9175
0001a0 83 69 99 3e aa c7 10 bf d1 65 00 bf 98 01 57 be
       0.29963312 -0.56554663 -0.5015536 -0.20996702
0001b0 ac 95 57 3e 1d be 24 be 7e 0a f5 3e b7 ec c3 bc
       0.21053189 -0.16088147 0.47859567 -0.023916585
0001c0 48 c3 0c bf 0a 41 8e 3e be f7 17 bf 2a 79 3c 3f
       -0.54985476 0.27783996 -0.593624 0.7362238
0001d0 28 d7 c7 3e d0 03 84 be 6c bc bf 3e b9 cd 76 3e
       0.3903134 -0.2578416 0.37448442 0.24101914
0001e0 f7 2a 01 bf 7d 86 13 3f 52 77 d9 3d 10 f1 11 3e
       -0.50456184 0.5762709 0.10618462 0.14252114
0001f0 6f ac 54 3d 7d 82 0e 3e 5d 00 05 bf 34 f3 8d bf
       0.051922258 0.13916965 -0.5195368 -1.1089845
000200 ac 49 83 3f 54 6d 6d 3e 74 73 1a bf 6b e9 aa 3e
       1.0256858 0.23186237 -0.6033242 0.3338121
000210 f1 44 05 3e 08 0f ee bd e0 97 1f bd 07 a2 0d bf
       0.1301458 -0.11623961 -0.0389632 -0.5532536
000220 fd c0 f0 bf eb 76 93 3f ea 7a d2 3e 04 04 a5 3e
       -1.8808895 1.1520666 0.411094 0.32229626
000230 52 11 b1 3e a5 63 d9 be c2 43 5c be a5 2e 47 be
       0.34583527 -0.42458835 -0.21510223 -0.19451387
000240 35 1d 9d 3e bd 0d e5 3e 95 96 30 be 85 9b 4f bf
       0.30686346 0.44737044 -0.17244942 -0.8109668
000250 20 fa 26 bf 5e 72 8b 3e ed 55 84 bf 54 57 2d bf
       -0.6522541 0.27235693 -1.0338722 -0.6771138
000260 36 5f 2a 3f 37 5a 98 be 0c 03 88 3d 74 5a ef 3e
       0.6655153 -0.29756328 0.06641206 0.46748698
000270 d6 aa a2 3e 42 18 42 bd c0 f9 4a 3e 11 0d 18 be
       0.31770962 -0.047386415 0.19821835 -0.14848734
000280 40 39 90 be cb 03 ec bc a9 08 d9 be 0d 8e 25 be
       -0.28168678 -0.028810402 -0.4238942 -0.1616747
000290 53 77 89 bd 95 93 37 3e f6 05 22 bf e3 f1 12 3f
       -0.067122124 0.17927392 -0.63290346 0.5740034
0002a0 fa 54 18 bf 87 87 bf 3e 42 9e a6 3e 66 7d 1f 3f
       -0.59504664 0.37408087 0.32542616 0.6230072
0002b0 24 d8 9b bf 5a f2 4b 3f 5c bd 67 be f3 7e 31 be
       -1.2175336 0.79666674 -0.22630829 -0.17333584
0002c0 94 38 07 3f bb c1 35 3e dd ec c9 be 8b ab c7 3e
       0.52820706 0.17749684 -0.39438525 0.38998064
0002d0 37 f7 31 bf 44 74 ec be b3 91 b8 3e c0 f7 29 3f
       -0.69517845 -0.46182454 0.3604866 0.6639366
0002e0 c7 64 04 3f 25 05 8e bd e2 cf f6 be b2 4e 8d 3e
       0.51716274 -0.06934575 -0.48205477 0.27599102
0002f0 f1 3f 7e 3e 90 c1 98 be 5a f7 e2 be 17 72 48 3c
       0.24829079 -0.29835176 -0.4432934 0.012234232
000300 02 01 4e 3e 4e 06 6e 3e b9 06 10 be 1a b5 2a bf
       0.20117572 0.23244593 -0.14065064 -0.6668259
000310 9d 9b 45 3f b6 f2 2d 3f ed 79 21 3d 0a 9e 70 be
       0.7719057 0.6794847 0.039422918 -0.23497787
000320 be 89 54 3e d6 81 a3 bf 3a 26 63 bf ce 21 ad 3f
       0.2075567 -1.2773998 -0.88730204 1.3525941
000330 5e a7 b7 be f0 1a 03 bf ec 63 9d 3e 94 91 03 bd
       -0.3586988 -0.5121298 0.30740297 -0.032121256
000340 5c 94 04 be 62 41 2f 3e e6 bc 7b 3d a0 c2 80 3b
       -0.1294722 0.17114785 0.061459444 0.003929451
000350 4f e1 aa bd 9e e8 9f bd a7 bc 86 3d 7a 10 1e bd
       -0.083437555 -0.0780804 0.06578951 -0.038589932
000360 7a 1a 29 3d 80 13 ae bd fb 4b ef bd a8 a2 af bd
       0.041285016 -0.08499813 -0.11684414 -0.08575946
000370 40 2c 73 3b a6 eb 6d 3d 7a 26 a9 bd d6 53 45 3d
       0.0037105232 0.05808606 -0.08259292 0.048175655
000380 e7 c7 ef 3d aa c4 bb bd a6 b1 71 3d bd 8a a3 3d
       0.1170805 -0.0916837 0.05900731 0.079854466
000390 4a 87 64 bd 66 6c 8d bd fe f7 d3 bd 53 07 a2 3d
       -0.055793084 -0.06905441 -0.10350035 0.07911553
0003a0 30 76 ac bb 6c c6 95 3c 42 b2 3f 3d ea dc 07 3d
       -0.0052631125 0.018283091 0.04680086 0.033169664
0003b0 39 39 e7 3d 1c cb 8b bd 7a 67 11 3d e7 32 ac 3d
       0.11290211 -0.068258494 0.035499074 0.08408146
0003c0 a9 4b d1 3d 1e 03 58 bd e0 3c 82 3b 0b 53 b9 3d
       0.10219509 -0.052737348 0.003974542 0.09049042
0003d0 6b af ca 3d 92 07 1d bd 63 b1 b9 3d dc 58 44 bd
       0.098967396 -0.038337298 0.09067037 -0.047936305
0003e0 4a d7 38 3d bc b9 bd 3c 96 23 e9 bd a4 dd bd bc
       0.04512719 0.023159854 -0.113837406 -0.023176976
0003f0 d2 18 1a 3d a5 5d df 3d e8 e6 f5 bc 80 9e 40 bd
       0.037621327 0.10906533 -0.030017331 -0.047026157

lstm.weight_hh_l0 f4 [280, 70]
000000 17 44 aa 3d c5 d7 c3 bd f9 59 e8 bd 4b 8e a0 3d
       0.08313768 -0.09562639 -0.11345286 0.0783964
000010 3f e1 89 bd 1c 37 cb bd c0 bf fb 3a e4 0f da 3c
       -0.067324154 -0.09922621 0.0019206926 0.026618905
000020 90 c5 5a bd 0d a1 be bd ae d3 49 3d 32 de 90 bd
       -0.053411067 -0.09308062 0.04927414 -0.070736304
000030 dc d7 ca bd ce 3c 40 bd 28 fc 1b bd e8 cd 40 3c
       -0.09904453 -0.046932988 -0.03808227 0.011767842
000040 b6 63 15 3d 83 52 d1 3d 04 ad a9 3c de 57 24 3d
       0.036472045 0.10220816 0.020712383 0.04012286
000050 1c 42 d5 3c 99 f3 cf 3d cc 53 b6 bd 0c 81 f9 3c
       0.0260325 0.101538844 -0.08902702 0.030457042
000060 90 0d cb bd 52 00 52 3d 95 f9 dc bd b8 57 e6 bd
       -0.09914696 0.051269837 -0.107897915 -0.112472
000070 91 a8 ec 3d 9b eb bb 3d 66 f2 7c 3d 77 d2 c1 3d
       0.11555589 0.091757976 0.061754607 0.09463971
000080 c4 45 c1 bd d2 f8 7d bd 3e 75 3b 3d c3 af 9a bd
       -0.09437135 -0.06200487 0.045766108 -0.07553055
000090 b4 31 81 bd c2 87 a4 bd 18 f7 56 3c 58 6c a7 bd
       -0.06308308 -0.08033706 0.013120435 -0.08174962
0000a0 5c 55 07 bd 98 c1 a6 bc 26 81 38 3d 9a 50 20 3d
       -0.03304039 -0.020355985 0.04504504 0.039139368
0000b0 32 64 01 bd 8f 96 f0 3d 70 2c bf 3b 1f bf 9f 3d
       -0.031589694 0.11747467 0.005834155 0.07800125
0000c0 3e cd 64 bd bc 45 65 bd ae 94 6a 3d 7f 3e ac 3d
       -0.055859797 -0.055974707 0.0572707 0.08410358
0000d0 1c 8d c3 3c 68 2b 70 bc c8 46 03 3c 6c 14 c3 bd
       0.023870997 -0.014658786 0.008012481 -0.095253795
0000e0 b4 8e f9 3c 73 b2 f0 bd e8 33 34 3c b4 95 ec 3c
       0.030463554 -0.117527865 0.010998704 0.028879978
0000f0 ca 65 16 3d 25 ff cd 3d d5 86 8b 3d 54 e5 fe 3c
       0.036718167 0.100584306 0.068128265 0.031115212
000100 f8 2f ce bd af 85 b7 3d cb 86 a0 3d 13 4f db 3d
       -0.10067743 0.08961045 0.0783821 0.107084416
000110 fc 54 ee bc eb 67 af 3d 7b 12 ef 3d bf 78 a8 3d
       -0.029093258 0.08564743 0.11673447 0.082261555
000120 fc 2b a6 bd 90 a1 ee bb bc 25 cb bd 14 47 ed 3c
       -0.08113858 -0.0072824433 -0.09919307 0.028964557
000130 4d 7e b5 3d 96 61 b2 bd 3e 05 94 bd bb 3b 9b bd
       0.088619806 -0.08710019 -0.07227562 -0.07579752
000140 9c 2e a6 3c 29 65 a9 3d f5 5e da bd d0 6e bc 3b
       0.020285897 0.08271248 -0.10662643 0.0057505146
000150 5d 1a a3 bd ce 64 23 bd 16 69 b7 bd f6 17 ac bd
       -0.07964013 -0.039891057 -0.089555904 -0.08403008
000160 a1 c8 8e 3d ff 2b f1 3d a1 f0 96 bd a8 bb b6 bd
       0.06971861 0.1177597 -0.07370115 -0.08922511
000170 12 2a e2 bd b8 ba c1 bd 8e c0 08 3d d4 46 08 bd
       -0.110431805 -0.09459442 0.03338676 -0.033270672
000180 c4 06 4e bd a5 55 90 3d 98 68 42 3c 13 b1 9d 3d
       -0.05029942 0.070475854 0.011865757 0.0769979
000190 6b db bb 3d dd c6 b5 3d f1 60 c3 3d f2 58 72 3d
       0.0917271 0.08875821 0.095399745 0.059166856
0001a0 ca a4 32 3d aa 1d 64 3d 24 36 dd 3c b7 f6 cc bd
       0.043614186 0.055692352 0.027003355 -0.100079946
0001b0 a4 75 c6 bd 94 9d 54 bd 5a d8 51 3d 0d 62 8b 3d
       -0.09690407 -0.05190809 0.05123172 0.06805811
0001c0 b0 ce 9c bb fd 5e c0 3d 86 f8 19 3d 64 ea 48 bd
       -0.0047853813 0.093931176 0.037590526 -0.049051657
0001d0 10 56 b3 bd b8 81 6b 3c 86 ac 0c 3d 0c a3 8e 3c
       -0.087566495 0.014374189 0.03434422 0.017411731
0001e0 75 c0 6b bd fe c2 f1 bd 8a 4b 3f 3d ca 39 d9 bd
       -0.05755659 -0.1180477 0.0467029 -0.106067255
0001f0 e3 8b b4 3d cb de d4 3d 08 53 03 3c 67 fd ea 3d
       0.08815744 0.10394057 0.008015402 0.11474114
000200 be ea 44 3d 10 30 e3 bd 6a f6 54 3d ba 6f ce bd
       0.04807543 -0.110931516 0.05199281 -0.10079904
000210 f8 62 ee bd 2f 42 71 bd aa a2 6f 3d b8 20 be bd
       -0.116399705 -0.05890101 0.058504738 -0.09283584
000220 00 4d b1 ba a6 df 1e 3d 94 3a 8f 3c 2c a2 d4 bd
       -0.0013526976 0.038787507 0.017483987 -0.10382494
000230 39 b5 86 3d 8d 10 82 3d 53 26 c0 3d 00 f5 90 bb
       0.06577534 0.06350813 0.0938231 -0.0044237375
000240 d4 1a c8 bd 33 9a de 3d e8 0e 08 bd 73 5d bb 3d
       -0.09770742 0.10869255 -0.03321734 0.091486834
000250 c6 c8 3b 3d b0 e4 82 3b af 84 e7 bd 61 cd f0 bd
       0.04584577 0.003994547 -0.11304604 -0.11757923
000260 3f 5f de 3d 0c 1c 90 bc 23 fd 8a 3d 94 e9 f8 bc
       0.108580105 -0.017591499 0.06786563 -0.030384816
000270 2e c6 df bd dc 45 d4 bd e4 ce ba bc 63 18 bf 3d
       -0.10926472 -0.10364887 -0.022803731 0.09330823
000280 c8 46 a4 bc b9 3d cb bd f5 87 a8 3d 34 8b 8e 3c
       -0.020053282 -0.09923882 0.08229057 0.017400362
000290 1a 4c 6b bd 86 b7 3b bd 59 20 d9 3d f0 69 c6 3b
       -0.057445623 -0.04582932 0.10601873 0.006055109
0002a0 32 d0 48 3d 12 30 47 bd 2d c2 7a bd 7c 33 86 3c
       0.049026676 -0.048629828 -0.061220337 0.016381972
0002b0 c6 c0 53 3d 4b 14 8f 3d 9d 46 ef 3d ca b9 c7 bd
       0.051697515 0.069862925 0.1168339 -0.09752233
0002c0 d0 bd b6 bc fb 45 d4 3d 37 3e d9 3d 04 93 83 bd
       -0.022307307 0.1036491 0.1060757 -0.064245254
0002d0 37 50 bf 3d 48 61 73 bc 27 44 f0 bd d0 7e d6 bc
       0.09341472 -0.014854737 -0.11731749 -0.026183516
0002e0 90 37 95 bc e1 fb 81 3d 40 a7 96 3b 18 fe 5b bc
       -0.01821497 0.0634687 0.0045975745 -0.01342728
0002f0 6b 71 a7 3d 98 2d 6c bc bd c0 b5 3d 28 e4 42 bd
       0.0817593 -0.014415167 0.088746525 -0.047580868
000300 98 4a 4c bc fb 6f a7 3d 76 d7 24 bd f4 54 df bc
       -0.012468956 0.081756555 -0.040244542 -0.027262188
000310 4a 07 12 3d 96 9a 7d 3d a0 24 89 3b 79 29 a0 3d
       0.035651483 0.061915003 0.0041852742 0.0782041
000320 10 9b b0 bd 00 52 2c b9 f4 28 82 3c 08 20 bc bc
       -0.08623326 -0.00016433746 0.015888669 -0.022964492
000330 c6 b3 a4 bd da 4e a8 bd 4a f5 2d 3d a1 b5 ba 3d
       -0.080421016 -0.08218165 0.042470254 0.09116674
000340 c0 e0 e7 ba c6 e1 2f 3d f4 2e b8 3c 5a 51 48 3d
       -0.0017690882 0.042939924 0.022483326 0.048905708
000350 ba 5c b2 bd 48 55 4d 3c 66 b4 b5 bd 15 00 bf 3d
       -0.087090924 0.01253254 -0.08872299 0.093261875
000360 c2 e5 3f 3d cf 2b da 3d b8 80 b3 bc 21 77 86 3d
       0.046849973 0.10652887 -0.021911964 0.06565691
000370 84 84 cf bd 47 05 a6 3d 0e 75 b8 bd 06 dc 17 3d
       -0.10132697 0.08106475 -0.090067014 0.037075065
000380 83 2f b7 3d 9b ca ab 3d 7e b2 cf bd 5c 3e 92 bc
       0.08944609 0.08388253 -0.101414666 -0.017852
000390 b6 51 57 3d 2b b3 b7 3d a0 01 11 bb 78 0e c7 bd
       0.05256816 0.089697205 -0.0022126213 -0.097195566
0003a0 e6 bb 13 bd 74 54 ab 3c 53 0c 97 3d 0f f6 e5 3d
       -0.036067866 0.020914294 0.073753975 0.112285726
0003b0 90 41 a3 bc 84 f0 b6 3c 59 a4 bf bd a8 72 89 bd
       -0.019928724 0.022331484 -0.09357519 -0.06711322
0003c0 ac 93 f3 3c ce eb 04 3d 80 3e 61 bc 35 50 a3 3d
       0.029733501 0.032451443 -0.013747811 0.07974283
0003d0 d5 73 d5 3d c4 af 0c bd 1c 09 eb 3c c4 04 e8 bd
       0.10422484 -0.03434731 0.028690867 -0.11329034
0003e0 6c b9 df bd 40 f4 51 bd ef 30 dc 3d 3a 3e 09 3d
       -0.10924038 -0.051258326 0.10751521 0.03350661
0003f0 ac cb b9 3c 68 5d cc bd 35 aa cb 3d 80 55 c4 bb
       0.022680126 -0.09978753 0.09944574 -0.0059916377

lstm.bias_ih_l0 f4 [280]
000000 d3 02 23 3f cf d1 80 3f a7 ce d3 3e 43 2f 87 3e
       0.63676184 1.0064029 0.413686 0.26403245
000010 bc fc d0 3e b1 71 36 3e 59 82 45 3f 34 1d c5 3e
       0.4081782 0.17816807 0.7715202 0.38498843
000020 ff 9a 41 3e 48 65 02 3f 63 f0 a0 3e 70 ce d0 3e
       0.18906783 0.5093579 0.314334 0.407825
000030 cd 17 57 3e 52 36 1d 3e b6 ba 04 3f d7 d5 a1 3f
       0.21005173 0.15352753 0.518474 1.2643384
000040 58 c9 86 3f 3f 04 ff 3e 95 6f bd 3e 9e 7a f3 3d
       1.0530195 0.49807927 0.36999193 0.11888622
000050 84 d3 d0 3e 93 cf 10 3f 03 61 a7 3e 83 3b 3b 3e
       0.40786374 0.56566733 0.32691202 0.1828442
000060 ad 13 87 3e 0e 6a 15 3f 26 e6 80 3e f7 3d 60 3e
       0.263822 0.5836495 0.2517559 0.21898638
000070 8e 4a 37 3f 8a bd da 3e 74 15 54 3f 0d 48 a4 3e
       0.71598136 0.42722732 0.82845235 0.3208622
000080 8b 33 20 3f 24 14 47 3f dd a7 a3 3e 21 3f 14 3f
       0.6257865 0.7776511 0.31964007 0.5790883
000090 c8 d9 03 3f 7a 37 06 3f 2f 9a ab 3e d6 2e 81 3e
       0.5150418 0.524284 0.3351607 0.25231045
0000a0 7e 8e 52 3e 24 4e 80 3e e0 5b 31 3f 37 fb b7 3e
       0.20562169 0.25059617 0.69280815 0.3593385
0000b0 61 f1 01 3e ef 87 ce 3f 18 5d 40 3e 6d c1 d0 3e
       0.12689735 1.6135234 0.18785512 0.40772572
0000c0 9e 00 4b 3f 13 8f 5b 3f b4 c3 45 3f 2d 04 8e 3e
       0.79297817 0.8576519 0.77251744 0.2773756
0000d0 98 82 bd 3e cc ad 52 3e 2f 7d 95 3e 68 51 a5 3f
       0.37013698 0.20574111 0.2919707 1.2915468
0000e0 d5 8f b7 3e bd a4 1c 3f 6c 87 3f 3f 79 9b 5a 3e
       0.35851923 0.6118887 0.7481601 0.2134837
0000f0 06 ce 20 3f 10 f2 46 3e e2 57 d3 3e 6a 35 e2 3e
       0.62814367 0.19428277 0.41277987 0.44181377
000100 20 ef c3 3e 38 91 4b 3f 3a 59 11 3f 4b d3 46 3f
       0.38268375 0.7951846 0.56776774 0.7766616
000110 b9 bc 1d 3f 1b 97 db 3e d8 8e 7d 3c 81 3b a8 3d
       0.6161609 0.42888722 0.015475951 0.082144745
000120 40 7c c7 3a 20 86 73 3b 30 67 f4 3b 32 2c e1 bd
       0.0015219525 0.0037158802 0.00745859 -0.10994758
000130 2a 1b 81 bd 4d 25 c6 3d b0 fd 58 bc 01 c3 d9 3d
       -0.06304009 0.09675083 -0.013244078 0.10632897
000140 5c cf ea bc 86 6c 3f bd 00 db c9 bd dc 96 d7 3c
       -0.02866333 -0.046734355 -0.09856224 0.026317053
000150 48 4e 56 bd a4 aa b0 3c c6 ab 80 bd ec ad 8b bc
       -0.05232075 0.021565743 -0.06282763 -0.017050706
000160 7c 77 94 3c 61 16 db bd 66 72 37 bd 89 5a c5 3d
       0.01812338 -0.10697628 -0.044786833 0.09636409
000170 28 b4 37 3c 3e 70 5c bd 80 be 0a bc 50 7c d2 bc
       0.011212386 -0.05381798 -0.00846827 -0.025694042
000180 a2 31 90 bd 8c c9 df bd 28 1c 48 bc c1 5c b8 bd
       -0.07040717 -0.10927114 -0.012213744 -0.090020664
000190 d8 a1 19 bc 50 03 85 bc 72 14 74 3d 0c 5c 63 bd
       -0.009376965 -0.016236931 0.05958981 -0.055507705
0001a0 30 dc ea bb b0 65 6e bd 42 9a 0e 3d da 7b e1 bd
       -0.0071673617 -0.058202446 0.03481508 -0.11009951
0001b0 25 1f eb bd a4 4e d6 3c 5b 34 8d 3d 61 6a b2 3d
       -0.1148055 0.026160546 0.06894752 0.087116964
0001c0 14 34 05 bd c4 0f 8b bd 56 07 d4 bd 24 6a 19 bd
       -0.03252037 -0.067901164 -0.10352962 -0.03745474
0001d0 c8 5e 89 bd 68 07 04 bc 9c 62 29 bd af 6d a7 bd
       -0.06707531 -0.008058406 -0.041353807 -0.08175217
0001e0 11 af ba bd 24 fd a6 bc 92 09 0b 3d 34 9f 89 bd
       -0.091154225 -0.020384379 0.033944674 -0.06719819
0001f0 a0 56 8a bb aa 58 1c 3d 59 2c 9e 3d 07 b5 f2 bd
       -0.0042217523 0.038170494 0.077233024 -0.118509345
000200 06 cd 13 3d 72 55 5d 3d ec 7a 9e 3c 9d 72 a8 3d
       0.036084197 0.054036565 0.019345723 0.08224986
000210 06 34 83 bd b7 45 a6 bd b4 b8 ab 3c 3e 7f 36 3d
       -0.06406407 -0.08118766 0.020962097 0.04455494
000220 ec bf bf 3c 62 08 97 bd 5e 33 b7 bd 48 53 a3 bc
       0.023406945 -0.07374646 -0.089453444 -0.019937173
000230 71 a8 ca bc 84 6a b3 ba 4a c7 54 ba aa 14 49 be
       -0.024738522 -0.001368836 -0.00081168546 -0.19636789
000240 1b 47 d8 3b e5 d6 00 be 83 9a b1 bd 19 6f 5e 3d
       0.0066002733 -0.12581976 -0.08672049 0.05430517
000250 d5 20 bc bd 62 6e a3 bc 89 7e 67 bd e3 39 d8 3d
       -0.0918595 -0.019950096 -0.056517158 0.10557916
000260 8f 87 7c 3e 26 80 5a be ee 94 1a bc 7c 1d e7 3d
       0.24661086 -0.21337947 -0.009434922 0.112849206
000270 f2 a8 1d 3c 2d 2f dd bd f9 99 58 3d db 48 fa bd
       0.009622799 -0.10800014 0.052881215 -0.12220927
000280 35 5c 25 3d 40 d3 29 be bb 8f 41 3e 32 77 63 be
       0.04037114 -0.16584492 0.18902485 -0.22213438
000290 33 fd 2c be f8 a5 3c be 10 c4 4d 3e 1d 29 1f 3e
       -0.16893463 -0.18422687 0.20094323 0.15543027
0002a0 62 17 33 bd 2c 28 c8 bd 7c 46 21 be 84 7b 70 bb
       -0.04372347 -0.09773287 -0.15749544 -0.0036694715
0002b0 66 66 a3 3d f3 d8 04 3e 9c 42 84 3b 27 b7 26 bc
       0.07978515 0.12973385 0.004036261 -0.010175503
0002c0 3f 84 a5 3d 85 ac 08 bd 09 6b 8d bc 9e a9 b1 3d
       0.080818646 -0.033367652 -0.017262952 0.0867493
0002d0 65 12 ce bc e3 c8 50 3e 35 a4 b6 bd df a8 9a 3d
       -0.025155256 0.20389132 -0.08918039 0.07551741
0002e0 17 e0 dd 3d 39 13 71 bd c6 a3 ae bd 67 29 4a be
       0.10833757 -0.058856223 -0.08527331 -0.19742356
0002f0 e8 49 72 3e 32 33 15 3e a3 e4 df bc 0a 2c 65 be
       0.23661005 0.1457031 -0.027330702 -0.22380081
000300 05 fb 54 bd 82 41 f8 bd 8d d9 1b bd 8c 7d 93 bd
       -0.051997203 -0.121218696 -0.03804927 -0.072016805
000310 87 ea b9 3b a5 1f 08 be 0d 56 7a bc 36 31 50 3d
       0.00567371 -0.13293321 -0.015279305 0.05082818
000320 f9 78 dd 3c 9f 7b 60 3e da 10 05 be a3 5b 76 3c
       0.027035223 0.21922158 -0.1299471 0.015036496
000330 5d 58 af bd f1 2b 92 bd 3e 16 0c 3e e6 52 00 3e
       -0.08561776 -0.071372874 0.1368036 0.12531623
000340 98 82 02 3e 8e eb d8 3d 80 fa 0b 3f 3a bc 84 3f
       0.1274513 0.105918035 0.5467911 1.0369942
000350 93 8e 02 3f 9b 24 67 3e fe ec bf 3e 97 ee 66 3e
       0.509988 0.22572558 0.37485498 0.22551952
000360 48 37 4b 3f 08 a9 8f 3e 5e 13 ef 3d a8 ff fe 3e
       0.7938123 0.28058648 0.11673616 0.49804425
000370 62 1c 80 3e 23 e0 ee 3e 4c da 8a 3e 91 a1 34 3e
       0.25021654 0.46655378 0.27119672 0.17639758
000380 36 d7 04 3f cc 72 8f 3f c2 de 85 3f 0e c8 c1 3e
       0.51890886 1.1206908 1.0458605 0.37847942
000390 d9 83 06 3f 05 0e 9b 3e e6 12 dd 3e dc c3 f0 3e
       0.52544934 0.30284134 0.4317848 0.4702443
0003a0 8c d7 c6 3e 43 2e 13 3e 36 23 1b 3e 51 37 13 3f
       0.38836324 0.14373116 0.1515015 0.5750628
0003b0 44 d4 a4 3e 3b 94 40 3e c4 cd 24 3f a8 fa 72 3e
       0.32193196 0.18806545 0.64376473 0.2372843
0003c0 8c eb 47 3f 29 b2 e8 3e cf 39 2e 3f 28 97 4f 3f
       0.7809379 0.45448425 0.6805696 0.8109002
0003d0 5a 74 87 3e c2 4d 37 3f 90 3a bd 3e 11 7f f0 3e
       0.26455957 0.71603024 0.36958742 0.46971944
0003e0 71 96 03 3f c7 72 a4 3e 7d 07 b9 3e c2 85 c7 3d
       0.5140143 0.32118818 0.36138526 0.09742309
0003f0 91 b9 37 3f e7 bf 63 3e ea 70 27 3e 2e d0 bd 3f
       0.71767527 0.22241174 0.16351667 1.4829156

lstm.bias_hh_l0 f4 [280]
000000 14 f2 26 3f e8 08 8b 3f 2d 1c 02 3f bd b8 c6 3e
       0.6521313 1.0862093 0.5082424 0.3881282
000010 75 16 e7 3e 1d 01 6c 3e f4 1b 46 3f 4e e2 8c 3e
       0.4513432 0.230473 0.77386403 0.27516407
000020 60 fe 75 3e c6 62 e3 3e 2f 10 8c 3e c9 90 1a 3f
       0.24022818 0.44411296 0.27356097 0.60377175
000030 dc 1c 2f 3e a8 72 2c 3e 6d 74 01 3f 7f e9 a6 3f
       0.17100853 0.16840613 0.50568277 1.3040007
000040 13 7a 79 3f d1 13 05 3f 98 32 b8 3e ab 62 6b 3e
       0.97451895 0.5198336 0.359761 0.22986858
000050 b2 55 e4 3e ad 16 42 3f e0 bb b4 3e 79 c5 2a 3e
       0.4459663 0.7581585 0.35299587 0.16676892
000060 ed 1b 3b 3e 6b 66 1c 3f 84 70 c2 3e 23 a7 b0 3e
       0.18272372 0.6109378 0.37976468 0.34502515
000070 a0 ac 22 3f 17 cd da 3e 13 ce 38 3f 94 bc db 3e
       0.63544655 0.42734596 0.72189444 0.4291731
000080 15 a6 23 3f 5e 58 4d 3f 58 6a a1 3e ed e1 06 3f
       0.63925296 0.8021296 0.31526446 0.52688485
000090 ac 6e b2 3e b4 22 b8 3e 04 93 d9 3e a2 20 9e 3e
       0.3485006 0.35963976 0.42494977 0.30884272
0000a0 62 c2 4f 3e 28 92 5c 3e 77 f6 58 3f 34 60 89 3e
       0.20288995 0.21540129 0.84751076 0.2683121
0000b0 02 d4 0b 3e bf 7c bf 3f 36 71 90 3e e9 74 12 3f
       0.13655093 1.4959944 0.28211373 0.5720964
0000c0 5d 2f 42 3f 73 de 57 3f a6 f7 48 3f 65 2a e3 3e
       0.7585352 0.84323806 0.7850288 0.44368282
0000d0 7e 82 01 3f 6c c3 0c 3e 4c b5 bf 3e 2a 75 af 3f
       0.5058974 0.13746423 0.37443006 1.3707631
0000e0 d1 f4 ce 3e 1a 92 2c 3f da 39 14 3f ab a3 cc 3e
       0.40421155 0.67410433 0.57900774 0.3996862
0000f0 b6 21 29 3f 12 99 a4 3e 4e 47 ca 3e ae 5d f2 3e
       0.66067064 0.32148033 0.39507526 0.47337097
000100 b2 0b 8a 3e 5f 14 3d 3f 40 cb 12 3f 8e 74 46 3f
       0.26962048 0.7385921 0.57341385 0.775216
000110 49 06 fa 3e 43 ec 6b 3e be 91 02 3d 2a f2 0b 3d
       0.4883292 0.23039345 0.03187727 0.034166493
000120 e3 79 eb bd 48 76 8e bc 0b f5 cd 3d 36 61 4c 3d
       -0.114978574 -0.017390385 0.10056504 0.049897395
000130 b6 15 c1 bd b5 62 bf bd a7 5a b1 3d cd 51 e8 3d
       -0.09427969 -0.09344999 0.08659869 0.11343727
000140 40 29 cd ba 28 13 24 3c 17 94 a6 3d d2 ae ac bd
       -0.0015652552 0.010014333 0.08133715 -0.08431782
000150 6e dd 28 bd 40 cd f4 bc 0e d6 82 bd bb 7f a9 3d
       -0.041226797 -0.029883027 -0.06388484 0.08276316
000160 1c 25 63 bd e0 e8 c8 bc 6a ab 2d bd 16 c0 0e 3d
       -0.055455312 -0.024525106 -0.0423998 0.034851156
000170 59 3d ed 3d c8 05 9b bc ef 04 9e 3d 97 e2 8f 3d
       0.11583967 -0.018923655 0.07715785 0.070256405
000180 70 34 71 bd 50 bc 4b bd 73 48 a3 3d 38 46 ed bd
       -0.0588879 -0.049740136 0.07972803 -0.11585659
000190 c0 18 9c 3a da 2b 38 bd 03 9c d0 3d 06 d5 b1 bd
       0.0011909232 -0.044963695 0.10186007 -0.08683209
0001a0 ec 3e de bd ba d4 02 3d c8 38 62 3c 99 80 e7 3d
       -0.10851845 0.031941153 0.013807483 0.11303825
0001b0 d8 99 d2 bd 17 eb f3 bd 71 f0 d8 3d 20 75 3d bd
       -0.102832496 -0.11910074 0.105927356 -0.046254277
0001c0 c4 bd b1 3c d8 01 2e bd 04 9f 37 bd 32 72 4c 3d
       0.021696933 -0.042482227 -0.044829383 0.049913593
0001d0 b8 1e 52 3c 18 b7 bb bd 70 0c e2 bb ee 60 3c 3d
       0.012824707 -0.09165782 -0.0068984553 0.045990877
0001e0 a2 26 03 3d 26 2b 2c 3d 5b 8b 9a 3d 3a 92 99 bd
       0.032019265 0.042033337 0.07546111 -0.07498594
0001f0 da f5 6d 3d d4 d3 ce bd e8 1a a4 bd f7 d2 96 3d
       0.05809579 -0.10098997 -0.080129445 0.07364457
000200 45 a1 a4 bd 3a 75 96 bd 80 8f f2 ba 63 f2 bc 3d
       -0.08038572 -0.07346578 -0.0018505901 0.09225919
000210 a9 00 b0 bd a0 31 ad bd 88 5f 19 3c c7 20 d5 3d
       -0.08593876 -0.08456731 0.009361155 0.104066424
000220 60 1d a4 3b 86 ef e8 bd 14 61 ac 3c e8 59 10 bc
       0.0050083846 -0.113738105 0.021042384 -0.008810498
000230 e2 b3 e3 bd 7a 21 b8 bd c5 7f c9 3c a2 90 4e bd
       -0.11118294 -0.0899076 0.024597058 -0.0504309
000240 3e ed 1e be 1c 49 d5 bd b8 ac 87 3d 74 a2 c8 3d
       -0.15520188 -0.10414335 0.0662474 0.097966105
000250 3b 0f f1 bd 04 32 db 3d e3 a8 3a be 24 8e 09 3d
       -0.11770483 0.10702899 -0.18228488 0.03358282
000260 2f 95 15 3e 28 23 34 be 49 17 91 3d e8 8f 46 bd
       0.1460769 -0.17591536 0.070845194 -0.048477083
000270 47 28 a1 bb 8f d3 ab bd 49 22 b5 3d c2 50 f6 bc
       -0.0049181315 -0.08389961 0.0884443 -0.030067805
000280 fa fa d5 bd f3 20 0b be 2c a2 79 3e 4b 04 f8 bd
       -0.104482606 -0.13586788 0.2437827 -0.12110194
000290 fc 1d f6 bd 08 d4 83 be 7f e6 60 3e 8e 9c f1 3d
       -0.12017438 -0.25747705 0.21962927 0.117974386
0002a0 01 cb c2 bd 4d fd 67 3d 00 76 2e 3d c3 18 d7 bd
       -0.09511376 0.05663805 0.042593002 -0.1050277
0002b0 77 3b 5e 3e c6 9d 9b 3c e9 43 6d bd 08 a6 e2 3d
       0.21702372 0.01899613 -0.057926092 0.11066824
0002c0 ee bb f9 bd fe e9 99 bc df 67 2c bd b1 51 39 3d
       -0.12194048 -0.018788334 -0.042091247 0.045243923
0002d0 f9 f9 d2 bc 27 2b 82 3d de 8c 4b 3c 92 71 63 3d
       -0.025753962 0.06355887 0.012423722 0.05552823
0002e0 5b 09 04 3e fa ba c6 3c d2 7f 8c bc 3c 8c 7a 3c
       0.12894194 0.02425908 -0.017150793 0.015292224
0002f0 f1 31 1c 3e 52 90 07 3e b8 a9 b6 bd 3d 21 21 be
       0.15253426 0.13238648 -0.0891909 -0.15735336
000300 3e 99 45 be 10 cb b1 bd 45 64 24 be ca c4 10 be
       -0.19296739 -0.08681309 -0.16053875 -0.14137569
000310 54 cd 25 3e 67 fd 2c be be 3d 6e 3b 54 59 8d 3b
       0.16191608 -0.1689354 0.003635272 0.0043136273
000320 fc fb 14 3d 12 9c e9 3d 26 e6 c6 bd 20 db de bd
       0.036373124 0.11406721 -0.09711866 -0.108816385
000330 40 51 b6 bc ed e6 0b 3d 5f 74 c6 3d 7d 0c e9 bc
       -0.02225554 0.034155775 0.09690165 -0.028448338
000340 3d e7 de 3d 5c 24 1d 3d 28 74 26 3f 7e 16 66 3f
       0.10883949 0.038364753 0.6502099 0.8987807
000350 57 6b ff 3e 3c 08 11 3e 23 db bf 3e 34 ed 8c 3e
       0.4988658 0.14163297 0.37471876 0.27524722
000360 b2 aa 50 3f 93 19 cc 3e ce 2f 97 3e 29 b6 e8 3e
       0.8151046 0.39863262 0.2952866 0.45451477
000370 d1 bb aa 3e 5b 2c da 3e d4 a4 4c 3e d2 2e 3a 3e
       0.33346418 0.42611966 0.19984752 0.18181923
000380 61 af 17 3f f3 bb 95 3f 6d 35 7f 3f 02 56 ef 3e
       0.5925198 1.1697983 0.99690896 0.46745306
000390 7d 5f bd 3e 46 c3 3e 3e 93 f6 ff 3e 8b b3 2e 3f
       0.36986914 0.18629178 0.4999281 0.6824271
0003a0 92 aa 93 3e ac 25 2e 3e a4 5f 82 3e 75 ea 36 3f
       0.28841072 0.17006558 0.25463593 0.71451503
0003b0 56 ac af 3e 6a 23 88 3e 54 52 18 3f bd 57 98 3e
       0.3431117 0.2658952 0.5950062 0.2975444
0003c0 3f d6 48 3f 6a d0 9e 3e be 35 1e 3f 3e 99 4f 3f
       0.78451914 0.31018382 0.61800754 0.81093204
0003d0 4c 6c a5 3e 57 98 00 3f 38 4c bc 3e 35 14 ff 3e
       0.32309186 0.5023245 0.367769 0.49820104
0003e0 8a c9 be 3e b8 2c b7 3e 8c cc a0 3e b0 6a 84 3e
       0.37263137 0.35776305 0.31406057 0.25862646
0003f0 c1 47 4b 3f cf 55 b9 3e c9 fb 74 3e 3e 14 c1 3f
       0.7940636 0.3619828 0.23924173 1.5084302

lstm.weight_ih_l1 f4 [280, 70]
000000 c3 1e 1c be 09 fd 0b bd 55 e7 a2 3e 70 10 4c be
       -0.1524611 -0.03417686 0.31817117 -0.19928145
000010 f6 8b ee be 4c 12 6c be 79 0d 12 3f 67 02 24 3e
       -0.46591157 -0.23053855 0.5705181 0.16016541
000020 10 be cf bd e4 9c 88 3e c5 cc 1d be 5a c5 59 3e
       -0.101436734 0.26682198 -0.15410145 0.2126669
000030 dd 2b 82 3e db 5b f0 bd 73 07 2e 3c cc 9d 99 bc
       0.2542409 -0.1173627 0.010621893 -0.018752001
000040 ae 24 c3 be ca e7 0f 3e 8f 12 ef 3e 65 48 4a be
       -0.38113922 0.14053264 0.46693847 -0.19754179
000050 39 a5 ac 3e 7b 81 6f 3e 7b df 42 3e 18 c0 d7 be
       0.33719805 0.23389237 0.19030564 -0.42138743
000060 ef f5 a3 bd b1 e5 5f 3e cc e6 c2 3e a3 bd 08 bd
       -0.080058925 0.21864964 0.3806671 -0.033383977
000070 12 af 2b 3e eb 41 1c be d9 d4 a6 bd aa 94 b8 3d
       0.16766003 -0.1525952 -0.08146066 0.090127304
000080 ed 60 a5 be d0 f0 af bd ec bd 7f be 7d 56 ab be
       -0.3230051 -0.08590853 -0.24974793 -0.33464423
000090 cc 9b c2 be c1 c9 4a be 17 ec 3b be 4a f7 89 3e
       -0.3800949 -0.19803526 -0.1835178 0.2694648
0000a0 e8 2e 53 be 1d 30 b1 3e c5 de f9 bd e5 4d 4e 3e
       -0.20623362 0.3460702 -0.12200693 0.20146902
0000b0 0a 26 26 3e b7 c7 9c 3e 6b 52 4c bd 8e 6f 49 3e
       0.16225448 0.3062112 -0.049883287 0.19671461
0000c0 fb 07 04 be 79 cd 31 be b3 fd ff 3e 3f 92 4a be
       -0.1289367 -0.17363538 0.49998245 -0.19782351
0000d0 b4 8c 0e be ed 22 1e be f9 b6 04 be ac 72 38 3e
       -0.13920861 -0.1544301 -0.12960424 0.18012494
0000e0 07 1b 55 3e 59 e1 bf be 15 9d 89 be ce 07 b6 3e
       0.20811091 -0.37476614 -0.26877657 0.3555283
0000f0 10 7b cd be 02 1e 95 3d 7c 85 da be 85 2c a1 3d
       -0.40132952 0.07281114 -0.42679965 0.078698196
000100 47 65 56 be 3f 5f 03 3e fe 77 0f 3e 31 a3 c8 be
       -0.20937072 0.12829302 0.14010617 -0.39187005
000110 02 e0 0d bf 4e cb 25 3e a6 ee 40 3e da b1 11 3f
       -0.55419934 0.16190836 0.18841037 0.56912005
000120 13 23 5a 3d 91 c8 cd be 3c e0 5a be 02 1a 12 bf
       0.053256106 -0.40192083 -0.21374601 -0.57070935
000130 96 91 dc bc ab 8c c0 3d 29 c2 1f 3b 5d 87 87 3e
       -0.02692489 0.0940183 0.0024377203 0.2647046
000140 70 47 84 bf 7b a7 d4 bd eb b3 ea 3d 2c 78 d5 bd
       -1.0334301 -0.10383507 0.11460098 -0.104233116
000150 4b a4 56 be 01 5c 70 bf f8 e7 ab bf 4a c4 8d be
       -0.2096111 -0.93890387 -1.3430166 -0.2768882
000160 5b 2c 02 3e ac 46 7c be b2 50 2a be 24 10 4c 3c
       0.12712233 -0.24636334 -0.16632345 0.01245502
000170 52 d0 c4 3c 9d 55 3b bd c2 34 c6 be 9d d7 3b 3d
       0.024025116 -0.045735944 -0.38712126 0.04585992
000180 ff 4e 8d 3e 1b d2 37 3f 3f e5 01 be 65 60 b9 be
       0.27599332 0.7180497 -0.12685107 -0.36206356
000190 9c bc 4e bf 35 d3 60 bf 80 2c f1 3e fe 76 06 bd
       -0.80756545 -0.87822276 0.47104263 -0.032828324
0001a0 80 8c 55 be 57 d7 d8 3e 62 bf df be 73 6d 72 3e
       -0.20854378 0.4235179 -0.437007 0.23674564
0001b0 8e 45 ca be c1 7c a6 3e b2 b8 aa be 67 60 1c bd
       -0.3950619 0.32517055 -0.33344036 -0.038177874
0001c0 58 49 9d be 39 49 59 3e 85 5c 10 3f 02 c3 7e 3f
       -0.3072002 0.21219338 0.56391174 0.9951631
0001d0 35 79 47 bf 5d 48 99 be c3 bd 3f 3f d1 af 61 3f
       -0.7791932 -0.2993802 0.7489893 0.881589
0001e0 9e 01 29 be a0 f8 3f bf 24 55 06 3e 56 7b 89 bf
       -0.16504523 -0.74988747 0.13118416 -1.0740764
0001f0 b6 f9 99 bf 70 3c 3e 3f 94 be 79 3e 81 70 fc be
       -1.2029331 0.7431097 0.24389106 -0.49304584
000200 dc 1d c7 3e 92 4f da 3e 64 7e 54 3e 82 12 cd bd
       0.38889968 0.42638832 0.20751339 -0.10013296
000210 02 76 f8 be fe 9e 55 bf 3d c4 58 3e f8 48 98 be
       -0.48527533 -0.8344573 0.21168609 -0.2974317
000220 e9 b4 d5 bd b0 58 ed 3e 34 e1 7f 3e b5 06 52 3f
       -0.104348965 0.46356726 0.24988252 0.82041484
000230 5b bc 84 be 64 57 79 bd 4c bb a9 3d cf 47 8e be
       -0.25924954 -0.060874358 0.08287677 -0.2778916
000240 23 4e ad 3c 76 1f 87 be 92 6e 83 3e 35 34 12 3e
       0.021155423 -0.2639119 0.25670296 0.14277728
000250 6b b3 28 bd 35 33 5e 3d 0a b9 0f be 58 9e a2 3e
       -0.04118673 0.054248054 -0.1403543 0.31761432
000260 c2 74 0b 3d f2 bd 9a bd dc 52 1b 3e 77 fd 81 bd
       0.034046896 -0.075557604 0.15168327 -0.06347173
000270 45 00 2d be e5 ba 3d be 13 a9 11 3e f3 87 3d be
       -0.16894634 -0.18528326 0.14224653 -0.18508892
000280 55 82 86 be e9 04 77 3e cf cd b9 3d 14 1c 05 be
       -0.2627131 0.24122967 0.09072458 -0.12998992
000290 f5 67 b2 bd 42 f9 96 3e 4e 4d 7f 3d 82 34 ad 3d
       -0.087112345 0.29487044 0.062329583 0.08457281
0002a0 47 df 83 be a2 62 5a be 22 98 af 3d b5 51 83 bd
       -0.25756285 -0.21326688 0.08573939 -0.06412069
0002b0 df 2a 94 3c 92 3a ff 3c 0b 03 06 be d8 95 3f be
       0.018086849 0.031155858 -0.13087098 -0.18709505
0002c0 cb 41 83 be ab 49 bc bd 8a e0 c4 be 84 5b 76 3e
       -0.25636134 -0.091937385 -0.3845256 0.24058348
0002d0 d9 eb ba be 7f b7 1e 3e dc 80 b3 be 18 c6 cd 3d
       -0.36508062 0.15499686 -0.3505925 0.10047549
0002e0 df d9 37 3e ad 7d ab 3e 5b 7d 13 bb de ec f2 3d
       0.17954205 0.3349432 -0.0022505138 0.11861585
0002f0 4f b6 e0 bd 46 6c bb 3d 58 1b 8e bb d8 29 4a be
       -0.109722726 0.09151511 -0.0043367557 -0.19742525
000300 c5 40 5a be 7e de bd be 19 61 3b be 89 39 66 3e
       -0.2131377 -0.3708381 -0.18298759 0.22482885
000310 33 a8 5a 3e 4c 58 28 be 2e a0 3e be 85 8f fd 3d
       0.21353225 -0.16439933 -0.18615791 0.1238089
000320 14 69 f6 bd 5c 5e 51 3d be 1b 74 be b8 c1 91 bc
       -0.12031761 0.05111538 -0.23838708 -0.017792568
000330 ea ee 46 be e9 85 8e be 00 c6 da 3d df 67 45 bd
       -0.19427076 -0.2783654 0.10682297 -0.048194762
000340 31 0c b4 3d fa 64 30 3e 56 e0 ce bc 7b 3c 31 3e
       0.08791388 0.1722602 -0.025253456 0.17308228
000350 49 18 14 be 4f c2 b6 3d 02 64 9d bd a0 e8 da bb
       -0.14462389 0.0892378 -0.076850906 -0.006680563
000360 c3 b5 d6 be 3e 97 87 bb cf 33 8a 3e 74 e4 5c be
       -0.41935548 -0.0041379025 0.26992652 -0.21571523
000370 f5 73 72 be 8a ae 18 3e 7d 85 1f be 04 a8 f5 3d
       -0.23677047 0.14910331 -0.15578265 0.11994937
000380 cc 4e 54 3e e6 f9 e7 bd 6a 88 51 bc 57 39 92 be
       0.20733184 -0.11326961 -0.012788871 -0.28559372
000390 8b a9 cb be be 29 b1 3d 37 44 cf bc bc 44 41 3f
       -0.3977779 0.0865054 -0.025301082 0.75495505
0003a0 ae f5 9b bc df a1 95 3d c0 15 89 be 94 82 56 3f
       -0.019038048 0.07306265 -0.26774406 0.83792996
0003b0 a2 79 91 bd f6 0e a1 3e 2a 53 32 be b0 70 cc 3e
       -0.07103278 0.31456727 -0.17414537 0.39929724
0003c0 12 38 17 bf 33 90 f6 be 9d dd 4f 3f 4e 7b d5 3e
       -0.5906993 -0.4815689 0.8119753 0.41695637
0003d0 3a 91 3d bd f5 a8 3b 3f 74 4c 99 3e 74 b0 ee 3e
       -0.046281077 0.7330468 0.29941142 0.46618998
0003e0 ff 08 dc 3e 39 07 17 be 30 fe 74 3e f1 fe 9f be
       0.42975613 -0.14748849 0.2392509 -0.31249192
0003f0 af 37 69 3e 79 60 12 be 64 2c 62 3e 70 67 28 be
       0.22775148 -0.14294614 0.22087246 -0.16445708

lstm.weight_hh_l1 f4 [280, 70]
000000 db 2c ce 3d 94 bf a6 bd 1a 26 68 bd 2a 0b 35 3d
       0.10067149 -0.081420094 -0.05667696 0.0442001
000010 00 9c a9 3b c2 b8 1b 3d e6 20 2c bd d4 81 e0 3c
       0.0051760674 0.038017996 -0.042023562 0.027405657
000020 98 e9 d4 bc 41 56 d8 3d 9d 23 c9 3d e5 5f 89 3d
       -0.025990292 0.105633266 0.09821246 0.067077436
000030 df 5e a8 3d 25 42 be 3d b8 41 28 bc 80 9c 9f bc
       0.0822122 0.0928996 -0.010269575 -0.019483805
000040 17 a7 c0 3d 48 57 96 bd d8 d7 b8 bc d8 04 55 3c
       0.0940687 -0.07340866 -0.02256386 0.013001643
000050 a2 8b 00 3d 9f 7d ab bd 3a d0 4d 3d ea 19 6f bd
       0.031383164 -0.0837357 0.05024741 -0.058374323
000060 00 f2 09 bc 98 03 ab bd 32 4a 2e bd c0 5b b2 bd
       -0.008419514 -0.08350295 -0.042551227 -0.08708906
000070 2f 39 8a 3d 34 15 bf bd 79 f5 9f 3d 5f 50 f1 bd
       0.06749188 -0.09330216 0.07810492 -0.11782908
000080 3a f6 27 3d 18 7d ab bd 60 55 3b 3b 08 5f 29 3c
       0.041006304 -0.08373469 0.0028584823 0.010337599
000090 95 ac e9 3d 7a 1a 3c bd ff d3 de bd 89 95 94 3d
       0.114098705 -0.045923688 -0.10880279 0.07255084
0000a0 62 24 5b 3d 34 42 63 bd ed 08 f1 3d 48 de 9b bd
       0.053501494 -0.055483058 0.117692806 -0.07610756
0000b0 0b fa a8 bd b9 c3 bb 3d 8c 72 ae bd dc 93 de 3c
       -0.08250817 0.091681905 -0.08517942 0.027170114
0000c0 6c 69 68 bd c9 e9 d2 3d 95 27 db bd 29 0e e4 3d
       -0.056741163 0.10298497 -0.10700909 0.11135513
0000d0 96 92 75 3d 2c 1d 97 bd 4a d0 d8 bd 76 89 7a bd
       0.05995425 -0.07378611 -0.10586603 -0.06116625
0000e0 5e bc c2 bd 72 f4 27 3d e8 a1 0f bd 97 f7 c2 bd
       -0.095085844 0.041004606 -0.035066515 -0.0951988
0000f0 48 17 55 3c 12 c3 51 bd e4 df e8 bd 4b 3d b3 3d
       0.013006039 -0.051211424 -0.11370829 0.08751925
000100 8c 08 a1 bd 2c 33 ca bd 2b cf d8 3d e0 c5 77 bb
       -0.07862958 -0.098730415 0.10586389 -0.0037807152
000110 71 8a ef 3d e0 ec 9d bb f8 2d e8 bc 4c 40 eb 3c
       0.116963275 -0.0048194975 -0.028342232 0.028717183
000120 32 a6 64 3d a0 c5 1f bb c4 53 d2 3c 80 cf a8 bb
       0.05582256 -0.0024379268 0.025674708 -0.005151689
000130 81 d3 6f bd f2 4d 89 bd b2 0b a6 bd 6c de 51 bd
       -0.058551315 -0.0670432 -0.081076995 -0.05123751
000140 75 6c 85 3d 0c 5e c9 3c 06 44 63 bd 43 4e ae 3d
       0.06514827 0.024580978 -0.055484794 0.08511021
000150 ec 9f cd bd 2a 25 57 bd 40 09 b9 bd 7b df e4 bd
       -0.10040268 -0.052525677 -0.090349674 -0.11175438
000160 62 38 e0 bd 0a 67 0d bd 91 43 73 bd 8f a8 d8 3d
       -0.10948254 -0.034522094 -0.05939061 0.10579025
000170 b4 32 98 bd 44 17 9d 3c ae 32 a3 bd a8 d0 32 bc
       -0.07431546 0.019176133 -0.07968651 -0.010914005
000180 6f 42 79 bd 86 8f 01 bd 88 7c 7c bd d0 6d 8a bd
       -0.06085437 -0.031631015 -0.0616422 -0.06759226
000190 cc 5b fe 3c 6c 30 a0 3c 51 01 86 3d 97 36 90 3d
       0.031049632 0.01955434 0.0654322 0.07041662
0001a0 58 6f b6 bc a3 6c e9 3d f6 98 23 bd 0a 47 c0 bd
       -0.02226989 0.11397674 -0.039940797 -0.093885496
0001b0 e6 27 3b 3d 05 8f 90 bd e8 92 20 bc e8 74 5b 3c
       0.045692347 -0.07058529 -0.00980065 0.013394572
0001c0 69 17 82 3d 40 b1 92 3b 96 40 44 bd 30 e9 da 3b
       0.063521214 0.0044766963 -0.047913156 0.00668063
0001d0 08 55 0b bc d9 1f b4 3d ae a3 3f bd f0 4b f3 bb
       -0.00850416 0.08795137 -0.046786956 -0.007424824
0001e0 1d c6 94 3d 40 7a 07 bb ee 70 48 bd c0 dd 73 bd
       0.072643496 -0.0020672232 -0.048935823 -0.05953765
0001f0 9a e1 35 3d f4 5c 27 bd 2f b4 c4 bd ec 61 d6 3c
       0.044404604 -0.04086013 -0.0960468 0.02616974
000200 e2 a5 f2 bd 3d 40 e9 3d e9 8a f2 3d bf 56 c9 3d
       -0.11848046 0.113892056 0.11842901 0.09830999
000210 02 d3 31 3d 55 3a 96 3d c0 02 5b bb 3c 0f 99 3c
       0.043414123 0.07335345 -0.0033418387 0.018684022
000220 e0 bb 28 bc 17 e6 88 3d a6 75 9d bd 2e 08 79 3d
       -0.010298699 0.06684511 -0.07688455 0.060798816
000230 14 57 e9 bc b2 6f d0 bd 88 c3 12 bd 25 1c c6 3d
       -0.028483905 -0.10177554 -0.035831004 0.09673337
000240 bb f2 a6 bd 56 f2 66 3d 66 4e 41 3d 99 0e a7 3d
       -0.08151766 0.056383453 0.047193907 0.08157081
000250 ce 44 30 3d 5b 89 7a bd 25 63 d7 bd 8e 79 6d bd
       0.043034367 -0.06116615 -0.10516957 -0.05797725
000260 33 fd bb bd 34 62 7c bd f6 53 2a bd 21 9c d2 bd
       -0.09179153 -0.06161709 -0.041583978 -0.102836855
000270 28 74 01 3c 5e d0 96 bd 88 46 1d 3c cc 3f fb bc
       0.007901229 -0.07363962 0.0095993355 -0.03067007
000280 4b af d1 3d 20 92 cb bc 84 f5 dc bc 7d c4 cf bd
       0.102385126 -0.024849951 -0.02697254 -0.10144899
000290 ee 85 3a 3d 4a f3 18 3d 39 77 ae 3d d1 9e db bd
       0.04553788 0.037341394 0.08518834 -0.10723651
0002a0 b4 ef ca 3c fd cd 96 3d 84 d7 8e 3c 44 58 cb 3c
       0.024772502 0.07363508 0.01743675 0.024822362
0002b0 3f 05 a0 3d 90 2c 60 bd 00 fc df 39 d6 5f 8b bd
       0.078135006 -0.054729998 0.0004272163 -0.06805389
0002c0 28 14 0c bc bc 67 c4 3c b0 ab 22 bc 3f 68 94 bd
       -0.0085497275 0.023975246 -0.009928629 -0.07246446
0002d0 97 42 b2 3d ba 1d 70 bd 56 7e 2e 3d 53 ea ef bd
       0.08704107 -0.0586221 0.042600952 -0.11714616
0002e0 fc 97 d7 bd 10 26 6c bc 48 e5 c3 bc ab 27 9c bd
       -0.105270356 -0.014413372 -0.02391304 -0.076247536
0002f0 80 07 c8 3a 73 a5 c0 3d a0 3f 51 bc 4e 55 3f bd
       0.0015261024 0.09406557 -0.012771517 -0.046712212
000300 96 83 d9 bd 65 30 9a bd 00 ca 2d 3b 92 37 16 bd
       -0.10620801 -0.07528762 0.0026518106 -0.03667409
000310 c8 e0 ae bd 3b 69 9d 3d 90 f9 98 bd 8e 03 76 bd
       -0.08538967 0.07686087 -0.07469475 -0.060061984
000320 b6 1b 4a 3d 80 82 c5 bb 18 59 05 3c 62 bb 41 bd
       0.049342833 -0.0060275197 0.008138917 -0.047297843
000330 fb f3 a9 3d 65 47 97 bd 7b a2 e1 3d c0 38 18 bb
       0.08298489 -0.07386664 0.11017319 -0.0023227185
000340 bc b9 89 3c 68 e9 52 3c 61 26 a6 3d 53 6c d5 3d
       0.016812198 0.012873031 0.08112789 0.10421052
000350 08 65 5f 3c 3e b8 4e bd 30 3f 8b bc 47 ed b3 3d
       0.013634928 -0.050468676 -0.016997904 0.087854914
000360 d7 cf 88 3d 0c 02 cc 3c f0 cb e2 bc 20 00 85 3b
       0.06680267 0.02490332 -0.027685136 0.004058853
000370 54 13 13 bd 59 ea 82 3d 01 c6 f4 bd 81 77 9f 3d
       -0.035907105 0.063923545 -0.11951829 0.077864654
000380 f4 92 9e 3c d6 ff ae bd d9 2d a1 bd 92 46 48 3d
       0.019357182 -0.085448906 -0.07870073 0.048895426
000390 17 be bb 3d fa d5 40 3d 06 9c 55 bd b8 e7 9c bc
       0.09167116 0.047079064 -0.05215075 -0.01915346
0003a0 58 bd 38 bd d8 b7 45 bc 30 e7 fe 3b ac 7e 44 bd
       -0.045102447 -0.012067758 0.0077790245 -0.047972366
0003b0 fd b9 df 3d 84 6c bd 3c 21 66 d0 bd 47 68 b3 3d
       0.10924146 0.023123033 -0.101757295 0.08760124
0003c0 e8 6d b9 bc f3 a1 d8 bd 9c 26 e4 3c f8 51 5a 3c
       -0.022635415 -0.10577764 0.027850442 0.013325207
0003d0 b4 6d 17 bd ab 81 a4 3d 66 39 01 3d a0 9d 4a bb
       -0.036969855 0.08032545 0.03154888 -0.0030916706
0003e0 76 b1 ad bd e3 42 b8 3d 20 c8 7d 3b 50 11 6e bc
       -0.084811136 0.08997133 0.003872402 -0.014530495
0003f0 14 66 24 bd 88 6b 1d bc 50 c8 e2 3b 18 4e 8c bd
       -0.04013641 -0.009608157 0.0069208518 -0.06850833

lstm.bias_ih_l1 f4 [280]
000000 80 81 67 3e c4 6e b7 3e 9f 35 8c 3e 21 bb 99 3c
       0.22607994 0.35826695 0.2738466 0.018765988
000010 6a c5 43 3e c6 85 00 3e 66 f1 6e 3d c1 dd 6e 3f
       0.19118276 0.1255103 0.058335684 0.9330712
000020 2c 8a a9 3e e3 a1 e4 3e 1f b8 8e 3e d0 3f 9e 3e
       0.3311323 0.4465476 0.27874848 0.3090806
000030 8e 23 e9 3e fe d6 ab 3c 64 55 1a 3e 48 ff 33 3f
       0.4553494 0.02097654 0.15071636 0.70311403
000040 57 57 e5 3e 66 8c 4c 3e ab 9a 97 3e f3 ee cc 3e
       0.44793198 0.19975433 0.2961019 0.40026054
000050 70 ae 44 3e 55 bb 61 3e fd ee 40 3e 74 fe b4 3e
       0.19207168 0.22044118 0.18841167 0.35350382
000060 ec 35 cc 3e 44 06 6e 3e 4e fa 18 3f f1 85 19 3f
       0.3988489 0.23244578 0.59756935 0.59970003
000070 2a 13 d2 3e 21 5a 66 3e 55 b2 fe 3e 59 5b 21 3e
       0.41030246 0.22495319 0.49745432 0.15757503
000080 6c 53 2f 3e 65 64 a5 3e d4 0a 93 3e 1e 32 b1 3e
       0.17121667 0.32303157 0.287192 0.3460855
000090 a5 a7 a8 3e fc 96 91 3e 8f b2 1d 3d 4e 1d 8c 3e
       0.32940403 0.28435504 0.038500365 0.27366108
0000a0 85 0b 9f 3e 11 37 5b 3e 92 03 0f 3f 92 78 0f 3e
       0.31063476 0.21407725 0.5586482 0.14010838
0000b0 63 79 c8 3d 09 4c 3e 3e 75 72 6b 3d cf 8b b4 3e
       0.09788778 0.18583693 0.0574822 0.35262915
0000c0 bc ac 8e 3e 6b 0d 02 3f 5e 09 13 3f 9f 84 03 3f
       0.2786616 0.50801724 0.5743617 0.5137424
0000d0 d2 12 86 3e b3 2a 07 3e 83 48 41 3e f9 5f 94 3e
       0.26186234 0.13199882 0.18875317 0.2897947
0000e0 f2 b7 de 3d c4 c0 99 3e b4 cb c9 3e 5e f2 d3 3e
       0.108749285 0.3002988 0.39413226 0.4139585
0000f0 27 18 0d 3f bd 41 da 3e f6 a4 1a 3f 45 63 0f 3f
       0.5511498 0.4262828 0.6040796 0.5601085
000100 81 1b 84 3e 85 a1 04 3e 52 53 8a 3e 20 ca fd 3d
       0.25802234 0.1295224 0.27016693 0.12392068
000110 c5 31 a2 3e 20 0b 26 3d fa b8 f4 bd cd bb 95 3d
       0.31678596 0.040537953 -0.11949344 0.07311211
000120 87 b7 f0 3d e8 57 22 3c ad a0 a2 3d 5c 1a c0 bd
       0.11753755 0.009908654 0.07940803 -0.09380028
000130 c4 6d 3c bd cc 6e 2c bd b0 11 f9 bc 62 9f 23 bd
       -0.04600312 -0.04209785 -0.030403942 -0.03994692
000140 85 34 df 3d 2e 7b 91 bd 9c ca a8 bd 1b 44 b9 bd
       0.10898689 -0.07103573 -0.0824177 -0.09046193
000150 f1 32 dc 3d 20 58 75 bc b5 24 d3 3d 1c b1 f3 3c
       0.10751904 -0.014974624 0.10309736 0.029747538
000160 07 1c ae 3d 58 af 74 3c 63 ea ed bd 20 49 ea bd
       0.085014395 0.014934383 -0.11616971 -0.11439729
000170 7f 50 a0 3d 36 0e 35 3d 1a cf 22 bd 74 b6 c6 3c
       0.078278534 0.044203006 -0.03974829 0.024256922
000180 f4 fb ca 3c 80 ee 02 bd d0 7b 81 bd 5f 3b ca 3d
       0.024778344 -0.031965733 -0.063224435 0.098746054
000190 c5 04 86 3d a1 bb dc bd fa 73 a4 bd 17 aa c6 3d
       0.065438785 -0.10777975 -0.08029933 0.09700411
0001a0 ef 5f c8 bd 96 7e 38 3d fc d4 de bd 4e 44 3e 3d
       -0.09783923 0.045042597 -0.10880467 0.04645186
0001b0 30 75 89 3b ba f7 4a 3d 90 5b eb 3b 5d f0 ac 3d
       0.004194878 0.049552657 0.007182546 0.08444283
0001c0 cc ca 8f 3c 2b f4 a1 3d 20 a2 7e bd 76 8b 16 3d
       0.017552756 0.079078995 -0.062166333 0.036754094
0001d0 f4 0d b3 bd f4 ea ea bd b2 9b 2d 3d 93 00 ca bd
       -0.08742896 -0.11470595 0.04238481 -0.09863391
0001e0 db f9 ea 3d 3a ba 83 bd 63 1e d7 3d 66 1b ca bd
       0.114734374 -0.06432004 0.10503843 -0.09868507
0001f0 fa 5b 54 bd 6b 68 b1 3d 15 cf a6 3d 21 a9 c1 3d
       -0.05184553 0.08662494 0.081449665 0.09456087
000200 54 b7 9b 3c 56 58 95 bd 09 2e b4 3d da 79 3a 3d
       0.019008316 -0.07292239 0.08797843 0.045526363
000210 16 1f 27 bd 6d e8 b1 3d 8a 60 c4 bd f6 dd 10 bd
       -0.04080113 0.0868691 -0.09588726 -0.03536793
000220 49 2f f0 3d 98 40 a4 bc 5e 5e 2e 3d d0 bd a7 3b
       0.11727769 -0.020050332 0.042570464 0.005119063
000230 7f 2e b3 3d ee c3 c3 bd 9a ea eb 3d 6e 19 29 3d
       0.08749103 -0.09558855 0.11519356 0.041284017
000240 21 f2 07 3d e0 0b 9d 3d 8c dd 74 bd 83 53 ef 3c
       0.033189896 0.076682806 -0.059781596 0.029214626
000250 7b 89 57 be 15 b0 c6 bd 9d 6a cb 3c 00 de 76 be
       -0.21048538 -0.09701554 0.02483111 -0.24108124
000260 c6 98 b6 3d 27 19 1d 3c 7f dd 51 be 79 96 6d 3c
       0.08915858 0.009588516 -0.2049465 0.0145012075
000270 ed 50 ff bd c6 a3 a2 bd 34 3c f1 bd 57 93 9d bd
       -0.12466607 -0.079413936 -0.11779061 -0.076941185
000280 2a d1 36 be c8 52 33 be b6 2f 3a be d2 96 a3 bb
       -0.17853227 -0.17512047 -0.18182263 -0.0049923444
000290 af fc 04 bd b6 69 61 bd 61 1a 8c 3d d7 ba bb 39
       -0.03246754 -0.055032454 0.06840969 0.00035806626
0002a0 45 f8 a2 3c aa 91 04 bd e1 37 f3 bd 0a 73 45 bd
       0.019893775 -0.03236548 -0.118758924 -0.048205413
0002b0 9d 7b 8c 3b cb e6 bb 3d 86 59 0e be 20 b1 33 bd
       0.004287197 0.0917488 -0.13901338 -0.04387009
0002c0 71 b4 69 be ff 70 61 be d3 26 31 3e f4 38 88 bd
       -0.22822739 -0.22015761 0.17299967 -0.06651488
0002d0 12 72 02 be 73 f7 12 be 8b da dc 3c ba a6 db 3d
       -0.12738827 -0.14352207 0.026959678 0.1072516
0002e0 ba 56 af 3d 3c 4d 2c be 53 56 0a 3e 62 52 13 be
       0.08561464 -0.16826338 0.13509493 -0.14386895
0002f0 dd f3 80 3c 9d 90 6d be 40 1f 5f be 02 30 54 3e
       0.015741283 -0.23199697 -0.21789265 0.20721439
000300 2b 0b f1 3d ee 08 2c 3e dc 0a 87 3d 3b d2 43 be
       0.11769708 0.16800281 0.06593868 -0.19123165
000310 16 63 81 bd 96 6c 49 be 13 27 c6 3d cc dc 2a bd
       -0.06317727 -0.19670328 0.096754216 -0.041714475
000320 a3 f9 11 be d5 44 01 be af b5 67 3c 29 3f 95 3d
       -0.14255385 -0.12623914 0.014142438 0.072874375
000330 1c e3 35 bd d5 30 31 be 48 d9 01 be d4 ef b1 bc
       -0.04440604 -0.17303784 -0.12680542 -0.021720804
000340 3d 31 18 3d 24 81 b9 bc ce 45 a1 3e 08 e4 b5 3e
       0.037156332 -0.022644587 0.3149857 0.35525537
000350 58 99 19 3e fb 7a d8 3d fe 04 3f 3e 88 b3 d7 3c
       0.14999902 0.10570332 0.18654248 0.026330724
000360 e1 84 e0 3d 2c 5e 55 3f 73 ae 9e 3e 35 a4 ce 3e
       0.10962845 0.8334682 0.3099247 0.40359655
000370 20 1f 88 3e d4 13 c0 3e 38 ac d7 3e 37 1b 6f 3d
       0.26586246 0.37515128 0.4212358 0.058375563
000380 36 1d 59 3e 3a d3 2e 3f 4e 41 8b 3e 6b a3 82 3e
       0.2120255 0.68291056 0.2719826 0.25515303
000390 ce a4 92 3e bd 3f c6 3e 4b 82 48 3e 0d ae 1a 3e
       0.2864136 0.38720503 0.19580953 0.15105458
0003a0 71 14 9d 3c 41 c2 4f 3e bf 38 90 3e 10 97 b8 3e
       0.019174786 0.20288946 0.28168294 0.36052752
0003b0 82 08 d7 3e b5 78 15 3f 1f c6 9a 3e 93 bb 9e 3e
       0.41998678 0.5838731 0.3022928 0.31002483
0003c0 4c 10 0f 3f 80 a4 73 3e 97 f0 c5 3d 5e 70 bc 3e
       0.5588424 0.2379322 0.096650295 0.3680448
0003d0 80 08 a2 3e 77 39 d5 3e b5 80 c2 3e 25 5a e0 3e
       0.3164711 0.41645405 0.3798882 0.43818775
0003e0 5f d0 50 3e 64 8d d1 3e 15 8b 5b 3e 95 58 04 3e
       0.20391987 0.40928185 0.21439774 0.12924416
0003f0 23 77 e9 3e df 62 fd b9 d9 68 04 3e 09 31 9c 3e
       0.45598707 -0.00048329585 0.12930621 0.3050616
