LSTM_for_PDE/codes/model/ns2d_lstm_circle.pth (torch, 872801 bytes, 12 tensors)

lstm.weight_ih_l0 f4 [512, 3]
000000 b7 54 da bd 2b 9e cb 3d eb 9e 0b be b3 8d 74 3d
       -0.10660689 0.099422775 -0.13634841 0.059705447
000010 99 04 11 be 85 97 08 bd 0a 58 1f 3d 3b f0 0a bd
       -0.1416191 -0.033347625 0.03890232 -0.033920508
000020 d2 b2 25 bd 9a 64 97 bd b5 f4 21 bc 34 e8 90 3d
       -0.04045374 -0.07392235 -0.009885003 0.07075539
000030 69 39 83 3c e4 dd b8 bd 77 74 44 bd 17 f4 3b bd
       0.016018586 -0.09026697 -0.047962632 -0.04588708
000040 89 f5 d6 bc d7 a5 4e bd 0c 6a 98 3d 83 73 9d bc
       -0.026240127 -0.050451126 0.07442102 -0.01922012
000050 da 17 8a 3d a3 f2 09 bd a7 29 e9 bd 5d 60 ed bd
       0.067428306 -0.033678662 -0.11384898 -0.115906455
000060 68 21 ac 3c fb 35 70 3d 8d 04 7a bc 6b ef 18 bc
       0.021012023 0.05864523 -0.015259874 -0.009334425
000070 3d e7 6a 3d 85 a1 11 3c f6 45 07 bd a0 ff d3 3d
       0.057349432 0.008888607 -0.033025704 0.10351491
000080 70 72 83 bc 6e d5 a2 3c 9f 01 28 3c 9a 28 a1 bd
       -0.016045779 0.019877162 0.010254293 -0.07869072
000090 15 11 db 3d 2f 84 16 bd ac 25 79 b9 6d 75 81 bc
       0.106966175 -0.036747154 -0.00023760524 -0.015803063
0000a0 f5 12 a3 bd d6 d5 6e 3d e2 7f ae bc 57 0d a9 3d
       -0.079626 0.0583094 -0.021301214 0.082544975
0000b0 f6 b5 5a 3d 0c 88 5b 3d f7 db d4 bd da 31 50 3c
       0.053396188 0.05359654 -0.103935175 0.012707198
0000c0 53 7b 08 bd cf b7 44 bc fe 08 1a 3d 35 e7 e6 3c
       -0.033320736 -0.012006714 0.037606232 0.02818642
0000d0 78 ac c2 3d 97 02 b2 bc 72 37 46 3d 80 b4 f7 bd
       0.09505552 -0.02172975 0.04839272 -0.120949745
0000e0 f8 67 e5 bc 28 ef 84 bd d3 a4 9a 3d 85 23 f9 bd
       -0.028003678 -0.06490928 0.07550969 -0.12164978
0000f0 39 6f 8f bd e3 78 c8 bd 15 78 f8 bd 9e 68 df 3c
       -0.07003636 -0.09788682 -0.12132279 0.027271565
000100 d2 3c 1c be 2f 0e 9c bc eb b4 8b bc bf 55 11 3c
       -0.15257576 -0.019049732 -0.017054042 0.008870541
000110 55 b9 20 3b f8 12 43 3c eb d4 35 bc c5 2f cd 3c
       0.002452453 0.011906378 -0.011098127 0.025047192
000120 6f 70 2c 3b 2a e2 a1 3d 26 5f 70 3d cd 76 25 3c
       0.0026312133 0.079044655 0.05868449 0.010099125
000130 c1 86 0a be 2b f5 32 be 67 49 af 3c 52 9d cd 3c
       -0.13527967 -0.17476337 0.021397306 0.02509943
000140 fc 68 8d bd 11 3e 09 3e 1a 94 02 be 9f 53 92 bd
       -0.0690479 0.13402583 -0.12751809 -0.07144856
000150 af 44 18 bd 21 9e e2 bd c9 e3 0d be b8 e4 f7 3c
       -0.037174877 -0.11065317 -0.13856424 0.030260429
000160 0f 45 be bd 0d 28 49 bc b8 6d 63 3d a0 61 ba 3b
       -0.09290516 -0.012277615 0.055524558 0.0056879073
000170 8a 1b bb bc b9 29 46 3d ab cf ba bd 63 01 bc bd
       -0.02284028 0.048379634 -0.09121641 -0.09179952
000180 27 c6 91 3d 81 1c 92 3d f8 7a 88 bd eb b4 ad ba
       0.07117873 0.07134343 -0.066640794 -0.001325277
000190 7f aa 59 3d d7 9d 86 bb ef 12 fe bc a5 88 84 3d
       0.053141113 -0.0041081714 -0.031014888 0.064713754
0001a0 8d 14 80 3d 88 27 46 3d 01 39 29 bd 9f fc 99 3d
       0.0625392 0.048377544 -0.04131413 0.07518887
0001b0 08 ae af bc d7 4c a7 bd 11 e7 e5 bd fe b2 e5 bd
       -0.02144529 -0.08168953 -0.11225713 -0.11215781
0001c0 ea f8 0d be a1 46 a9 bd 0e 73 9b bc 2c d0 85 3d
       -0.13864484 -0.082654245 -0.01897576 0.06533846
0001d0 67 65 55 3b 97 9c 94 3d f1 5e 2d 3d a2 ef 4a 3d
       0.0032561661 0.0725643 0.04232687 0.049544938
0001e0 64 92 11 bc ce 3f 79 bd 96 37 bd bd 05 31 5b 3d
       -0.008885 -0.060851865 -0.09239118 0.053513546
0001f0 0c 03 24 be 45 12 94 bd 17 74 76 bd b4 9d 50 bc
       -0.16016787 -0.07230047 -0.060169306 -0.012732912
000200 0e 7d a7 bd 81 69 ad bd 21 8a 71 bc ca 15 5b bd
       -0.08178149 -0.08467389 -0.014742405 -0.053487577
000210 5d 87 3a bd 19 ce 05 bc d9 ad de bd e8 df 8d bd
       -0.04553925 -0.008166813 -0.108730026 -0.06927472
000220 18 ac 9e 3d 7e db 76 bd 9b c6 bb bd dd 63 a7 bd
       0.07747668 -0.060267918 -0.0916874 -0.08173344
000230 d6 0b ed bc 35 5b 36 3d 95 85 1f be da c8 8b bd
       -0.028936308 0.044520576 -0.15578301 -0.06825419
000240 ec 5b d1 3d dd 8b 3e bd 1d 42 3c bd 80 ab 1c 3d
       0.10222611 -0.046520103 -0.045961488 0.038249493
000250 cb 4c 0b bd 32 c0 d5 bd aa ed d1 bd bd 5c 36 bd
       -0.034008782 -0.10437049 -0.10250409 -0.044522036
000260 20 7f f3 bc bf a2 90 bd 4e 44 8d bd 71 b1 95 bd
       -0.029723704 -0.07062291 -0.06897794 -0.07309235
000270 44 53 92 bd 86 e6 10 be ef 51 99 bd da b6 10 bd
       -0.07144788 -0.14150438 -0.07486331 -0.03533063
000280 ee 67 a8 bd 64 fd b5 bc 93 5f 73 3c 4c d7 27 be
       -0.08222948 -0.022215553 0.01485433 -0.16390723
000290 f3 5c 0c be 9b 59 84 bd 1a 6d 04 be 62 9b 07 be
       -0.13707332 -0.064624034 -0.12932244 -0.13242868
0002a0 24 06 c0 bc ec 8f 0e be 4c 07 03 be cf 37 e7 3c
       -0.023440428 -0.1392209 -0.12795752 0.028224854
0002b0 eb 66 29 be 7a dc 83 bd cb 23 cd 3d e3 21 63 bd
       -0.16543166 -0.06438537 0.100165926 -0.05545224
0002c0 5b ed 28 be f8 1b ba 3d 47 b4 17 bd 01 80 33 be
       -0.16496794 0.09087366 -0.03703716 -0.17529298
0002d0 b8 b9 5a 3d 5f b7 f8 3c 2b 6a e1 bd cf 0b af 3a
       0.05339977 0.030360876 -0.11006578 0.001335496
0002e0 7b c4 2e bd 9d ff d4 bd b5 40 b0 3d 53 e9 8d bc
       -0.042667847 -0.10400317 0.08606092 -0.017323172
0002f0 40 8c 9e bd 9f 5c 5c bd dd f9 bd bd 5b 07 ba 3d
       -0.07741594 -0.053799268 -0.09276173 0.09083434
000300 81 c5 36 3d a5 d6 78 bd 0c c4 26 3d db 11 b2 bb
       0.04462195 -0.060751576 0.04071431 -0.0054342574
000310 46 e0 1f be 84 98 96 bd ca a6 c4 3b e7 96 60 bd
       -0.15612897 -0.07353309 0.006001328 -0.05483141
000320 39 8f b1 bd b3 a1 45 3d 23 0b 41 bd 29 ed 95 3d
       -0.08669896 0.04824991 -0.04712976 0.07320625
000330 ef 4d 0b bd 43 20 01 3a d7 b6 b8 bd 6b ed 56 bd
       -0.03400987 0.0004925767 -0.09019249 -0.052472513
000340 7d 76 b7 bd 60 ae 94 bd bd 65 e6 3d 7d 68 37 3d
       -0.08958147 -0.07259822 0.11249874 0.044777382
000350 94 72 9a bd 5c 9d bf 3d b2 ec 19 3c 7e 0a b4 bd
       -0.07541385 0.09356186 0.0093948115 -0.08791064
000360 3d 05 b7 bd 61 2d e0 bd d5 66 94 bd 4f 02 04 be
       -0.08936546 -0.10946155 -0.07246176 -0.12891506
000370 05 42 1b 3d cb 00 6d 3d 4f 38 d4 3d 9c 08 b9 3d
       0.037904758 0.057862084 0.103623025 0.09034845
000380 64 a0 99 bb 8c ed a9 3d b3 1f 24 3c c2 09 0c b9
       -0.0046883095 0.082972616 0.010017323 -0.00013355075
000390 ca 17 4a 3c 7a 0f 9e 3c ce 42 25 bd b9 fb 94 3d
       0.012334773 0.01929449 -0.040346913 0.07274575
0003a0 12 80 18 3d a3 97 10 3d fb 44 98 bc 9d 0b 88 bc
       0.037231512 0.035300862 -0.01858758 -0.0166071
0003b0 3e bd 3e be ab 79 8b bd 12 c2 f8 3c c2 80 31 be
       -0.18626878 -0.06810316 0.030365977 -0.17334273
0003c0 2e a8 e7 3d 8a 3e 52 bc 72 f9 9c bd 80 2c cd bd
       0.113113746 -0.012832293 -0.076647654 -0.10018253
0003d0 f6 f8 bd 3b 7f 5f 00 3d 37 89 04 3e d1 14 2a be
       0.0057975007 0.031341072 0.12942968 -0.16609503
0003e0 86 9a 6c bd 34 64 9a bc af 10 f0 bc 27 37 04 be
       -0.057764553 -0.018846609 -0.02930483 -0.12911664
0003f0 c2 39 8d bc d8 79 61 bd 90 1e cd bc 19 c1 00 bd
       -0.017239455 -0.05504784 -0.025038987 -0.031434152

lstm.weight_hh_l0 f4 [512, 128]
000000 e3 76 94 3d f2 e4 71 3d 80 eb 8a bb a7 fd 46 bd
       0.07249238 0.05905623 -0.0042394996 -0.048581745
000010 9b 73 9b bd e0 90 43 3b e4 e2 d7 3c 30 65 a6 bd
       -0.07590409 0.002984099 0.026353307 -0.08124769
000020 62 03 3a 3d d4 6f 94 3c 50 eb 4c 3c 35 60 9d 3d
       0.045413382 0.01811973 0.012507275 0.07684366
000030 dc fb e8 3c cc 37 ca bc a8 61 bf bc 78 72 c4 bc
       0.028440408 -0.02468481 -0.023361996 -0.023980364
000040 3c f6 aa bd ee a6 1a 3d 84 d3 ad 3c 68 2a ca bc
       -0.08347747 0.037756853 0.021219023 -0.024678424
000050 8f ff b1 bd cc 9e bf bc f2 f8 38 3d 08 c6 fd bc
       -0.08691322 -0.02339115 0.045159288 -0.030978218
000060 9e 32 7f 3d 38 06 e6 3c b8 55 e7 3c d6 2d 97 bd
       0.06230413 0.028079137 0.028239116 -0.073817894
000070 60 c3 28 bc ec 61 82 bc 35 24 9e 3d 72 a6 41 3d
       -0.010300487 -0.015915833 0.0772175 0.047277875
000080 38 1b 5e bc 62 ff 5d 3d fa 64 2b 3d a1 00 9c bd
       -0.013556294 0.05419863 0.041844346 -0.076173075
000090 03 58 b4 3d 58 00 0f bc 38 cd e8 3c d5 e2 80 3d
       0.088058494 -0.008728109 0.028418168 0.06293265
0000a0 0a ae 7e 3d 26 95 ae bd 70 2a 3d bc 81 9f 93 bd
       0.062177695 -0.085245416 -0.011545762 -0.07208157
0000b0 a2 e6 5e 3d 86 5c 73 bd 0d 40 1d bd e0 94 88 bd
       0.054419167 -0.05941441 -0.03839116 -0.06669021
0000c0 48 49 16 bc 60 98 e4 bc 41 b0 9c 3d 00 37 a0 bd
       -0.009172745 -0.02790469 0.07650805 -0.078229904
0000d0 f0 5a 0a 3d 23 ad 3e bd d2 7b 35 3d 3e 8d 24 3d
       0.03377813 -0.046551835 0.044307537 0.04017376
0000e0 12 92 48 bd 84 4a 9f bd 80 b5 9d bb f8 6c 39 bc
       -0.04896743 -0.077778846 -0.0048128963 -0.011317484
0000f0 b4 c1 11 3d 59 d0 1d bd cc c8 91 bd 5e d3 5c 3d
       0.03558512 -0.038528774 -0.07118377 0.053912513
000100 87 c2 93 bd 8c ca 0c 3d 00 c8 41 3a f6 97 2e 3d
       -0.072148375 0.03437285 0.0007392168 0.04262539
000110 d4 02 a0 3c 50 8d 9d bb c1 8d 50 bd b4 18 03 bd
       0.019532599 -0.0048081055 -0.050916437 -0.03200598
000120 e1 e1 06 bd 78 5f 23 bc 92 8c 5c 3d dd 2c 99 3d
       -0.03293026 -0.009971492 0.053844996 0.0747926
000130 e4 63 d0 3c 79 bf a2 bd e5 18 43 bd bd a2 b0 3d
       0.025438257 -0.07946677 -0.047631163 0.0862479
000140 30 5c 94 3c 50 4b bc bc b8 ec 51 3c 64 77 82 bc
       0.018110365 -0.02298513 0.012812786 -0.01592607
000150 16 0b 5c bd 31 30 9c bd b8 2f 59 bc ab a4 74 bd
       -0.05372151 -0.07626379 -0.013256006 -0.059727352
000160 82 d8 24 3d 90 65 9e 3b b6 2e 48 3d 38 65 98 bd
       0.04024554 0.0048338845 0.048872672 -0.07441181
000170 98 8d 6a bd ba f4 86 bd 10 a5 ee 3b 98 76 0b 3d
       -0.05726394 -0.06589647 0.0072828606 0.034048647
000180 dc 45 5b bd c0 db ca bc e4 aa 73 bd c0 22 2a 3b
       -0.05353342 -0.024762988 -0.059489146 0.0025960654
000190 db ae 28 bd 3d 7f 92 3d 54 d1 92 3c 60 fa 11 3d
       -0.04118238 0.07153175 0.017922081 0.035639167
0001a0 c4 3f 98 bd bd c1 15 bd 58 e0 f6 3c 38 b1 be bc
       -0.07434037 -0.036561716 0.030136272 -0.023277864
0001b0 60 33 c5 bc 40 fb c4 3c ca e5 4f 3d a1 e0 a2 bd
       -0.02407235 0.024045587 0.050756253 -0.07953001
0001c0 41 1b 99 3d f8 5e c2 bc a2 d1 b4 bd db b6 a4 3d
       0.074759014 -0.023726925 -0.08829047 0.080426894
0001d0 2c 08 ad bc b1 30 81 3d 5e 15 e4 bc e4 34 ad bc
       -0.02112206 0.06308115 -0.02784222 -0.021143384
0001e0 bf b5 9c bd f0 f4 b1 bb 22 24 71 bd 6a 7f 6f 3d
       -0.07651853 -0.00543081 -0.05887235 0.05847112
0001f0 ac a6 56 bd e1 cc 82 3d 0e c6 97 bd b9 cd 98 bd
       -0.052405044 0.06386734 -0.07410823 -0.074611135
000200 e0 da b3 bd 36 28 9d bd 00 50 ea 39 c0 06 8a 3b
       -0.087819815 -0.07673685 0.00044691563 0.0042122304
000210 25 1b b3 bd 98 8a ef 3c 08 30 73 3c 70 0d 71 3c
       -0.08745412 0.029240891 0.0148429945 0.014712676
000220 ca 49 10 3d a5 91 47 bd 1c e1 ab bc de 21 52 3d
       0.03522662 -0.04872288 -0.020981364 0.05130183
000230 ce c6 b3 bd 3b ca 95 3d 3c 33 d1 3c 19 3d 8f bd
       -0.08778153 0.07313963 0.025537126 -0.06994075
000240 e2 07 a1 bd 54 86 f5 3c 95 cc 81 3d 42 f7 26 3d
       -0.07862832 0.02997128 0.06337849 0.040763147
000250 bd 3d 95 3d 84 d4 82 bc c6 5a 3d 3d fe 76 76 bd
       0.07287166 -0.015970476 0.046229146 -0.060172074
000260 30 69 d6 3b 2c be 7a bd be c7 58 3d 51 f3 85 3d
       0.006543301 -0.06121652 0.052924864 0.065405495
000270 50 ff af bb 00 5f 0c 3a 0c fb ac 3c b8 15 6b 3c
       -0.005371012 0.0005354732 0.021115802 0.01434844
000280 4a fc 6a bd 1c 78 a4 bd 94 71 d2 bc 50 56 59 bc
       -0.057369508 -0.080307215 -0.025688924 -0.013265207
000290 72 1d 3e 3d 10 9b 3c bd 28 35 f2 3c 74 8b b3 bd
       0.0464148 -0.046046317 0.029566363 -0.08766833
0002a0 7c 80 97 bd 22 68 29 3d 58 41 11 bd e9 6e b1 bd
       -0.07397553 0.041359074 -0.035462707 -0.086637326
0002b0 e7 4d 92 3d db 28 99 3d f2 80 67 3d 34 02 62 bd
       0.07143765 0.07478496 0.056519456 -0.055177882
0002c0 89 f7 30 bd c8 2f 95 3c c2 c7 6d 3d 88 76 d6 3c
       -0.043204818 0.01821126 0.058051832 0.026179567
0002d0 40 b7 a8 3b f9 43 a3 3d 9b 2b a3 3d a2 94 3e 3d
       0.005148798 0.07971949 0.079673015 0.046528466
0002e0 17 4d 04 bd 5a f9 6a 3d 38 05 c5 3c a2 3b d8 bc
       -0.03230008 0.057366706 0.02405034 -0.026395623
0002f0 73 db 95 bd 0a 8c 66 3d 00 68 d7 b9 20 a5 01 3d
       -0.07317247 0.056285895 -0.00041085482 0.031651616
000300 95 49 46 bd 3d f4 9b bd 3a ed 62 3d be ee 2e 3d
       -0.048410017 -0.07614944 0.055402018 0.04270815
000310 e1 1f 17 bd b9 8c 18 bd fa 8f 17 bd a0 8f 2a bb
       -0.036895636 -0.03724358 -0.03700254 -0.0026025549
000320 8c 71 96 bc c6 df 4e 3d f8 9d 37 bc ae 07 20 bd
       -0.01836469 0.050506376 -0.011207096 -0.039069824
000330 30 42 d6 3c a9 3f 35 bd 3d 2d 86 3d ca bd 85 bd
       0.026154608 -0.044250164 0.06551597 -0.0653034
000340 e2 a3 11 3d 20 ca 5c bc 2f 7b ab bd 49 46 a3 bd
       0.03555668 -0.013475925 -0.08373105 -0.0797239
000350 38 71 38 bd 83 72 87 3d 29 b0 41 bd 0e 94 e2 bc
       -0.04502985 0.06613638 -0.04728714 -0.027658489
000360 70 c7 e1 bb 30 e2 18 3c e9 6d 37 bd ca 6b 5b bd
       -0.00689023 0.009331271 -0.044782553 -0.053569593
000370 50 5e 03 3c 45 5a 95 bd 52 71 99 bd 98 5d 05 bc
       0.008018091 -0.07292608 -0.07492317 -0.00813999
000380 0e 49 2a 3d 86 af 16 3d 9b ad a7 bd c9 05 68 bd
       0.041573577 0.036788486 -0.081874095 -0.056646142
000390 6c 1c b7 bc 50 ce 5b 3c 64 13 a2 3c 7b c3 b4 bd
       -0.02235242 0.013415888 0.019784637 -0.088263474
0003a0 00 f8 24 38 40 c9 8c ba c0 68 eb 3b 96 bc 50 3d
       3.9331615e-05 -0.001074113 0.007184118 0.0509611
0003b0 00 e4 25 bc 0c 7e a2 bc ce cc 26 3d 64 e9 e7 3c
       -0.01012516 -0.019835494 0.04072266 0.028309532
0003c0 90 eb 46 3c ab 40 74 bd ae 73 57 3d e0 8d 24 bb
       0.012141123 -0.059631985 0.052600555 -0.0025108978
0003d0 08 6d 23 bc 2a 48 4d 3d 64 a1 94 bc b4 62 86 bd
       -0.009974726 0.05011765 -0.018143363 -0.06561795
0003e0 7c 95 c1 bc a0 7a 31 bc 08 95 33 bc f3 c9 93 3d
       -0.02363085 -0.010832459 -0.010960825 0.07216253
0003f0 84 8c b3 bd 8b 63 a2 bd be f7 a1 bd b2 9e 29 3d
       -0.087670356 -0.079291426 -0.07908581 0.04141111

lstm.bias_ih_l0 f4 [512]
000000 e6 fa 96 3d 7b 17 01 3e 49 c0 a3 3d bf 29 5b bd
       0.07372074 0.12606613 0.0799566 -0.05350661
000010 8f 63 f2 3c bd 8f 8e 3d 2e 56 5c 3d 76 7c 05 bd
       0.029588489 0.0696101 0.053793125 -0.0325894
000020 a4 15 03 3e 4a c6 43 3c 4c 4a 0e bd 39 46 e3 3c
       0.12801224 0.011949131 -0.034738824 0.027743446
000030 94 06 8b 3d 37 6f a0 3d aa 70 20 3d e2 f0 2e bd
       0.06788364 0.078337125 0.039169945 -0.042710193
000040 f3 b2 5a bd b0 ec 85 bd e7 e8 96 3d e3 23 c0 3d
       -0.053393316 -0.06539285 0.07368641 0.09381845
000050 c5 26 92 bc fb f3 cb 3d ad fa 69 3b 1c 59 2c bd
       -0.017840752 0.09958645 0.0035702393 -0.04207717
000060 83 e7 dc bc ae ec 4e 3d 73 93 47 3d 77 4c 8e 3d
       -0.026965862 0.050518684 0.048724603 0.06948178
000070 ad 58 a9 3d 9e c2 ce 3d 6a 53 de 3d cb 08 cb bb
       0.08268867 0.10095714 0.10855754 -0.0061961166
000080 77 38 17 bd a8 27 99 bc d3 f2 8a bc c0 eb e0 3c
       -0.036919083 -0.018695667 -0.01696149 0.027456164
000090 88 a4 2c bd 83 cd bf 3d 98 02 44 bd ca b7 12 3c
       -0.042149097 0.0936537 -0.047854036 0.008954952
0000a0 5d 9b 6d 3d 68 e1 d6 bc f1 5c da 3d b8 3f c2 3d
       0.058009494 -0.026230529 0.106622584 0.0948481
0000b0 96 f3 32 3c 1c a4 5a bc 5c 16 9c bc bf cd 9b 3d
       0.010922333 -0.013344791 -0.01905363 0.07607602
0000c0 52 73 6a 3c 88 53 c3 3b ae 95 e0 3c aa d0 19 bd
       0.014309721 0.0059608854 0.027415123 -0.037552513
0000d0 33 52 e2 3d 36 6b c9 3d 3a a3 fc 3c 20 a3 36 bd
       0.110508345 0.09834902 0.030839551 -0.044589162
0000e0 2b c6 4d 3d 89 3a f2 ba f1 14 4a 3d 89 e2 59 bd
       0.050237816 -0.001848058 0.049336378 -0.053194556
0000f0 e6 ff 8c 3a af 78 c5 3d ea 7b 1a 3e 2a b1 a8 3d
       0.0010757416 0.09642159 0.15086332 0.08236916
000100 a3 7a 6f 3d a9 75 0e 3d d4 37 ff 3d d7 da ec 3d
       0.058466565 0.03478018 0.1246182 0.11565178
000110 98 b5 e2 3d 93 af ed 3d 04 4d 6f bd 99 63 6e 3d
       0.110697925 0.11605754 -0.058423057 0.058200452
000120 25 ee d5 3d 59 85 e9 3d 75 d3 b6 3c 51 79 e6 bc
       0.10445813 0.11402387 0.022317627 -0.02813402
000130 03 87 86 3d b9 01 5c 3d 40 fb 67 3c b4 34 3f 3b
       0.0656872 0.05371258 0.014159024 0.00291757
000140 e1 6a 8e 3d 75 c5 ef 3d 1a e0 80 3d 20 1e b5 3d
       0.06953979 0.11707584 0.06292744 0.088436365
000150 14 c4 2d bd ed 4f 64 3d 56 bd 51 3d f0 c3 00 bd
       -0.042423323 0.055740286 0.051205955 -0.03143686
000160 3b 28 ad bc 45 38 4f bd d2 87 c9 3d 0b aa fe bb
       -0.021137347 -0.050590772 0.09840359 -0.0077717355
000170 b6 d1 88 bc 67 63 4f bd 73 7e 8c 3c 84 70 9b 3d
       -0.01670156 -0.050631907 0.01715014 0.0758982
000180 77 52 c8 3d 8d 9e fd 3d 5d 6f 8d 3d a9 cb e1 3c
       0.09781354 0.12383757 0.069060065 0.027562933
000190 b3 d1 9f 3d 2d d9 15 bd ca 55 83 bb 35 b4 91 3d
       0.07803669 -0.036584068 -0.0040080296 0.0711445
0001a0 13 65 a0 3d c9 68 f4 3d 2b e5 4b 3c d0 b8 5b 3d
       0.078317784 0.11934049 0.012444775 0.053643048
0001b0 e0 f9 9b 3d 40 55 61 bd 71 1e 8a 3d e7 72 53 3c
       0.07616019 -0.05501294 0.067440875 0.012905813
0001c0 95 d1 a0 3d e0 5d c2 3d 9d 01 58 3b c4 77 7f 3d
       0.078524746 0.094905615 0.0032959946 0.062370077
0001d0 2e 9b e9 bc 82 ac 9b 3b a0 36 79 bc bd 1a db bc
       -0.028516378 0.004750789 -0.0152107775 -0.026746148
0001e0 a5 8b 3c bd 2d 02 a1 3d 47 c4 01 3e 38 45 3c 3d
       -0.046031613 0.07861743 0.1267253 0.04596445
0001f0 ef 84 5b 3d 92 1a 0f 3d 3e 84 94 3a 25 d6 ae 3d
       0.053593572 0.03493745 0.0011330915 0.085369386
000200 0c 78 e5 3c a0 2b a7 bc 90 ff 76 3c 89 04 a2 3d
       0.028011344 -0.020406544 0.015075579 0.07911021
000210 6b da a1 3d 10 66 ba 3b e9 57 8f 3d 28 32 fc 3c
       0.07902988 0.0056884363 0.069991894 0.030785635
000220 74 61 c8 3c 20 06 fb 3b a1 31 ac bd 75 32 48 bd
       0.024460532 0.0076606423 -0.084079035 -0.048876245
000230 c3 81 59 bd cd 1c 8a 3d 8e 4d 34 3d 82 db 81 bd
       -0.053102266 0.067437746 0.044019274 -0.06340696
000240 50 43 b9 3c 5c bd a0 bd db 3b a5 3d 6c 91 b0 3c
       0.022615105 -0.078486174 0.08068057 0.021553718
000250 a0 d4 a2 bd 56 43 5c bd 20 42 ff bc 95 b3 46 bd
       -0.07950711 -0.053775154 -0.03115946 -0.048511107
000260 9f ab ae bd 4d bc 9e 3d 06 77 d9 bc 80 01 d5 3a
       -0.08528828 0.07750759 -0.026546013 0.0016251057
000270 86 b3 48 3d b8 db 42 bc d8 df 2e 3c 2a d2 5c 3d
       0.048999332 -0.011893205 0.010673486 0.053911366
000280 5f a9 1e bd 88 89 2e bc 74 b2 e0 3c 88 fa db 3c
       -0.038735744 -0.010652907 0.027428843 0.026852861
000290 c8 78 64 3c c4 87 87 bd e0 c2 f4 3c 39 60 95 3d
       0.013944812 -0.06617692 0.02987808 0.07293744
0002a0 c6 f6 1e 3d 8a a0 7e 3d b2 fb 07 bd 3c 88 36 bd
       0.03880956 0.06216482 -0.03319902 -0.044563517
0002b0 d4 20 82 bd a0 ae 30 3b 7d 2d 89 3d 41 81 3a bd
       -0.06353918 0.0026959553 0.06698129 -0.045533422
0002c0 6a 32 84 bd 02 15 9a bd f2 70 5f 3d c0 14 9c bb
       -0.06454928 -0.07523538 0.054551072 -0.004763216
0002d0 37 46 4e bd c0 75 e7 3b dc b2 ce bc b2 aa 5e bd
       -0.05035993 0.0070635974 -0.025231771 -0.054362006
0002e0 bd e2 67 bd f6 2d 64 3d d4 bd be 3c a0 97 71 3b
       -0.05661272 0.055707894 0.023283876 0.0036864057
0002f0 56 69 7b bd ef c8 a9 3d 46 da 3f 3d 00 6e 1d bc
       -0.061379753 0.08290278 0.04683902 -0.009608746
000300 40 5c df 3b 3a d2 76 3d 59 ca 86 bd ae be b0 bd
       0.006816417 0.06025908 -0.065815635 -0.08630119
000310 b0 b4 33 bc d8 23 eb bc e0 33 2f bc aa 85 6c bd
       -0.010968372 -0.028703615 -0.01069352 -0.05774466
000320 cc 7c ab bc 16 9b 2b bd 67 8c ae bd a0 22 65 bc
       -0.020933531 -0.04189595 -0.08522873 -0.013985306
000330 c2 52 79 bd e0 66 16 bb 98 76 ce bc f4 af 08 bd
       -0.06086994 -0.0022949502 -0.025203034 -0.033370927
000340 c4 40 90 bc 4a 8c 24 3d 28 95 03 bc eb c7 36 bd
       -0.017609008 0.040172853 -0.008031167 -0.04462425
000350 d3 1e 91 3d 17 8e a9 3d 7c ba 0c 3d 19 44 8d bd
       0.070859574 0.082790546 0.034357533 -0.06897754
000360 c0 f1 6e bd cc 14 96 bd ae 81 a9 bd 22 5b 6f bd
       -0.05833602 -0.073281854 -0.082766876 -0.05843652
000370 da b4 1b 3d 8b 08 88 bd bf 52 54 bd 6d 5b ae bd
       0.03801427 -0.066422544 -0.051836725 -0.08513532
000380 f0 77 b3 bc d8 d9 01 3c 92 9f 7f bd 8e 56 8c bd
       -0.021907777 0.007925473 -0.062408037 -0.068524465
000390 2e b3 0c bd 38 21 62 bd 20 a4 cc 3b 40 c2 17 bb
       -0.034350567 -0.05520746 0.006245151 -0.0023156554
0003a0 8d 99 46 bd 67 fd ad 3d 2f 44 3d bd 9e 7b a2 bd
       -0.04848628 0.08495598 -0.046207603 -0.07933734
0003b0 c9 59 b3 bd 80 46 0c bc 02 79 9f bd 60 f9 fe bb
       -0.087573595 -0.00856173 -0.07786752 -0.0077811927
0003c0 d0 fa 8a bb 74 b2 b2 bc 8d 0e b4 bd d3 47 a1 3d
       -0.004241325 -0.021813609 -0.08791838 0.078750275
0003d0 65 01 9c 3d 31 ed 84 3d 69 ca 85 3d 1e a4 68 3d
       0.076174535 0.06490553 0.06532747 0.05679714
0003e0 af 82 8b 3d d8 38 41 bc e6 a6 38 3d f7 9a 35 bd
       0.06812035 -0.011793338 0.04508104 -0.04433724
0003f0 c4 80 91 3c 03 aa 18 bd 65 ec 81 3d b9 11 80 3d
       0.017761596 -0.03727151 0.06343917 0.0625338

lstm.bias_hh_l0 f4 [512]
000000 9d f6 93 3d 33 a0 eb 3c 09 5e cc 3c 12 4e c2 3d
       0.07224772 0.028762912 0.024947183 0.09487547
000010 03 21 84 3a ba c6 a4 3d e1 75 eb 3d fb 9e 26 3d
       0.0010080639 0.080457166 0.11497093 0.04067896
000020 ae bb 67 3d c0 aa 7e 3d 4d 76 dd 3c 82 75 cb 3d
       0.05657547 0.06217456 0.02703395 0.09934522
000030 87 98 50 3d 13 4c 89 3c 46 67 03 bd 16 0f 94 3d
       0.05092671 0.016759908 -0.03208091 0.0722944
000040 b0 48 9e 3d b4 38 c0 3c 7d 99 86 3d df 66 86 3d
       0.07728708 0.023464538 0.06572244 0.0656259
000050 9a 87 df 3d 17 88 d6 3d 77 3c f0 3c 98 ba a5 bc
       0.10914536 0.10475176 0.029325707 -0.020230576
000060 57 03 16 3d d1 a9 ec 3d dd 2f cc 3d ba 17 81 3b
       0.03662428 0.115558274 0.09970067 0.003939596
000070 0a 90 6b 3d c8 e8 d2 3c 34 79 37 3c 6f 0b 88 3d
       0.057510413 0.025745764 0.011198331 0.06642806
000080 91 5e 22 bc 87 d4 9d 3b 48 bb 20 3d 30 5e 52 3c
       -0.009910242 0.004816595 0.039241105 0.012839839
000090 01 58 f0 3d 88 11 eb bc 86 b4 31 bc 77 5b 56 3d
       0.117355354 -0.028694883 -0.010846263 0.05233332
0000a0 bd 34 63 bc a7 22 8b 3d 91 b3 8f 3d 9e fe d1 3c
       -0.013867554 0.06793719 0.070166714 0.025634106
0000b0 80 15 b6 bb 66 eb 31 bc 6b 1d 58 3d 5a 90 bc ba
       -0.005556762 -0.010859346 0.05276243 -0.0014386282
0000c0 31 41 54 bd 50 6a 26 bd 2e b7 68 3d c9 5e 2f 3d
       -0.051819984 -0.04062873 0.05681532 0.042815004
0000d0 64 81 06 bd d6 df ee bc 1a eb c1 3d c6 41 38 3d
       -0.03283824 -0.029159468 0.0946867 0.0449846
0000e0 89 09 fe 3d 33 dd 9b 3c 3f 7f ca bb a0 d0 d9 3d
       0.124041624 0.019026374 -0.0061797197 0.10635495
0000f0 c7 97 95 bc 68 88 59 bd e7 e0 11 3e 11 d1 f7 bc
       -0.01826085 -0.053108603 0.1424595 -0.030251058
000100 5c 6d 6a bd e7 ca b0 3d 4d 65 c1 3d aa 51 f4 3d
       -0.0572332 0.086324506 0.0944315 0.11929639
000110 d4 c6 3d 3c fc 78 57 bd 19 d9 55 3d 87 f5 1c bb
       0.011583049 -0.052605614 0.052208994 -0.0023950057
000120 04 92 54 3d 60 ac 88 3d 16 4e 39 3c 86 d0 33 bd
       0.051897064 0.06673503 0.011310121 -0.043900035
000130 88 79 d2 3c e2 53 d0 3d 80 6d 7e 3c 8c 8f 7c bc
       0.025692716 0.101722494 0.0155290365 -0.015415084
000140 fc 4e a0 3c 75 21 15 bd a2 04 ca 3c 7d ee dc 3d
       0.019568913 -0.03640886 0.024660412 0.107876755
000150 26 f6 e5 3d 70 c6 e2 3d 58 4b f4 3d c4 ac 95 3b
       0.1122859 0.11073005 0.11928433 0.0045677144
000160 c3 69 4e 3c 46 5a e6 bc dc 6e 05 3d 66 2b 92 3d
       0.012598458 -0.028119218 0.032576427 0.07137184
000170 b9 62 99 bc de 24 0d 3d 14 0e ca 3b f9 fc 61 3d
       -0.018723832 0.034458987 0.006166229 0.055172894
000180 af 5a c4 3d 36 6c 99 3a 66 57 fc 3d c5 dd 3d 3c
       0.09587609 0.0011705223 0.123213574 0.0115885185
000190 1b 57 c4 3d a3 e0 34 3d 10 7a d8 3b 82 b9 a1 3d
       0.095869265 0.044159543 0.006606348 0.07896711
0001a0 0a cf fb bc 5a ae 0e 3b a0 9a 80 3d 91 c8 6e 3c
       -0.030738372 0.0021771402 0.062794924 0.014574186
0001b0 b1 23 ae 3d a6 bd ab 3d 7a 0e 27 3d fe 33 c0 3d
       0.08502901 0.08385782 0.04078529 0.09384917
0001c0 4f 37 d7 3c ba 0c c5 bc 8f 0e 68 3d fa 85 09 bd
       0.02627149 -0.02405392 0.05665451 -0.033575036
0001d0 bb 08 92 3d d1 44 6c 3d 52 02 b4 bc 09 87 68 ba
       0.071305715 0.057682816 -0.021973763 -0.00088702195
0001e0 65 5f f8 3d e6 c0 e2 bc 00 61 e9 bc 00 28 94 3b
       0.1212757 -0.027679872 -0.028488636 0.00452137
0001f0 30 2d 0d 3d dc 18 7c 3c 59 56 ed bb fe 4c 85 bd
       0.034466922 0.015386786 -0.0072429595 -0.06508826
000200 cb ad a3 bd 50 5f f7 bb c0 d9 5c 3c 4e e4 48 3d
       -0.07992133 -0.007549204 0.01347965 0.049045853
000210 06 a6 a4 bd d6 53 e8 bc 12 4b 23 3d f8 f3 8c bc
       -0.08039479 -0.028360289 0.039866515 -0.017206177
000220 b5 3a 95 bd 4e a9 3b 3d f3 e8 89 3d 2e 17 6d 3d
       -0.07286588 0.04581576 0.06733885 0.057883434
000230 45 10 9d 3d b4 53 ca bc 92 13 3d 3d 90 b6 e7 bb
       0.07669119 -0.024698116 0.04616124 -0.0070713237
000240 00 6a b4 bb 02 85 6b bd 64 c7 1c bd 1e 6e 12 3d
       -0.0055058002 -0.057499893 -0.03827609 0.035749547
000250 ec 1d ad bc 00 f6 5a ba 1a 26 69 3d f8 aa 3c 3c
       -0.021132432 -0.0008352697 0.056921102 0.0115153715
000260 69 6f 16 bd 71 00 ad 3d 80 09 b3 bb 3e 89 2b 3d
       -0.036727343 0.0844735 -0.005463779 0.04187893
000270 02 fc 8e bd 12 bd 48 3d d0 84 c4 bb af 13 60 bd
       -0.069816604 0.049008437 -0.005997278 -0.05470627
000280 5c 64 71 bd d3 d1 a8 bd 63 9b 99 3d 45 29 83 3d
       -0.0589336 -0.08243146 0.07500341 0.06404356
000290 a6 59 55 3d 72 90 90 bd b8 66 81 bd 70 43 a5 bb
       0.05208745 -0.07058801 -0.0631842 -0.0050434396
0002a0 67 a6 a1 bd 02 83 64 3d 94 1d d4 3c 8b 10 98 3d
       -0.07893067 0.055789 0.02589301 0.0742503
0002b0 c0 13 72 bc a7 9e 86 3d 40 00 8b bd b3 b5 af 3d
       -0.014775217 0.06573229 -0.06787157 0.08579578
0002c0 99 6c a5 bd 59 e5 4e bd fc 68 0c 3d 0e ef 91 bd
       -0.08077354 -0.05051169 0.03427981 -0.07125674
0002d0 0f 29 89 3d 1b bb 70 bd de 37 44 3d 9f da 9f bd
       0.066972844 -0.058772188 0.04790484 -0.078053705
0002e0 2a 89 3e 3d b0 59 c1 3c ec 78 0e 3d a6 f0 7a 3d
       0.04651753 0.023602337 0.03478329 0.061264656
0002f0 6c e7 39 bd f7 2a 5b bd a2 43 7c 3d a0 15 9d bc
       -0.045386717 -0.05350777 0.061587937 -0.01917535
000300 40 8f 23 bd c0 8f 4f bc 54 57 c5 3c 3a 41 dc bc
       -0.039931536 -0.01266855 0.024089493 -0.026886571
000310 08 6b 42 3c 4e 5e 10 bd 76 1b 4d 3d 57 54 4d bd
       0.011866339 -0.035246186 0.050075017 -0.05012926
000320 b2 f2 1f 3d c5 d0 01 bd 00 36 23 3c 60 d1 b3 3c
       0.03904981 -0.03169324 0.009961605 0.021950424
000330 e0 97 8a 3c 24 ab a8 bc f5 dd 89 bd 7e a1 ae bd
       0.016918123 -0.020589419 -0.06731788 -0.08526896
000340 c0 28 2b bc c5 1a 0f bd b4 f2 48 bd 05 a5 22 bd
       -0.010446727 -0.03493764 -0.049059585 -0.039708156
000350 2d c9 49 bd ce 82 95 bd 6a f8 7e 3d 10 4e 25 bd
       -0.04926412 -0.0730034 0.062248625 -0.04035765
000360 c7 78 8a bd 55 e9 a6 3d e7 23 a9 3d 8e e4 f3 bc
       -0.06761318 0.08149973 0.08258801 -0.02977207
000370 e2 17 75 3d da 77 6c 3d 91 fb a6 bd c0 ea 13 bb
       0.05983723 0.057731487 -0.08153451 -0.0022570342
000380 18 0d a6 bc 20 07 a7 3b 38 ef 40 bc 57 1b 1d bd
       -0.020269915 0.005097285 -0.011775784 -0.03835615
000390 ab 98 84 3d a4 61 b2 3c 58 a4 56 3c eb 7b 6a bd
       0.064744316 0.021775074 0.013100706 -0.057247084
0003a0 a9 91 95 bd 80 10 4b 3b b6 c2 5d 3d e8 23 fd 3c
       -0.07303173 0.0030985177 0.05414077 0.03090091
0003b0 18 2e 0e bc ec d2 b1 bc ac 4b 78 bd 50 ea 34 bd
       -0.008677982 -0.02170702 -0.06061904 -0.04416877
0003c0 a0 e0 fa 3c 66 67 0a 3d 2c c6 80 bc 30 4e e4 bb
       0.030624688 0.033790015 -0.015719496 -0.0069673285
0003d0 95 c1 74 bd 16 ce e2 bc 4d f1 a5 bd e0 95 0c bc
       -0.059754927 -0.02768616 -0.08102665 -0.008580655
0003e0 44 4c 9a bc a6 71 15 bd d1 86 8d 3d 04 99 75 bd
       -0.018835194 -0.036485337 0.0691048 -0.05996038
0003f0 59 cd a5 bd 63 44 98 3d b7 ce a7 bd 00 26 00 3a
       -0.080958076 0.07434919 -0.081937246 0.0004888475

lstm.weight_ih_l1 f4 [512, 128]
000000 34 fb 94 bb a9 4d 7b 3d 57 fa b0 bd 12 ee f8 bb
       -0.0045465473 0.06135336 -0.086414985 -0.0075967396
000010 1f 84 89 bc 1e cd 39 bd 6d 28 a7 3d aa ab 6d bd
       -0.016786633 -0.04536163 0.081620075 -0.05802504
000020 fb c4 19 bd c5 af 26 3d 31 44 85 bd 70 16 bc 3d
       -0.03754137 0.04069497 -0.06507147 0.09183967
000030 cf d8 69 3b c7 5f aa 3c a8 63 e9 bc 80 a7 d3 bc
       0.0035682207 0.020797623 -0.028489903 -0.025836706
000040 99 53 85 3d 27 a0 c8 bd 11 c2 65 3b ae 92 be 3c
       0.065100856 -0.09796172 0.00350583 0.023263302
000050 9f 4a b9 bd a4 e0 e0 bd 8b c9 15 bc 54 d4 27 3d
       -0.09047436 -0.10980347 -0.00914229 0.040973976
000060 b9 5a a1 3c de 17 0f bd 75 7d b5 bc 46 de e2 bc
       0.01969658 -0.03493487 -0.02215455 -0.027693879
000070 6e d9 dd 3c e1 8a ef 3c 69 c0 74 bd b3 08 be bd
       0.027081218 0.029241027 -0.05975381 -0.09279003
000080 f8 6c 1d 3c 3e a6 74 bd 1b b6 85 bc b7 64 e5 3c
       0.0096085 -0.059728853 -0.016322186 0.028002126
000090 18 01 b4 bd 53 25 7e 3d 71 e3 15 bd 80 84 7a 3d
       -0.08789271 0.062047314 -0.03659386 0.061161518
0000a0 f0 ae 2f bd 47 24 9f 3b 16 1c cb 3c 06 83 29 3c
       -0.042891443 0.0048566195 0.024793666 0.01034618
0000b0 6f fe 66 3d b1 f8 e2 bd 16 27 9b 3d 5f 49 e0 3d
       0.05639499 -0.1108259 0.075758144 0.109514944
0000c0 79 46 ac bd 9d 61 be bc 9c e5 84 3d f6 15 82 3d
       -0.08411879 -0.023239905 0.06489107 0.06351845
0000d0 44 79 81 3d 81 d1 ab 3c 08 1a 0a be 8e 7e a0 3d
       0.06321958 0.020973923 -0.13486493 0.078366384
0000e0 be 40 dd bc 7a bb 10 be 1c 7b 34 bd b8 85 22 bd
       -0.02700841 -0.14134017 -0.04406272 -0.039678305
0000f0 cd b3 06 3d 38 a1 ad 3d 4e 8f 61 bd d9 42 15 3d
       0.032886315 0.08478016 -0.055068307 0.036440704
000100 fe 18 4f 3c 94 69 fa 3d be c0 95 bd de c8 d6 bc
       0.012640236 0.12227169 -0.07312153 -0.026218828
000110 17 20 bf 3d 31 2e 81 3c 35 72 9a 3b cb 21 41 3c
       0.093322925 0.015769096 0.0047133216 0.011787842
000120 8b c0 4e bd 1b c2 2b bd 5a db ae 3d 41 e1 51 bc
       -0.050476592 -0.04193316 0.08537932 -0.012810052
000130 69 3e 38 3b 02 33 d6 bc a4 a3 1e bd ca fa e4 38
       0.0028113371 -0.02614737 -0.03873028 0.000109186
000140 cf 03 cb 3d f0 84 99 3d d9 12 0a 3e 47 c5 11 bb
       0.09912836 0.07496059 0.13483752 -0.002224283
000150 11 7b 14 3d bc de 35 3d 58 4e 16 bd 2d 7f 08 3d
       0.036250178 0.04440187 -0.03669581 0.03332441
000160 fa 9d 85 bd 81 10 99 bd b1 22 c2 bc 1c d5 d4 bd
       -0.06524272 -0.07473851 -0.023698183 -0.1039221
000170 94 ac 66 3d 97 ac 19 bc d3 93 4c 3d e7 03 e5 ba
       0.056316927 -0.0093795275 0.049945664 -0.0017472476
000180 8c 27 45 3d 6b d7 c7 3d 31 e6 dd bd b8 f5 86 3c
       0.048133418 0.097578846 -0.10834921 0.01647459
000190 a4 cf 8d 3d f8 5a 26 bd f5 ba b8 3d 22 b7 45 3d
       0.0692437 -0.0406141 0.09020034 0.048270352
0001a0 52 2b cb 3d fa 80 b0 bd c3 c8 b2 3c 0c a9 30 3d
       0.09920372 -0.0861835 0.021824246 0.043129966
0001b0 47 64 3f 3d e5 aa 31 3c e1 8a 13 bb e8 c6 67 bd
       0.04672649 0.010843967 -0.0022513198 -0.056586176
0001c0 c3 3f 99 bb b0 2b 20 3d 31 f0 47 3d 02 f5 a4 bd
       -0.0046767904 0.039104164 0.04881305 -0.08054544
0001d0 86 78 e1 3d 5f b0 12 bd f3 8a a3 3b 30 cd 81 bc
       0.11009316 -0.03581273 0.0049909293 -0.015844911
0001e0 ef bf 57 3d d1 a2 43 bd 21 76 ba bc 6c 37 52 3d
       0.052673277 -0.047762696 -0.022761406 0.051322386
0001f0 a2 cf 1f bc d1 82 d6 bc 37 10 2e bc bc 66 4e 3d
       -0.009754093 -0.026185425 -0.010623983 0.050390944
000200 6f ba 4a 3d 73 84 b0 3c 4a fe 98 bd 3a d5 ac bd
       0.049494203 0.021547532 -0.07470377 -0.08439107
000210 92 01 9c bc a2 d6 a5 bd f0 69 56 bd 6f 26 56 3d
       -0.019043718 -0.080975786 -0.052347124 0.052282747
000220 82 10 85 bd e8 aa 85 bd e3 8c 51 bd 6d ec 77 bc
       -0.06497289 -0.065267384 -0.05115975 -0.015132052
000230 7c 6b ba bd 44 89 07 bd a6 8b c6 3c 01 f3 01 3d
       -0.09102532 -0.03308989 0.024236511 0.031725887
000240 05 fa 13 bd e6 49 c8 3c 73 f4 0a 3d b4 17 10 bb
       -0.03612711 0.0244493 0.03392453 -0.0021986784
000250 68 80 aa bd 9b 38 19 bd 54 32 59 bd 63 8b b8 bc
       -0.08325273 -0.0374075 -0.053026512 -0.022527402
000260 84 e8 53 bd e8 47 29 bd e2 41 81 bc 18 ec a9 3d
       -0.051735416 -0.04132834 -0.015778486 0.082969844
000270 81 36 c7 3b 64 d4 94 3d 71 4c 00 bd c2 aa 59 3d
       0.0060794954 0.07267073 -0.0313229 0.053141363
000280 58 51 75 bd 7c f0 d3 bd 1e bb 17 3c 44 aa aa bd
       -0.05989203 -0.10348603 0.009260921 -0.08333257
000290 5c 02 7b 3c 1a 24 15 bd 60 bc 3f bd 13 31 80 3d
       0.015320387 -0.036411382 -0.046810508 0.0625936
0002a0 82 1d d0 bd c4 32 87 bd a9 3b 18 bc a4 48 00 bd
       -0.10161878 -0.0660148 -0.009291568 -0.031319275
0002b0 d1 15 40 3d f2 94 58 3b 20 37 81 3d 70 68 37 3d
       0.046895806 0.0033047763 0.063093424 0.044777334
0002c0 4a 95 d8 ba a0 13 36 bd 65 cb 80 3b 2b 8a 6b bd
       -0.0016523984 -0.04445231 0.0039304965 -0.057504814
0002d0 31 ba 7d bd 12 84 23 3d 05 99 47 3d c7 82 0d 3d
       -0.061945144 0.039920874 0.048729915 0.034548547
0002e0 db 48 ff bc 9d ec 47 bd 73 04 cb bd 0c ce a8 3c
       -0.03116267 -0.048809636 -0.09912958 0.020606063
0002f0 0e 40 00 bb 60 33 8c bd d5 0f c0 bd 24 56 a9 bd
       -0.001956943 -0.068457365 -0.0937802 -0.08268383
000300 1d d8 a0 3d 3e b2 b9 3d e9 6a 2a 3d 81 6d 0f 3c
       0.0785372 0.090672 0.041605864 0.008754135
000310 6f da 01 bd fb 42 7f 3d 42 1f 36 3d 70 cf 9b 3d
       -0.031702455 0.062319737 0.044463404 0.07607925
000320 dc bc 1f bd af d4 29 3d ba 25 8b 3c 6e a6 89 bd
       -0.03899847 0.041462597 0.016985763 -0.06721197
000330 74 94 5d bc 3f 8f 23 3c b1 35 44 3d 07 65 bf bd
       -0.0135241635 0.009982883 0.047902767 -0.09345441
000340 12 c5 4a 3d 28 6e 5f 3d 07 00 6c 3d 84 9c de bb
       0.049504347 0.054548413 0.057617214 -0.0067935605
000350 0f 68 bc 3d cc 05 90 3b 90 32 73 bd ec df cc 3b
       0.09199535 0.0043952223 -0.059374392 0.0062522795
000360 7b ee d7 3d 9d 75 d1 bc 28 c9 38 3d 98 98 50 bd
       0.105435334 -0.025568778 0.045113713 -0.050926775
000370 85 da 1b 3d a6 15 0e bd 16 80 20 bd 6f 99 f6 3d
       0.038050193 -0.034688614 -0.039184652 0.12040984
000380 60 60 d6 bd 68 66 85 bd 04 0b 0f bd e0 2f 28 bd
       -0.10467601 -0.06513673 -0.034922615 -0.041061282
000390 4f 60 ba 3d 96 c4 92 3d 43 84 4d bc e0 96 10 3c
       0.09100401 0.07166402 -0.012543741 0.008825034
0003a0 18 04 a9 bd 93 b3 9e bd 98 6b 52 3d f4 d8 45 3d
       -0.08252734 -0.07749095 0.05137214 0.048302606
0003b0 3a 1e e2 3c c2 22 4e 3d 38 38 3a 3d 0c 13 4a bd
       0.027602304 0.050326116 0.04546377 -0.04933457
0003c0 de 69 5f 3d ad 7d 90 bc fd 1b 9c bc b4 c7 13 bc
       0.054544322 -0.017638052 -0.019056315 -0.009019781
0003d0 98 c0 ab 3d 7a 9b 43 3d 40 cf a7 bd 7e 37 c3 3d
       0.08386344 0.047755696 -0.08193827 0.09532069
0003e0 16 5a 8d bd 16 4c 3e 3d b8 12 ba bd 7c 55 ba 3d
       -0.06901948 0.04645928 -0.090856016 0.09098336
0003f0 d7 07 c2 3a 3d ac 8c 3c 34 04 1e bc ee 32 8e bd
       0.0014803362 0.017171973 -0.009644557 -0.06943308

lstm.weight_hh_l1 f4 [512, 128]
000000 c5 36 8e 3d 10 47 a5 3c d0 9a fd 3c 3d dd 91 3d
       0.0694404 0.020175487 0.03095761 0.07122276
000010 59 7f 98 bd 9d 71 3d bd 07 c5 0f bd 14 80 98 bc
       -0.07446165 -0.04625093 -0.03510001 -0.01861576
000020 30 71 ed bb d8 34 a2 3c 06 c7 68 bd 2a 9c 55 3d
       -0.007246159 0.019800588 -0.05683043 0.052150883
000030 9a 56 28 3d 04 79 b4 bc d8 b0 5c 3c 8c c2 b4 bd
       0.041098215 -0.022030361 0.013469897 -0.08826169
000040 f9 e2 8f 3d 57 9d 68 bd ec 8c b3 bd 34 12 a8 bd
       0.070257135 -0.056790676 -0.08767113 -0.08206597
000050 12 d3 24 bd 7e be 36 3d 7b ad a8 bd be 18 9b bd
       -0.040240355 0.04461526 -0.08236214 -0.075730786
000060 f0 40 45 bd ca 8b 30 bd 75 d5 99 3d 14 5c 90 bd
       -0.048157632 -0.043102063 0.07511417 -0.070488125
000070 eb 7f 2f bd c6 c5 60 bd 01 e9 94 3d 10 db 35 3c
       -0.0428466 -0.05487611 0.072710045 0.011099592
000080 59 5e 9c 3d e4 ed fa 3c 91 72 93 3d 7b 87 83 3d
       0.07635183 0.030631013 0.07199586 0.06422325
000090 8a 14 46 3d 28 f8 35 3c c4 b7 e6 3c 25 14 88 bd
       0.04835943 0.011106528 0.028163798 -0.06644467
0000a0 74 31 07 3d b0 5a 30 3c b7 ed 85 3d 04 7e e1 3c
       0.033006147 0.010763809 0.06539481 0.02752591
0000b0 54 b1 e7 3c 69 6c 9b 3d 75 35 96 3d b6 0e e0 bc
       0.028282799 0.07589037 0.07334415 -0.027350765
0000c0 dc f3 92 bd a1 e2 17 bd c9 b7 91 3d ef 4b b0 3d
       -0.07175419 -0.037081365 0.07115132 0.08608233
0000d0 36 42 43 3d c8 35 df bc 8e 09 42 3d a1 bb 43 bd
       0.047670566 -0.027247325 0.047372393 -0.04778636
0000e0 94 41 90 bc 40 71 09 bb e0 f1 2f 3b 1c 1e 4e bd
       -0.017609395 -0.0020972043 0.002684705 -0.050321683
0000f0 7a 59 5f 3d e0 4b 61 3c 5c ec bb 3c d6 66 3c bd
       0.05452869 0.013751 0.022939853 -0.04599651
000100 89 4e 54 bd 8f 68 55 bd d0 07 04 3d d8 17 c9 bc
       -0.05183271 -0.052101668 0.032234013 -0.024547502
000110 00 1b f2 3a 34 c3 cf bc d0 48 fd 3b 2d 43 89 3d
       0.0018471181 -0.025361635 0.007729627 0.06702266
000120 4a d9 6c bd 50 f0 14 3d 7b 7a 59 bd 88 45 17 bd
       -0.05782441 0.036361992 -0.053095322 -0.036931545
000130 0c fb ef 3c 8a 53 67 bd c9 89 8a bd c4 85 a5 3c
       0.029294513 -0.056476153 -0.06764562 0.020205386
000140 7f cd 34 bd c4 21 84 bd 00 81 29 3b 21 1d 10 bd
       -0.04414129 -0.06451753 0.0025864244 -0.03518403
000150 76 61 18 3d ba 42 06 3d a2 8d 4f 3d c8 d6 90 bc
       0.03720232 0.03277848 0.05067218 -0.01768054
000160 e4 62 89 3c 7e 6c 91 bd 64 18 12 3d 40 4b 92 3a
       0.016770788 -0.07100771 0.035667792 0.0011161342
000170 d0 5a 73 bd b8 92 6c 3c 99 df ac bd 8e c5 1b 3d
       -0.059412777 0.014439277 -0.08441085 0.0380302
000180 20 36 69 3b fe 75 3a bd 60 4a 3f 3b df 7e b0 3d
       0.003558524 -0.045522682 0.0029188618 0.08617949
000190 2a c7 55 3d 40 cd bb ba 89 12 b1 3d 16 ad 3b 3d
       0.05219189 -0.0014328137 0.086461134 0.045819364
0001a0 6c fb 7a bd ab 06 ad 3d 53 49 91 3d 5c a0 3d bd
       -0.06127493 0.084485374 0.070940636 -0.04629551
0001b0 bd bb 0f bd e1 94 97 3d 56 14 67 3d 34 04 9f bc
       -0.03509115 0.07401443 0.05641588 -0.019411184
0001c0 ea 12 63 3d 00 39 89 3b 79 e4 8c 3d 5c a3 6f bd
       0.05543796 0.004187703 0.06879515 -0.0585054
0001d0 9f 08 aa bd 65 e6 af bd 54 72 d0 3c 48 7f ba bc
       -0.083024256 -0.08588866 0.02544514 -0.02276577
0001e0 1a 44 ad bd f5 0a 83 3d c0 a9 b5 3a a2 97 5d 3d
       -0.08460255 0.06398574 0.0013859794 0.054099686
0001f0 85 77 96 3d 90 4a 07 3d 60 45 10 3b 10 5a 6d bd
       0.07347015 0.033030093 0.0022014007 -0.05794722
000200 89 09 89 3d c0 f6 3b 3c 27 86 76 bd 2d a8 b2 3d
       0.06691272 0.011472404 -0.06018653 0.08723483
000210 a3 02 2f bd 76 b0 18 3d 18 3f 4b bc 57 b7 4a bd
       -0.042727124 0.03727766 -0.012405179 -0.049491253
000220 b2 ec 39 bd da 4f 2d 3d 69 b6 a6 3d 75 1b a5 bd
       -0.045391746 0.04231248 0.08140261 -0.08061878
000230 7c 48 de bc 50 e8 89 3b 07 0d 81 bd 24 f0 f1 3c
       -0.027134173 0.004208602 -0.06301313 0.029533453
000240 75 1b 54 bd 29 75 87 3d d4 7e e0 3c a6 c3 43 3d
       -0.051783998 0.066141434 0.027404226 0.047794007
000250 8c 6c 4f bd 32 f8 2e 3d 22 46 5a 3d 2a b5 71 3d
       -0.050640628 0.042717166 0.05328954 0.059010662
000260 7c 95 ef 3c f2 e4 95 bd 90 31 b0 bb dd 28 25 bd
       0.029246084 -0.073190585 -0.005377002 -0.040322173
000270 bf 44 13 bd b5 5c 83 3d 70 92 1e bc 33 e8 6b bd
       -0.035954233 0.06414167 -0.009678468 -0.05759449
000280 91 0d 57 bd 80 b4 26 3c 8d 7f 10 bd ae 9c ea bc
       -0.052503172 0.0101748705 -0.035277892 -0.028639164
000290 37 f5 aa 3d c8 09 a1 bc a6 33 2a 3d 21 8d 4d bd
       0.08347552 -0.019657984 0.041553162 -0.05018342
0002a0 93 6f 9b 3d 17 30 99 3d f4 4d c8 bc aa b8 2d bd
       0.075896405 0.074798755 -0.024451233 -0.042412437
0002b0 60 e2 8d bc 55 cb 9e 3d e9 31 02 bd 00 44 a7 3b
       -0.017319858 0.07753626 -0.03178588 0.005104542
0002c0 e1 21 88 bd 00 ef ac bb 9e 54 63 3d a8 fa c8 bc
       -0.06647087 -0.0052775145 0.05550062 -0.024533585
0002d0 91 91 ac bd f8 4a 0e bc 06 ea 47 bd 82 06 4c 3d
       -0.08426202 -0.008684866 -0.048807167 0.049810894
0002e0 13 69 41 bd 00 10 06 b9 50 ff b0 bb 76 fb 36 bd
       -0.047219347 -0.00012785196 -0.0054015294 -0.044673406
0002f0 33 39 5f bd 74 97 ca bc 16 40 33 3d 9c fc a1 bd
       -0.05449791 -0.024730422 0.04376229 -0.079095095
000300 2f 9d 9a 3d e2 ec 68 3d a0 d3 8b 3b 08 14 b2 bc
       0.07549512 0.056866534 0.004267171 -0.021738067
000310 76 94 2a bd cd 6e ab 3d 99 15 a2 3d 00 2e 14 3a
       -0.04164549 0.08370743 0.07914276 0.00056526065
000320 40 5e 10 bd 70 92 b9 bb 02 10 69 3d 70 f6 a7 3c
       -0.035246134 -0.0056632087 0.056900032 0.020503253
000330 da 8f 4d 3d 75 7d 65 bd 2c b6 93 bd 77 a7 a1 3d
       0.050186016 -0.05602785 -0.07212481 0.078932695
000340 40 a2 8f 3b 56 07 11 bd a0 e1 17 bb a0 de ad 3c
       0.0043833554 -0.035407387 -0.0023175254 0.02122432
000350 b6 23 15 bd ee 27 0f 3d 8c 7c ff bc 10 c8 05 bc
       -0.03641101 0.03495019 -0.031187318 -0.008165374
000360 d7 3e 38 bd c0 a3 86 3c 22 ec 6d bd 67 c1 98 3d
       -0.044981804 0.016435504 -0.058086522 0.074587636
000370 64 5a e5 bc 3e 31 53 3d 52 31 1c 3d 23 01 87 bd
       -0.027997203 0.051560633 0.038132973 -0.06592014
000380 60 9a b4 bd 81 a2 82 3d 9a f0 30 3d 28 08 46 bc
       -0.08818507 0.063786514 0.043198206 -0.012086906
000390 84 d4 95 3c bb 36 4d bd 62 d9 5a 3d 7e bb 8d bd
       0.018289812 -0.050101023 0.05342997 -0.06920527
0003a0 c0 b3 9d bc 79 d9 1b bd 32 df 3e 3d 05 ac 8a 3d
       -0.01925075 -0.038049195 0.046599574 0.06771091
0003b0 c0 80 5d 3c 70 14 bb 3c 40 79 71 bd 02 3b 66 bd
       0.013519466 0.022836894 -0.058953524 -0.056208618
0003c0 70 c0 49 bc 54 95 0d 3d 00 d9 62 bc 63 11 a0 3d
       -0.012313947 0.03456624 -0.013845682 0.07815816
0003d0 51 b1 8a bd 59 b3 97 bd 14 6d 62 bd d0 30 60 3c
       -0.06772102 -0.07407255 -0.055279806 0.013683513
0003e0 d1 41 61 bd c8 70 23 bc b8 0e ac bd 78 67 af bc
       -0.054994408 -0.00997562 -0.08401245 -0.021411642
0003f0 7d 88 88 3d 7d 81 4a bd 10 d4 aa 3c 2e 32 26 3d
       0.06666658 -0.049439896 0.020853072 0.0405752

lstm.bias_ih_l1 f4 [512]
000000 3c ad 5e bd a5 75 ab 3d 7b c9 36 bd 6f 99 5e bd
       -0.054364428 0.08372048 -0.04462574 -0.054345544
000010 88 d5 86 3c da b2 41 bd 05 35 90 3c ca 7b cb 3c
       0.016459242 -0.047289707 0.017603407 0.0248393
000020 24 4f 22 3d 62 2e 2f bd 8a 78 5b bd 53 bf d8 3d
       0.039626256 -0.042768843 -0.053581752 0.10583367
000030 53 eb 37 bc aa 78 0c 3d f7 04 3b bd b3 75 9c 3b
       -0.011225539 0.03429476 -0.04565903 0.004774773
000040 a5 82 89 3d 03 38 66 bc 9f 5f fc bc 4e 95 48 3b
       0.067143716 -0.01405144 -0.030807314 0.003060657
000050 17 14 1e 3d 6b 30 43 bd 98 2c 22 bd 96 8a 83 3d
       0.038593378 -0.047653597 -0.03959331 0.064229175
000060 c6 03 66 3b 91 90 ce 3d e7 a3 a6 3d 3d 0d b1 3d
       0.0035097464 0.100861676 0.08136731 0.08645103
000070 f7 5a 8a 3d 0a 20 ee bb e8 13 dc bc f0 56 c7 3d
       0.067556314 -0.007267003 -0.02686496 0.09733379
000080 32 ac 46 3c 3c b3 97 bc 52 a6 8c 3d cb f2 c9 3c
       0.0121260155 -0.018518083 0.068676606 0.024651906
000090 d8 8c 62 3d 45 c9 ce 3d 22 67 5d bd c9 fc 3f bd
       0.0553101 0.10096983 -0.054053433 -0.046871934
0000a0 4a 64 09 bd dc 90 0c 3a 4c 88 95 3d c2 55 4c 3d
       -0.03354291 0.0005362162 0.07301387 0.049886473
0000b0 55 f5 ab 3d d9 c2 17 bd 1b 57 f4 3c 4e 6e 37 bd
       0.08396403 -0.037051056 0.029826691 -0.04478293
0000c0 8b 22 54 bc f1 3e 10 3d 6e 41 46 3d d9 95 f2 3d
       -0.012947689 0.035216276 0.048402242 0.118449874
0000d0 99 f2 61 bb 5b 16 b3 3d 82 53 b4 3d 19 23 0f 3d
       -0.0034476875 0.08744498 0.0880499 0.03494558
0000e0 99 7d b4 3c 9d c9 5d bc 5b a2 b1 3d 20 8b 3a 3c
       0.022032546 -0.013536838 0.08673545 0.011385709
0000f0 a8 0c 6d 3d c8 76 1f 3d 1e 27 c3 3d 5b 92 8e bd
       0.057873398 0.038931638 0.095289454 -0.06961509
000100 4b 1d 12 3d 0f 27 d2 3d 5d f9 f4 bc 5b 29 9d 3d
       0.035672467 0.10261356 -0.029904062 0.076739036
000110 d1 5c 00 3c ef 24 9c bc 2b 74 19 3d aa 46 5b bc
       0.007834629 -0.01906058 0.037464302 -0.013383547
000120 b9 15 67 bd b3 c3 73 3d 91 50 b2 bc b1 84 d3 3d
       -0.0564172 0.059512805 -0.021766933 0.10328043
000130 73 2d c8 3d 01 68 5f 3d 62 b4 2c bd 44 03 63 3d
       0.09774294 0.054542545 -0.042164214 0.055423036
000140 66 e1 bb bb f3 03 f5 bc e0 34 19 bd 98 b4 ba 3d
       -0.0057336567 -0.02990911 -0.03740394 0.09116477
000150 50 fb 9f 3d 7c 49 86 3d aa 61 e0 3b 72 f4 39 bd
       0.07811606 0.06556985 0.00684758 -0.045399137
000160 b2 b6 3b bb c1 52 fe bc 6a a0 27 3d ba 01 28 bd
       -0.002864283 -0.03104532 0.040924467 -0.04101727
000170 8f db 82 bd 2f 7f 4e bd 65 63 ba bc 55 c0 30 3d
       -0.06389534 -0.05041426 -0.022752473 0.043152172
000180 02 68 fc bc 5b f9 54 3b 23 30 33 3d 09 05 e7 3c
       -0.030811314 0.003249726 0.04374708 0.028200643
000190 a6 76 25 3d 2c 2a bc 3d e1 75 64 bd 40 eb df bc
       0.040396355 0.09187731 -0.05577648 -0.027333856
0001a0 40 52 19 3d 08 2f 5a bd 5f dc 15 bd 4c bc 90 3c
       0.037431955 -0.05326751 -0.036587115 0.017667912
0001b0 2a 82 36 3d d5 83 c4 3d 00 60 2d 3c 18 93 56 3d
       0.044557728 0.095954575 0.01058197 0.052386373
0001c0 65 8d 62 bc 5a bd d6 3d d8 ee 49 3d c0 84 fb 3c
       -0.013827656 0.10485335 0.049300045 0.030702949
0001d0 82 d7 b3 3d 30 c6 57 bd 71 c3 88 bc dd 87 86 bd
       0.08781339 -0.05267924 -0.016694756 -0.065688826
0001e0 47 c6 b1 3d de a0 c9 3d 0e 36 1b bc c8 70 25 3d
       0.086803965 0.09845136 -0.009473337 0.04039076
0001f0 1e 81 e1 3d af 37 6d 3c 19 7b a3 bc 21 1b 45 bc
       0.11010955 0.014478608 -0.019956158 -0.012030394
000200 0d a1 93 bd 36 29 4b 3d 0c ab 9c bd bc de bb bc
       -0.072084524 0.04959985 -0.07649812 -0.022933356
000210 68 a1 19 bc c8 01 17 bd be 48 54 3d d2 e1 89 bd
       -0.009376861 -0.036866933 0.051827185 -0.06732525
000220 a0 a2 4a bc 3c 4c 9b 3c 86 87 2b 3d fc d6 e2 3c
       -0.012367874 0.01895725 0.041877292 0.027690403
000230 14 7d fe 3c ca de 98 bd ce 6a 1d 3d a0 4c b5 bc
       0.031065501 -0.07464369 0.038431935 -0.022131264
000240 90 9e 28 3c 3f 3d 83 3d c7 b2 a1 bd 1b af 9a bd
       0.0102917105 0.06408166 -0.07895427 -0.0755293
000250 91 e1 82 3d 20 eb ae 3c 55 ef 5f bd fc 14 45 bd
       0.0639068 0.02135235 -0.054671604 -0.048115715
000260 8c c1 05 bd f8 b6 ff bc 97 95 90 3d f2 44 65 bd
       -0.032655284 -0.031215176 0.07059782 -0.055973954
000270 85 f1 b3 3d 40 aa 20 3c f0 4d d2 3c 20 b8 4a 3b
       0.087863006 0.009806216 0.02567193 0.00309325
000280 47 9d 83 bd 89 c8 a4 3d 5f eb 86 3d e4 40 fd 3c
       -0.06426483 0.080460615 0.06587862 0.030914731
000290 a0 8b ee bb 00 6e c0 3b aa d3 f9 bc 47 47 af bd
       -0.007279828 0.005872488 -0.030496437 -0.08558517
0002a0 ac b6 e4 3c 2e 82 60 bd e1 37 a0 bd 42 63 5f 3d
       0.027919136 -0.05481165 -0.07823158 0.05453802
0002b0 1c 4c e1 3c f8 fb 87 bd 00 a7 39 3a c2 0a 2e 3d
       0.027502112 -0.06639856 0.0007082075 0.04249073
0002c0 04 e3 99 bd c7 b0 96 bd e3 7e 91 3d ad 82 60 bd
       -0.07514003 -0.07357936 0.0710428 -0.054812122
0002d0 90 5c 3e bc dd 13 8d 3d 39 3e 8d 3d 50 f7 77 bc
       -0.011618748 0.06888554 0.06896634 -0.0151346475
0002e0 6a d1 77 3d c8 08 c0 3c 3b f3 80 3d b0 a7 c4 3c
       0.060502447 0.023441687 0.062963925 0.02400574
0002f0 d0 13 fc bb 59 ca a4 3d dc 6a 33 bd 7d c6 5d bd
       -0.0076927915 0.08046407 -0.04380308 -0.05414437
000300 00 e9 17 ba 20 70 89 3c 3c 89 91 bd a8 56 90 3c
       -0.00057949126 0.016777098 -0.071062535 0.017619446
000310 58 72 d9 3c cd 49 38 bd c0 5e f2 ba 78 73 00 bc
       0.026543781 -0.044992257 -0.0018491372 -0.00784003
000320 73 ad 96 bd c9 8d a6 3d 62 b7 49 3d a7 e5 01 bd
       -0.073573016 0.08132512 0.049247153 -0.031713154
000330 29 ab ad bd 1e 57 1f 3d 80 0e ca bc 95 44 82 3d
       -0.08479912 0.03890144 -0.024665117 0.06360737
000340 dc 91 38 bd e0 a3 34 bb b0 d8 0d bc dc 8e 8a 3c
       -0.045060977 -0.0027563497 -0.008657619 0.016913824
000350 40 17 ce bb 0a fd 34 3d 84 86 20 bd dd b8 a5 3d
       -0.0062893927 0.04418663 -0.039190784 0.080919005
000360 4c 5b b2 3c ba 9d 41 3d c0 cb d7 3c 48 06 c8 bc
       0.02177205 0.04726956 0.026342273 -0.024417058
000370 49 a2 84 3d de 1e 52 3d 7e a7 57 3d 18 c6 99 3c
       0.06476266 0.05129897 0.052649967 0.018771216
000380 5a e4 3e 3d 14 78 10 3d 00 a9 c5 39 f4 e6 cf 3c
       0.04660449 0.035270765 0.00037700683 0.025378682
000390 48 ff 36 bc 80 2a 9d 3a 70 8c 96 3b d1 24 58 bd
       -0.011169262 0.0011990815 0.004594378 -0.052769486
0003a0 90 a3 37 bc cd ad b4 3d 05 82 15 bd 63 08 89 3d
       -0.01120843 0.08822212 -0.03650095 0.06691053
0003b0 68 dd 9d bc a8 72 88 3c 0d 6e a6 bd 55 08 37 bd
       -0.019270614 0.016656235 -0.08126459 -0.04468568
0003c0 b0 8a 79 bc 90 8c ea bb 0b 4f 85 bd 22 03 0e 3d
       -0.01523082 -0.0071578696 -0.06509217 0.034670956
0003d0 a0 be 75 bd 18 46 a3 bd 60 6d c4 3c c2 dc 94 bd
       -0.059996247 -0.07972354 0.023977935 -0.07268669
0003e0 ab c3 03 bd e0 14 1c bb ad ff 69 bd 5c 7c a8 bd
       -0.032169025 -0.0023816153 -0.057128597 -0.08226845
0003f0 18 98 22 bd 7f aa 8f bd 7e 25 14 3d a0 87 14 3b
       -0.03969583 -0.070149414 0.036168568 0.0022663847
