LSTM_for_PDE/codes/model/ns2d_adam.pth (torch, 225699 bytes, 12 tensors)

lstm.weight_ih_l0 f4 [256, 3]
000000 58 41 18 3e 89 4c 3e be d8 cd 33 3e b8 88 0d be
       0.14868677 -0.18583883 0.17558992 -0.13821685
000010 5b be 98 be 23 ad df bd d2 6b 8c 3e 6f aa 11 bf
       -0.2983273 -0.10921695 0.2742601 -0.56900686
000020 c0 dd f7 be 51 80 7a 3d 9f 9d 33 bd fd 37 06 be
       -0.4841137 0.06115753 -0.04385149 -0.13107295
000030 dc 08 8e 3e cb a3 9f 3e 6f 70 ab bd 9b 7a 4e be
       0.27741134 0.31179652 -0.083710544 -0.20163958
000040 69 40 8f be 73 a5 8c be fd ab ef bd b0 c1 3d 3e
       -0.2797883 -0.27469978 -0.11702726 0.18530917
000050 e7 96 db bd 08 75 85 be 16 30 1d be d0 f5 aa bb
       -0.10722142 -0.2606585 -0.15350375 -0.0052172914
000060 c0 8b d9 bd 38 52 98 be 25 d4 91 bd 52 a3 12 3d
       -0.10622358 -0.29750228 -0.071205415 0.035800286
000070 d4 96 0d 3e 06 72 99 3d b8 8f 08 3b 97 30 0a be
       0.13827068 0.07492451 0.0020837616 -0.13495098
000080 23 8a e5 bd c9 d4 9b be ca 96 ab be e7 08 d3 bd
       -0.11207988 -0.3043578 -0.3351348 -0.10304432
000090 3e 35 c1 bd 1d 5a 21 3e 04 cf 99 3d c8 62 69 bd
       -0.09433983 0.15757032 0.07510188 -0.05697897
0000a0 22 2f 28 3e 6a f2 f0 3d b2 d0 02 be a7 b6 4d 3e
       0.1642423 0.11764987 -0.12774923 0.20089208
0000b0 6f 81 b2 3d cb 73 68 bc 5c 2f 33 be 85 ca da ba
       0.08716094 -0.014187763 -0.17498535 -0.0016692436
0000c0 c6 53 2c 3e 07 18 08 be 1d b5 2e 3d 6e 3a 32 3d
       0.16828832 -0.13290416 0.04265319 0.043512754
0000d0 c1 c4 2b bd 5a 2d 49 3f dd 48 11 be 90 9c 1e be
       -0.041935686 0.78584826 -0.14187951 -0.15489411
0000e0 c2 26 94 bc 63 18 24 3e ea b4 03 be 2a 04 22 3d
       -0.018084887 0.16024928 -0.12861982 0.039554752
0000f0 d4 6a 55 bd e2 ef 3b be 64 8b f0 bd 2c b1 b1 bd
       -0.052103832 -0.18353227 -0.11745337 -0.08676371
000100 40 81 56 3e 3a 32 3d be 7c 54 0f 3e 7f 3c 8d 3e
       0.20947742 -0.18476191 0.13997072 0.27585217
000110 01 79 5d 3c 36 13 df 3e 78 61 12 3f a1 87 8e bd
       0.013517619 0.43569344 0.57179976 -0.06959463
000120 11 20 df 3e c6 cb a7 3e 45 ed b2 bc 0f b4 88 bd
       0.43579152 0.32772654 -0.021841655 -0.066749685
000130 b4 af 5f be 0e 86 32 be 06 db a0 3e f5 ca 92 bd
       -0.21844369 -0.1743395 0.31417102 -0.07167617
000140 3b 1b 02 bf 2e e2 bf bd 84 72 32 3e a4 aa 22 3e
       -0.508228 -0.09369312 0.17426497 0.15885407
000150 86 77 f1 bd 2b 9d 2a bc ae e0 8a bc 63 13 2b 3e
       -0.117903754 -0.010413448 -0.016952839 0.16706614
000160 c2 c8 23 be ef c6 1e 3e 57 c7 77 3e 26 c9 c2 3e
       -0.15994552 0.15505575 0.24197136 0.3804409
000170 63 e5 ff 3d cc 0d a3 3e a7 0b c1 3e 84 bc 51 3f
       0.12494924 0.31846464 0.37704203 0.81928277
000180 aa 59 5c 3e 13 fa 97 3b 3e 58 04 3e 83 e0 74 be
       0.21518579 0.0046379655 0.12924287 -0.2391377
000190 6a c7 dd be 34 83 71 3d 3d 02 28 3e a3 ca 7b 3e
       -0.43316203 0.058963016 0.16407104 0.24589019
0001a0 2a 5d 8e bd 6e 7e 93 3d a4 70 a9 3d 88 e9 a2 bc
       -0.069513634 0.07201849 0.082734376 -0.019886747
0001b0 ea 8d 5b 3d df a8 bb bd 95 94 da 3d b8 9d 04 be
       0.053602137 -0.09163069 0.10672871 -0.1295079
0001c0 e8 80 5e 3e 6c ba 93 bd 90 ef 60 be f5 e6 b1 bd
       0.21728861 -0.072132915 -0.21966386 -0.0868663
0001d0 22 46 8a bd cb ee 91 be d4 3a 53 be a1 1b 84 be
       -0.06751658 -0.28502497 -0.2062791 -0.2580233
0001e0 7c 4f 1f be 69 80 80 bd a5 f0 04 bb a2 a7 cb 3e
       -0.15557665 -0.06274492 -0.0020285037 0.3977633
0001f0 72 c3 e1 3e 7a 40 2f bd c5 4d 3f be 50 e4 37 3e
       0.44094425 -0.0427861 -0.1868201 0.17958188
000200 54 c6 02 be 3a 6e 2b bd 25 9c e5 3d 0b c7 13 bd
       -0.12770969 -0.041853167 0.11211423 -0.036078494
000210 77 e0 a1 bc 22 aa d6 bd eb e7 5a be 5e bc 38 3e
       -0.019760353 -0.10481669 -0.21377532 0.18040606
000220 32 24 b5 bd 38 d5 0e 3d db 59 36 be c2 b0 75 3e
       -0.08844794 0.03487131 -0.17807715 0.23993209
000230 16 d1 71 be 2f 8a 0a 3f 7f 53 43 3f 18 63 96 bc
       -0.23614916 0.541171 0.7629928 -0.018357798
000240 83 67 c5 3e 48 63 14 be 37 65 0c bd f6 f4 42 3e
       0.38555536 -0.14490998 -0.034276213 0.19038758
000250 8e 44 21 3e 03 9b c0 3e 9d 7d 9e 3d e4 8a 08 3c
       0.15748808 0.37618265 0.077388026 0.008333895
000260 ce 74 a8 bc 9d e3 1e be 32 df 9d be 5a 2e c7 bd
       -0.02056351 -0.15516515 -0.30834347 -0.09725638
000270 5c ae 81 be 3d b0 58 be 81 59 97 be c0 27 c7 bd
       -0.25328338 -0.2116098 -0.29560474 -0.097243786
000280 aa 6e 86 be 34 ad a0 3d ae 2d 6a be 17 26 50 be
       -0.26256305 0.07845536 -0.22868988 -0.2032703
000290 9b d3 84 be 55 7d 34 be a3 fd 28 3d 73 a6 c4 bd
       -0.25942692 -0.17625935 0.04125751 -0.0960206
0002a0 39 29 60 3e fd 26 83 3d 9d 20 b5 bc 43 97 59 bd
       0.21890725 0.06403921 -0.022110278 -0.05312277
0002b0 8d f7 da bb 3f 31 42 be 3a 94 04 3e 94 5e 73 3e
       -0.0066823424 -0.18964098 0.12947169 0.23766547
0002c0 78 00 de be f1 5b 83 3e 0d 77 2f 3c d1 bc 4c bc
       -0.43359733 0.25656083 0.010709536 -0.012496189
0002d0 e1 84 8b 3d 37 b9 b0 3d 5d 9a ca 3d d4 ca 0e bd
       0.06812454 0.08629077 0.09892724 -0.0348614
0002e0 01 1f 24 bc bf 21 11 bd 59 63 0b 3e 17 16 0f 3e
       -0.0100171575 -0.035432573 0.13612117 0.1397327
0002f0 a6 29 48 bd 7e 70 21 3e c1 c7 63 be bf c1 2f 3d
       -0.048867844 0.15765569 -0.22244169 0.04290938
000300 e2 42 94 bd d6 4f f8 bd 98 f2 30 bd f8 e6 0c 3d
       -0.072393194 -0.121246025 -0.043200105 0.034399956
000310 bc 5c c5 3d c4 13 66 bd 58 30 7f 3d 48 64 a6 bd
       0.09636828 -0.056171194 0.062301964 -0.08124596
000320 b2 f5 cf 3d fa 26 fc 3d 00 92 ab 3a e0 4d 66 bc
       0.101542845 0.12312122 0.0013089776 -0.014056653
000330 00 df f5 3b a6 81 d8 3d 12 34 fd 3d 10 96 b4 3c
       0.0075033903 0.105716035 0.12363447 0.022044212
000340 20 4b a4 bd 14 b8 31 3d 10 1b b6 3c 30 83 6f bd
       -0.080221415 0.04338844 0.022229701 -0.05847472
000350 f6 7a 91 bd c8 a1 97 3d 20 18 8e bb 6c 74 76 3d
       -0.07103531 0.07403904 -0.004336372 0.060169622
000360 d2 ae a8 bd d2 26 ea 3d 3c 55 53 3d f0 0a 1f bc
       -0.08236469 0.11433186 0.051594958 -0.009707198
000370 14 28 16 bd 98 b2 aa 3c 24 5e e8 bd 52 a1 c6 3d
       -0.036659315 0.020837113 -0.11346081 0.09698738
000380 d8 32 fe bd 40 12 8a bc 24 56 5c bd 7e b9 a2 3d
       -0.124120414 -0.016854405 -0.053793088 0.07945536
000390 f8 ba db 3d f2 cd b3 3d cc 50 de 3d f4 3d 37 bd
       0.10729021 0.08779515 0.108552545 -0.044736817
0003a0 fa 31 fb 3d 3a 36 cd 3d d0 2e ac bd 16 cb 88 3d
       0.12265392 0.100201085 -0.08407366 0.066793606
0003b0 7a ff c1 3d 42 dd c4 bd 60 ba d2 bc 80 6b f7 3c
       0.094725564 -0.09612514 -0.025723636 0.030202627
0003c0 60 6d a4 3c 58 05 d6 3c e4 8e 5b bd 60 fa 56 3d
       0.020071685 0.026125595 -0.053603068 0.05248487
0003d0 40 1e 99 3d 00 29 ee 3c 40 d2 9f bc 76 94 d5 3d
       0.07476473 0.029072285 -0.019509435 0.10428707
0003e0 e0 23 7f 3d b8 9b bd bd 68 02 cf bd 60 7c b2 3c
       0.062290072 -0.092582166 -0.10107881 0.021787822
0003f0 38 fb 05 3d 20 7a 99 3c 44 59 8a bd b8 53 9f bd
       0.032710284 0.018734992 -0.06755307 -0.0777964

lstm.weight_hh_l0 f4 [256, 64]
000000 04 4d eb 3d 80 42 b7 bb 7c 5b 86 3d 20 c7 53 bd
       0.11489299 -0.005592644 0.06560418 -0.051703572
000010 4e f8 ad 3d 44 12 d6 3d 50 de 1c bd 32 5a 86 bd
       0.08494626 0.10452703 -0.03829795 -0.06560172
000020 3c 78 58 3d 04 ee 6e bd 74 ab ac bd ec 2c ca 3d
       0.05284904 -0.05833246 -0.084311396 0.098718494
000030 88 bd 00 3d 10 38 14 bc 00 9c e4 ba 1c d3 c9 3d
       0.03143075 -0.0090465695 -0.0017441511 0.09854719
000040 12 cc 82 3d 1a 93 9b 3d f0 4b 53 bd 7a 99 87 3d
       0.063865796 0.07596417 -0.05158609 0.0662107
000050 00 ef 12 ba e8 62 b6 bd 80 90 8f 3a 0c 97 54 3d
       -0.0005605072 -0.089055836 0.0010953099 0.051901862
000060 98 5a bf bd 9c 4b 64 3d 6c dd 83 3d b0 2c 56 bd
       -0.09343451 0.05573617 0.06438717 -0.05228871
000070 34 14 9a 3d f4 23 6b bd 30 87 ae 3d 1a 9d dc bd
       0.07523385 -0.057407334 0.08521879 -0.10772152
000080 a0 72 6d 3c 42 99 e2 bd 3c 5c 21 3d b4 92 dc 3d
       0.014492661 -0.11064388 0.039394602 0.10770169
000090 ac 05 77 bd a4 b5 1a 3d 70 f5 39 bd 8c a2 a3 bd
       -0.060308143 0.037770882 -0.045400083 -0.07989988
0000a0 f8 ec 25 bd 2c 89 08 3d bc 4d 2b 3d 00 e8 52 3d
       -0.040509194 0.033333942 0.04182218 0.051490784
0000b0 80 14 53 3d 3e 72 9e 3d be 67 d3 bd dc e5 c1 bd
       0.051533222 0.07736634 -0.103225216 -0.0946767
0000c0 a0 d3 7a 3d 20 c0 28 3c 72 ff f3 3d b0 28 ed bd
       0.061236978 0.010299712 0.11913957 -0.11580026
0000d0 4e ac d0 bd ea 97 cc 3d 18 97 cb bd f0 a4 d1 3d
       -0.101891145 0.09989913 -0.09940928 0.102365375
0000e0 f8 e2 99 bc 22 d5 96 3d 08 88 dc bc ec 97 dc bd
       -0.018784985 0.073648706 -0.026920334 -0.10771164
0000f0 9c 97 0d bd b8 29 80 bd 30 74 28 bd 84 63 6f 3d
       -0.034568414 -0.06257957 -0.04112643 0.058444515
000100 e4 f4 dd bd 90 33 3f 3d 10 ed 68 3d 5c 5a 9b bd
       -0.10837725 0.046680033 0.056866705 -0.07585594
000110 08 25 d2 3c 60 50 30 bc 38 55 c2 3d 36 d5 b0 bd
       0.025652424 -0.01076135 0.094889104 -0.08634417
000120 ce 1a a4 3d e4 c1 64 bd 66 89 ff bd 76 34 ff 3d
       0.08012925 -0.05584897 -0.124773785 0.12461178
000130 70 08 d7 3c 00 34 fa 3b 60 89 26 bd 7c 8c e2 3d
       0.02624914 0.0076355934 -0.040658355 0.110619515
000140 00 aa a3 3b 4c 51 cf bd 08 08 07 bd 62 c1 80 bd
       0.004994631 -0.10122928 -0.032966644 -0.06286885
000150 f0 be 04 3c 86 d9 ca 3d ec cd 4f bd e4 6d 76 3d
       0.008102164 0.099047706 -0.05073349 0.060163394
000160 2e 06 b4 bd c8 16 6d 3d 26 63 86 bd 08 20 8a 3c
       -0.08790241 0.057883054 -0.0656188 0.016860977
000170 32 60 ed bd 96 62 b4 3d a0 e6 64 3c 6c 17 30 3d
       -0.115906134 0.08807866 0.013971001 0.042991087
000180 a2 a0 ea bd 40 c2 0d bb 68 40 ab bd c8 8e 31 bd
       -0.114564195 -0.0021630675 -0.08361894 -0.043349057
000190 00 71 09 3b 84 28 25 3d fc c9 21 3d 98 bc 2e bd
       0.0020971894 0.04032184 0.039499268 -0.042660326
0001a0 10 c2 b7 bc d8 6b 39 3d 50 31 fe bc 8a 5e 88 bd
       -0.022431403 0.045268863 -0.031029373 -0.06658657
0001b0 08 0c fc bc 18 9d 98 3c e6 4e a7 3d f2 e3 99 bd
       -0.030767456 0.018629596 0.081693456 -0.0751418
0001c0 d8 7c da 3d 06 2d b6 3d f0 5b 79 bd da a2 ac bd
       0.10668343 0.08895306 -0.060878694 -0.08429499
0001d0 22 3d d5 3d 5c 16 f5 3d 52 64 bc bd 00 88 2b 3d
       0.10412051 0.11967155 -0.09198822 0.041877747
0001e0 40 d9 2f bb e2 7b a3 3d e8 de 82 bd 74 e2 f4 bd
       -0.0026832372 0.07982613 -0.06390172 -0.11957255
0001f0 98 ff 3f bd f8 32 54 3d 6a ce cf bd 24 35 18 bd
       -0.046874613 0.05180642 -0.10146792 -0.037160054
000200 60 84 8f 3b 40 98 39 3c 50 f9 9f 3c 32 f2 86 bd
       0.004379794 0.011327803 0.019528061 -0.06589164
000210 48 b7 c0 3c 3c f4 13 bd f4 ed 16 3d 9e e7 c9 bd
       0.023524895 -0.036121592 0.036848024 -0.098586306
000220 08 ea 2d bd aa 86 ea 3d 82 8d d4 3d dc 3a 6d bd
       -0.042459518 0.114514664 0.10378553 -0.05791746
000230 d0 42 12 bc ba 6f b8 3d 8c 40 4f 3d d2 3a d4 3d
       -0.008927062 0.09005685 0.050598666 0.103627816
000240 d0 cc 6f 3c 48 fd d8 bd 88 68 4b 3d 16 33 d2 3d
       0.014636233 -0.105951846 0.049660236 0.1026365
000250 18 c6 63 3d 1c 17 75 bd 50 3f de bd 8a ca a5 3d
       0.05560884 -0.059836492 -0.1085192 0.08095272
000260 ea 6c dc 3d 00 48 c8 ba 68 2c 39 bd dc 1b 39 3d
       0.10762961 -0.0015280247 -0.045208365 0.045192584
000270 50 e2 2d bd 80 92 d7 bc 40 34 5a bc 00 63 d6 bb
       -0.042452157 -0.026314974 -0.013318121 -0.0065425634
000280 48 46 b5 3d fe c8 f0 3d b4 ef a2 3d 16 03 9e 3d
       0.08851296 0.11757086 0.07955876 0.07715432
000290 74 4b 4b bd b0 3b c4 bc e2 8b bf 3d 8c e1 fd bd
       -0.049632505 -0.023954242 0.093528524 -0.12396535
0002a0 20 09 9f bd 00 07 44 ba 40 b7 39 3d b0 9d 20 3c
       -0.07765412 -0.000747785 0.045340776 0.009803221
0002b0 78 64 e9 bd bc 4a 8c 3d 5c 14 07 3d 1c 34 4e bd
       -0.11396116 0.06850192 0.0329784 -0.050342664
0002c0 0c 2e 34 3d e6 32 b0 bd 58 44 68 bd 70 2b 55 bd
       0.043989226 -0.08603458 -0.056705803 -0.05204338
0002d0 e4 4f 1f 3d 28 ea b1 bc 92 f7 a9 bd 90 5b 60 bd
       0.03889455 -0.0217181 -0.082991734 -0.05477482
0002e0 68 8f b0 3c 80 dd 1f bb ec 60 19 3d f2 0a e2 bd
       0.021552756 -0.00243935 0.037445948 -0.11037244
0002f0 80 7c 64 3b a4 9f cc 3d b4 a2 77 3d 2c b7 34 bd
       0.0034864247 0.099913865 0.0604579 -0.04412
000300 b4 85 29 bd 10 61 70 bd 80 16 e3 3a 50 b2 77 bd
       -0.041387275 -0.058686316 0.0017325431 -0.060472786
000310 e8 be 1d bd 60 9a 20 bc d8 45 c7 3c 90 fc 23 3d
       -0.03851214 -0.009802431 0.024325296 0.040035784
000320 80 26 df bd 68 ed b3 3d ec d2 b7 bd 00 f3 b1 3c
       -0.10896015 0.08785516 -0.08975777 0.021722317
000330 38 3b e1 3d 8e a9 d5 bd a0 41 92 bc 08 27 41 3d
       0.10997623 -0.104327306 -0.017853558 0.047156364
000340 2a 23 f5 3d b0 ca 1b bc 18 fb bb 3c 64 f7 9e bd
       0.11969598 -0.009508774 0.02294688 -0.0776203
000350 74 b3 e4 bd da fd da 3d 34 6f d4 bd 24 c4 4b 3d
       -0.111670405 0.106929496 -0.10372773 0.0497476
000360 f0 73 ca 3c 80 de 25 bd 60 1d e4 3c 28 e7 b1 bc
       0.024713486 -0.040495396 0.027846038 -0.02171667
000370 86 78 ce 3d 24 7a df bd 5a 6a e8 bd 7c 69 97 bd
       0.10081582 -0.10911968 -0.1134841 -0.073931664
000380 70 5e 02 3d 1c a0 5b bd 88 8d 0f bd a2 93 88 bd
       0.031828344 -0.05361949 -0.035047084 -0.06668784
000390 60 1c b2 3c 3a 16 ac bd 28 3f 01 3d dc 0e 5a bd
       0.021742046 -0.08402677 0.03155437 -0.053236827
0003a0 0c db 06 3d 40 a4 a1 bc 14 53 30 bd 84 e8 92 bd
       0.032923743 -0.01973164 -0.04304798 -0.07173255
0003b0 20 57 64 bd 7c fa cb 3d 0c 18 cc bd b4 0c bc bd
       -0.05574715 0.099598855 -0.09965524 -0.091821104
0003c0 38 88 92 3d f4 33 2f bd 94 e9 4d bd 52 b6 c7 bd
       0.07154888 -0.042774156 -0.050271586 -0.09751572
0003d0 20 b2 f3 bd 0c 62 80 3d 90 38 11 3c 4e 13 cc bd
       -0.11899209 0.06268701 0.008863583 -0.099646196
0003e0 c6 fb fb bd 80 68 70 3d 50 d9 e2 3c 9c 3d d4 bd
       -0.12303881 0.05869341 0.027691513 -0.103633136
0003f0 70 57 fd 3d e4 88 33 bd 7c 08 f7 3d 0c 23 60 3d
       0.12370193 -0.04383172 0.12062165 0.054720923

lstm.bias_ih_l0 f4 [256]
000000 81 ce 32 3e 23 56 b0 3d 8e 82 de 3e 2c bb a5 3d
       0.17461587 0.08610179 0.4345898 0.08092341
000010 1c 06 6f 3e 81 24 1c 3f ab 8b e4 3d 67 b8 0f 3e
       0.23342174 0.609932 0.11159452 0.14035188
000020 75 45 d8 3e bb 0c 1f 3e 52 60 42 3e 55 48 8c 3e
       0.42240492 0.155322 0.18982056 0.27398935
000030 41 f0 34 3d 2b 08 43 bd 10 81 58 3d c2 67 70 3e
       0.044174436 -0.04761521 0.05285746 0.2347708
000040 6a 17 2a 3e 24 53 9c 3e f2 05 63 3e 7a 1f 2b 3e
       0.16610494 0.3053218 0.22170237 0.16711226
000050 85 e5 10 bd 43 e9 f3 3d e3 b8 3a 3e 7b ca 19 3e
       -0.035375137 0.119097255 0.18234591 0.15018646
000060 e0 7f dd 3d 17 ce 5c 3e 68 33 64 3e f7 b9 8f 3d
       0.10815406 0.21562992 0.22285235 0.07017892
000070 e3 6c 31 3e 83 c2 2b 3d 14 3f 26 3e ca 0b fb 3e
       0.17326693 0.041933548 0.16235 0.49032432
000080 ea e2 ae 3d 37 7c 5b 3e 0f 07 9a 3e ab b0 c4 3d
       0.08539374 0.21434103 0.3008351 0.09604009
000090 66 ec e1 bc b6 18 cf 3d 04 c0 8c 3e 23 9c f5 3d
       -0.027578544 0.10112135 0.27490246 0.11992671
0000a0 33 b2 4e 3d 43 d7 26 3c 34 9b 02 3e 1b 65 02 3e
       0.050462913 0.010183158 0.12754518 0.12733881
0000b0 a9 8a 5d 3e 68 d5 db 3d 9a a8 f8 3d 14 6c f3 3d
       0.21634926 0.107340634 0.12141533 0.11885849
0000c0 7a 90 b3 3e d7 a8 50 3e d2 60 45 3e a8 89 2c 3e
       0.35071164 0.20376907 0.19275215 0.16849387
0000d0 53 71 41 3e 07 04 44 3e d5 c2 85 3d 06 f1 dc 3b
       0.18890886 0.19142161 0.06531302 0.0067425994
0000e0 4e ba 85 3e 04 e8 90 3e 93 68 2d 3c 72 02 63 3e
       0.26118702 0.28302014 0.0105840145 0.22168902
0000f0 01 22 09 3b d0 ee ff 3d 9b a1 be 3d 06 5a 26 3e
       0.002092481 0.12496722 0.093081675 0.16245279
000100 a8 6b a3 bc 7c 0e d4 bd 38 ce 95 3c 14 c1 3b bd
       -0.019948795 -0.10354325 0.01828681 -0.04583843
000110 7e e0 f0 3d 16 64 b1 bd 60 8e 02 bd da a8 bd bd
       0.117615685 -0.08661668 -0.03187406 -0.092607215
000120 78 1f 96 bc 2a a2 81 3d da 10 8c bd d4 88 ec bd
       -0.018325552 0.063297585 -0.06839152 -0.115495354
000130 00 6e b0 3c e8 bf c2 3c 72 bc 9f bd 70 b4 be 3c
       0.021536827 0.023773149 -0.07799615 0.023279399
000140 b0 a7 f4 3c 18 e3 ef bd 9c e5 29 bd d4 d7 63 3d
       0.029865116 -0.117132366 -0.04147874 0.05562575
000150 a0 18 bb bb 98 57 3c bd 90 b9 6d bd 58 34 ba 3c
       -0.0057097226 -0.045981973 -0.058038294 0.022730038
000160 02 0f a1 3d f0 22 b2 bc 26 d9 f0 bd 56 68 b3 3d
       0.07864191 -0.021745175 -0.11760168 0.08760135
000170 92 50 f3 3d 26 05 ab bd 70 98 83 bc 46 89 ac bd
       0.11880602 -0.08350591 -0.016063899 -0.0842462
000180 32 5e d4 3d 18 bd 49 bd f4 b9 c4 bd b8 14 c4 bd
       0.10369529 -0.0492526 -0.0960578 -0.09574264
000190 80 dc 4a bd 58 f8 61 bd 20 57 cf bb 6a a0 dd bd
       -0.04952669 -0.05516848 -0.006327525 -0.10821612
0001a0 46 23 ad bd ee 06 98 bd a0 11 a7 bd aa 6f 8c bd
       -0.084539935 -0.07423197 -0.081576586 -0.06857236
0001b0 18 cd 05 bd d0 f6 07 bc 14 7d 3c bd 28 3f ea 3c
       -0.032666296 -0.008298591 -0.04601772 0.028594568
0001c0 06 d6 ce bd 58 1b 62 bd 50 00 ce 3c 66 1c df 3d
       -0.100994155 -0.05520186 0.025146633 0.108940884
0001d0 16 bf e6 bd 34 45 71 3d ac c4 aa bd 60 15 03 3c
       -0.112669155 0.058903888 -0.083382934 0.008000702
0001e0 60 92 71 3d 08 57 34 3d dc 21 d4 3d b8 2e cc bc
       0.058977485 0.044028312 0.10358021 -0.024924621
0001f0 0c 5e 88 bd 38 25 e3 3d f0 67 c9 bc 0e 70 91 bd
       -0.06658563 0.11091083 -0.024585694 -0.07101451
000200 f7 ca 81 bd 1e cc ac 3d d4 d7 3a bc a3 8a e1 3d
       -0.063375406 0.0843737 -0.0114039965 0.11012771
000210 88 ba 19 3e 72 b4 3c 3e 19 3f a9 bc 19 b4 87 3d
       0.15012562 0.1842821 -0.02065997 0.06626148
000220 2d 0f f7 3d eb ff ac bb d7 c6 a6 bd c9 7b 0a 3d
       0.120634414 -0.0052795312 -0.081433944 0.033809457
000230 09 2a ae 3d 6c 31 ec bd 9b 03 5b be 56 4d 3a be
       0.08504111 -0.11532864 -0.21388094 -0.18193564
000240 7e cb a7 bd b7 8c b5 bd b7 58 98 3d 99 b9 8f bd
       -0.0819311 -0.0886473 0.07438796 -0.07017822
000250 b1 2e 1d 3e 10 70 b3 3d 46 77 18 bd 74 6d 53 3e
       0.15349843 0.087616086 -0.037223123 0.20647222
000260 a0 a3 c9 3d 91 d8 e7 bc 62 10 37 bd bf 91 83 3d
       0.09845662 -0.02830151 -0.04469336 0.06424283
000270 dd ac c1 3e ce 1a c5 3d 47 b8 5c bd 16 71 f1 bd
       0.37827197 0.09624253 -0.053886678 -0.117891476
000280 ba ea 2f bc 8a c0 97 3d 48 2a 20 bc aa e4 3b bd
       -0.0107371155 0.07409771 -0.009775706 -0.045872368
000290 32 3f 55 3e 32 91 a4 bd 24 e8 10 bd 7e 30 34 3d
       0.20824888 -0.08035506 -0.035377637 0.04399156
0002a0 9f 00 a1 bd 87 68 4f bd 58 fe 11 bd b5 90 4b bd
       -0.078614466 -0.050636794 -0.03564295 -0.04969855
0002b0 ce 65 a9 3d 21 41 1d be 7b b3 e2 bc d2 1d 64 be
       0.08271371 -0.15356876 -0.027673474 -0.22277
0002c0 1c 2e 8d bd 41 c9 24 3e 2c 69 9f bd 75 cd 74 bc
       -0.0689356 0.16092397 -0.07783732 -0.014941563
0002d0 df 3f de 3d 2e 69 02 bd 2f 23 8c bd 63 2e a6 bc
       0.10852026 -0.03183859 -0.06842648 -0.02028579
0002e0 d9 78 5a 3d 7c 44 db 3d dc 27 07 3e d3 1d 26 3d
       0.053337906 0.10706422 0.13198799 0.040555786
0002f0 90 e1 40 3e 7f 20 b9 3b e5 c1 93 3d e8 33 25 bc
       0.18836045 0.005649626 0.07214717 -0.010083176
000300 6d ea 16 3e b7 42 97 3d 14 a5 1f 3f 3d 8a 47 3e
       0.14737864 0.07385772 0.62361264 0.19486327
000310 04 b1 07 3e 42 e9 aa 3e 49 85 dc bc d2 4a 3c 3e
       0.1325112 0.33381087 -0.026919024 0.18387917
000320 cd c9 83 3e 0a 27 8b bc 02 45 61 3d 15 0e 01 3e
       0.257399 -0.016986389 0.05499745 0.12603028
000330 3e e2 bd 3d 07 33 07 3e d8 35 b4 3d 7a 93 3a bc
       0.09271668 0.13203059 0.087993324 -0.0113877
000340 35 65 f6 3c f1 5c 83 3e 57 19 da 39 18 d2 12 3e
       0.030077556 0.25656846 0.0004159908 0.14337957
000350 bc 22 8a bc dd 58 28 3e a7 8e 13 bc 46 d6 6f 3e
       -0.016862266 0.16440149 -0.009006179 0.23421583
000360 59 7f 63 3e 92 c7 2d 3e ce 76 20 3e d4 4a a3 3d
       0.22216548 0.16970661 0.1567032 0.07973257
000370 f0 ca 8c 3e 22 65 e0 3d ce 3b 6e 3e b2 bf 07 3f
       0.2749858 0.109567896 0.23265001 0.5302688
000380 28 b6 34 3e b2 97 4f 3e c7 94 31 3e a6 75 37 3e
       0.17647612 0.20272711 0.1734191 0.17915973
000390 88 b6 30 3c 0d 50 38 3e 5e d7 2b 3e b5 91 ac 3e
       0.010785706 0.17999287 0.16781375 0.33704916
0003a0 34 2b 20 3e 66 1f 76 3d 49 39 9b 3d 6e be 3c bd
       0.1564148 0.060088538 0.07579286 -0.046080045
0003b0 37 34 7d 3d f3 ff 02 3d 00 35 61 3c f2 af 81 3e
       0.061817374 0.031982373 0.013745546 0.25329548
0003c0 1f 60 ac 3e 03 65 40 3e 37 e1 3d 3d bf 65 74 3e
       0.33667085 0.18788533 0.04635736 0.23866938
0003d0 c0 46 02 3e f9 ba 73 3e 41 da 5c 3b 05 7a b9 3d
       0.12722301 0.23801793 0.0033699425 0.090564765
0003e0 b9 45 98 3d c6 c6 9f 3e 8e f1 31 3e eb ab be 3d
       0.074351735 0.3120634 0.17377302 0.093101345
0003f0 2d 88 38 3e f3 6b bb bc 33 cc 68 3d 95 be d7 3d
       0.18020697 -0.022878623 0.056835365 0.105343975

lstm.bias_hh_l0 f4 [256]
000000 53 67 1f 3e 08 a9 72 3e 91 8c e5 3e b0 b5 02 3e
       0.15566759 0.23697293 0.44833806 0.12764621
000010 db 78 66 3e 8d 47 25 3f 7e 37 6a 3e 76 8c f3 3d
       0.2250704 0.645623 0.22872731 0.11892025
000020 f9 42 ba 3e 16 96 49 3e 04 27 0f 3e 09 aa 5d 3e
       0.3637922 0.1968616 0.13979727 0.21646895
000030 b4 1d 60 3e 8f 20 82 3d a9 a9 97 3c 5c fe 31 3e
       0.21886331 0.06353866 0.018513517 0.17382187
000040 f6 26 11 3d 69 3b 43 3e 2a 2e 47 3e 64 6f cc 3d
       0.035437547 0.19065632 0.19451204 0.099821836
000050 f7 50 49 3e fa 59 aa 3d 30 71 02 3e a5 f1 5c 3e
       0.19659792 0.08317943 0.1273849 0.21576555
000060 8d 62 6d 3c 69 c2 8d 3d 55 89 48 3e 47 58 46 3e
       0.014488828 0.069218464 0.19583638 0.19369613
000070 b7 0c 40 3e 92 0f f2 3d f6 19 99 3e c8 83 c4 3e
       0.1875485 0.11819376 0.2990262 0.3838179
000080 7f 3c 6a 3e e0 5e 60 3e 36 5f 38 3e c4 f6 8b bc
       0.2287464 0.21911192 0.1800507 -0.01708544
000090 6f 58 eb bc 2d 70 a4 3b ca a7 86 3e ff 02 79 3e
       -0.028728692 0.005018255 0.26299888 0.24317549
0000a0 68 96 9d 3d ee 97 14 3c ea 00 26 3e 7e a3 ae 3d
       0.07694703 0.009069426 0.16211286 0.085272774
0000b0 b3 ce 7e 3e 7a c0 ce 3d 17 0e 22 3e 60 d8 78 3e
       0.24883537 0.10095306 0.15825687 0.2430129
0000c0 06 7a 5e 3e b0 0f db 3d ab 91 14 3e e2 c3 93 3e
       0.21726236 0.106963515 0.14508693 0.28860384
0000d0 a8 79 4a 3d 09 f3 74 3e 7c 7a e7 3d 98 7b b2 3d
       0.049432427 0.23920836 0.11302659 0.0871498
0000e0 d6 ac 74 3e e1 33 61 3e ba 98 cc 3d c2 95 dc 3d
       0.23894057 0.21992446 0.09990068 0.107707515
0000f0 b5 dd 27 bc d2 21 66 3e 6a 0d 02 3e e6 7b 22 3e
       -0.01024573 0.22473839 0.1270043 0.15867576
000100 c0 b9 16 bb 78 03 5f 3d cc f2 83 3d ca 4a b8 3d
       -0.00229989 0.054446667 0.06442794 0.0899864
000110 34 0b e4 bd 46 b6 c6 3d 90 61 43 3d 18 74 1b 3d
       -0.11134949 0.09702735 0.047700465 0.037952513
000120 6a 3e c2 3d bc 19 91 3d d4 e4 51 bd 60 a1 82 bd
       0.09484561 0.070849866 -0.051243618 -0.06378436
000130 1a 80 8a bd b8 46 af 3d dc 90 b6 bd e0 5c 21 3c
       -0.06762715 0.085584104 -0.089143485 0.009848803
000140 28 f8 b5 3d b2 6e b9 3d 5c 22 b9 3d a0 60 c0 3b
       0.08885223 0.090543166 0.09039757 0.0058708936
000150 54 6a 82 bd 4a da 8d 3d 78 d0 f3 bd 88 72 8a bd
       -0.06367937 0.06926401 -0.11904997 -0.06760126
000160 e0 11 5e 3d 34 b5 e6 3d c4 60 bd bd e2 90 ed bd
       0.054216266 0.112650305 -0.09246972 -0.115999
000170 10 d9 2b bd ea 97 86 3d 60 b2 be bb a4 61 d9 3d
       -0.041955054 0.06571944 -0.005819604 0.106143266
000180 38 e0 97 bc b0 94 5a 3d 80 7c 6b 3b 44 f1 4a 3d
       -0.018539533 0.053364456 0.0035932362 0.049546495
000190 da c7 ac 3d e8 80 a8 bd 70 33 d9 3d 62 24 bd 3d
       0.08436556 -0.08227712 0.10605514 0.09235455
0001a0 02 26 b3 bd 66 27 94 bd 0c 69 00 3d cc e6 20 3d
       -0.08747484 -0.07234077 0.03135018 0.039282605
0001b0 80 c9 17 3b 74 4d c2 bd a0 54 76 3d f8 e3 08 bd
       0.0023160875 -0.09487429 0.0601393 -0.033420533
0001c0 88 0c 4b 3d 40 89 3d bb 30 3a c0 3d 96 0e a9 bd
       0.049572498 -0.0028920919 0.093860984 -0.08254735
0001d0 4a aa e8 bd 64 a4 62 3d d6 cd ce 3d 00 a0 dd bc
       -0.11360605 0.055332556 0.10097854 -0.027053833
0001e0 50 28 ca 3d 54 4d 1a 3d c0 c5 47 bc 08 71 72 3d
       0.0987097 0.037671402 -0.012193143 0.059189826
0001f0 d6 65 ca bd a8 a7 92 bd e8 88 41 bd 38 f3 a1 bd
       -0.09882705 -0.07160884 -0.047249705 -0.079077184
000200 7c bf e5 3c bb f3 04 3c 02 8c 25 bc 61 c8 b9 3d
       0.028045408 0.0081147505 -0.010104181 0.09071422
000210 1f 65 b1 3d ab b6 20 3c 81 ac cd bd 45 af e7 bd
       0.086618654 0.009809176 -0.10042668 -0.11312727
000220 b9 71 cf bd 48 a3 06 3e d1 66 3d bd d4 84 87 3c
       -0.10129113 0.13148224 -0.04624063 0.01654283
000230 1f 60 7a 3c 05 b6 e4 3c 6b 0e 39 be 79 30 76 be
       0.015281706 0.027918825 -0.18071906 -0.24041928
000240 65 df 03 3d a6 c6 db 3c 6c af 51 3d 70 bd b3 3d
       0.032195468 0.026828121 0.051192686 0.08776367
000250 52 af 05 3a b3 0d 2f 3c 71 61 cb 3d 0c 2d 6c 3e
       0.0005099672 0.0106844185 0.09930695 0.23064059
000260 27 4b ae 3c a1 e6 15 3d 3d b1 b2 bd 6c d1 c1 3d
       0.02127607 0.036596898 -0.08725212 0.09463772
000270 b3 bc af 3e 72 ab e1 bd e7 b5 80 bd 03 d5 43 3d
       0.34323654 -0.11019029 -0.06284695 0.047810566
000280 62 9b 24 3d 82 9b 76 bd 99 0e b0 bd 99 75 1f bd
       0.040187247 -0.060206898 -0.08596534 -0.03893051
000290 22 8b 1c 3e a8 b3 d9 3d 6e c2 24 bd e3 24 a2 bd
       0.1528745 0.1062997 -0.040224485 -0.07917192
0002a0 26 6f 05 bd bc c9 12 3e 06 4a 72 bd f5 74 b2 bd
       -0.032576703 0.14334768 -0.059152626 -0.08713714
0002b0 85 f1 3b 3d 22 eb ec bd 01 23 1c bd a2 5d 64 be
       0.045884628 -0.115682855 -0.03811932 -0.22301343
0002c0 87 1b 00 3d eb 27 46 3e 78 fe 2c bd 26 7c c3 3d
       0.031276252 0.19351165 -0.042234868 0.09545164
0002d0 c1 b5 95 bb 8c 72 1b bb 9c b6 d4 3c 41 ad 08 3a
       -0.004568786 -0.0023719398 0.025965981 0.0005213805
0002e0 5a 28 d7 3d 00 31 6f bd cd 22 8f bd e6 33 c9 3b
       0.10505743 -0.05839634 -0.069890596 0.00614022
0002f0 89 3e e5 3d 81 18 0b be 89 c5 9e bc 37 82 36 bd
       0.11193568 -0.13583566 -0.019381301 -0.044557776
000300 9c 90 82 b9 86 d6 92 3b e5 a7 dd 3e f5 dc 9b 3d
       -0.00024903275 0.0044811396 0.43292156 0.076105036
000310 78 a4 34 3e 10 98 db 3e 9a 89 6f 3d 06 c0 56 3e
       0.17640865 0.42889452 0.058480836 0.20971689
000320 91 21 b5 3e d5 43 39 3b bd 55 aa 3c da f2 fb 3d
       0.35377172 0.002826919 0.020792836 0.1230218
000330 e9 9f 25 bd 57 77 69 3d 11 3a db 3d d4 9f 7b 3d
       -0.040435705 0.056998577 0.10704435 0.06143172
000340 0c c8 c3 3d 92 76 fb 3d 37 36 73 3d 1c 60 34 3e
       0.0955964 0.12278475 0.059377875 0.17614788
000350 e7 0f c9 3d ce f2 07 3e ec 5f 0c 3e 9c 7a 62 3e
       0.09817486 0.13276216 0.13708466 0.22117084
000360 e4 e6 76 3e b7 17 b7 3c 77 79 d5 3d 15 ed 7a 3d
       0.24111515 0.022350175 0.10423558 0.061261255
000370 ca 69 62 3e 2c 3a df 3d 99 98 fb 3d 52 dd a7 3e
       0.22110668 0.10899767 0.12284965 0.32786041
000380 1b 0c fc 3d 08 f1 80 3e e2 e1 a5 3e 78 3c d2 bc
       0.123069964 0.25183892 0.32398897 -0.0256636
000390 87 d4 1d 3c 3e 88 df bc 56 f3 9d 3e 8c f7 0c 3e
       0.00963319 -0.027286645 0.30849713 0.13766307
0003a0 bf 8a 25 3e ab 06 80 3e 7f fb 2a 3e 72 02 99 3d
       0.16166209 0.25005087 0.166975 0.074711695
0003b0 4c 98 2d 3e 76 f2 8c 3d 14 36 48 3c 3a d1 88 3e
       0.16952628 0.06882183 0.0122199245 0.26722127
0003c0 f7 f6 d5 3e 93 cb 8c 3e 81 9e 1a 3e 0f f8 a0 3e
       0.41789982 0.27499065 0.15099527 0.31439254
0003d0 98 eb 33 3e 2f dd a8 3d b7 81 6b 3e 89 69 04 3e
       0.1757034 0.082453124 0.22998701 0.12930883
0003e0 1e 6f 96 3d e3 9a 24 3e 8d 3d 46 3e e7 2e 80 3e
       0.07345413 0.1607471 0.19359417 0.25035784
0003f0 d3 79 3d bb 34 44 6d 3d fd a9 16 3c 3d 60 4b 3e
       -0.0028911724 0.05792637 0.009195802 0.1986093

lstm.weight_ih_l1 f4 [256, 64]
000000 85 75 4c 3d dc 21 b1 3c 98 c9 1b 3e 68 f8 00 be
       0.049916763 0.02162259 0.1521362 -0.1259476
000010 1e 95 94 3e 9d 06 86 be 68 8a e3 bb 10 da e8 3d
       0.29020017 -0.2617692 -0.0069439895 0.11369717
000020 4a 4b 17 bd 3d 6d ec bd ea 49 a2 3d 02 1a 87 3d
       -0.036937036 -0.11544273 0.07924254 0.065967575
000030 8e a1 88 bd 43 da 9d ba 11 58 e2 3d a3 39 2e 3c
       -0.06671439 -0.0012043196 0.110519536 0.010633859
000040 cb 6d ce 3a e5 e2 7b 3e 4b 2a 3d bc c5 ab fa 3d
       0.0015749274 0.24598272 -0.011545728 0.12239794
000050 8a f9 38 3e a5 b3 16 bd d5 44 9a 3e 91 0c 0c 3f
       0.18063942 -0.036792416 0.3013064 0.54706675
000060 42 25 ce 3e 4e 7a 69 be 29 e5 1e be 9d 34 21 3d
       0.402628 -0.22800562 -0.15517105 0.039356817
000070 3f e6 e8 bd 1d 78 8e 3e 27 53 a9 be 6f cb f7 3d
       -0.11372041 0.27826014 -0.33071253 0.12099349
000080 c3 d1 b0 be d1 88 7c 3e c8 85 79 be 74 45 90 3d
       -0.34535035 0.24661566 -0.2436744 0.07044497
000090 15 c8 12 bd b2 7e 15 3e 88 88 c5 3d 1c 2b ef 3d
       -0.035835344 0.14599112 0.09645182 0.11678144
0000a0 dc 86 27 3d 92 ee b5 3e 59 ba 48 be d5 f5 26 bd
       0.040900096 0.35533577 -0.19602336 -0.040761787
0000b0 bb 2e a6 3d 23 33 6d be f8 a6 38 3e e6 99 79 be
       0.08114382 -0.23164038 0.18032444 -0.24375114
0000c0 3b 8c 13 be 97 39 31 bd 27 37 68 be 3b 31 d0 bd
       -0.14408962 -0.043267813 -0.22677289 -0.1016564
0000d0 dd b6 cd 3c 8f fa 8e 3c e7 09 48 3d 9a a4 03 3c
       0.02511161 0.01745346 0.04883757 0.00803485
0000e0 31 fd 2b 3e 07 06 d3 bd 50 87 df 3d 05 3a 8b 3d
       0.16795804 -0.10303884 0.10914481 0.06798176
0000f0 84 f0 d4 bb 5c e5 1c be 49 0f e9 bd 17 95 99 be
       -0.0064983983 -0.15321869 -0.113798685 -0.2999656
000100 87 2d 39 3d 94 33 04 3e d3 a8 da bd a2 76 52 bc
       0.045209434 0.129103 -0.10676732 -0.012845667
000110 a2 e4 9c 3e 6e 62 ff be c0 0d 11 3d 96 e8 c9 3e
       0.30643183 -0.49879783 0.035413504 0.3943526
000120 9d 26 8b be 30 f7 0e bd bb b9 7a bd 55 25 92 be
       -0.27177897 -0.034903705 -0.061212283 -0.28544107
000130 ee f8 50 bc eb 1b d7 3d 20 77 ce 3d b3 1f 07 3e
       -0.012754662 0.10503372 0.10081315 0.13195686
000140 20 c5 07 be af 3b ae bc fa 02 26 be 64 a7 b2 bd
       -0.13258791 -0.021268694 -0.16212073 -0.087233335
000150 10 0f 52 bc a2 67 94 3d 6c 61 38 3e 1f 19 4d 3e
       -0.012820974 0.07246329 0.18005913 0.20029114
000160 12 52 99 3e 5e 5f 39 3c 89 22 0d be 70 5c bb bd
       0.29945427 0.011314241 -0.13782705 -0.091484904
000170 db 87 b1 bd 65 81 db bb b2 2c a7 be 51 f4 d0 bc
       -0.086684905 -0.0066987746 -0.32651287 -0.025507124
000180 09 15 86 bd 67 16 c8 3e 48 60 70 be 3d b4 5d bd
       -0.06546981 0.39079592 -0.23474228 -0.054126967
000190 27 82 85 bd 8e 4a c7 3c e7 47 88 3e 40 b5 ba 3e
       -0.06518965 0.024327543 0.26617357 0.36466408
0001a0 75 4c 9f 3d a3 4a 9c 3e b6 41 31 3d 10 2b f9 3c
       0.07778255 0.30525693 0.043275557 0.030416042
0001b0 36 18 60 3e 17 32 8e 3d 18 4d 98 bb ce dd ae be
       0.21884236 0.06943148 -0.004647862 -0.341536
0001c0 1e 51 9b 3d 9e 90 3e 3e 63 fb 5d bd 18 8f 1d be
       0.07583831 0.18609855 -0.05419482 -0.15386617
0001d0 fc a1 83 be 26 c8 d3 3d 6c 24 19 3e bd 93 7c 3e
       -0.25709522 0.1034091 0.149553 0.24665733
0001e0 ff 5d be bd e6 ba 7a bd 96 15 05 3c 48 eb ae bd
       -0.09295272 -0.061213396 0.008122822 -0.0854097
0001f0 07 10 b4 bd db 7b 9a 3d da 61 60 be 1f b9 a9 bd
       -0.087921195 0.07543155 -0.21912327 -0.08287262
000200 1d 38 dc 3d 4e 6a 01 be 9f 67 67 3e 9d 10 d2 bc
       0.1075289 -0.12638208 0.22598122 -0.025642687
000210 5c fd 7c 3e 2f 26 b6 be cc 72 46 be e0 84 e4 3d
       0.24706024 -0.35576007 -0.19379729 0.111581564
000220 6d 26 56 be 30 54 b9 bd 61 9d de 3d f3 1c 65 be
       -0.20913096 -0.090492606 0.108698614 -0.22374325
000230 47 97 97 bd 73 d5 2f bd 96 f2 99 3d 58 79 97 3c
       -0.07401901 -0.04292817 0.07516973 0.018490478
000240 42 45 88 3c 8e 66 a4 bd bd 1b 31 bd e9 7f 21 3e
       0.016634587 -0.08027373 -0.043239344 0.1577145
000250 94 32 26 bc 8f 42 b3 3d dd d4 ce 3d c0 19 5b 3d
       -0.010143895 0.087529294 0.10099194 0.053491354
000260 36 0b a4 3e 71 88 d6 bd 07 1b 3b bd 82 8e 0e be
       0.32039803 -0.10475243 -0.045680072 -0.1392155
000270 9b 27 ed 3d 6f f6 28 3e 21 68 6c be 5d d5 01 3d
       0.1157982 0.16500257 -0.23086597 0.03169762
000280 85 46 2a 3d 6c 2f 9a 3e a2 0a 6c bd d4 9c 69 3c
       0.04157116 0.30114305 -0.057627328 0.014258582
000290 22 a4 c4 3d 43 d1 24 bd ad e6 2b 3e f1 d9 a7 3e
       0.09601618 -0.04023863 0.16787215 0.32783464
0002a0 f5 ef 3f 3d bd e3 77 3e 0f 2c d0 bb d3 37 73 bd
       0.0468597 0.24207969 -0.0063529084 -0.05937941
0002b0 ec 14 d8 3d 16 7c c7 bd cf d4 f0 3d 58 97 a7 be
       0.105508655 -0.097404644 0.1175934 -0.32732654
0002c0 34 7f d1 bd 64 6c bd bd b6 67 3e be e5 25 94 bd
       -0.1022934 -0.092491895 -0.1859425 -0.0723379
0002d0 6a 50 a5 bd c1 5d a2 3d de 7f 38 3e 58 e2 79 bb
       -0.080719784 0.079280384 0.18017527 -0.0038129296
0002e0 7f 86 4a 3e 15 d8 08 bb 62 8a d6 bc d1 55 c6 bb
       0.19777869 -0.0020880748 -0.026189033 -0.0060527106
0002f0 ea 58 61 3d 45 ef f2 bd 32 b1 17 be 54 a8 fb bd
       0.055016436 -0.11862043 -0.14813688 -0.122879654
000300 d6 94 14 be 9b 16 0e 3e c6 4a 50 3d fd 79 cf bc
       -0.14509901 0.13875811 0.05085256 -0.025326723
000310 a2 f1 2b 3e a9 e2 c0 be 10 22 bc be 21 b8 7a 3e
       0.16791394 -0.37672928 -0.36744738 0.24484302
000320 9f 16 61 be be 95 4c 3d 42 9a 62 bd 7c 87 83 bd
       -0.21981286 0.049947493 -0.055322893 -0.06422326
000330 9c 70 33 3c ac 17 57 be 82 90 d3 3d 4d e7 2e 3e
       0.010952141 -0.21005124 0.10330297 0.17080422
000340 40 34 fc bd 54 00 77 bd e5 60 c1 bd f1 77 e8 3c
       -0.123146534 -0.060303047 -0.09442309 0.028377505
000350 e5 4f 2b 3c e6 ff 99 3d 97 f5 8d 3e b4 ba 10 3f
       0.01045606 0.07519512 0.27726433 0.56534886
000360 1c b6 47 3e 9a 2e 0f bd b6 ce 10 be b2 1e c2 3b
       0.19503063 -0.034956552 -0.14141354 0.0059240693
000370 f1 5b 87 bc c4 7b 23 bd ee 21 42 be 6d 6b b9 bc
       -0.016523333 -0.039912954 -0.18958256 -0.022634232
000380 39 57 ed 3d b2 dc 9b 3e ab 9a a3 bd 56 26 ce bc
       0.11588902 0.30441815 -0.07988485 -0.025164764
000390 38 c9 4b 3c ab bc a0 3d d4 d9 1d 3e f8 fd 9d 3e
       0.012438111 0.078484856 0.15415126 0.30857825
0003a0 ac f5 26 3e a2 fa a8 3e c7 b1 88 be 37 7d e1 3d
       0.16304654 0.33003718 -0.26698133 0.11010211
0003b0 6d 8f c4 3c 34 b0 74 3d a8 4f 1b 3d 9d a6 a2 be
       0.023994172 0.059738353 0.037917763 -0.3176774
0003c0 44 d4 c1 3d e9 20 08 3e 08 f9 03 3d 00 9f 8d be
       0.094643146 0.13293804 0.032219917 -0.2766037
0003d0 3d 50 9b be 1a 55 d3 3d 2b e5 68 3e 55 18 fe 3a
       -0.30334654 0.10318966 0.2274367 0.0019385914
0003e0 eb f4 9e 3d 5e f3 3e 3d 81 57 a0 3d b3 25 22 3a
       0.07761558 0.04661881 0.0782919 0.0006185427
0003f0 eb 7c a9 bd 77 70 dd bd 6f db d2 bd c6 03 cb bc
       -0.08275779 -0.108124666 -0.1029576 -0.024782073

lstm.weight_hh_l1 f4 [256, 64]
000000 5e a8 d0 3d b6 4c ab 3d c6 99 f7 bd a0 67 8e bc
       0.101883635 0.08364241 -0.12089877 -0.017383397
000010 40 f6 98 bd c6 04 f3 3d c2 fa 9b 3d 54 ff c6 3d
       -0.074688435 0.11866145 0.07616188 0.09716669
000020 b4 bb cc 3d 7e cc 8d bd 7a 5c da bd 48 84 ee 3c
       0.09996739 -0.069237694 -0.1066217 0.029115811
000030 ae 6f cf bd 30 1d 10 3d ac b8 ca 3d f0 da 01 bd
       -0.10128723 0.035184085 0.098985046 -0.031702936
000040 c8 e0 85 bd a0 4c 53 bc b0 59 06 bd 6e cb dd 3d
       -0.06537014 -0.012896687 -0.032800376 0.10829817
000050 80 a3 fc 3a c0 18 ba 3b 38 89 c3 bd 24 ee 39 bd
       0.0019274801 0.00567922 -0.09547657 -0.045393124
000060 94 9a 07 bd c0 36 ba bb d4 2e 07 3d 80 9d 9a bc
       -0.0331064 -0.0056827962 0.033003643 -0.01887393
000070 20 47 b9 3b 5a 50 8b 3d 28 fa 09 3d c4 83 27 3d
       0.0056542307 0.06802435 0.033685833 0.040897146
000080 16 a7 b7 3d 40 86 df bc d8 e7 9c 3c 00 b8 a6 3a
       0.08967416 -0.027285695 0.01915352 0.0012719631
000090 60 6b e0 bd 00 e3 2c 3d e8 b4 f4 bd 02 16 9a 3d
       -0.1095798 0.04220867 -0.11948568 0.07523729
0000a0 70 84 53 3d 08 fe b9 bc 70 f9 f0 3c a4 1e 50 3d
       0.051639974 -0.02270414 0.029415816 0.05081047
0000b0 58 dd 6a 3d de fb 9c 3d 38 65 90 bc ca 73 a3 bd
       0.057339996 0.07665227 -0.01762639 -0.079810694
0000c0 48 37 97 bc 60 23 c2 3b 98 c4 59 3d 10 ee 4a 3d
       -0.018458977 0.005924627 0.053166002 0.04954344
0000d0 40 e0 52 3d 4c cb 44 bd a6 48 cc 3d da c3 dc bd
       0.051483393 -0.04804544 0.09974794 -0.10779543
0000e0 80 b1 eb 3b 10 2f 57 3d 54 f1 51 3d 66 37 a8 bd
       0.0071927905 0.052535117 0.05125554 -0.082136914
0000f0 e4 a8 2a bd b4 39 18 bd f0 50 c3 3d c8 fc 4b 3d
       -0.041664973 -0.037164405 0.09536922 0.049801618
000100 8c 7b b8 bd 54 e5 a6 3d c0 65 b3 bd b6 30 fe bd
       -0.0900794 0.081492096 -0.08759642 -0.124116346
000110 a0 3c ba 3c f6 bc cf bd 04 ca 96 3d 00 40 4e b7
       0.022733986 -0.10143463 0.0736275 -1.2293458e-05
000120 00 39 0c 3a 22 e2 c7 bd 26 b3 cb bd 74 49 45 bd
       0.000534907 -0.09759928 -0.09946279 -0.048165753
000130 d6 4c cf bd b0 b8 cc 3c f8 9e 97 bc 6c 25 21 bd
       -0.10122077 0.02499041 -0.01850842 -0.03934233
000140 68 49 6a bd c0 68 c7 bd a0 0d e2 bb 14 b4 7f bd
       -0.057198912 -0.09736776 -0.006898597 -0.062427595
000150 3c 61 5f 3d cc b4 7b 3d 0a df 97 bd 10 d2 ef 3d
       0.05453609 0.06145172 -0.07415588 0.11709988
000160 b8 08 db 3c 36 ee 80 bd 64 b8 f8 3d 68 bb 6b bd
       0.026737556 -0.06295435 0.12144545 -0.05755177
000170 18 5b f7 3c 22 cd 9c 3d 28 a9 e6 3c a0 72 3e bd
       0.030194804 0.076563135 0.028156832 -0.046496034
000180 28 89 4d bd cc b0 d5 bd 3c 3a f3 3d 60 d6 55 bd
       -0.05017963 -0.10434112 0.11876342 -0.052206397
000190 46 5b d5 3d 80 cd b6 bd f2 38 f9 bd 2a a4 c9 3d
       0.104178 -0.08925915 -0.121690646 0.09845765
0001a0 c4 32 97 3d 4a 5f c0 3d bc 59 bc bd 64 8d f6 bd
       0.0738273 0.09393175 -0.09196803 -0.12038687
0001b0 a4 c1 58 bd 90 97 1b bd 06 13 90 bd 58 e3 59 bd
       -0.052919045 -0.03798634 -0.070348784 -0.053195328
0001c0 94 c3 70 3d 22 3e e3 3d 38 03 cd bc 86 17 89 bd
       0.058780268 0.11095835 -0.025025949 -0.0669394
0001d0 64 03 a3 3d 7c c5 86 3d 70 f4 d8 3c 28 de a4 bc
       0.07959631 0.06580636 0.026483744 -0.020125464
0001e0 44 b3 d2 3d 84 83 00 bd 20 cb d1 bd b8 c4 dc 3d
       0.102880985 -0.031375423 -0.10243821 0.107797086
0001f0 6a de 9c 3d 20 8b 5d bc 82 2b ad bd 40 28 14 3c
       0.076596096 -0.0135219395 -0.08455564 0.0090427995
000200 50 72 b7 bd 88 1e 53 bd 80 4f 51 bc 84 cd 57 3d
       -0.0895735 -0.05154279 -0.012775302 0.05268623
000210 38 c5 51 bd 10 b1 09 bd 10 9f dc bc 0c 2d 29 3d
       -0.051213473 -0.033616126 -0.026931316 0.041302726
000220 80 8c ad 3b d8 d2 e9 3d a8 6a c3 bd a0 40 dd 3b
       0.00529629 0.114171684 -0.095418274 0.0067520887
000230 ca ff f9 bd 0c 58 d9 bd 60 01 6d bc d6 18 cc bd
       -0.12206991 -0.10612497 -0.01446566 -0.099656746
000240 d0 82 70 bc d8 b3 13 3d 00 98 83 3b 4c 9b 22 3d
       -0.014679626 0.036060184 0.0040159225 0.039698884
000250 4a 94 88 3d 20 72 8c 3b ce cd a4 bd 2a 5b 83 bd
       0.06668909 0.0042860657 -0.08047067 -0.064138725
000260 24 8f 3f bd a4 51 91 3d 00 9c 42 bb ac 32 b0 bd
       -0.04676737 0.0709565 -0.0029695034 -0.08603415
000270 d8 d7 c1 bc 30 b5 79 bc 1e 06 d0 3d 02 25 c4 3d
       -0.023662493 -0.015240952 0.10157417 0.09577371
000280 04 38 e0 bd e0 bb ce 3b 7e f2 b1 3d 0e b2 ad 3d
       -0.10948184 0.0063090175 0.0868883 0.08481227
000290 d0 fc 04 3d d4 f4 11 bd 36 8f c8 bd 50 74 17 3d
       0.032467663 -0.035633877 -0.0979294 0.03697616
0002a0 00 b8 d7 bc c4 36 7c bd 38 40 dd 3d fe d1 c9 bd
       -0.026332855 -0.061575666 0.108032644 -0.09854506
0002b0 08 85 b6 3d 54 63 84 3d e0 66 09 3d 6e ab d9 3d
       0.089120924 0.06464258 0.033545375 0.10628401
0002c0 a0 8f 7e 3d 7e 7c d8 bd cc d8 68 3d 6a 91 e1 3d
       0.06214869 -0.1057062 0.05684738 0.11014064
0002d0 d0 e0 54 bd 98 4d a8 3c c8 99 f3 3d 96 f3 f0 bd
       -0.05197221 0.020544812 0.11894566 -0.1176521
0002e0 08 4c 3c 3d 5e d2 98 3d 02 2a b7 3d ea 98 e2 bd
       0.045970947 0.07461999 0.08943559 -0.11064322
0002f0 64 88 9a bd e4 11 0e 3d 2a 00 d4 3d b4 85 55 3d
       -0.07545546 0.03468503 0.10351594 0.052129462
000300 cc 7d 05 bd 40 5e 51 3d 48 b9 c6 3d c0 0a 9a bc
       -0.032590672 0.051115274 0.09703308 -0.018803954
000310 6c ef b3 3d 1c 8e f8 3d 2c 72 a3 bd a4 e5 2f bd
       0.087859005 0.1213648 -0.07980761 -0.04294361
000320 70 4d 61 3c 84 f2 14 bd 54 31 ef 3d 8c de aa 3d
       0.013751373 -0.036364093 0.116793305 0.08343229
000330 36 58 a6 3d 70 0b 8b 3c 04 67 15 bd 00 55 a8 3b
       0.08122294 0.016973227 -0.036475196 0.005137086
000340 dc 6a 85 bd 84 41 6a bd b0 94 b8 3d a4 d9 21 bd
       -0.065145224 -0.057191387 0.09012735 -0.0395142
000350 d8 c0 18 bd 50 2c d8 3c 54 a0 d1 bd dc dc ff 3d
       -0.037293285 0.026388317 -0.10235658 0.124932975
000360 54 82 0d bd e0 53 8c 3c 14 22 00 bd 8a ff ed 3d
       -0.03454812 0.017129838 -0.0312825 0.11621006
000370 fc bb 86 3d 70 b0 73 bc 10 08 c1 bc d8 7c bd 3d
       0.06578824 -0.014873609 -0.023563415 0.09252328
000380 8c 05 51 3d 80 8c e6 3c f0 26 80 3c 56 fc b2 3d
       0.05103068 0.028143167 0.015643567 0.087395355
000390 b8 2d e6 3d 10 3f 06 bd 5a 5d fd bd da 59 d1 3d
       0.11239189 -0.032774985 -0.12371321 0.10222216
0003a0 a2 03 e6 bd 4a 7d 8a 3d 50 c0 4c 3d 04 42 cd bd
       -0.11231162 0.06762178 0.04998809 -0.10022357
0003b0 9c ca c7 3d 00 6c b1 bd 28 be ec bd 0a ca e0 bd
       0.097554415 -0.086631775 -0.11559707 -0.10976036
0003c0 9e 9a fe 3d da 4a c5 bd f4 3d 97 3d c0 7f 94 bc
       0.12431835 -0.096334174 0.073848635 -0.018127322
0003d0 00 81 f1 bd 1e 48 88 3d 38 ec ce bd 80 66 c0 bb
       -0.11792183 0.0665438 -0.10103649 -0.005871594
0003e0 ec 35 d6 bd 04 93 ee bd de 83 af 3d fa b0 a2 3d
       -0.104595035 -0.11649135 0.085700735 0.07943912
0003f0 e8 32 ae 3d a4 b8 f2 bd e8 45 17 bd a0 0d f6 bb
       0.08505803 -0.11851624 -0.036931902 -0.0075089484

lstm.bias_ih_l1 f4 [256]
000000 cb 9b 95 bd ce bb 99 bd c7 3a a8 3d b2 69 ee bc
       -0.07305106 -0.07506524 0.08214336 -0.029103134
000010 a0 80 8e bd dd 3d dd 3d ab b5 cb 3d a0 bb 0d 3e
       -0.06958127 0.10802815 0.0994676 0.13841105
000020 00 d4 b1 3d 0d 74 e8 bc 94 9b c6 3c 14 18 9f 3d
       0.08683014 -0.02837565 0.024244107 0.077682644
000030 0e b8 94 3d ff 23 56 3e 33 53 4f 3d bf db 81 3b
       0.07261668 0.20912169 0.050616454 0.0039629634
000040 d5 29 52 3d bf 9f 33 3e fc 3c c4 3d 9d 8b 64 3b
       0.051309425 0.17541407 0.09581944 0.0034873255
000050 81 e0 0b bd c1 97 2f bd 9d 04 82 3d 96 ed e0 3d
       -0.03414965 -0.042869333 0.06348536 0.10982816
000060 22 d5 82 3d a6 0a 56 3b ee 89 8d 3e fb 48 76 3d
       0.06388308 0.0032660156 0.27644295 0.060128193
000070 bb 67 0f 3d d8 fa c5 3d 84 9f e8 3d 72 44 36 3e
       0.035011034 0.09666985 0.1135855 0.17799547
000080 41 87 81 bd df b6 c3 3d 14 6f 4f 3d 2c 93 c8 bc
       -0.06324626 0.09556364 0.05064304 -0.02448424
000090 71 89 da 3d 77 90 a9 3d c5 fd fd 3d cd 6d 17 3d
       0.10670746 0.082795076 0.12401918 0.03696995
0000a0 7a 72 da 3c b0 d9 0c 3e 5b 29 81 bc ed 40 f0 3d
       0.026665915 0.13754916 -0.01576679 0.117311336
0000b0 50 27 71 bd f4 d0 9b 3d 8a 25 8b 3e d2 78 bb 3d
       -0.058875382 0.07608214 0.27177078 0.09153904
0000c0 2e 27 13 3e 55 81 7a 3d 97 7c f6 3d de 8e 02 3d
       0.14370415 0.061158497 0.120354824 0.03187453
0000d0 b9 d4 f7 3d 59 99 c6 3b cc fe fd b9 e7 1a 73 3d
       0.121011205 0.006060761 -0.0004844576 0.059351828
0000e0 86 16 42 3e 17 a9 44 3e 38 ef 24 3e b7 34 3a 3e
       0.18953905 0.19205128 0.1610688 0.18184172
0000f0 73 08 9b 3d 69 2b 07 3e 16 77 83 bd d7 1b 21 3e
       0.07569971 0.13200153 -0.06419198 0.15733276
000100 c0 e2 57 3c 40 52 e0 3b 58 0b 68 bd 60 10 9c 3b
       0.01317662 0.0068457425 -0.056651443 0.0047626942
000110 16 66 8f bd 70 a8 2b 3c b4 27 13 bd 0c 7a 69 bd
       -0.07001893 0.01047717 -0.035926536 -0.05700116
000120 48 e7 b9 bd 80 b2 e9 3c 68 7d 9d bd a0 8d d0 3c
       -0.090773165 0.028527498 -0.07689935 0.025458157
000130 40 43 c8 bd ee 4b 95 3d 66 2f c6 bd 00 31 21 bd
       -0.09778452 0.07289873 -0.09677009 -0.03935337
000140 64 46 28 3d 20 b4 e3 bd 98 2d a6 3c 40 15 42 bd
       0.041082755 -0.111183405 0.020285413 -0.047383547
000150 c4 b4 43 bd 6c 00 19 bd fc ba af 3d 60 df 38 bc
       -0.047779813 -0.037353918 0.08580586 -0.0112837255
000160 ba d4 fe 3d 98 73 a6 3d 78 72 51 bd 0c f9 4d bd
       0.12442918 0.081275165 -0.051134557 -0.050286338
000170 60 b3 ae bb 08 54 ba bd ae 58 95 3d 98 46 d5 3c
       -0.0053314418 -0.09098059 0.07292305 0.026034638
000180 60 29 72 3c 5c 72 a3 3d 22 68 83 bd 6c 70 5e bd
       0.014780372 0.07980797 -0.06416346 -0.054306433
000190 e0 e0 77 3c 9e c1 81 3d 70 e6 d5 3c b8 77 ea 3d
       0.015129298 0.06335758 0.026110858 0.11448616
0001a0 96 43 af bd 78 16 92 bd be 3e ac 3d 7c da 59 3d
       -0.08557813 -0.07133192 0.084104046 0.05318688
0001b0 46 66 fa 3d 00 9a e7 3a 9a 33 bf 3d 70 71 2d bc
       0.12226538 0.0017669797 0.09336014 -0.010586128
0001c0 e4 00 02 3d 3c 02 71 bd f6 57 aa bd c0 c0 de 3c
       0.03173913 -0.05884002 -0.083175585 0.02719152
0001d0 fc 85 3e 3d 5c a1 2c 3d 44 c2 fe bd 0a 5b 95 3d
       0.046514496 0.04214607 -0.12439397 0.07292755
0001e0 b8 54 47 bd 80 1a 36 3c 30 38 f1 3d 9c a9 88 bd
       -0.04866478 0.0111147165 0.11778295 -0.066729754
0001f0 be 24 e9 3d a4 21 ff bd 68 87 ac 3d ac 9e 17 3d
       0.11383961 -0.12457588 0.08424264 0.037016556
000200 2c ed 46 3d cc 39 43 3e aa 18 64 3e f6 95 0e 3e
       0.04856603 0.19065017 0.22275034 0.13924393
000210 3f f3 80 3e c3 1b 05 3d 19 07 3d 3c 0f 77 c5 bd
       0.25185582 0.03249718 0.011537337 -0.09641849
000220 8e 7f f0 3d 92 4b ca ba 8e 21 9d 3d 72 87 a0 3d
       0.11743079 -0.0015433899 0.07672416 0.07838334
000230 0c 8b b3 bd e4 3c 93 3d 54 02 0b be c4 5b aa 3e
       -0.087667555 0.07189348 -0.13575107 0.33273137
000240 14 f9 75 be a0 fe d1 bc a9 41 4a be 97 c5 67 3c
       -0.24020797 -0.02563411 -0.1975161 0.01414623
000250 77 b2 72 3c 2b 95 8e bd b6 7f b4 3d 8e 6f 37 3e
       0.014813057 -0.06962045 0.088134214 0.17913648
000260 77 0c f6 3d 52 29 81 3e 21 f8 65 3e db 97 32 be
       0.12014096 0.25226837 0.22457935 -0.17440741
000270 49 5e 2c bc b0 3e 8a be 1a ae 58 bd fa 74 35 3e
       -0.010520526 -0.27000952 -0.05290041 0.17720404
000280 a6 2d da 3d ac ab 1a 3d fe b7 66 bd a0 ee 48 be
       0.10653238 0.037761375 -0.056327812 -0.19622278
000290 0a 07 7a 3e 2f 56 8f bd 01 68 85 3d 22 36 95 3d
       0.24416748 -0.0699886 0.06513978 0.07285716
0002a0 c6 0b d2 bd 33 cd 9b be 81 fd cf bd 93 e7 65 3e
       -0.10256152 -0.30429992 -0.10155774 0.2245162
0002b0 36 01 41 3e c3 5f ad 3d cb ca 09 be 12 6b 5e 3d
       0.18848118 0.08465531 -0.13456266 0.05430133
0002c0 c6 a3 ae bd b2 86 f0 3c c4 a9 57 be ae b5 2d be
       -0.08527331 0.029361103 -0.21060854 -0.16963837
0002d0 54 21 5d be d7 12 9b bd 42 ec 02 bc 80 0f 6b 3d
       -0.21594745 -0.07571953 -0.007990899 0.05738783
0002e0 10 c3 56 bd 3e 37 9b 3a 44 1a b3 bd c0 1d 70 bd
       -0.05243212 0.0011842025 -0.08745244 -0.05862212
0002f0 23 04 c0 bc e3 13 8b be 47 28 c1 3d e9 8c 61 3e
       -0.023439473 -0.2716361 0.094315104 0.22026409
000300 00 cb 8d bd 9f c5 a2 3d de be 3e 3d 5d 16 66 bc
       -0.06923485 0.079478495 0.046568744 -0.014043418
000310 b9 5b 5b bb 08 b9 3e 3e d9 0d 05 3e 76 54 e8 bc
       -0.003347142 0.18625271 0.12993564 -0.028360587
000320 44 05 36 bb ef 46 8f 3d 37 8a cc bb 34 48 0c bc
       -0.0027774135 0.069959514 -0.0062420624 -0.008562136
000330 6c 57 5c 3d b4 d6 bf bc b7 4a dc 3c b8 3a 11 3e
       0.05379431 -0.023417808 0.026891096 0.14182556
000340 39 ee 46 bd 82 95 d6 bb 47 f1 2e 3e 88 cf 2e 3d
       -0.04856703 -0.0065485844 0.17084228 0.042678386
000350 86 12 52 bd 5d 9c ba 3d dc 7e 42 3e dd 7f ba bd
       -0.051287197 0.09111855 0.18993706 -0.09106419
000360 3f 5d de 3d 6a 27 ed 3c ba 66 38 3c 0e 12 c7 3d
       0.10857629 0.028949458 0.011254961 0.097202405
000370 54 39 2e 3e c6 bc 29 3e 0d b6 18 3e 6b 5f b4 3d
       0.17014056 0.16575918 0.14913197 0.08807262
000380 9e 41 d0 3d 24 84 07 3e e4 89 67 bd 3a 90 9a 3d
       0.101687655 0.13234001 -0.056527987 0.0754704
000390 97 84 1d 3d 32 d1 53 3c 03 fb f6 bc 20 f9 6e 3d
       0.038456526 0.012928294 -0.030148989 0.058343053
0003a0 9d 3a 21 3e d4 93 9f bc 45 ac 33 bd 5b 81 09 3e
       0.15745015 -0.01947967 -0.04386546 0.13428251
0003b0 e6 1b 7f 3d 95 83 eb 3d ce b0 d9 3d 14 aa 22 3d
       0.062282465 0.11499707 0.10629426 0.03971298
0003c0 e8 00 a4 bc 68 8f 5e bb cb 04 fb 3d 21 ca 71 bc
       -0.020019963 -0.0033959989 0.122567736 -0.014757664
0003d0 0a e5 90 3d a6 08 b3 3d 7b 4a a2 3d 84 fe 82 bd
       0.07074936 0.08741884 0.07924362 -0.06396201
0003e0 23 d6 c4 3d c7 06 41 3e df 28 d2 bc a7 20 9d 3b
       0.09611156 0.18850242 -0.025654254 0.004795152
0003f0 fa f6 15 3d 15 70 eb 3d c2 0a 84 3c 82 9a 1c 3e
       0.03661249 0.11495987 0.016118411 0.15293315
