NTK/cudaNavierStokes/models/pinn_ns2d.pth (torch, 34409 bytes, 8 tensors)

l1.weight f4 [60, 3]
00000000: 3421 64be b28b 4f3e d01d cfbd 1d43 c1bd
00000010: ddb6 ccbd 7731 43be d098 5dbe b277 be3e
00000020: 2444 143e 11c8 9fbd db9d 6dbe ee81 29be
00000030: bfbd 803e 7904 563e 4cf7 aa3e 9a29 113e
00000040: cff5 4cbe 9507 68be f10d b8be 0557 ec3d
00000050: 01b5 b43c e223 97be e77f 973d 560b 9bbd
00000060: 2cac 61be 8612 eb3d ae4a 2ebe 8c83 e3bd
00000070: b31f 9d3e 3572 d0bd c0f3 5b3e bf85 223e
00000080: 6b93 703e af30 ee3c 7f3e cebe d7ed 92be
00000090: 7377 f8bd 85bc d93c 0948 a53e a4de 943d
000000a0: ea6b afbe 7126 0ebe 4b4f 8d3e 18c6 7a3e
000000b0: dae6 9ebd e288 80be 9b69 b83e 3952 51be
000000c0: 07fa 29bc b614 393e 4c16 a8be 419b 763c
000000d0: 922f 7abd b042 d0bd a63e d6bd a09a b9be
000000e0: e2e7 403d c572 c03d 8535 8a3e cd04 0abe
000000f0: bb40 4ebe e9b7 abbe 013f d43e c048 9c3e
00000100: af5b 943e f959 643e 6243 9e3e 3590 9e3d
00000110: e813 e53d ddf1 c63d 7572 7e3e b633 a63e
00000120: ec53 743e 5e70 b03e 76d9 b6be abbc cebd
00000130: 0013 39be e75c f03d cc56 5a3d 4b79 003d
00000140: da0b c63e 608f 29bd bf94 883e 173d c6be
00000150: a22e ed3d 12a7 2bbe 55f4 66be a5d7 553a
00000160: b619 b8be d55b e23d a668 483d 617d 143e
00000170: 832c 573e 5458 06bc 2147 a6be 4397 babe
00000180: 3cbb 293e 6fc8 99be 5f18 91be 103f 8dbe
00000190: 8884 9dbe ba1b aabd ce68 3abe b315 55be
000001a0: a723 67bd f7cb d1ba 67ba 54be f526 9abe
000001b0: 6477 d93e 0416 bd3e 841b d93d ef2e a7be
000001c0: 5c4f 0dbe cfa1 e23c 4049 64bd 9c6f 98bc
000001d0: 7a85 89be 1716 b6bd d476 573e 4074 f73e
000001e0: ea53 54be d45a 9e3e 6351 673e dbe5 12bd
000001f0: 4930 273d c72d d43d 85e8 82be 2ad4 9f3e
00000200: e266 753e 031c 16be 63b2 cfbe 84a2 8bbd
00000210: 029a 32bc 00d3 4cbe e06e a3bc e6ae 5abd
00000220: 46c0 013e c1b9 ebbe 936d 3cbe 6881 d9bd
00000230: 1f0b 99be a1ce df3d f2b6 fe3d 9387 b4be
00000240: ad5a 81be 9efd 913e 599a 3dbd 431b 40be
00000250: c0ff 11be 6fec 4bbe a135 283e 4ccc 06be
00000260: fa4f 5e3d bdf9 073d 467e 8cbe 9ac1 a73e
00000270: 9660 2fbe a145 debd 716c 0b3e fae4 8cbe
00000280: 087c b03e c76c 92be dd81 7ebe f0cb 89be
00000290: af4f a23e f233 95be 35d0 6a3e f802 393d
000002a0: 8547 be3d 06ee 41be 3f80 c83d 54bd 663e
000002b0: 74d3 dd3d 8548 2dbd cb64 26be 7b69 043f
000002c0: 68f8 b03e ff6e e93c 8f76 763e 6d90 27be
-0.22278291 0.20268133 -0.10113108 -0.09436629 -0.09995816 -0.19061838 -0.21640325 0.37200695
0.14479119 -0.078018315 -0.23204748 -0.1655347 0.25144765 0.20900144 0.33391798 0.14176026
-0.20015644 -0.22659142 -0.35948136 0.11540035 0.022058966 -0.29519564 0.07397442 -0.075705215
-0.22038335 0.114781424 -0.17020676 -0.11109075 0.30688247 -0.10178033 0.21479702 0.15871333
0.23493735 0.029075949 -0.40282056 -0.28697082 -0.12132158 0.02657915 0.3228152 0.07269028
-0.3426202 -0.13881852 0.27599558 0.2448963 -0.07758875 -0.25104433 0.3601807 -0.20441522
-0.010374553 0.18074307 -0.3282951 0.015051664 -0.061080523 -0.1016897 -0.10461168 -0.36250782
0.04709614 0.093968906 0.26993957 -0.13478394 -0.2014188 -0.3353875 0.41454318 0.30524254
0.289762 0.22299947 0.30910784 0.07742349 0.111854374 0.097141005 0.2484835 0.32461327
0.23860139 0.3446073 -0.35712785 -0.10094579 -0.18073654 0.1173647 0.053305432 0.031365674
0.38680917 -0.0413965 0.26675984 -0.38718483 0.1158116 -0.16762951 -0.22554143 0.0008157439
-0.35957116 0.11052672 0.048927926 0.14500953 0.21013074 -0.00819977 -0.32476142 -0.3644353
0.1657533 -0.3003573 -0.28338906 -0.27587175 -0.30765176 -0.0830607 -0.18204042 -0.20809059
-0.056430485 -0.0016006221 -0.20774232 -0.30107847 0.424739 0.3693086 0.10600951 -0.32652995
-0.13799804 0.027665047 -0.05573392 -0.018607907 -0.26859647 -0.08890932 0.21041423 0.4833088
-0.20735136 0.3092867 0.2258964 -0.03586374 0.040817533 0.10360294 -0.25568023 0.31216556
0.23965028 -0.14659123 -0.40565786 -0.06818107 -0.010900976 -0.20002365 -0.01995033 -0.053389452
0.12671003 -0.46040156 -0.18401174 -0.106203854 -0.29891297 0.10928083 0.12437238 -0.35259685
-0.25264493 0.28513807 -0.046289776 -0.187604 -0.14257717 -0.19914411 0.16426708 -0.1316387
0.05427549 0.033197153 -0.2744009 0.32764894 -0.17126688 -0.108531244 0.13615586 -0.27518445
0.34469628 -0.28598616 -0.24854226 -0.26913404 0.3170142 -0.29141194 0.22930987 0.045168847
0.09290985 -0.18938455 0.09790086 0.2253316 0.10831347 -0.04230549 -0.16249387 0.5172345
0.3456452 0.02849531 0.24068664 -0.16363688

l1.bias f4 [60]
00000000: 21b0 5c3d 1c74 82bc 53af 85bc 0e20 193d
00000010: a1f6 8e3c 882f a23d a48c 22bd 2cdd 1abc
00000020: da16 d3bb b721 0e3c e2ec 49bc 2e18 babc
00000030: cc4a 903d a354 f03c b935 a63c 4e61 203c
00000040: 187f 253d 94ae dcbd 2f6d eebc 6b00 edbc
00000050: 39c8 34bb 8aad b63c 2b66 563c f0ea 733a
00000060: ce2d 58bd b6c8 bbbc e036 d53c cb51 1e3c
00000070: 094b 113d b34c 9d3c 4bdb 253d 92a0 bd3d
00000080: 813d 5b3c b5dc 24bd 9317 99bc 6532 eebb
00000090: ca1e e83d 3472 29bd 73a6 ce3b d4f8 183c
000000a0: 6b3e ac3c 3d98 833c f23f fbbc 6d6c 81bd
000000b0: cf04 0f3e 6be7 0d3d dfc3 a63a 8618 2c3d
000000c0: 1b9a b33c 283e 32bc 8dd1 983c bac3 8ebc
000000d0: bf12 b23c 3b32 31bd 1f2b 60bc f67e b2bc
000000e0: 4cf5 73bb e18c 763d a945 5e3b e924 97bc
0.053878907 -0.015924506 -0.016318953 0.037384085 0.017451586 0.07919222 -0.039684907 -0.009452146
-0.006441933 0.00867503 -0.012324544 -0.022716608 0.07045516 0.029337233 0.020289289 0.009788824
0.04040441 -0.10775486 -0.029104797 -0.028930863 -0.0027585162 0.022299547 0.013085882 0.0009304723
-0.052778058 -0.022922855 0.026027143 0.009663056 0.03547195 0.019201612 0.040492337 0.09259142
0.013381363 -0.040249545 -0.018687999 -0.007269191 0.113339975 -0.04136868 0.0063064634 0.009336669
0.021025857 0.016063804 -0.03067014 -0.06319509 0.13966678 0.034644525 0.0012723169 0.042015575
0.02192407 -0.010879077 0.01865461 -0.017427314 0.021737454 -0.043260794 -0.013682156 -0.021789055
-0.0037225066 0.060192946 0.0033916032 -0.018450217

l2.weight f4 [60, 60]
00000000: 392e 643e a1de 0ebe 40c2 2e3e 0822 0dbd
00000010: 3672 8d3d 286a 01be c174 5e3d 0728 243e
00000020: 041f dabd 4747 c63d 73e8 893d 5135 07be
00000030: 78a8 d73d 4a6c 0fbe b18f 9ebd e5ac 0b3e
00000040: 298d c4bd 7593 83bd 6029 193e b0df 883e
00000050: eee6 cabd 1e94 01be 88ca fabd 4d6a 853e
00000060: 1538 2a3e 7532 6a3d 8b6e 4cbe cba3 943d
00000070: 8f74 8bbe e4f4 1cbe 2de5 d9bd 4290 0fbe
00000080: 5d1c 2ebe fa44 4c3d fc09 433e e46f e7bc
00000090: a43a e0bc 4881 d73d 4eb5 c4bd 351d e53d
000000a0: a5d2 753e a073 2c3e 0d0a e6bd 0bf0 993d
000000b0: 05e2 86be f5f4 24bd fd7f d3bd ad1a 9dba
000000c0: a5c9 223e abeb 53bb 8abe 803d 5776 09bb
000000d0: 8766 36bd 2f3b 71bd 019b b03d d485 73bd
000000e0: 01c3 d1bd 16f7 41be a20e 893e 5c35 853e
000000f0: 8311 6e3d 4d36 0c3e bac8 bf3d 5423 10be
00000100: 727b 38be 4d2c 8abe 7a36 d33e e63f c43c
00000110: 0958 573e a4cf a53e c9be 8fbe 00cc fcbb
00000120: 4a75 75be ff2d 503d c783 893b bf8a a13e
00000130: 38a8 b1bc 5e1d 993e da48 34be 4386 0bbe
00000140: 6d91 a4bd a8ba 99bd f45d 2bbe cd2a 92be
00000150: ee7e 5d3e 118f 923d 4610 80be ef50 163e
00000160: 96d8 91b9 dc28 8bbe 5333 a9be 690f 07be
00000170: 967b 58be d467 8bbd 1e15 f73c 1947 dc3c
00000180: c2e1 12be 0bc9 1ebd 0ac0 5a3d ec79 393c
00000190: 8a55 bebc 456c c6bd afc7 14be 4496 3e3e
000001a0: b170 58be 9028 38bd 447f 383d 0155 24be
000001b0: 4dd9 3b3e c641 463e 3067 48be 651e 95be
000001c0: 5303 02bd c3b2 073e 60a7 50be d2f4 1e3d
000001d0: 4ef1 5bbe fa22 5bbe 3b2d 223e 4e77 e23d
000001e0: de26 02bb 28bb 4c3e 1dc7 30be 5a58 5e3e
000001f0: 987f a93d 9775 09be c659 2fbe 0445 c43d
00000200: 5ccc 4d3e e1c2 473e 2113 32be 498c 253e
00000210: f7e5 63bd 690d e53d be2a 5abd ce70 3d3d
00000220: 4200 7c3e cded 68be 9469 51be 3c30 773c
00000230: 852d 12bd da75 a7bd 5f2c 043e 2b0d 52bd
00000240: 84b2 ca3d 98e1 08be d5bd 053e 41a2 f33d
00000250: 588e 083e 6621 1dbd 148f 953c b0bb 3c3d
00000260: 9292 0b3e c373 d63d cc12 a9bd 7771 60bd
00000270: 5d90 c3bc e098 993c ffab a23d 7c89 dc3d
00000280: 8287 8abd 2de3 223d 4fdd d03b 73bb 4abd
00000290: 43a5 713d 3563 4abd f591 d53d 2bfb 793e
000002a0: 1d66 07bc 2c1e 0b3e 1987 1fbc e622 443d
000002b0: 265a 06be 02df c1bd 98e8 0dbe e228 07be
000002c0: 23bc 8dbd bc25 bd3d 6693 633e 5761 803e
000002d0: 4b69 df3d 2e7b 4f3d f195 9c3d 1f9b dcbd
000002e0: 022c 5dbe b08a 85be 2a55 253e 3cb1 8a3e
000002f0: c73d a83e 7300 903d 895e 45bc e7c6 b1bd
00000300: 853d 363d f246 3c3b bf44 203e ca06 a13c
00000310: 1244 1fbc fd88 3ebd 03c5 8fbe 41cf cebc
00000320: ccc6 ca3d 6c96 afbd d145 fa3d 8440 7fbd
00000330: d1fb c8bd a49a c93d 375f 9bbe 8684 813e
00000340: 13f8 e63d a9e5 70be 4e20 21bd 214e df3d
00000350: 6195 4a3e 3953 a8bc 21cd 2fbe 5ee8 603e
00000360: ead2 083e 7d63 0b3e 419c fc3d 25b7 7dbe
00000370: 12ab 82bd 56ac e33c c0a1 c83b a4ac eb3d
00000380: b25b 40be c17f a23d f6f0 2a3e 57cf a03b
00000390: 4332 2cbe 8546 1dbe 163b 843c 4a48 f2bd
000003a0: eca7 d73d 0e60 e4bd 3de5 57bd e051 85bc
000003b0: 97c5 9dbe 88e2 cf3d 2bf4 063d 0af9 92bd
000003c0: f465 91bc 46cd d7bd 4b09 9b3b 9524 2bbd
000003d0: afb5 163e 44fc c3bc 8cb0 05be d22f 1fbd
000003e0: df1d d5bb f1ca 42be 446a 663e d914 3fbe
000003f0: 54be 273d bf53 45bd 8a05 d93d c106 10be
0.22283258 -0.13952114 0.17066288 -0.034456283 0.0690655 -0.12638152 0.054310564 0.16030894
-0.10650447 0.09681564 0.06733789 -0.13203932 0.1053018 -0.14006153 -0.07742251 0.13640173
-0.09597237 -0.064246096 0.1495719 0.2673316 -0.099073276 -0.12654158 -0.12245661 0.26057664
0.16622956 0.057177026 -0.19964044 0.072578035 -0.27237365 -0.15327793 -0.10639415 -0.14019874
-0.17003007 0.04987047 0.19046777 -0.028251596 -0.027371712 0.10522705 -0.096048936 0.111872114
0.24006136 0.16840982 -0.11232386 0.07516488 -0.26344314 -0.04027267 -0.10327146 -0.0011986099
0.15897234 -0.0032336514 0.062863424 -0.0020975077 -0.04453137 -0.058894332 0.08623315 -0.0594538
-0.10242272 -0.18941912 0.26768976 0.26017272 0.05812217 0.13692589 0.093644574 -0.14075977
-0.1801584 -0.26986924 0.412525 0.02395625 0.21029676 0.3238498 -0.28075245 -0.0077147484
-0.23970523 0.050825115 0.0041966173 0.31551167 -0.021686658 0.29905218 -0.17605916 -0.13625436
-0.0803555 -0.07506305 -0.16735059 -0.2854828 0.21630451 0.07156194 -0.25012416 0.14679311
-0.00027817924 -0.2717961 -0.3304697 -0.13189472 -0.21140894 -0.06806913 0.030161437 0.02688937
-0.14343932 -0.03876595 0.0534058 0.011320572 -0.023234148 -0.096886195 -0.14529298 0.1861201
-0.21136738 -0.04496056 0.045043245 -0.16048051 0.18344612 0.19361028 -0.19570613 -0.29124752
-0.03174145 0.13251786 -0.20376348 0.038807698 -0.21478769 -0.21400061 0.15837567 0.11057912
-0.0019859592 0.1999327 -0.17263456 0.21713391 0.0827629 -0.13423763 -0.1712409 0.09583476
0.20097488 0.19507934 -0.1739011 0.16166796 -0.055639233 0.111841984 -0.05326342 0.046250157
0.24609473 -0.22746964 -0.20450431 0.015087184 -0.035687942 -0.08176775 0.12907551 -0.05128209
0.098973304 -0.13367307 0.13060696 0.11896182 0.1333555 -0.03836193 0.018256702 0.04607743
0.13630131 0.104712985 -0.08255538 -0.05479571 -0.023872549 0.018749654 0.07942962 0.107684106
-0.06764127 0.039767433 0.0063740383 -0.04949517 0.058995496 -0.049411017 0.1042823 0.24412219
-0.008264092 0.13585728 -0.0097368 0.047884844 -0.13120326 -0.094663635 -0.13858259 -0.1319919
-0.0692065 0.09235713 0.22224197 0.25074264 0.10908755 0.050654583 0.076457866 -0.107717745
-0.21598819 -0.26082373 0.16145769 0.27088344 0.32859632 0.07031336 -0.012046465 -0.08680516
0.044492263 0.002872881 0.15651225 0.019656558 -0.009720819 -0.04651736 -0.28079996 -0.02524531
0.09901199 -0.085736126 0.12220348 -0.062317386 -0.09813655 0.098439485 -0.3034608 0.2529642
0.11277785 -0.23525108 -0.03933745 0.10903574 0.19783546 -0.020547496 -0.17168094 0.21963641
0.13361707 0.1361217 0.123344906 -0.24776895 -0.06380285 0.027792137 0.0061227977 0.11507538
-0.18784979 0.079345234 0.16693482 0.0049075293 -0.16816048 -0.15358932 0.016141456 -0.11830194
0.105300754 -0.111511335 -0.052708853 -0.016274393 -0.30814812 0.10150629 0.0329477 -0.07176407
-0.01774881 -0.105372 0.0047313324 -0.041782934 0.14717744 -0.023924 -0.13055629 -0.038863964
-0.006503805 -0.19022729 0.22501475 -0.18660296 0.040952995 -0.04817557 0.105967596 -0.14065076

l2.bias f4 [60]
00000000: 76ee 06bd 3917 ebbd 9387 2d3d 513b b7bc
00000010: 42dc d2bc e89b be3c a2d6 0e3e 51cd 093d
00000020: 95f6 e13b 936f 103d 45a8 3e3c fcb2 8fbd
00000030: 591f 51bd cc7c 43bd 1df5 5d3d f287 20bc
00000040: 0adc 8a3c eb2a 1a3b 0b83 923b 1b81 683d
00000050: 21b2 6d3d 8bd7 de3b 54dd c5bd a374 843c
00000060: c45b 033d a3b6 f63b a510 803a 0eab 8ebb
00000070: cffa 8bbb a730 e03c e45b 65bd 9f5b 243c
00000080: a1a7 413d dddd 853d f71a 113c 822b 78bc
00000090: 89ea ac3c fd7d edbd 7ed5 4e3c 0948 c23c
000000a0: 9f81 fdbb 0e13 50bd 0923 9bbc a8b7 993d
000000b0: f64e 51bb 9df8 2dba 8772 d63c 1db3 e53b
000000c0: 3fb6 8eba 0523 923c 8c18 c93b 4dd4 95bd
000000d0: aa63 2bbc a9db 75ba 6d76 0a3c ad99 52bc
000000e0: b282 e0bc 9c9a 443c deb1 3abd 1c08 f9bb
-0.032942258 -0.11479039 0.04236562 -0.022367151 -0.025739793 0.023267701 0.13949063 0.03364307
0.00689585 0.035262655 0.011636798 -0.070165604 -0.051055286 -0.047726437 0.054188836 -0.009798037
0.016950626 0.0023524116 0.004471188 0.05676375 0.058031205 0.006800597 -0.096613556 0.016168898
0.032069936 0.007529096 0.0009770585 -0.0043538874 -0.004271842 0.02736695 -0.055995837 0.01003161
0.047279004 0.06536458 0.008856527 -0.015147092 0.021107929 -0.11596296 0.012624143 0.02371599
-0.0077363993 -0.050799422 -0.018937605 0.07505733 -0.0031937934 -0.00066364725 0.026177658 0.0070098774
-0.0010888054 0.017838964 0.0061369594 -0.07315884 -0.0104607735 -0.000937874 0.0084510865 -0.012854022
-0.02740607 0.011999752 -0.045579784 -0.0075998437

l3.weight f4 [60, 60]
00000000: 8272 9ebc dcfd 6bbc 85d2 b43c a229 8c3d
00000010: 1b12 82be cff1 213e e692 323d a3a5 20be
00000020: 4e07 48be bfc1 1e3c 61c2 503c fafc d2bd
00000030: 154b 903d 2759 1ebd d018 29bd 3aed 013e
00000040: 0cec 3bbe b266 42be ebef 933d 3e35 23be
00000050: 9d6a d8bc 0121 183e 5017 d03b 4163 c2bd
00000060: 73c7 37be 0316 dfbd 506e 3e3d 5f12 a3bc
00000070: 0a08 0e3d b76c 3fbe 7d40 353e 3c8f 79bc
00000080: d86b 6c3e 4e9a 883c b57e 25be 9074 39be
00000090: 10d2 e3bd be4b 9f3c 2ba8 d03d 35a1 47bd
000000a0: bd96 47be e8c4 483e 50b3 503e 12f5 423e
000000b0: 3216 ffbc 21bf 003e f6d6 2d3e 8dcd 23bc
000000c0: 44e3 483e 6d94 f03d 1f0e 843e 8962 d0bd
000000d0: 07d0 30be ec5b fc3d 2aa0 95bd 04fa 4c3d
000000e0: 21b4 debd b7b7 763e eee1 6d3e be06 903c
000000f0: d649 443d 81b2 e5bd ce8b 37be bbae 28be
00000100: d7ee 3c3e a474 483e b25b 2bbe 0529 4fbe
00000110: cdea b5bd 9ac6 53be eea8 cf3c b84d 14be
00000120: 2a08 2dbe c5de 55be f3d0 44be 5d9b c0bd
00000130: c8c1 f23c 6158 4abd 712d 04be e77c 1e3e
00000140: 93fa 8abd f815 2a3e 43de bb3d 65d5 ae3c
00000150: 7241 17be e1c2 013e 9bb7 273d ef14 733d
00000160: 48ff 6b3e c705 a3bd 9ab7 1a3e 349e fa3d
00000170: 739c 483e 505c 6b3e 4069 2abe b665 df3d
00000180: 868d 233d 333a e03d d5ba 76be 219d bcbd
00000190: 96c0 f03d c107 2dbe 6091 7d3e 07be 0a3e
000001a0: 1521 1b3e 082d 66be 7aea 663e 0ab8 35be
000001b0: 7e3c a03d cb18 a93d fb1e 0b3b f06b 0c3d
000001c0: d96f 01be 989b 71bd 8494 093e d6f7 2b3e
000001d0: 573c 883d de4b 04be a40b ce3d 6a67 57bd
000001e0: 3007 c43d 1d3f 78bc ac42 f73d 4f17 0c3e
000001f0: 026d 00be cbc4 b8bc f7c5 12be 9132 0c3e
00000200: c71b 7f3e 6524 9bbd c39e dabd 0a93 2bbe
00000210: 6df2 363c efd1 343d e38f 45be 8fe5 013e
00000220: 092d 863e ad40 143e 2b11 673d 3b20 95bd
00000230: c938 963e 76f5 243e 05b2 06be f971 07bd
00000240: dfaa 763e 9922 debd 7dad fb3d 0b65 6cbe
00000250: 5d4b 90bb 4e8f 03be b2e1 a8bd 9881 ecbd
00000260: d075 f83c 806a b8bd 9515 653d 805e 05be
00000270: 7b70 2a3e fa16 aebd e6c2 20be fa13 efbc
00000280: f403 873e 0076 5cbb 20a8 5e3e c162 13be
00000290: 6be6 1f3e 0721 e5bd b7d4 9c3c 491c d53d
000002a0: f53e 48be 0244 81bd eb7e 2bbe 61fb 0ebd
000002b0: 4a1f 6bbe 4e0c 37be 223e bbbd b284 95bd
000002c0: 990a 0ebe cf07 453e baf9 9f3d 0664 123e
000002d0: 0d63 bebc d716 7ebd f08e 803d 6d24 8cbd
000002e0: 2263 a63d bea0 4c3e c1ac 473e 6b04 19be
000002f0: 60ef 9f3d f9b4 fc3d fa8d 0c3e 9ef7 e6bd
00000300: 1bfd c83d 4f70 9d3d 5422 5bbe 834f 97bd
00000310: 14fd 593e 7a17 003e c716 e0bd e73b 2ebe
00000320: 2669 cb3d 64a4 c63b dd5c 0c3e 8470 13be
00000330: 9e1f ffbc bfa2 223e 80f5 133e 7339 08be
00000340: 6c7a 6b3c 1aa9 a2bd 9f1a 353d 9672 b9bd
00000350: 17b5 7abd 265c f83d 8b22 b9bd 2a33 143e
00000360: 8f1e c5bc 867c 9abd 1c69 99bd c8c8 563c
00000370: d65c 0ebe 1af5 f6bd 42ee 683e 4b0f 49be
00000380: ec3a 803e b579 953d ba68 8d39 c2ab 1dbe
00000390: 5603 73be 38d0 963a ac2b 953d 54db 2ebe
000003a0: 443d 773d 4009 03be 5900 ec3c c8ce a63c
000003b0: 7e1d 0bbe fbb4 3abe a261 cdbd cf3b df3c
000003c0: 120f 4ebe 98ff 19be 92c1 eb3c 523b 89bd
000003d0: 1e1b 76bc 8d27 b7bc 8ada 65be 0039 4cbe
000003e0: 52c5 72be 274c e23d 3344 263e e38b 6e3d
000003f0: 7ad9 68bd ca44 d6bd 81c0 4bbd 2ade 943c
-0.019341711 -0.0144037865 0.02207304 0.06843878 -0.25404438 0.15814899 0.043597125 -0.15688185
-0.19534037 0.009689747 0.012741656 -0.10302158 0.07045571 -0.03865924 -0.04128343 0.12688151
-0.18351763 -0.18984488 0.07223495 -0.15938279 -0.026418025 0.1485634 0.0063504353 -0.094915874
-0.17947178 -0.1089287 0.04649192 -0.019906221 0.034675635 -0.18693815 0.17700382 -0.015231904
0.23088014 0.01667514 -0.16161616 -0.18110871 -0.111240506 0.019445296 0.101883255 -0.048737723
-0.19491096 0.19606364 0.20380902 0.190388 -0.031138513 0.1257291 0.16976532 -0.009997738
0.19617945 0.1174706 0.25792024 -0.10175044 -0.17266856 0.1232222 -0.073059395 0.05004312
-0.108742006 0.24093519 0.23230717 0.01758134 0.047921978 -0.112156875 -0.17924425 -0.16472904
0.18450485 0.19575745 -0.16734198 -0.20230491 -0.08882675 -0.20681229 0.025349107 -0.14482772
-0.16897646 -0.20885761 -0.19220333 -0.09404633 0.029633418 -0.04940069 -0.1290796 0.15477334
-0.067860745 0.16609943 0.091732524 0.021341989 -0.14771059 0.12671997 0.040946584 0.059346136
0.23046601 -0.07960086 0.15109101 0.12237206 0.1959093 0.22984433 -0.16641712 0.10908072
0.03992989 0.109486006 -0.24094708 -0.092096575 0.11755483 -0.16897489 0.24762487 0.13549052
0.15149339 -0.22478116 0.22550383 -0.17745987 0.07824038 0.08256682 0.0021228183 0.034282625
-0.12640323 -0.058986276 0.1343556 0.1679376 0.06652134 -0.12919566 0.10060814 -0.052588858
0.095716834 -0.015151766 0.120732635 0.13680767 -0.12541583 -0.022554776 -0.1433333 0.13691165
0.2491294 -0.07575301 -0.10674813 -0.1675531 0.011166197 0.04414552 -0.1929317 0.12685226
0.26206234 0.14477797 0.056412857 -0.07281538 0.293402 0.16109261 -0.13153847 -0.033067677
0.2408862 -0.10846443 0.1228895 -0.2308542 -0.0044035153 -0.12847635 -0.08246173 -0.115481555
0.030329615 -0.09004688 0.055928785 -0.1302433 0.1664447 -0.08500476 -0.15699348 -0.02918433
0.26370203 -0.003363967 0.21743822 -0.1439314 0.15615241 -0.1118794 0.0191444 0.104057856
-0.19555266 -0.063117996 -0.16747634 -0.034907702 -0.22961155 -0.17875788 -0.0914271 -0.073007
-0.1387123 0.1924126 0.078113034 0.14295968 -0.02324059 -0.0620335 0.06277263 -0.06842885
0.08124377 0.19983193 0.19499494 -0.14943092 0.07809329 0.12339205 0.13726035 -0.11277698
0.09813901 0.07687437 -0.21399814 -0.073882125 0.21287948 0.12508956 -0.109418444 -0.17015038
0.09932165 0.0060620774 0.137073 -0.1439839 -0.031143006 0.15882395 0.1444912 -0.13303165
0.014372449 -0.0794241 0.04421484 -0.09055059 -0.061207857 0.12126951 -0.09039792 0.14472643
-0.024062423 -0.07543282 -0.07490751 0.013109393 -0.13902602 -0.12058468 0.22747138 -0.1963474
0.25044954 0.072986044 0.00026971643 -0.15397552 -0.23731741 0.0011506146 0.072837204 -0.17075855
0.06036116 -0.12796497 0.02880876 0.020362273 -0.13585469 -0.18233101 -0.100283876 0.027250199
-0.20122936 -0.15038908 0.028778825 -0.067007676 -0.015021114 -0.022357726 -0.22446647 -0.19943619
-0.23708084 0.11049681 0.16236953 0.058238875 -0.056848027 -0.10462339 -0.049744133 0.018172342

l3.bias f4 [60]
00000000: 50a2 4438 1730 483b e566 a9ba a865 3c3c
00000010: c9a7 cf3a 4b65 c4bd 06be b3bc 2f13 39bc
00000020: 4bb8 1a3b 2b28 f93b 6ec8 703b ea74 f13d
00000030: 8fb7 023d d142 463c 8d70 52bc 2c0e 06bb
00000040: 7d2e 2dbb 883f 26bb 6361 f33d ed41 9e3a
00000050: e9eb a93d 0734 efbb a4a0 473d 7a63 953c
00000060: d314 4e3c ece4 4cbd c88b 5e3d a7cb 0b3d
00000070: d8a3 f03b 50c5 9cbd 4a2d 90bd 08ae 3b3c
00000080: 78e3 b6bb b238 39bc 013c 523a 5984 c63c
00000090: ffbd 0fbd a77b b9bb eb33 433c e6a6 a53a
000000a0: 099b bcbb 7d5a 00bd 27c7 d5bc d29a 3bbc
000000b0: 734e b3bb f512 14bc 8d4e 60bb b261 0d3c
000000c0: 8dd0 1d3c efcc a2ba 78cd 52ba 533b 06ba
000000d0: d41f 163c 4fd5 8fbc d663 c6bc a373 633b
000000e0: 6572 c33b f744 22bb 92ef 5dbb fa89 66bc
4.6881207e-05 0.0030546242 -0.0012924342 0.011498846 0.001584285 -0.095896326 -0.021941196 -0.011296078
0.0023608382 0.0076036653 0.003674056 0.11789878 0.031913336 0.012100891 -0.012844217 -0.0020455224
-0.0026425414 -0.0025367457 0.118838094 0.0012074091 0.082969494 -0.0072999033 0.048737183 0.01823591
0.012578207 -0.050023004 0.054332525 0.034129765 0.0073437504 -0.07654822 -0.07039888 0.0114550665
-0.0055813156 -0.011305021 0.00080198055 0.02423303 -0.035093304 -0.0056604925 0.011914234 0.0012638241
-0.0057557863 -0.031336296 -0.02609594 -0.011450486 -0.0054719984 -0.009037723 -0.0034226507 0.008629249
0.009632242 -0.0012420694 -0.00080414815 -0.00051205343 0.009162862 -0.017557768 -0.024217527 0.0034706376
0.0059645646 -0.0024760345 -0.003386472 -0.014070982

l4.weight f4 [3, 60]
00000000: b083 753e f7e0 813c 9265 fc3b 2f7c cb3d
00000010: ed95 743e 829c 95be 476b a33c 7239 a23e
00000020: cd1a bdbc 1a2a 33be 90ff d5bd 18c7 29bd
00000030: 7613 fdb9 5f07 2a3e b234 6fbe 4539 83be
00000040: 0d3c e1bd 4185 28be 050d 71be 9039 39bd
00000050: 65ff ee3d fd9f 0cbe 5419 57bd 1f1f 57be
00000060: cf5f 82be 63b3 663d 60c9 9d3e 2d2e 48bb
00000070: cb20 943e 7386 aabb 8f09 e4bc e016 c23c
00000080: e482 603e dd28 cc3c 542d 94bd 8fbd 873e
00000090: 4e1f 7cbe a20f 42be c8b5 953e 2971 9cbc
000000a0: bdc9 093e 045e ebbe 38ea e7bc 6b2d 2fbe
000000b0: 2a2b 94bd 1bcc 9bbc f1ee 92be 19cc 9fbd
000000c0: baca 923c d857 2f3d 54f4 1cbe c2a6 f93d
000000d0: cb0f 2b3e bafa 88be 45b2 a03e f625 7db8
000000e0: 5a17 4cbe b20a bd3d a475 b03d 2203 81be
000000f0: e618 383e 77d9 c13d 34de 9e3c c28a 6f3d
00000100: 4f95 ecbd bce1 1abe fa80 673e ae68 5b3e
00000110: 016f 30bd 0070 9abd a6e6 2ebe b3d9 24be
00000120: 81bb 4b3b 79e7 2a3e ec57 a4be 8703 183e
00000130: 23a0 0cbd 3e33 0ebe 34e6 853e 516c 9d3d
00000140: 158d 83be 8bf5 393e 04af 023e d4da ab3d
00000150: 950d 76be beea 93be df53 d33e a23b 1e3e
00000160: 1472 683e d756 0bbc c769 0bbc 7f88 ef3d
00000170: 2784 a23d 7803 89be 46e0 5dbe 6567 d5bd
00000180: 1bbe 8c3e acf3 e5bc 96c3 50be 992b 01bd
00000190: 4b71 2dbe 95fb 9a3e 8942 72be 9d86 743e
000001a0: fbbe 87bc 6500 07be 4221 ce3d 2cf1 38bd
000001b0: 9b5c 2dbe 5e94 c9bb 6df9 2fbc deab 43be
000001c0: c5a4 303e b9e1 093e 9a59 2b3d 5208 393d
000001d0: 30fa dabd e560 02be 9653 a6bd 19a5 21bd
000001e0: 4788 0d3e ba68 20be 9099 293e 5f8e cebd
000001f0: c87f f73e 63ac dbbe 999c 033e 1e18 46bd
00000200: 074b 9bbe 0aed 503d ab10 823e a3de 173f
00000210: fe23 813f 5ee1 1a3f e6df 953d 79d9 44bf
00000220: 29f2 f83d f16c de3e 07f2 273e d164 523f
00000230: e2e9 8d3e 2b83 adbe 8199 9ebe ab04 ca3e
00000240: 0e2c 0a3d c276 fbbd 27f5 643e 5141 373e
00000250: de88 bbbd 2518 043f 7388 993d caea 883d
00000260: 52ae 19bf cd0e 963e 2b6d 3b3e ee76 7bbe
00000270: 78db d9bd 60a8 98be d1eb 1ebd f24f 653e
00000280: 02e4 d9bd 7b0b c1bc a121 5e3e eeca f13d
00000290: ef8d 2fbe f859 313e ad3a 143f 5cd6 803e
000002a0: 5f38 6b3d ab51 42be 14c2 633e 6ae4 483e
000002b0: ec52 9f3e 7b3f 6cbe 3b09 2ebe e723 f43d
000002c0: 0f03 c63e 4ec1 a83d 196f ccbd d372 c9be
0.23976016 0.015854342 0.007702538 0.099357955 0.23885317 -0.29220968 0.019948615 0.31684452
-0.023084069 -0.17496529 -0.10449135 -0.041449636 -0.0004827042 0.16604374 -0.23359945 -0.2562963
-0.10997782 -0.16457082 -0.23540123 -0.04522091 0.116698064 -0.13732906 -0.05251439 -0.21007966
-0.2546372 0.05632342 0.308177 -0.00305451 0.2893127 -0.005204016 -0.02783659 0.023692548
0.21924931 0.024921829 -0.07235208 0.2651181 -0.24621317 -0.18951276 0.2924025 -0.019096928
0.13455863 -0.45970166 -0.028309926 -0.1710717 -0.072347954 -0.019018224 -0.28697923 -0.078026004
0.017918933 0.042808384 -0.15327579 0.1219001 0.16705243 -0.2675379 0.3138601 -6.0355254e-05
-0.19930783 0.092305556 0.08616188 -0.25197703 0.17978248 0.09465306 0.019393064 0.05848194
-0.11551916 -0.15125173 0.22607794 0.21426651 -0.04307461 -0.075408936 -0.17080173 -0.1609867
0.0031087103 0.16689862 -0.3209833 0.14845096 -0.034332406 -0.13886735 0.26152194 0.07686675
-0.25693575 0.18160073 0.12762076 0.083913475 -0.24028619 -0.28890032 0.41274926 0.15452436
0.22699767 -0.008504591 -0.008509106 0.116959564 0.07935362 -0.2676046 -0.21667585 -0.104201116
0.2748879 -0.028070293 -0.2038711 -0.03153572 -0.16937749 0.30270067 -0.23658194 0.23879476
-0.016570559 -0.13183744 0.10064937 -0.045151874 -0.16929857 -0.00615172 -0.01074062 -0.19108531
0.17250355 0.13465013 0.041833498 0.04517395 -0.10692251 -0.12732275 -0.081214115 -0.03946409
0.13821517 -0.1566495 0.16562486 -0.10085749 0.48339677 -0.42904958 0.12852706 -0.048362844
-0.3033068 0.051007308 0.25403342 0.5932409 1.0089109 0.60500133 0.07318096 -0.76894337
0.121555634 0.4344249 0.1640092 0.82185084 0.277175 -0.33889136 -0.3097649 0.39456686
0.03373342 -0.12278511 0.22359143 0.1789601 -0.09156965 0.5159934 0.07496729 0.066854075
-0.60031617 0.29308167 0.18303363 -0.24557087 -0.106375635 -0.2981596 -0.03879911 0.22393778
-0.10639192 -0.023565045 0.21692516 0.11806284 -0.17143987 0.17319477 0.5790203 0.25163543
0.057426807 -0.18976466 0.22242004 0.19618383 0.31117952 -0.23071091 -0.16995709 0.1192091
0.3867421 0.08239995 -0.09982128 -0.39345416

l4.bias f4 [3]
00000000: fcc7 fd3a ccf1 c3b8 0000 0000
0.0019361968 -9.343363e-05 0.0
