NTK/cudaNavierStokes/models/pinn_ns2d.pth (torch, 330665 bytes, 8 tensors)

l1.weight f4 [200, 3]
-0.060146976 -0.11790925 -0.07564228 -0.20565036 0.0556423 0.008772376 0.10184393 -0.123558074
-0.13985956 -0.049696654 0.030840836 -0.016006917 0.18117592 0.16195518 -0.06156731 -0.16698593
-0.076225795 0.038296983 -0.01136113 -0.07432602 -0.116832696 -0.064287595 0.01833159 -0.034908958
-0.118994854 -0.07629968 -0.034964282 -0.076374784 0.15672638 -0.10633547 -0.03602333 -0.12928776
-0.036532823 -0.10396563 -0.15224363 0.10926981 -0.090245865 0.077375755 -0.10649789 -0.07936865
-0.04438217 -0.14522001 -0.05776141 0.12579952 0.10538819 -0.05290793 0.16305771 0.0070669777
0.05104298 -0.103221714 -0.12136405 -0.073727705 0.16373587 -0.12323959 -0.119676486 -0.16631094
-0.14703022 -0.025835613 -0.034687325 0.16155201 -0.05804404 0.094802976 -0.13053481 0.08529349
-0.07436575 -0.034310143 -0.13888851 -0.066113554 -0.09916132 0.0014705124 0.08210798 0.06951288
0.19283625 -0.0457549 -0.02651509 -0.033562683 0.049527045 0.14630558 0.13047047 0.046283886
0.100400314 0.12495525 0.04404538 0.17533521 0.04684495 -0.10947977 0.06410175 -0.09794237
-0.13363059 0.020517705 -0.13999686 0.13548814 -0.023814218 -0.13756298 -0.06552962 0.10555187
0.14808102 0.009092202 -0.1710605 0.11173298 -0.16127992 -0.16783002 -0.053728078 -0.12533373
-0.0911998 0.17783503 0.13294663 0.032885984 0.066004746 -0.045871817 -0.060094107 0.049564846
-0.17213789 0.11709601 0.10559015 -0.09029692 -0.015433595 -0.13895318 -0.039907496 -0.10966691
0.14987044 0.033083662 -0.07724579 -0.1439414 -0.15616296 0.03834318 0.10893887 0.02692181
0.14498305 0.11002052 0.11110846 0.05062645 -0.0420402 0.10781263 0.16612169 -0.14624585
0.14330132 -0.06535452 0.11029688 0.04575338 0.120363064 -0.035343725 -0.009032203 0.12236714
0.18623613 0.09885846 -0.08398589 -0.075358845 0.033078264 0.13777858 0.14012745 -0.09298798
-0.18278247 0.03636573 0.16247195 0.03608361 0.010245771 -0.19879934 0.12331223 0.05310455
0.12594704 0.1081809 0.095309645 -0.17613025 0.005131702 0.080666825 -0.12675834 -0.10726132
0.06921288 0.045627665 -0.15937424 0.008315995 0.08125941 0.055089436 0.08325091 -0.0741584
-0.10001305 0.12043177 -0.037475046 -0.06440939 -0.024204066 -0.13544819 0.14232783 0.13396157
-0.09249485 0.14620548 -0.12491796 0.019652601 -0.13378938 0.07653921 0.14957368 0.12857465
-0.005743684 0.057390846 -0.057554264 0.09487968 -0.016827926 -0.069547564 0.17545018 -0.018946607
0.036073484 0.068846166 -0.07392329 0.1045823 -0.108863354 -0.13547489 -0.058842987 0.104816005
0.15238327 -0.18991587 -0.034347814 -0.13914129 -0.019315802 0.08806142 -0.1080661 -0.022424456
0.10937707 0.046854034 -0.11915413 -0.042515185 0.04428048 -0.078382105 0.068834804 -0.014096669
0.14844574 -0.0052829403 -0.055779994 -0.026765838 -0.046328153 -0.032693706 -0.17531706 -0.17417587
0.08240187 0.1435129 0.036362574 -0.063983336 0.12976922 -0.102076285 -0.16383702 0.09190475
0.12008571 -0.14450936 0.09843828 0.14488925 0.030186685 -0.18847463 0.04559078 -0.057327893
0.10193318 0.12547845 -0.114235066 -0.048427716 -0.09342466 -0.008735071 -0.07339728 -0.12021196
00000000: ad5c 76bd 687a f1bd 57ea 9abd 0296 52be
00000010: 2ee9 633d 03ba 0f3c 8d93 d03d 040c fdbd
00000020: 5837 0fbe b88e 4bbd eca5 fc3c f020 83bc
00000030: 2e86 393e 94d7 253e 012e 7cbd 5cfe 2abe
00000040: 451c 9cbd 4cdd 1c3d 0824 3abc 3e38 98bd
00000050: fb45 efbd 37a9 83bd 212c 963c b2fc 0ebd
00000060: 93b3 f3bd 0243 9cbd b536 0fbd 626a 9cbd
00000070: e17c 203e 69c6 d9bd 338d 13bd 0364 04be
00000080: 71a3 15bd efeb d4bd c1e5 1bbe dac8 df3d
00000090: d3d2 b8bd 2e77 9e3d 911b dabd 088c a2bd
000000a0: 14ca 35bd 8eb4 14be 3a97 6cbd 97d1 003e
000000b0: c3d5 d73d fcb5 58bd 9af8 263e 1b92 e73b
000000c0: 7212 513d e865 d3bd b78d f8bd 8dfe 96bd
000000d0: 60aa 273e 0a65 fcbd f218 f5bd 6a4d 2abe
000000e0: 178f 16be 35a5 d3bc 4c14 0ebd e46d 253e
000000f0: 96bf 6dbd 1028 c23d ebaa 05be 5aae ae3d
00000100: 124d 98bd cb88 0cbd ca38 0ebe 8b66 87bd
00000110: 1715 cbbd 35be c03a 3b28 a83d c55c 8e3d
00000120: de76 453e 7d69 3bbd 2d36 d9bc 0679 09bd
00000130: dfdc 4a3d 21d1 153e 0d9a 053e 2c94 3d3d
00000140: ae9e cd3d 8ae8 ff3d ee68 343d 138b 333e
00000150: 7ee0 3f3d ee36 e0bd c747 833d 0296 c8bd
00000160: 75d6 08be bf14 a83c 565b 0fbe 67bd 0a3e
00000170: 0916 c3bc 4fdd 0cbe 6534 86bd 942b d83d
00000180: 8da2 173e 76f7 143c 7c2a 2fbe 43d4 e43d
00000190: 9026 25be a2db 2bbe f911 5cbd 7c57 00be
000001a0: f6c6 babd 631a 363e 2923 083e 74b3 063d
000001b0: 7f2d 873d 16e4 3bbd 3d25 76bd 8204 4b3d
000001c0: ea44 30be 08d0 ef3d a63f d83d 97ed b8bd
000001d0: 30dd 7cbc be49 0ebe 0b76 23bd 0b99 e0bd
000001e0: a377 193e bc82 073d 0a33 9ebd 6065 13be
000001f0: 2fe9 1fbe bd0d 1d3d 581b df3d 218b dc3c
00000200: 7076 143e 7052 e13d d58c e33d ae5d 4f3d
00000210: 5832 2cbd decc dc3d ce1b 2a3e 79c1 15be
00000220: 95bd 123e 97d8 85bd 55e3 e13d e567 3b3d
00000230: e980 f63d 95c4 10bd cefb 13bc a09b fa3d
00000240: afb4 3e3e 4e76 ca3d cb00 acbd bd55 9abd
00000250: 137d 073d d415 0d3e 927d 0f3e 7b70 bebd
00000260: 542b 3bbe 3bf4 143d 0c5f 263e 68cc 133d
00000270: e1dd 273c 0e92 4bbe 1f8b fc3d 2884 593d
00000280: 43f8 003e f38d dd3d b431 c33d 7d5b 34be
00000290: d627 a83b a634 a53d f0cc 01be d3ab dbbd
000002a0: 7cbf 8d3d 13e4 3a3d 0033 23be d03f 083c
000002b0: 556b a63d 76a5 613d 747f aa3d 5ce0 97bd
000002c0: a4d3 ccbd efa4 f63d 6f7f 19bd 12e9 83bd
000002d0: 9b47 c6bc eeb2 0abe 63be 113e 392d 093e
000002e0: f16d bdbd e4b6 153e fdd4 ffbd 7efe a03c
000002f0: 1500 09be 97c0 9c3d d829 193e 13a9 033e
00000300: 8335 bcbb aa12 6b3d 05be 6bbd 4750 c23d
00000310: b8da 89bc f46e 8ebd 36a9 333e ea35 9bbc
00000320: cac1 133d 38ff 8c3d 1865 97bd 3f2f d63d
00000330: c0f3 debd eeb9 0abe 5805 71bd c6a9 d63d
00000340: 5c0a 1c3e 4e79 42be 4bb0 0cbd 0e7b 0ebe
00000350: 2c3c 9ebc 8c59 b43d c251 ddbd 7eb3 b7bc
00000360: 1601 e03d 04ea 3f3d 1507 f4bd 6724 2ebd
00000370: 735f 353d cc86 a0bd 43f9 8c3d b7f5 66bc
00000380: 2902 183e 841c adbb 9079 64bd 0844 dbbc
00000390: 97c2 3dbd d6e9 05bd 5186 33be 295b 32be
000003a0: 50c2 a83d 0cf5 123e ecf0 143d b209 83bd
000003b0: 39e2 043e 5f0d d1bd e4c4 27be 8f38 bc3d
000003c0: 7fef f53d 43fa 13be 029a c93d d95d 143e
000003d0: 114a f73c 7eff 40be 66bd 3a3d a7d0 6abd
000003e0: 58c2 d03d 6c7d 003e 13f4 e9bd 245c 46bd
000003f0: 6e55 bfbd 8b1d 0fbc 5051 96bd b031 f6bd

l1.bias f4 [200]
0.015605234 0.13801438 -0.026870742 0.0239002 -0.010847354 0.046019964 -0.03375701 0.040978856
0.012154763 0.04461356 0.0030123277 0.040918116 0.048738133 0.023769801 0.014568054 -0.0093019325
-0.031487036 -3.5818503e-06 0.054688554 0.03756004 0.0044083595 -0.017673194 0.021762852 0.0015272942
-0.072887465 0.03422809 -0.04657114 -0.07376287 -0.012043301 0.055269275 0.07636039 0.04664861
-0.018332992 -0.039214306 0.013928028 -0.045446415 -0.032084014 -0.008385543 -0.048394922 0.043199092
-0.06691652 0.015122842 -0.018700603 -0.041755475 0.024019113 0.04451997 -0.013359459 0.08868002
-0.08185962 0.044460345 -0.03129986 0.018215425 -0.0039744964 -0.021808388 -0.051527284 -0.031035108
-0.012469519 -0.008145218 -0.021561217 -0.035728645 -0.012815036 -0.007380021 0.048267 0.0077497694
-0.02259173 -0.036795933 -0.08634951 -0.0066822697 0.05414595 -0.05936597 0.0014848785 -0.004901362
-0.026389731 0.032614935 -0.024928631 0.010848628 -0.0066368775 0.030751165 0.023041539 0.040384308
-0.009199539 -0.044036146 -0.032741845 -0.02675162 0.049864464 0.050116442 0.050150868 0.0048358478
-0.09056001 -0.00537479 0.04304936 0.01570944 0.00804182 0.023253843 -0.07748733 -0.022728356
-0.05806771 0.036239088 0.008051466 -0.10449403 -0.048296228 -0.019043775 -0.013773002 0.013256938
0.04778773 -0.020353861 -0.072062284 -0.004340399 -0.007126219 -0.00042660983 -0.0018556329 -0.0013443807
-0.02794952 0.028396185 -0.06499792 -0.052702926 -0.048399374 0.05084225 -0.006936451 0.001210136
-0.037237585 -0.047654793 -0.0343151 -0.073416635 0.053945944 0.0019876536 -0.089742444 0.09411564
0.0072348467 -0.0045045903 -0.02006152 -0.02895857 -0.08064072 -0.008642609 0.0059804204 0.03192961
-0.004767242 0.020161849 -0.037985772 0.014753364 0.022197846 0.0074957483 -0.08404331 0.02932436
-0.013196171 -0.033076916 -0.07480513 0.05952173 -0.07446276 -0.018396365 0.007179226 0.047695164
-0.03873185 0.008053993 -0.0066471086 0.009104695 -0.012229926 0.0058474257 -0.02310546 0.060017478
0.06488827 0.070105724 -0.049345683 -0.019241184 -0.03211209 0.0007968644 -0.063786656 -0.031158663
-0.011065431 -0.0050889906 -0.06378248 -0.044410996 0.0047188047 0.06109135 0.09301472 0.04816957
0.055062175 0.03339655 -0.0835682 -0.06402171 0.04244982 0.0068918983 0.008097884 0.14360395
0.059769362 0.02743485 0.005931162 0.088468015 0.05939775 0.063389175 -0.018060042 0.06937622
0.009134528 0.05755893 0.034799 0.01586769 0.008285483 -0.11967062 -0.024553012 -0.021517586
00000000: 18ad 7f3c a453 0d3e 0820 dcbc 5aca c33c
00000010: 1ab9 31bc 6e7f 3c3d ca44 0abd 72d9 273d
00000020: c524 473c b5bc 363d 796a 453b c199 273d
00000030: a3a1 473d e3b8 c23c d9ae 6e3c 2267 18bc
00000040: 8df8 00bd b85f 70b6 1b01 603d 8ed8 193d
00000050: 0074 903b 60c7 90bc 0248 b23c 7d2f c83a
00000060: 0646 95bd c132 0c3d 61c1 3ebd fd10 97bd
00000070: 4451 45bc 0962 623d d662 9c3d 9d12 3f3d
00000080: 122f 96bc 2e9f 20bd 6232 643c 0526 3abd
00000090: 876a 03bd 8463 09bc c139 46bd 88f1 303d
000000a0: 870b 89bd ccc5 773c 0232 99bc ca07 2bbd
000000b0: bbc3 c43c 925a 363d a2e1 5abc df9d b53d
000000c0: 04a6 a7bd 0d1c 363d 4834 00bd 8438 953c
000000d0: 7e3c 82bb 81a7 b2bc 460e 53bd 573d febc
000000e0: f44c 4cbc 8573 05bc 26a1 b0bc 3358 12bd
000000f0: 28f6 51bc 1ad4 f1bb 9eb3 453d c7f1 fd3b
00000100: 4b12 b9bc 55b7 16bd 03d8 b0bd f1f6 dabb
00000110: 25c8 5d3d bb29 73bd 41a0 c23a 9b9b a0bb
00000120: 472f d8bc 3d97 053d 2137 ccbc 72be 313c
00000130: 2a7a d9bb dee9 fb3c 9cc1 bc3c 046a 253d
00000140: aab9 16bc 3f5f 34bd 501c 06bd 3726 dbbc
00000150: ae3e 4c3d e646 4d3d ff6a 4d3d 0876 9e3b
00000160: 8777 b9bd 021f b0bb 8754 303d 15b1 803c
00000170: d6c1 033c d87e be3c adb1 9ebd d130 babc
00000180: 68d8 6dbd 706f 143d 4cea 033c f700 d6bd
00000190: 44d2 45bd b101 9cbc 28a8 61bc a133 593c
000001a0: 11bd 433d 24bd a6bc 6495 93bd e839 8ebb
000001b0: 0f83 e9bb 9aaa dfb9 b538 f3ba ee35 b0ba
000001c0: 64f6 e4bc 1e9f e83c a11d 85bd 06df 57bd
000001d0: 6c3e 46bd f73f 503d 2b4b e3bb 6d9d 9e3a
000001e0: 7086 18bd ac31 43bd fe8d 0cbd 765b 96bd
000001f0: 6cf6 5c3d 4b43 023b e3ca b7bd b3bf c03d
00000200: 4b12 ed3b 3e9b 93bb 0f58 a4bc 863a edbc
00000210: f626 a5bd bb99 0dbc 67f7 c33b 9fc8 023d
00000220: 8636 9cbb 762a a53c f896 1bbd 18b8 713c
00000230: 42d8 b53c e59e f53b e61e acbd a439 f03c
00000240: c134 58bc a97b 07bd 6f33 99bd 0fcd 733d
00000250: ee7f 98bd f9b3 96bc b63f eb3b 015c 433d
00000260: 4aa5 1ebd e5f4 033c fdcf d9bb dc2b 153c
00000270: 0760 48bc c39b bf3b a947 bdbc e3d4 753d
00000280: 24e4 843d 9793 8f3d b31e 4abd b09f 9dbc
00000290: f887 03bd aae4 503a 94a2 82bd 7440 ffbc
000002a0: c84b 35bc 8cc1 a6bb 64a0 82bd 4ee8 35bd
000002b0: 34a0 9a3b ec3a 7a3d 807e be3d 744d 453d
000002c0: e088 613d d2ca 083d ce25 abbd d01d 83bd
000002d0: dddf 2d3d 6fd5 e13b fdac 043c ea0c 133e
000002e0: b8d0 743d 0dbf e03c 315a c23b b82e b53d
000002f0: 0e4b 733d 2fd2 813d a7f2 93bc 1f15 8e3d
00000300: fda8 153c eac2 6b3d 6589 0e3d f5fc 813c
00000310: d6bf 073c df15 f5bd 6623 c9bc a645 b0bc

l2.weight f4 [200, 200]
0.084704846 0.050192717 -0.0065344474 -0.049140304 -0.07877188 -0.026147258 0.037618257 0.089877985
-0.050147105 -0.07920151 -0.025251161 -0.09990277 0.07290614 0.063656904 -0.047288634 -0.090295814
0.011215371 0.12818226 -0.05907434 -0.0066684484 0.07792531 -0.12239095 0.13372871 0.019399738
0.025841609 -0.08498351 -0.1187915 -0.11582435 -0.050591327 0.013057524 -0.07090957 0.08617419
-0.09861319 0.083038926 0.071115196 0.024857027 0.04894387 -0.045045238 -0.03637701 0.118094094
-0.084688015 -0.03267477 -0.08304358 0.014227975 -0.044536512 -0.035561714 -0.12543437 -0.15403236
0.0052530053 -0.020008413 0.026429728 -0.0424019 0.014008898 -0.032258023 0.0024302434 -0.0064026318
-0.036152814 0.034042202 0.05746548 -0.103882514 0.046556853 -0.13606243 0.037984923 0.025033027
-0.014758746 0.07172151 -0.04519406 0.078960575 0.117608465 0.006525759 0.08665064 -0.036354866
0.010080184 -0.07766949 -0.105771944 -0.0713829 0.11527187 0.12338734 0.0046792026 0.023871684
0.071933076 0.0413469 0.06894385 -0.09778738 0.114157006 0.11508587 0.12660216 0.09228917
0.051080637 -0.039573696 -0.13028824 -0.039671727 -0.048378162 0.04352477 -0.08790004 0.008648428
-0.009254751 0.068644166 -0.0042874906 0.10441355 0.025047967 0.044829197 0.10722699 -0.10307912
0.037607066 -0.018343115 -0.10373612 -0.087860495 -0.08021385 -0.10974721 0.06867234 -0.060019743
-0.118574575 0.013411475 0.03437043 0.036019273 -0.010176943 0.010448815 0.007173659 0.10238981
-0.07196308 -0.09432431 0.043165542 -0.08952872 0.005609854 -0.075598255 -0.08612186 0.04813257
-0.034219395 0.11984784 0.013142587 -0.088314384 0.008092178 -0.09197177 -0.14662309 0.03892493
-0.070588805 -0.080011286 0.0947537 0.12102221 0.06688732 0.045027655 -0.0353698 0.049046468
0.055107027 -0.03208271 -0.14877993 -0.08019451 0.032903515 0.10609608 0.009020669 -0.06980613
-0.007194738 -0.06316933 0.105510995 -0.055394817 -0.09384341 0.06403573 0.09700609 0.024337418
-0.009061985 -0.03280287 -0.06568106 -0.003133752 -0.10835795 -0.06806385 -0.016439702 0.046612706
0.11618804 -0.06810817 0.10133882 -0.08516704 -0.052598946 -0.13396478 -0.011853476 0.14996819
-0.061480373 0.14906324 -0.02974899 -0.081671745 -0.055822987 0.11032757 0.052322183 0.026690973
0.0025455581 -0.07126525 0.055153716 0.06484033 -0.0587524 0.11623387 0.0021018267 -0.06851579
-0.031196043 -0.036333807 0.02420123 0.09735279 0.067237176 -0.14125094 0.09223341 0.11986583
-0.07248516 0.005791846 0.11939695 -0.023348786 0.068417296 -0.10842477 0.04740039 -0.029147109
0.06907332 0.09155745 0.07506111 -0.04238657 -0.029949786 0.08592342 -0.11976812 0.043962505
0.04051551 -0.11034607 -0.105977 0.024985466 0.08812239 -0.028194284 -0.057210132 -0.03765704
0.045910016 -0.002075838 0.047336053 -0.082731605 -0.107942216 0.08654987 -0.0060410663 0.029278066
0.012900931 0.07831337 0.10582519 -0.11289905 0.064584695 -0.07096044 0.118575856 0.062221415
0.08901049 -0.10253651 -0.070057236 -0.01662905 -0.11906436 0.09420037 -0.12511812 0.05958022
0.035182532 -0.016832247 -0.08838394 0.024663476 -0.11318832 0.0017118612 0.10499137 0.015024048
00000000: bc79 ad3d e196 4d3d eb1e d6bb 5847 49bd
00000010: 2753 a1bd c632 d6bc 9a15 1a3d f311 b83d
00000020: 0d67 4dbd 6734 a2bd 86db cebc d399 ccbd
00000030: d04f 953d 8d5e 823d bab1 41bd 03ed b8bd
00000040: adc0 373c 3642 033e eff7 71bd 0083 dabb
00000050: 4e97 9f3d 1ba8 fabd 2ef0 083e 33ec 9e3c
00000060: c8b1 d33c d60b aebd f548 f3bd 5135 edbd
00000070: da38 4fbd 3aef 553c 0939 91bd 187c b03d
00000080: b6f5 c9bd 5010 aa3d d8a4 913d f7a0 cb3c
00000090: 5e79 483d 5b81 38bd 0f00 15bd 51db f13d
000000a0: e970 adbd fbd5 05bd c112 aabd 741c 693c
000000b0: eb6b 36bd 29a9 11bd de71 00be a9ba 1dbe
000000c0: 6721 ac3b afe8 a3bc 2883 d83c 9dad 2dbd
000000d0: 9485 653c fd20 04bd b844 1f3b 2bcd d1bb
000000e0: f914 14bd d66f 0b3d ec60 6b3d 5bc0 d4bd
000000f0: 66b2 3e3d f353 0bbe 1496 1b3d 1012 cd3c
00000100: abce 71bc bae2 923d 681d 39bd 15b6 a13d
00000110: b5dc f03d 09d6 d53b e475 b13d d7e8 14bd
00000120: 5b27 253c 2e11 9fbd f69e d8bd 3331 92bd
00000130: a813 ec3d 80b2 fc3d ff53 993b 8d8e c33c
00000140: a651 933d 5e5b 293d 6f32 8d3d c044 c8bd
00000150: 26cb e93d 24b2 eb3d ffa3 013e 1b02 bd3d
00000160: ee39 513d 0718 22bd 486a 05be d27e 22bd
00000170: 2e28 46bd 0747 323d f004 b4bd 23b2 0d3c
00000180: 3da1 17bc 5095 8c3d 147e 8cbb c5d6 d53d
00000190: 6531 cd3c d29e 373d d399 db3d 251b d3bd
000001a0: de09 1a3d 4d44 96bc 9a73 d4bd 34f0 b3bd
000001b0: 2947 a4bd 25c3 e0bd 15a4 8c3d 43d7 75bd
000001c0: 3ad7 f2bd cebb 5b3c 02c8 0c3d f288 133d
000001d0: 31bd 26bc 8231 2b3c 0311 eb3b c0b1 d13d
000001e0: 6161 93bd 1b2d c1bd 5ace 303d d55a b7bd
000001f0: ded2 b73b 42d3 9abd a860 b0bd a826 453d
00000200: a329 0cbd c972 f53d 0154 573c 2cde b4bd
00000210: 0e95 043c b25b bcbd 5d24 16be bf6f 1f3d
00000220: dd90 90bd f5dc a3bd 3a0e c23d 7eda f73d
00000230: 38fc 883d eb6e 383d ecdf 10bd f3e4 483d
00000240: e8b7 613d 2969 03bd c459 18be 053d a4bd
00000250: d6c5 063d e748 d93d 6ecb 133c 84f6 8ebd
00000260: d6c1 ebbb ec5e 81bd 2616 d83d ade5 62bd
00000270: f930 c0bd 2a25 833d 21ab c63d 445f c73c
00000280: b878 14bc 4d5c 06bd cb83 86bd a25f 4dbb
00000290: c6ea ddbd 0f65 8bbd 8eac 86bc f7ec 3e3d
000002a0: fff3 ed3d 4c7c 8bbd ba8a cf3d 0f6c aebd
000002b0: fe71 57bd 102e 09be 1535 42bc 4391 193e
000002c0: d8d2 7bbd 09a4 183e 27b4 f3bc 8443 a7bd
000002d0: a5a6 64bd 6cf3 e13d c94f 563d 07a7 da3c
000002e0: 61d3 263b 84f3 91bd dde8 613d 02cb 843d
000002f0: 5ba6 70bd 060c ee3d cdbe 093b 0252 8cbd
00000300: d88e ffbc c2d2 14bd a841 c63c e660 c73d
00000310: a5b3 893d 16a4 10be dfe4 bc3d 377c f53d
00000320: 1973 94bd 87c9 bd3b 6386 f43d f445 bfbc
00000330: 5e1e 8c3d ce0d debd e926 423d ebc5 eebc
00000340: 5076 8d3d 7982 bb3d a4b9 993d 8a9d 2dbd
00000350: 4159 f5bc 9ef8 af3d fd48 f5bd 0712 343d
00000360: 97f3 253d 1ffd e1bd 780a d9bd 52ae cc3c
00000370: 8379 b43d b3f7 e6bc 2c55 6abd 453e 1abd
00000380: 240c 3c3d c80a 08bb 73e3 413d 306f a9bd
00000390: cf10 ddbd 0f41 b13d 23f4 c5bb 8ed8 ef3c
000003a0: 6d5e 533c c362 a03d e1ba d83d 9e37 e7bd
000003b0: fb44 843d b553 91bd e6d7 f23d e2db 7e3d
000003c0: 224b b63d a9fe d1bd 2b7a 8fbd a539 88bc
000003d0: 04d8 f3bd 20ec c03d f71e 00be 640a 743d
000003e0: 8f1b 103d c8e3 89bc a402 b5bd 0f0b ca3c
000003f0: 47cf e7bd 8860 e03a b705 d73d 6d27 763c

l2.bias f4 [200]
-0.053538054 -0.010956969 -0.010506042 0.004602332 -0.02015725 0.021290064 -0.013668326 -0.25138962
0.024796335 -0.01026161 0.015186303 -0.010472055 0.02989319 -0.024363158 0.0043752696 -0.00072888297
-0.029537566 0.046097297 -0.0027125028 0.004155474 0.058003154 0.01293867 0.020919733 -0.0019669575
-0.011853842 -0.042093955 -0.035320338 -0.023403615 0.014903717 0.028191429 -0.010537071 0.027379075
-0.0010350412 -0.0045309234 -0.05876266 -0.006643959 -0.009236915 -0.045368005 0.029729443 -0.06249779
0.01363818 0.030345142 -0.0009225348 -0.02531519 0.011062201 0.0014214318 -0.018566018 -0.038285457
0.014587757 -0.045706518 -0.024639105 -0.019042023 0.030207023 0.00062654825 -0.03447842 0.022574969
-0.1146434 0.007998754 0.004625055 -0.020208413 -0.013221309 -0.036287714 -0.008604785 0.042807657
0.020555066 0.07910759 0.020167986 0.012981129 -0.06869844 -0.0015385293 -0.028749801 -0.013630875
0.011069423 0.028196037 0.046665926 -0.03572541 -0.0050392733 0.0050364896 -0.045925505 0.0024658085
0.0013887981 0.015342933 0.021333605 0.0054245894 -0.030065928 0.0038786908 -0.076396614 -0.03529229
-0.0011096245 -0.014111909 -0.014981989 0.043988924 0.040029865 -0.024016758 0.009089868 0.005661711
0.008815604 -0.018666472 -0.050594084 0.015192044 0.10148657 0.0066332016 0.010691799 0.042883087
0.0020284078 0.015687242 0.04944163 -0.059402864 0.0013737198 0.02158054 -0.032961473 -0.003426711
-0.029754484 0.031218478 0.01652768 -0.008571064 0.017797668 0.014380454 0.01210334 -0.009238725
0.0026991928 -0.0021127244 0.017391289 -0.013988333 0.024894802 0.021206224 -0.00095734344 0.0036458422
-0.0178035 -0.03524874 -0.004390155 -0.007695069 0.06856233 -0.0016718197 -0.0100756055 0.043637577
-0.012256991 -0.06504463 -0.011774761 -0.02195654 0.011139147 0.075251974 -0.012182375 -0.014697279
-0.03788512 -0.019000167 0.05346686 -0.041204568 0.024813063 -0.0068639554 0.001486536 0.026459552
0.0044451463 0.009003297 -0.044447616 -0.007121436 0.019503891 0.020221159 0.016694523 0.00077043707
-0.021733373 -0.0429769 -0.009052224 0.015100913 0.005769659 -0.01151131 -0.009137536 0.006251563
0.047681894 -0.02197347 0.032190192 -0.008345037 0.0068515 -0.0013519325 -0.015160118 0.058948122
0.029722646 -0.03020323 0.027065123 0.00391271 -0.02164171 -0.014769559 0.05076217 0.010645267
-0.01544632 0.015243802 -0.02070079 -0.0056933644 0.019670602 -0.019134544 0.05337272 0.0060582543
0.02249378 0.005016997 -0.009216666 -0.040168494 -0.006798618 0.007945194 0.0012567275 0.011952201
00000000: b84a 5bbd dc84 33bc 8921 2cbc 29cf 963b
00000010: d120 a5bc 8068 ae3c 1df1 5fbc 24b6 80be
00000020: af21 cb3c 5020 28bc f9cf 783c fb92 2bbc
00000030: 90e2 f43c 3f95 c7bc 6c5e 8f3b 8212 3fba
00000040: c4f8 f1bc 85d0 3c3d 3fc4 31bb a42a 883b
00000050: b794 6d3d b7fc 533c dc5f ab3c 12e8 00bb
00000060: 9e36 42bc b66a 2cbd 0fac 10bd f0b8 bfbc
00000070: b82e 743c b6f1 e63c aea3 2cbc 154a e03c
00000080: 38aa 87ba 2478 94bb 1db1 70bd 91b5 d9bb
00000090: 6e56 17bc cdd3 39bd 298b f33c affd 7fbd
000000a0: ac72 5f3c 6096 f83c 43d6 71ba cd61 cfbc
000000b0: 3c3e 353c 564f ba3a c317 98bc 36d1 1cbd
000000c0: 7d01 6f3c c236 3bbd f3d7 c9bc 04fe 9bbc
000000d0: b874 f73c f13e 243a 3e39 0dbd 24ef b83c
000000e0: 29ca eabd 350d 033c c68d 973b 1d8c a5bc
000000f0: 309e 58bc 6da2 14bd 16fb 0cbc 1557 2f3d
00000100: 1963 a83c 2903 a23d 5537 a53c cdae 543c
00000110: c5b1 8cbd 7aa8 c9ba b484 ebbc 0954 5fbc
00000120: 865c 353c 60fb e63c c524 3f3d cf54 12bd
00000130: 7d20 a5bb 2309 a53b 621c 3cbd 6799 213b
00000140: 5508 b63a ed60 7b3c d0c3 ae3c c1c0 b13b
00000150: d24c f6bc a231 7e3b d475 9cbd a68e 10bd
00000160: d270 91ba a335 67bc 0477 75bc bb2d 343d
00000170: 5bf6 233d cbbe c4bc abed 143c e085 b93b
00000180: 536f 103c 6eea 98bc be3b 4fbd 0de8 783c
00000190: 31d8 cf3d 545b d93b a82c 2f3c 2da6 2f3d
000001a0: 09ef 043b 8882 803c 4e83 4a3d 6b50 73bd
000001b0: 630e b43a acc9 b03c 9c02 07bd ac92 60bb
000001c0: adbf f3bc e5bd ff3c 0f65 873c a66d 0cbc
000001d0: 6acc 913c ff9b 6b3c 164d 463c 055e 17bc
000001e0: f1e4 303b a275 0abb 2d78 8e3c 522f 65bc
000001f0: 2ff0 cb3c adb8 ad3c 3bf6 7aba 15ef 6e3b
00000200: a5d8 91bc fc60 10bd 4adb 8fbb eb26 fcbb
00000210: 686a 8c3d f620 dbba 2714 25bc 51bd 323d
00000220: 8cd1 48bc 1e36 85bd edea 40bc 34de b3bc
00000230: f880 363c b51d 9a3d 9698 47bc dbcc 70bc
00000240: 6d2d 1bbd 3da6 9bbc 1100 5b3d 1fc6 28bd
00000250: c444 cb3c 08eb e0bb dfd7 c23a b4c1 d83c
00000260: 97a8 913b 9182 133c b40e 36bd ef5a e9bb
00000270: a0c6 9f3c d8a6 a53c f4c2 883c 28f7 493a
00000280: 300a b2bc 8c08 30bd c84f 14bc d269 773c
00000290: 680f bd3b ef99 3cbc 9bb5 15bc e9d9 cc3b
000002a0: 174e 433d b501 b4bc ddd9 033d 9fb9 08bc
000002b0: 8c82 e03b 5433 b1ba 2562 78bc 9673 713d
000002c0: e87c f33c c46c f7bc adb7 dd3c 3136 803b
000002d0: f549 b1bc 05fc 71bc feeb 4f3d 7c69 2e3c
000002e0: 9012 7dbc 24c1 793c b494 a9bc 678f babb
000002f0: 3e24 a13c 0cc0 9cbc 5a9d 5a3d 5284 c63b
00000300: e044 b83c 9f65 a43b 8001 17bc b887 24bd
00000310: f1c6 debb 8f2c 023c c7b8 a43a 2ad3 433c

l3.weight f4 [200, 200]
0.048155222 -0.03916146 0.012265915 -0.11817406 -0.04632789 0.055339057 -0.10387205 -0.10010435
-0.035130203 -0.036993526 0.102310285 -0.00734563 -0.048848066 0.09602155 -0.0025004942 0.075036846
-0.086361445 -0.025743188 0.09597951 0.08819251 0.031132603 0.09138636 -0.08126651 0.09095403
-0.08262482 -0.05886993 -0.075571865 0.038386256 0.016087089 -0.018089218 0.038032167 0.09505441
0.018288493 -0.020889504 0.0052603846 0.028332435 -0.033319574 0.08248754 0.11429161 -0.114270695
0.07898357 -0.07660592 0.05343265 -0.114193566 0.08045789 -0.11853325 -0.08311524 -0.07717269
0.079790935 -0.10315599 0.1040977 -0.074276514 0.07510788 0.08102558 -0.005014203 -0.018226635
-0.07881077 0.08631046 0.08652403 -0.08686032 -0.059008762 0.0027230994 -0.002535601 -0.0716052
0.0745526 0.10935306 0.06728267 0.0809931 -0.11043958 -0.08773574 -0.053497896 -0.055749692
0.05367313 0.10703661 -0.12163036 0.039723843 0.031492826 -0.030586328 0.011845541 0.09087588
-0.03004728 -0.012938293 -0.12714449 -0.013023552 -0.089615285 -0.030831955 0.022102242 -0.030817188
0.06787547 -0.041448005 -0.012053903 -0.041080795 -0.012078286 0.11998404 -0.096729994 0.10107791
-0.06165958 0.0737082 -0.09267272 -0.10203386 -0.024193276 0.022980206 0.029710166 0.020461116
-0.1122448 0.11149642 -0.034302805 -0.013324345 -0.010188579 0.06713763 -0.026881251 -0.042520277
-0.05606611 -0.03348565 0.0763827 0.032494448 0.02317022 0.11373088 0.08030903 -0.06594909
0.1111872 -0.057708673 -0.05956874 0.11120828 0.121703275 -0.015702521 0.021446157 0.11558609
0.06626671 0.09514641 -0.015467962 0.05257632 0.0123799 -0.07733076 -0.078109816 -0.033944618
-0.098091155 0.090756424 0.0030461876 -0.012496864 0.12691431 0.017103495 -0.08860674 0.011551511
-0.091077656 0.04703903 -0.093868695 -0.08240221 -0.055785812 0.07093781 0.06972583 0.036779646
-0.10677355 -0.022405509 0.09562695 -0.035155524 -0.026411632 0.050497506 -0.048813038 -0.096743315
-0.12821156 -0.084649734 -0.100452274 -0.09629456 0.0076672486 -0.10057132 -0.07971342 -0.034900494
0.03470299 -0.0050621564 0.017194625 0.065205194 -0.019040633 -0.02704206 0.071955346 0.10118611
-0.10085691 0.09698516 -0.0767001 0.09680734 -0.058995314 0.09057112 0.07723467 0.030186843
0.06721827 0.098852746 -0.028322745 -0.01014103 0.0837603 0.02755045 -0.04785872 -0.04144012
0.09006652 -0.11429508 -0.014314923 -0.11387236 0.067550026 0.059679803 -0.12329229 0.10718444
0.0654521 -0.075626865 -0.05144577 -0.07451054 0.12190701 -0.08658961 0.08120947 -0.09984942
0.05902274 -0.067695975 -0.02279061 -0.061063886 0.03385026 0.04570191 -0.004104778 0.048224457
0.09457102 -0.060669445 -0.07376226 -0.028022017 0.093267694 0.025004335 -0.059090607 -0.09442749
0.06985877 0.08331954 -0.10081441 0.00969883 -0.062272426 0.0065398766 0.024149079 -0.051016275
0.034702588 -0.0051405146 0.014562536 0.08495396 0.004197825 0.03521582 0.017865997 -0.12789461
-0.071402185 0.06997831 -0.1151226 -0.046869025 -0.106378704 -0.009569877 0.03654872 0.12082469
0.02885287 -0.042359725 0.10150946 -0.08840268 0.04568017 0.08270825 0.015595797 -0.083764195
00000000: 693e 453d c467 20bd faf6 483c 3e05 f2bd
00000010: 50c2 3dbd 35ab 623d dfba d4bd 8203 cdbd
00000020: b0e4 0fbd 8686 17bd 0e88 d13d 9cb3 f0bb
00000030: e914 48bd f2a6 c43d 55df 23bb ebac 993d
00000040: 45de b0bd 61e3 d2bc e890 c43d 469e b43d
00000050: cd09 ff3c c628 bb3d 0e6f a6bd 1b46 ba3d
00000060: 3437 a9bd 9921 71bd 6cc5 9abd e83a 1d3d
00000070: 12c9 833c d72f 94bc 9ec7 1b3d e3ab c23d
00000080: c0d1 953c 7720 abbc 4e5f ac3b 6c19 e83c
00000090: 1b7a 08bd 3aef a83d b811 ea3d c106 eabd
000000a0: 23c2 a13d 91e3 9cbd 32dc 5a3d 51de e9bd
000000b0: 1bc7 a43d 90c1 f2bd 5338 aabd b70c 9ebd
000000c0: 6e69 a33d 7343 d3bd 2d31 d53d 491e 98bd
000000d0: 29d2 993d bdf0 a53d 2f4e a4bb 0650 95bc
000000e0: 8a67 a1bd 8ac3 b03d 8333 b13d d3e3 b1bd
000000f0: 2cb3 71bd 0776 323b 532c 26bb bfa5 92bd
00000100: 09af 983d 7ff4 df3d 7fcb 893d b6df a53d
00000110: 262e e2bd ccae b3bd 9c20 5bbd ca59 64bd
00000120: 5bd8 5b3d 0336 db3d 5719 f9bd 78b5 223d
00000130: 9ffe 003d 2e90 fabc cd13 423c 221d ba3d
00000140: b725 f6bc 22fb 53bc 2a32 02be bc60 55bc
00000150: 3888 b7bd 4c93 fcbc c30f b53c 5474 fcbc
00000160: 4b02 8b3d 62c5 29bd bc7d 45bc 5644 28bd
00000170: 01e4 45bc 31ba f53d 601a c6bd ef01 cf3d
00000180: c18e 7cbd 53f4 963d 32cb bdbd 21f7 d0bd
00000190: fa30 c6bc fc40 bc3c bc62 f33c 129e a73c
000001a0: 9ae0 e5bd 3c58 e43d 1981 0cbd 5b4e 5abc
000001b0: ffed 26bc 747f 893d 1236 dcbc be29 2ebd
000001c0: 94a5 65bd 4028 09bd 886e 9c3d e618 053d
000001d0: 79cf bd3c bceb e83d 1079 a43d 5110 87bd
000001e0: 1db6 e33d ee5f 6cbd 5afe 73bd 2bc1 e33d
000001f0: 913f f93d 93a2 80bc daaf af3c 66b8 ec3d
00000200: d7b6 873d 1fdc c23d 566d 7dbc 445a 573d
00000210: 10d5 4a3c 975f 9ebd 0af8 9fbd 8309 0bbd
00000220: 04e4 c8bd 81de b93d 8ca2 473b a6bf 4cbc
00000230: d3f5 013e a11c 8c3c 7377 b5bd 8c42 3d3c
00000240: ec86 babd ffab 403d 3b3e c0bd 7dc2 a8bd
00000250: aa7f 64bd d847 913d 6acc 8e3d 41a6 163d
00000260: 17ac dabd c28b b7bc 10d8 c33d 3dff 0fbd
00000270: 355d d8bc 79d6 4e3d 2ef0 47bd 5c21 c6bd
00000280: e449 03be d75c adbd ecb9 cdbd 1536 c5bd
00000290: 8b3d fb3b 56f8 cdbd ca40 a3bd d2f3 0ebd
000002a0: b924 0e3d 72e0 a5bb bedb 8c3c 4d8a 853d
000002b0: 1afb 9bbc 4f87 ddbc 535d 933d aa3a cf3d
000002c0: 118e cebd 28a0 c63d f114 9dbd ed42 c63d
000002d0: 12a5 71bd 5a7d b93d 362d 9e3d 664a f73c
000002e0: bba9 893d 4f73 ca3d 1a05 e8bc 9026 26bc
000002f0: 858a ab3d 7bb1 e13c 8107 44bd 1ebd 29bd
00000300: cc74 b83d 8a13 eabd 2489 6abc e935 e9bd
00000310: ab57 8a3d cf72 743d ab80 fcbd 8483 db3d
00000320: c00b 863d 42e2 9abd cdb8 52bd fb98 98bd
00000330: 62aa f93d e555 b1bd 2751 a63d da7d ccbd
00000340: d4c1 713d 30a4 8abd 60b3 babc 201e 7abd
00000350: 92a6 0a3d ed31 3b3d 6081 86bb 0287 453d
00000360: 73ae c13d 8680 78bd ab10 97bd 6e8e e5bc
00000370: 2203 bf3d e4d5 cc3c fe08 72bd 3363 c1bd
00000380: 1d12 8f3d 6fa3 aa3d c977 cebd d7e7 1e3c
00000390: 5f11 7fbd 764c d63b 4ad4 c53c 71f6 50bd
000003a0: 4d24 0e3d c371 a8bb b497 6e3c 57fc ad3d
000003b0: e98d 893b 773e 103d b65b 923c cef6 02be
000003c0: 4f3b 92bd ca50 8f3d 66c5 ebbd bcf9 3fbd
000003d0: 14dd d9bd f9ca 1cbc 1cb4 153d ef72 f73d
000003e0: db5c ec3c 6481 2dbd 31e4 cf3d 770c b5bd
000003f0: 211b 3b3d f162 a93d 8485 7f3c 908c abbd

l3.bias f4 [200]
0.0022673658 0.0033689036 0.001190914 0.038260795 0.0020242634 -0.001392469 -0.0016013666 -0.0012116734
0.0023532086 -0.0019018826 -0.005465906 -0.0047375686 -0.002229152 -0.00046226507 0.0053578056 0.0026074464
0.0025307785 -0.0016785794 0.01375841 -0.0016648636 -0.0025567801 -0.0016643311 0.0035935498 -0.0011115642
-0.006809567 0.016730722 -0.024474962 -0.011182354 -0.010082762 0.0015283521 -0.0029507342 0.0029042517
-0.0048204595 0.0007922637 -0.0058717094 -0.0040616626 0.0035554417 -0.00046249546 0.013307726 -0.0050142454
0.00017174413 -0.003796092 -0.00062587595 0.01170094 -0.0007159664 -0.0010862743 0.0005498149 0.0027551164
-0.001986709 0.011830784 -0.0032827645 -0.006589693 0.0048647188 -0.008661164 -0.00975754 0.01882835
-0.020135049 0.007586513 -0.01176368 -0.02316695 0.0036369192 0.0029068203 0.00041106483 -0.013432002
-0.00049218384 -0.0022542009 -0.00013526279 -0.00031749465 -0.0017131076 0.0017930567 0.0004116312 0.0036742887
-0.0027494358 0.00030447857 0.016737888 -0.006263715 -0.0007930546 -0.0033828712 0.008682277 -0.0020935538
-0.0033414983 -0.017323619 -0.00040321954 -0.014081367 0.009036965 -0.020279193 -0.019437516 -0.006372688
-0.0002852857 0.0013141008 -0.009509237 0.0029895443 0.021117287 0.012195188 -0.0026009001 -0.0010335204
0.00394897 -0.00795541 0.0004636027 -0.005675321 -0.020100594 0.010862254 -0.0035346386 0.006324673
0.011704661 -0.008195329 -0.0007676917 0.008247544 -0.012055181 -0.009179285 -0.014651817 -0.0055870293
-0.0005480747 0.00035516007 -0.0022065183 0.00396135 -0.006315529 0.005182744 0.039832618 0.00036013598
-0.002559717 -0.0023131908 0.0041586556 -0.018851701 0.0034165648 -0.021893077 0.006700851 -0.0016153721
0.003049828 0.0001583969 0.0013196955 -0.0062292498 0.025867475 0.009131698 -0.0017937673 0.0017685401
-0.0010164882 0.0024328143 0.037182517 0.0018821066 0.011260498 0.02108606 0.00028228722 0.00021522364
0.004575231 -0.0015711804 -0.006297387 -0.004119902 0.008355241 -0.0024405294 0.012047136 -0.004057643
-0.002676123 0.0046645575 -0.0015202116 0.011715591 0.0004999102 4.5888017e-05 -0.006929309 -0.0024151707
0.0018964977 -0.0036254807 -0.0015888278 0.014351826 0.0029871662 -0.0049029994 0.00361896 0.0022688364
0.0042372337 -6.851053e-05 0.024810247 0.0074257646 0.0054117455 0.012595761 -0.00494676 0.007004463
-0.0036809724 0.00024757796 0.000780118 -0.013992271 0.0031621414 -0.0010773271 0.00076621695 0.0024461083
0.00047145443 -0.01854372 -0.012130753 0.006034064 0.0008296096 -0.018621469 -0.006461083 -0.003919698
-0.004455438 0.001322974 0.0023771646 0.0075102295 0.012010251 0.0032788988 -0.00073421944 0.0006310644
00000000: 1698 143b d3c8 5c3b 7118 9c3a 5ab7 1c3d
00000010: 81a9 043b 8283 b6ba f2e4 d1ba 03d1 9eba
00000020: 4a38 1a3b 9748 f9ba 581b b3bb 9b3d 9bbb
00000030: f716 12bb 2b5c f2b9 8890 af3b b1e1 2a3b
00000040: 6bdb 253b c703 dcba f46a 613c 8d37 daba
00000050: a78f 27bb af25 daba c381 6b3b e8b1 91ba
00000060: ca22 dfbb de0e 893c b77f c8bc 3136 37bc
00000070: 2b32 25bc fd52 c83a 1b61 41bb 4255 3e3b
00000080: f2f4 9dbb ebaf 4f3a 7867 c0bb b217 85bb
00000090: 6a02 693b 177b f2b9 a608 5a3c 8a4e a4bb
000000a0: 3716 3439 dbc7 78bb d311 24ba 4db5 3f3c
000000b0: b1af 3bba 5161 8eba 7421 103a 2f8f 343b
000000c0: 7233 02bb e8d5 413c a623 57bb 5aee d7bb
000000d0: 3868 9f3b 8ee7 0dbc 17de 1fbc e93d 9a3c
000000e0: 42f2 a4bc 4998 f83b 73bc 40bc 9ec8 bdbc
000000f0: 6159 6e3b 5a80 3e3b 3084 d739 e611 5cbc
00000100: e605 01ba 37bb 13bb 54d5 0db9 6975 a6b9
00000110: 5a8a e0ba 0005 eb3a 34d0 d739 56cc 703b
00000120: e12f 34bb 6ca2 9f39 e51d 893c da3f cdbb
00000130: fee4 4fba 29b3 5dbb 1c40 0e3c 0134 09bb
00000140: 0afd 5abb 43ea 8dbc 3667 d3b9 89b5 66bc
00000150: c70f 143c 8d20 a6bc 6d3b 9fbc fbd1 d0bb
00000160: 6692 95b9 e83d ac3a a1cc 1bbc 3bec 433b
00000170: 29fe ac3c 53ce 473c dd73 2abb 3177 87ba
00000180: 5d66 813b 6857 02bc b30f f339 0bf8 b9bb
00000190: 00aa a4bc 98f7 313c 65a5 67bb 343f cf3b
000001a0: e8c4 3f3c b445 06bc eb3e 49ba b520 073c
000001b0: 1883 45bc b664 16bc 2d0e 70bc 6613 b7bb
000001c0: acac 0fba c734 ba39 3c9b 10bb 36ce 813b
000001d0: 7ff2 cebb 02d4 a93b 8727 233d a2d0 bc39
000001e0: edc0 27bb e798 17bb 5545 883b e26e 9abc
000001f0: 72e8 5f3b 1c59 b3bc d092 db3b e5ba d3ba
00000200: a0df 473b 5817 2639 a2f9 ac3a bc1e ccbb
00000210: 07e8 d33c 1e9d 153c d81c ebba 5cce e73a
00000220: af3b 85ba da6f 1f3b b24c 183d 05b1 f63a
00000230: f47d 383c acbc ac3c f3ff 9339 a8ad 6139
00000240: d2eb 953b 11f0 cdba 505a cebb 3e00 87bb
00000250: 6ce4 083c 4af1 1fbb 5a61 453c faf5 84bb
00000260: e561 2fbb 25d9 983b d641 c7ba c0f2 3f3c
00000270: 680c 033a e277 4038 420f e3bb d747 1ebb
00000280: e793 f83a 7999 6dbb 3740 d0ba ec23 6b3c
00000290: 55c4 433b 57a9 a0bb 132c 6d3b c2b0 143b
000002a0: 7ed8 8a3b 50ad 8fb8 dc3e cb3c d453 f33b
000002b0: 0355 b13b 735e 4e3c 6e18 a2bb b285 e53b
000002c0: 783c 71bb 5acd 8139 d580 4c3a d73f 65bc
000002d0: ee3b 4f3b 1935 8dba f3db 483a e34e 203b
000002e0: 8b2d f739 00e9 97bc 11c0 46bc 66b9 c53b
000002f0: 287a 593a 0d8c 98bc 7eb7 d3bb cf70 80bb
00000300: ecfe 91bb a467 ad3a 34ca 1b3b 5f18 f63b
00000310: a5c6 443c cbe2 563b a278 40ba 046e 253a

l4.weight f4 [3, 200]
0.01682733 0.041601997 0.12910399 0.037070677 0.04581163 0.06801342 0.032265566 -0.010249122
0.08673398 0.014290235 -0.115792125 0.07386193 0.04576672 0.032447223 0.06288015 0.11997119
-0.07871338 -0.014395698 0.07575947 -0.06263897 -0.0955435 0.13137297 -0.08413807 0.07126075
-0.0131004825 0.07320093 0.11566561 -0.054484963 0.004174946 0.07178409 -0.055726904 0.06052362
-0.0055125966 -0.013888994 -0.03056409 0.054434117 0.07167131 0.045948595 -0.09017504 -0.016728707
0.059380107 -0.09810112 -0.10952679 0.1367434 0.060099196 -0.0032643718 0.0096621625 -0.037000015
-0.051334925 0.0807986 -0.11753453 -0.07062794 0.003336696 0.103530854 -0.114000656 0.0010949913
-0.09402379 0.062964 0.117055304 -0.012687567 0.09262823 0.0037678864 0.07714686 0.12668599
0.092944376 -0.07303437 -0.034292534 -0.0074351025 -0.21264921 -0.08016496 0.00028597 0.06055937
-0.046028063 0.031159122 0.0026354229 -0.057826776 0.11436764 -0.0394765 -0.12477078 0.030875186
0.106782116 -0.011154863 0.03878268 -0.036094368 0.074421555 -0.11573422 0.02729162 0.12973881
0.07118615 -0.11679516 0.07883579 0.0062635257 0.12666848 -0.045962177 0.0426 -0.039963495
-0.03571695 -0.017120989 -0.11994578 -0.06521767 0.003058588 0.06767543 -0.059351113 -0.002579235
-0.00020043035 -0.16695493 0.11261203 -0.06450556 -0.014995342 0.11333488 0.12324221 -0.081482485
-0.070685185 0.052465577 -0.13157633 0.027426342 0.004873821 0.014014992 -0.06548851 -0.050420947
0.1037054 -0.017098522 0.008198944 0.0042709857 0.0012888907 -0.09599116 0.15167521 -0.0072661536
0.041036226 -0.09542335 0.11771724 -0.013789617 -0.14430887 -0.011672749 -0.12188217 0.044125028
-0.13926715 -0.022588544 0.15447797 0.08535874 0.0150639815 -0.02272263 -0.052467052 -0.076663494
-0.12094482 0.13463748 0.18049714 -0.07810729 -0.05995089 0.12890792 -0.029112734 -0.09536341
0.021058716 0.008491906 0.032251388 -0.08844077 -0.005879818 -0.04161805 -0.026780043 0.054251786
-0.042527817 0.076574214 -0.09249485 -0.13727379 0.084949024 -0.0632438 -0.049227152 0.10367175
0.11345159 0.06549853 0.015310625 0.102887385 0.020682527 -0.14020547 -0.082749605 0.01419535
-0.11244774 0.14859697 0.11388453 -0.061594993 -0.000886444 -0.029606616 -0.044176634 -0.018809348
0.07499787 0.095333576 -0.027966484 -0.0023168165 -0.077645935 -0.1272823 0.1397842 -0.0851121
-0.049680766 -0.106500916 0.062558524 -0.1300424 -0.071885705 -0.09106724 0.11546734 0.03803878
-0.002968965 0.05186332 -0.1060705 -0.08598521 0.01641884 -0.06493676 -0.03609817 -0.057455678
0.029628213 0.052438594 0.095058 0.017881166 0.045389835 0.032844335 -0.116081394 0.11233335
0.026859537 0.08742714 -0.102167994 -0.13203225 0.08885197 -0.049356885 -0.13129205 -0.010673357
-0.021962693 0.082971 0.031269494 -0.115624756 -0.0013866861 0.042988986 -0.05383359 0.08998608
-0.0023798186 0.0611512 0.0018181254 0.13805072 -0.13783915 -0.021392625 0.07196538 -0.11871001
0.017568786 -0.033536997 -0.11666778 0.096701056 0.12657446 0.03963096 0.0060557877 0.10865337
0.08754967 0.07992577 -0.1077319 0.087385826 0.0107780285 0.09962747 0.043753732 0.024713548
00000000: 78d9 893c db66 2a3d d633 043e 6cd7 173d
00000010: faa4 3b3d 9f4a 8b3d e628 043d efeb 27bc
00000020: 96a1 b13d 9721 6a3c 6c24 edbd ec44 973d
00000030: e275 3b3d 61e7 043d 4fc7 803d 75b3 f53d
00000040: 7b34 a1bd efdb 6bbc c827 9b3d dc48 80bd
00000050: 4fac c3bd a386 063e 9550 acbd 28f1 913d
00000060: 68a3 56bc 5fea 953d 17e2 ec3d a02b 5fbd
00000070: fccd 883b 8903 933d e541 64bd 9ee7 773d
00000080: 03a3 b4bb aa8e 63bc 8b61 fabc 4ff6 5e3d
00000090: 68c8 923d 9834 3c3d b1ad b8bd a40a 89bc
000000a0: 8e38 733d 3de9 c8bd 954f e0bd 7606 0c3e
000000b0: 932a 763d 12ef 55bb 0c4e 1e3c 548d 17bd
000000c0: 9244 52bd bd79 a53d f2b5 f0bd 62a5 90bd
000000d0: 78ac 5a3b fc07 d43d 2d79 e9bd d085 8f3a
000000e0: 8b8f c0bd 45f3 803d b1ba ef3d 83df 4fbc
000000f0: dfb3 bd3d a5ee 763b 2cff 9d3d f9b9 013e
00000100: 9f59 be3d 0b93 95bd 5476 0cbd 29a2 f3bb
00000110: b7c0 59be 872d a4bd 3eee 9539 1a0d 783d
00000120: ec87 3cbd 6a41 ff3c 0fb7 2c3b c5db 6cbd
00000130: 9539 ea3d 1cb2 21bd d387 ffbd f5ed fc3c
00000140: 95b0 da3d e3c2 36bc 96da 1e3d b0d7 13bd
00000150: 546a 983d 1006 edbd ad92 df3c 40da 043e
00000160: 0bca 913d 4d32 efbd a974 a13d 433e cd3b
00000170: 62b5 013e d642 3cbd 567d 2e3d c3b0 23bd
00000180: f04b 12bd 5141 8cbc 22a6 f5bd d790 85bd
00000190: 9772 483b 6a99 8a3d 271a 73bd 6208 29bb
000001a0: 9d2a 52b9 3cf6 2abe 23a1 e63d 7e1b 84bd
000001b0: 06af 75bc 1e1c e83d 6966 fc3d 4ae0 a6bd
000001c0: 65c3 90bd 25e6 563d f2bb 06be 35ad e03c
000001d0: 93b4 9f3b 239f 653c d71e 86bd 3286 4ebd
000001e0: 7f63 d43d 3312 8cbc dd54 063c a0f3 8b3b
000001f0: ffef a83a 0397 c4bd bf50 1b3e ea18 eebb
00000200: 9a15 283d 516d c3bd bc15 f13d d9ed 61bc
00000210: b4c5 13be 0f3f 3fbc 5c9d f9bd 72bc 343d
00000220: 0c9c 0ebe 9c0b b9bc 792f 1e3e 90d0 ae3d
00000230: ebce 763c cf24 babc b1e7 56bd c001 9dbd
00000240: ebb1 f7bd 68de 093e 3ed4 383e b7f6 9fbd
00000250: 108f 75bd 7000 043e d47d eebc e44d c3bd
00000260: 5483 ac3c a321 0b3c 081a 043d 6f20 b5bd
00000270: 7dab c0bb b077 2abd d261 dbbc 1f37 5e3d
00000280: a631 2ebd f1d2 9c3d f16d bdbd 8091 0cbe
00000290: c1f9 ad3d f785 81bd 69a2 49bd db51 d43d
000002a0: 4f59 e83d 1824 863d 6ad9 7a3c 9fb6 d23d
000002b0: 676e a93c 0692 0fbe a078 a9bd 9d93 683c
000002c0: 004b e6bd ce29 183e 4b3c e93d 084b 7cbd
000002d0: 4060 68ba 9389 f2bc 8ff2 34bd 1016 9abc
000002e0: 7c98 993d 403e c33d f819 e5bc bbd5 17bb
000002f0: d504 9fbd 4b56 02be 9723 0f3e 414f aebd
00000300: 0f7e 4bbd 271d dabd af1e 803d d629 05be
00000310: d038 93bd 7681 babd 247a ec3d 8dce 1b3d
00000320: f892 42bb a26e 543d 7e3b d9bd 0419 b0bd
00000330: ce80 863c 90fd 84bd addb 13bd a556 6bbd
00000340: deb6 f23c dac9 563d c5ad c23d 867b 923c
00000350: b1ea 393d c887 063d 15bc edbd 070f e63d
00000360: 8808 dc3c 000d b33d 743d d1bd 7633 07be
00000370: 06f8 b53d 722a 4abd 6c71 06be 4edf 2ebc
00000380: 1beb b3bc b3ec a93d 7114 003d accc ecbd
00000390: 77c1 b5ba 3815 303d 9c80 5cbd 9f4a b83d
000003a0: bbf6 1bbb ae79 7a3d 2a4e ee3a 2b5d 0d3e
000003b0: b525 0dbe 963f afbc 9662 933d 3c1e f3bd
000003c0: 6aec 8f3c 175e 09bd 84ef eebd 340b c63d
000003d0: bc9c 013e 1354 223d a16f c63b a885 de3d
000003e0: 3e4d b33d 1fb0 a33d 8ba2 dcbd 57f7 b23d
000003f0: 5496 303c 7d09 cc3d 1d37 333d 1174 ca3c

l4.bias f4 [3]
0.0016475039 0.00071871583 0.0
00000000: 0ff1 d73a 3468 3c3a 0000 0000
