LSTM_for_PDE/codes/experimentalCodes/pinn_lstm_ns2d.pth (torch, 140925 bytes, 12 tensors)

lstm.weight_ih_l0 f4 [200, 3]
0.20799159 0.12089035 0.14387639 -0.07021391 0.065378554 0.08540233 0.07268192 -0.045010008
0.004130461 0.1377177 0.012200436 -0.038950007 -0.20617457 0.13852374 0.0885778 -0.19335906
0.065902956 0.06636364 -0.09713169 0.16544856 0.12837644 0.000121434336 0.15606353 -0.010365725
0.024700085 0.0065200105 0.1722687 -0.08391005 -0.00046591443 0.16443945 0.025830345 0.027894305
0.2628486 -0.22549951 -0.014812405 0.09439338 -0.2356596 0.15408361 0.2026594 -0.24628365
0.14435658 0.21390729 -0.05425054 0.17314151 0.14558747 -0.14767565 0.11113354 0.06396185
-0.17779544 0.0638032 0.07001731 0.04676562 0.15875141 0.11364686 0.052391715 -0.073616475
0.16539715 -0.22468618 0.24380265 0.013690585 0.009098377 0.05744113 -0.03380338 -0.19887495
0.021555386 0.27672115 -0.05507359 0.17204165 -0.11925678 -0.04238036 0.25011766 0.06407972
-0.11520797 0.07878765 0.19224423 -0.21173882 0.058290754 0.009623664 -0.17927092 -0.031182736
0.12950137 -0.27309266 0.0005630078 -0.24681167 -0.13823238 0.19948012 -0.22868907 -0.16428782
0.03980728 0.016778043 0.14502011 0.14872128 0.00028142869 0.1592366 -0.004304292 0.08339753
0.0225565 0.15787715 -0.023978826 -0.25759044 0.16518332 -0.11073406 0.06684289 -0.015266715
0.060996637 -0.18037328 0.2567004 0.12189741 -0.1625167 0.14997162 0.11608726 0.04323519
0.086253546 0.22520272 -0.18419872 0.11813019 0.1519575 0.19515914 -0.04986037 0.03881276
-0.21826123 0.027147282 0.0029101868 -0.025636788 0.1074213 0.12765606 -0.13939661 0.12418042
0.021292798 -0.06144686 0.11560387 -0.033612777 -0.03590877 -0.038825024 0.20822705 0.1801089
0.15053564 0.17644359 -0.18688987 -0.009336617 0.20183212 -0.14195116 0.21353334 0.15378733
0.06548815 -0.04961409 0.19706067 -0.2673712 0.016983517 -0.036642913 0.016506031 0.04395397
-0.06934384 -0.10066515 0.13360421 -0.11476488 0.13591553 0.06123428 -0.024044506 -0.008710265
-0.12228115 0.026705295 -0.03473027 -0.017454125 -0.05627977 0.111169204 -0.098797746 0.059385985
-0.05011598 -0.12258969 -0.034946047 -0.02212394 0.050591543 0.114087775 -0.013266325 -0.044970304
-0.076583356 -0.04592181 0.069528446 -0.019674405 -0.07514589 0.011735082 -0.02377531 0.12395568
-0.035074607 0.036982372 0.110890165 -0.09782067 0.109408215 -0.10466214 -0.020716324 0.039366826
0.10651721 0.058438227 0.08579484 -0.04858409 0.13916506 -0.013500512 -0.102640934 0.00011129677
-0.008263946 -0.04700633 0.053579405 0.1379774 0.09963487 0.14032866 0.056056067 -0.030414902
0.0054908693 -0.032039277 0.082562864 0.033127084 0.07342748 -0.10373217 -0.04516261 -0.12670018
-0.017096817 -0.11373021 0.051606953 -0.065716766 -0.030315727 0.079346195 0.00803186 -0.05974795
-0.10958131 -0.027906492 -0.01919575 -0.041344658 0.05945514 0.12821303 0.089334816 0.07724875
0.034532294 -0.08459407 -0.13691357 0.045201972 -0.034834355 -0.0961273 -0.08749105 0.112053856
0.08794552 -0.071491495 -0.03939625 0.029641375 0.001074329 -0.12032359 -0.070502795 0.113263324
0.0057097226 -0.04870522 -0.10850494 -0.08102412 0.07002176 0.012058631 0.053876877 -0.08965148
00000000: bffb 543e 5c95 f73d 5554 133e 4fcc 8fbd
00000010: 31e5 853d 6be7 ae3d 42da 943d 6a5c 38bd
00000020: d158 873b de05 0d3e 56e4 473c 0b8a 1fbd
00000030: 6d1f 53be 2bd9 0d3e 4768 b53d ebff 45be
00000040: 21f8 863d a9e9 873d fbec c6bd 596b 293e
00000050: 1d75 033e 90aa fe38 1ecf 1f3e 00d5 29bc
00000060: d557 ca3c d0a5 d53b 3567 303e 08d9 abbd
00000070: fa45 f4b9 d162 283e 299a d33c 9982 e43c
00000080: 1794 863e 58e9 66be bbaf 72bc 5151 c13d
00000090: c050 71be 18c8 1d3e f285 4f3e c831 7cbe
000000a0: 36d2 133e 830a 5b3e d035 5ebd 024c 313e
000000b0: e214 153e 4938 17be fb99 e33d 6efe 823d
000000c0: 0210 36be 41ab 823d 3c65 8f3d 4f8d 3f3d
000000d0: bb8f 223e afbf e83d b298 563d 3cc4 96bd
000000e0: df5d 293e 2214 66be 67a7 793e 7a4e 603c
000000f0: 5c11 153c 6447 6b3d 6a75 0abd e0a5 4bbe
00000100: ec94 b03c 65ae 8d3e d894 61bd b02b 303e
00000110: e63c f4bd 0797 2dbd 6c0f 803e 3a3c 833d
00000120: 28f2 ebbd 6b5b a13d acdb 443e 10d2 58be
00000130: 49c2 6e3d 93ac 1d3c cc92 37be f072 ffbc
00000140: 029c 043e cdd2 8bbe d096 133a 33bc 7cbe
00000150: ca8c 0dbe 8444 4c3e 782d 6abe 113b 28be
00000160: f50c 233d 1b72 893c 2780 143e 644a 183e
00000170: b88c 9339 eb0e 233e 050b 8dbb 53cc aa3d
00000180: 69c8 b83c 8caa 213e 3e6f c4bc e5e2 83be
00000190: d125 293e 8ac8 e2bd ede4 883d 3e21 7abc
000001a0: 9cd7 793d c6b3 38be 3c6e 833e 59a5 f93d
000001b0: c76a 26be 2992 193e 28bf ed3d 6217 313d
000001c0: b3a5 b03d 8b9b 663e 979e 3cbe 3eee f13d
000001d0: bf9a 1b3e ccd7 473e 633a 4cbd 21fa 1e3d
000001e0: df7f 5fbe fa63 de3c d5b8 3e3b 3e04 d2bc
000001f0: b3ff db3d 45b8 023e fcbd 0ebe 4e52 fe3d
00000200: 3c6e ae3c b4af 7bbd b9c1 ec3d 8dad 09bd
00000210: 1315 13bd fd06 1fbd 7939 553e 786e 383e
00000220: 0426 1a3e a1ad 343e 0f60 3fbe 9cf8 18bc
00000230: 14ad 4e3e a55b 11be 7ca8 5a3e 6d7a 1d3e
00000240: a71e 863d 2538 4bbd 46ca 493e e1e4 88be
00000250: 0421 8b3c e116 16bd a837 873c 1409 343d
00000260: 2504 8ebd 8829 cebd 8bcf 083e d909 ebbd
00000270: 712d 0b3e ccd0 7a3d fcf8 c4bc 80b5 0ebc
00000280: 8a6e fabd 10c5 da3c 5441 0ebd f4fb 8ebc
00000290: 9e85 66bd aeac e33d 7956 cabd b83e 733d
000002a0: 6a46 4dbd 4e10 fbbd 9623 0fbd 443d b5bc
000002b0: 1439 4f3d daa6 e93d 005b 59bc c832 38bd
000002c0: bcd7 9cbd 8218 3cbd ee64 8e3d 382c a1bc
000002d0: 17e6 99bd 8044 403c 70c4 c2bc 7adc fd3d
000002e0: 64aa 0fbd d47a 173d 621a e33d 3456 c8bd
000002f0: 6a11 e03d 1b59 d6bd 48b5 a9bc 1c3f 213d
00000300: b225 da3d ec5c 6f3d 34b5 af3d 1c00 47bd
00000310: 4981 0e3e 4031 5dbc 6935 d2bd 0068 e938
00000320: 8065 07bc b689 40bd 1476 5b3d f349 0d3e
00000330: 5e0d cc3d 51b2 0f3e 0c9b 653d ac28 f9bc
00000340: c0ec b33b 9e3b 03bd b816 a93d 44b0 073d
00000350: 2661 963d 8871 d4bd 6efc 38bd b1bd 01be
00000360: a00e 8cbc 62eb e8bd d061 533d 8396 86bd
00000370: b058 f8bc 4280 a23d 1098 033c 44ba 74bd
00000380: 2a6c e0bd 289c e4bc 6840 9dbc 0459 29bd
00000390: 3c87 733d 474a 033e 2cf5 b63d 9834 9e3d
000003a0: bc71 0d3d a83f adbd 1233 0cbe b425 393d
000003b0: 78ae 0ebd 64de c4bd 822e b3bd 7e7c e53d
000003c0: c81c b43d 226a 92bd f65d 21bd 78d2 f23c
000003d0: 80d0 8c3a 376c f6bd c563 90bd 9af6 e73d
000003e0: a018 bb3b 207f 47bd d737 debd f9ef a5bd
000003f0: 9267 8f3d 9091 453c 00ae 5c3d 329b b7bd

lstm.weight_hh_l0 f4 [200, 50]
-0.104500726 0.0656544 -0.0017346293 -0.1025357 -0.005553037 -0.030772477 0.13425784 0.061168864
-0.12085314 0.14018406 0.07559225 0.101065144 -0.12781477 0.06319079 0.108011946 -0.00027260184
-0.0649001 0.124430075 -0.108671114 0.014377907 0.09671654 -0.0164015 -0.08670774 -0.031878054
-0.12929074 -0.07168431 0.08571093 -0.052438825 0.07422851 -0.12286842 -0.015940547 0.026331529
0.05458224 -0.003007412 -0.111460835 -0.016851373 -0.013315991 -0.10954799 0.11044635 -0.07143972
0.06546575 -0.07284501 0.1239378 -0.09976778 0.02433677 -0.047204927 0.10749835 0.026877642
-0.13790159 0.11370535 -0.024804436 -0.0497116 -0.1295269 0.06987585 0.015800953 -0.099518105
-0.06392106 0.027100772 -0.0148489475 0.13272037 -0.08797958 -0.0033735484 0.04418111 0.036310986
-0.041992493 0.04749517 -0.08378875 0.11805968 -0.06629189 -0.04116424 0.0035581887 -0.040765442
-0.0901279 -0.037084006 -0.011432096 0.11598711 0.10859765 0.1011644 0.078701094 -0.036716394
0.014556274 0.045492783 -0.10547185 -0.13005175 0.10001588 -0.01601252 -0.09821634 -0.040694214
-0.09091998 -0.13960986 0.004629433 -0.058409177 -0.09867202 -0.054972336 -0.110055305 0.08432564
0.11650936 0.040569887 -0.081079096 -0.07476062 0.09861606 -0.1021709 0.09794173 -0.03260295
-0.12351089 -0.112163864 -0.061714657 0.11446993 0.061133265 0.05498652 0.06777312 -0.031428196
0.1277058 -0.10052845 -0.13020426 -0.0994886 -0.097764 0.027465612 -0.11751838 -0.016808704
0.11989756 0.06976175 0.0014267713 0.0048820227 -0.09874884 -0.016043767 -0.06918532 0.05212666
0.085900664 -0.09143789 -0.098948225 -0.10415065 0.07760471 0.09896551 -0.13753012 0.054074228
0.09649071 0.0017246455 0.12879343 0.118136 -0.13921371 0.08842912 -0.09152573 -0.10237399
0.074413195 0.08086866 -0.030844785 -0.06570608 -0.013814688 0.062043905 0.13414727 0.1331817
0.020728156 0.016296744 0.08639951 -0.086309046 -0.09336967 0.028841212 0.08922365 0.13545625
-0.06838606 -0.031257972 -0.07293907 -0.072362 -0.10985674 0.071932435 -0.02229651 -0.0954109
-0.09665865 -0.10928677 -0.021232165 0.12910368 -0.032252945 0.0614606 0.027238205 -0.09399808
0.041511998 0.1389729 -0.011671022 -0.056451984 0.009154871 0.14073412 0.047999576 0.11276777
-0.07399444 -0.048587933 0.01524426 -0.10348964 -0.07878508 -0.071918085 -0.10665321 0.1064361
0.114796534 -0.08753969 -0.043885186 -0.107577644 0.047964275 0.027471155 0.06501472 -0.12988491
0.037580505 -0.057339646 0.0343529 -0.10948621 0.00048743188 -0.0980535 0.050053716 0.09913568
-0.031184778 -0.08111757 -0.05740966 0.005125046 0.036539227 0.035510063 0.1283326 -0.033166304
0.1277173 0.00037372112 -0.040797934 -0.01826267 0.1244735 0.066102535 -0.04109884 -0.07448728
-0.11925289 -0.12473654 -0.014166027 -0.039416626 -0.13247307 -0.11357017 -0.10095273 0.07130696
-0.032673202 -0.035594754 -0.07945678 -0.07675589 0.13599367 -0.00030751526 -0.095408484 0.110941455
0.13918735 -0.09622242 -0.010472074 -0.040046945 -0.08127449 0.100412965 -0.08260703 -0.04364404
-0.10689598 -0.025449634 -0.06592103 -0.13106264 0.06618807 -0.099070355 0.08546978 -0.063144796
00000000: 7a04 d6bd d075 863d 805c e3ba 3dfe d1bd
00000010: 40f6 b5bb 9016 fcbc e37a 093e 348c 7a3d
00000020: da81 f7bd 698c 0f3e 1cd0 9a3d 3efb ce3d
00000030: e0e1 02be 2c6a 813d 5e35 dd3d 00ec 8eb9
00000040: 58ea 84bd 32d5 fe3d f68e debd 5091 6b3c
00000050: 5213 c63d 705c 86bc d493 b1bd 9092 02bd
00000060: cb64 04be 39cf 92bd 3689 af3d 18ca 56bd
00000070: 1e05 983d 70a2 fbbd c095 82bc 38b5 d73c
00000080: a091 5f3d 0018 45bb 9445 e4bd e40b 8abc
00000090: 502b 5abc b25a e0bd b231 e23d fd4e 92bd
000000a0: e812 863d c42f 95bd 1ad3 fd3d 0d53 ccbd
000000b0: e85d c73c f459 41bd 1828 dc3d 802e dc3c
000000c0: 1336 0dbe 5ade e83d ac32 cbbc 649e 4bbd
000000d0: b3a2 04be 121b 8f3d 0071 813c 26d0 cbbd
000000e0: 0be9 82bd 7002 de3c 0049 73bc d9e7 073e
000000f0: a32e b4bd c016 5dbb 40f7 343d d4ba 143d
00000100: 5200 2cbd 4c8a 423d 7099 abbd 46c9 f13d
00000110: 0bc4 87bd d69b 28bd 8030 693b aaf9 26bd
00000120: fa94 b8bd 66e5 17bd b04d 3bbc a68a ed3d
00000130: 7268 de3d 482f cf3d 0a2e a13d ee63 16bd
00000140: 707d 6e3c a456 3a3d a001 d8bd 492c 05be
00000150: 20d5 cc3d b02c 83bc a625 c9bd faae 26bd
00000160: 4134 babd e3f5 0ebe 80b2 973b 763e 6fbd
00000170: 8e14 cabd ac2a 61bd ad64 e1bd ecb2 ac3d
00000180: 769c ee3d 9c2c 263d cc0c a6bd 191c 99bd
00000190: 38f7 c93d fa3e d1bd ac95 c83d ac8a 05bd
000001a0: 47f3 fcbd 2bb6 e5bd 82c8 7cbd 366f ea3d
000001b0: e066 7a3d 8c39 613d a2cc 8a3d daba 00bd
000001c0: 4fc5 023e dce1 cdbd 4454 05be aec0 cbbd
000001d0: 7e38 c8bd 90ff e03c 7aad f0bd 68b2 89bc
000001e0: da8c f53d 40df 8e3d 8002 bb3a 60f9 9f3b
000001f0: d53c cabd 386e 83bc 08b1 8dbd c482 553d
00000200: b0ec af3d ca43 bbbd 5ea5 cabd f04c d5bd
00000210: 38ef 9e3d 6eae ca3d b2d4 0cbe f07c 5d3d
00000220: ec9c c53d 800d e23a 6de2 033e 4af1 f13d
00000230: 0a8e 0ebe 541a b53d d871 bbbd 74a9 d1bd
00000240: f265 983d 789e a53d 34ae fcbc e990 86bd
00000250: 0057 62bc c021 7e3d e75d 093e c960 083e
00000260: 18ce a93c c080 853c 3af2 b03d ccc2 b0bd
00000270: 9938 bfbd 6844 ec3c e4ba b63d 0bb5 0a3e
00000280: fe0d 8cbd 5c08 00bd 1461 95bd 8732 94bd
00000290: 92fc e0bd 5051 933d 2ca7 b6bc ca66 c3bd
000002a0: f8f4 c5bd bed1 dfbd 14ef adbc c133 043e
000002b0: aa1b 04bd 1cbe 7b3d a822 df3c 1182 c0bd
000002c0: 7c08 2a3d e94e 0e3e d037 3fbc 323a 67bd
000002d0: 50fe 153c 9b1c 103e 349b 443d caf2 e63d
000002e0: 668a 97bd 2404 47bd 10c3 793c 60f2 d3bd
000002f0: 125a a1bd ca49 93bd 006d dabd 2cfb d93d
00000300: 721a eb3d 0248 b3bd f4c0 33bd ab51 dcbd
00000310: 3076 443d 300b e13c 7026 853d 8d00 05be
00000320: 04ee 193d fadc 6abd a0b5 0c3d 4e3a e0bd
00000330: 008e ff39 46d0 c8bd 2005 4d3d a607 cb3d
00000340: 3877 ffbc f820 a6bd 6426 6bbd 00f0 a73b
00000350: 28aa 153d 0073 113d 9f69 033e 64d9 07bd
00000360: 53c8 023e 00f0 c339 bc1b 27bd 989b 95bc
00000370: f6eb fe3d c460 873d 4257 28bd c98c 98bd
00000380: dc3a f4bd df75 ffbd a018 68bc 5473 21bd
00000390: 05a7 07be 7a97 e8bd 4ec0 cebd 6209 923d
000003a0: 56d4 05bd cecb 11bd 3cba a2bd 3132 9dbd
000003b0: ed41 0b3e 003a a1b9 8665 c3bd 4635 e33d
000003c0: 2187 0e3e 4310 c5bd 1093 2bbc 4408 24bd
000003d0: 3d73 a6bd 50a5 cd3d e02d a9bd 18c4 32bd
000003e0: 48ec dabd c07b d0bc 9b01 87bd 4935 06be
000003f0: 9c8d 873d 66e5 cabd c80a af3d 0f52 81bd

lstm.bias_ih_l0 f4 [200]
0.15381439 0.16260353 0.15686218 0.14854313 0.034891035 0.01310784 0.016052257 -0.024493821
-0.0012204133 0.20359015 0.26805377 0.037179653 0.15794988 0.11311911 0.23180336 0.0067064697
-0.0035838736 0.24798842 -0.054936934 0.17573799 0.28999624 0.05654565 0.10100327 0.19231029
0.26471853 0.05141387 0.2407871 0.024882268 -0.011122235 0.090021655 0.037504394 0.25752398
0.1437815 0.24039344 0.17707522 0.17095467 0.14535078 0.22948088 0.07443575 0.025304666
0.046275623 0.21413226 0.012956963 0.10195781 0.09679506 -0.007262969 0.24233861 0.22798273
-0.02852455 0.067145385 0.09642421 0.12392758 0.01978898 -0.04020425 0.02207084 -0.048720345
0.102675945 0.016821623 0.05853033 -0.045173906 -0.12863685 0.11765136 -0.12301546 0.039684087
0.031715184 0.12474932 0.055338487 -0.094797134 0.08268911 -0.0006502867 -0.049013667 0.0366116
0.069668576 -0.13054274 -0.10338294 -0.09250906 -0.076223016 -0.09877052 -0.112566955 -0.13676411
0.023067534 -0.14040725 0.14089938 -0.030173905 -0.12117874 0.09130286 -0.06763192 0.060198933
-0.07743063 -0.07921797 -0.011435598 -0.088575095 0.084562406 -0.10769537 -0.048097126 -0.10607447
0.0728433 0.028484121 0.050837457 0.00956668 -0.09640285 -0.039729834 -0.099987775 0.12302316
-0.033401646 0.1066877 0.123381905 -0.07468193 -0.08540727 -0.0352697 -0.022701308 -0.07607169
0.02009659 0.005658567 0.07204968 -0.18743584 0.17771716 0.055616707 0.13697697 0.033359632
0.031149317 -0.07089345 0.14357296 -0.032166228 0.090932965 0.07529451 0.09336028 0.2154396
0.16845809 -0.1659809 0.040479507 -0.2195118 -0.036459334 -0.0798992 0.14209163 0.05619348
-0.05602187 -0.092914954 0.15183617 -0.19491728 0.16530374 0.067543514 0.0806394 -0.19286987
0.018673837 -0.10671137 0.1819005 -0.08071103 0.16465302 0.03739156 -0.05175667 0.1952278
-0.00032495125 -0.0010314748 0.23178169 0.13252968 0.06567632 -0.049924735 0.006420894 0.26215875
0.26705074 0.23296042 0.23259702 0.13446744 0.25119868 -0.021490293 0.19446753 0.078539215
0.023814598 0.17629604 0.1103112 0.17633545 0.088798754 0.20219189 0.21210003 0.0064579044
0.017321445 0.10768298 0.01180483 0.24462962 0.16763711 0.01632864 0.13177596 0.043928623
0.17119178 0.2734617 0.022609884 0.18593445 0.075868905 0.21671279 -0.029765699 0.12452192
0.2530239 -0.023160506 0.012275267 0.061219238 0.17910251 0.08503586 0.13083939 0.0668858
00000000: 8581 1d3e 8a81 263e 7ba0 203e b11b 183e
00000010: e7e9 0e3d 44c2 563c 0680 833c 44a7 c8bc
00000020: 46f6 9fba f079 503e 583e 893e b149 183d
00000030: 9dbd 213e feaa e73d dc5d 6d3e f2c1 db3b
00000040: 6cdf 6abb adf0 7d3e 8d05 61bd a9f4 333e
00000050: 637a 943e 699c 673d cdda ce3d fdec 443e
00000060: 3089 873e 5a97 523d e590 763e e6d5 cb3c
00000070: 093a 36bc 465d b83d 359e 193d 2fda 833e
00000080: 753b 133e b329 763e 3553 353e be0e 2f3e
00000090: d6d6 143e 09fd 6a3e c571 983d bb4b cf3c
000000a0: 828b 3d3d 7d45 5b3e 7149 543c 42cf d03d
000000b0: 7d3c c63d 33fe edbb 9d27 783e 4e74 693e
000000c0: 51ac e9bc 8583 893d 0e7a c53d becd fd3d
000000d0: 801c a23c 36ad 24bd e8cd b43c fc8e 47bd
000000e0: c447 d23d 80cd 893c 80bd 6f3d 4608 39bd
000000f0: 61b9 03be 32f3 f03d 88ef fbbd c88b 223d
00000100: c8e7 013d 927c ff3d 9caa 623d 0025 c2bd
00000110: e858 a93d 0078 2aba 8ec2 48bd 0cf6 153d
00000120: 66ae 8e3d ffac 05be 6fba d3bd 6475 bdbd
00000130: d01a 9cbd 3348 cabd 8189 e6bd e40b 0cbe
00000140: 20f8 bc3c ebc6 0fbe ed47 103e 442f f7bc
00000150: 8f2c f8bd fefc ba3d 9b82 8abd 2893 763d
00000160: f393 9ebd 083d a2bd 605c 3bbc dc66 b5bd
00000170: 0e2f ad3d 648f dcbd 7e01 45bd 923d d9bd
00000180: de2e 953d 8857 e93c f03a 503d 90bd 1c3c
00000190: db6e c5bd c0bb 22bd 64c6 ccbd 91f3 fb3d
000001a0: 2ad0 08bd 157f da3d a7af fc3d d7f2 98bd
000001b0: 02ea aebd f676 10bd 18f8 b9bc 79cb 9bbd
000001c0: 9ba1 a43c 806b b93b c88e 933d 2eef 3fbe
000001d0: 7dfb 353e 58ce 633d b143 0c3e 1ca4 083d
000001e0: da2c ff3c 9630 91bd ca04 133e bcc0 03bd
000001f0: 103b ba3d 0234 9a3d ad33 bf3d 339c 5c3e
00000200: 4780 2c3e e6f6 29be d7cd 253d b4c7 60be
00000210: 6256 15bd 31a2 a3bd 7880 113e 222b 663d
00000220: 3077 65bd 324a bebd f17a 1b3e 6598 47be
00000230: 6245 293e 4154 8a3d 4526 a53d ae7f 45be
00000240: e0f9 983c 7e8b dabd 2044 3a3e d34b a5bd
00000250: cd9a 283e e427 193d cdfe 53bd cce9 473e
00000260: 385e aab9 8d32 87ba 2e58 6d3e dcb5 073e
00000270: 4e81 863d e17d 4cbd 5d66 d23b ac39 863e
00000280: e0ba 883e 2d8d 6e3e ea2d 6e3e d5b1 093e
00000290: 1d9d 803e 690c b0bc 7f22 473e 2bd9 a03d
000002a0: d516 c33c f386 343e d7ea e13d 4891 343e
000002b0: 1fdc b53d 640b 4f3e c030 593e d49c d33b
000002c0: b4e5 8d3c e588 dc3d 0c69 413c 3080 7a3e
000002d0: 10a9 2b3e a4c3 853c 47f0 063e 80ee 333d
000002e0: e64c 2f3e 2c03 8c3e 5d38 b93c 9a65 3e3e
000002f0: 2861 9b3d f5e9 5d3e 32d7 f3bc 5905 ff3d
00000300: 598c 813e 1abb bdbc 341e 493c 06c1 7a3d
00000310: a666 373e 4827 ae3d c3fa 053e 6cfb 883d

lstm.bias_hh_l0 f4 [200]
-0.0370175 0.105709925 0.0008368079 0.17094941 0.18130858 0.123644136 0.122557715 0.13375649
0.10611212 0.26669553 0.08291297 0.1643715 0.090314955 0.25647452 0.039649807 0.07017664
0.15814085 0.14742059 -0.04886415 0.25565448 0.20133957 0.07625396 0.067084074 0.13653006
0.2085197 0.028020557 0.0655352 0.24156551 0.11681335 0.15121913 0.038063098 0.08923621
0.19271873 0.11826118 0.09137222 0.16267154 0.09983724 0.09546884 0.14538318 0.18851262
0.10810771 0.23146562 0.21471421 0.1327387 0.070633434 0.19096111 0.17249812 0.03600443
0.021908192 0.068317674 0.09052169 0.13787846 -0.089746796 0.0152555555 0.10569663 0.09093942
-0.109033786 -0.10694067 -0.09064607 -0.020954624 -0.07277668 0.11052136 0.0039073676 0.116120294
-0.067196645 -0.0517957 -0.08977016 0.122902885 0.086067155 -0.01886744 -0.0392417 0.023715496
0.060299873 0.11774178 0.0066076964 -0.11049165 -0.04534723 0.07273798 -0.015741333 -0.08859435
0.05044134 0.12551616 -0.07687464 0.09140247 0.04568085 -0.11497447 -0.08375958 0.0029236823
-0.03460098 -0.034937598 0.018399805 -0.035656437 -0.04785212 -0.03578856 0.08450684 -0.044970624
0.030659959 -0.04772465 -0.09735415 -0.01459071 -0.030323528 0.101269834 -0.03907034 -0.001287555
-0.023055864 0.20514429 -0.07115135 -0.17456123 0.06340155 -0.05820438 0.0028673876 -0.05710551
0.03949869 -0.044811163 0.1162437 -0.18667969 -0.028305173 0.14609906 0.09997776 -0.16021316
0.13802281 -0.12485806 0.043942023 0.15782899 -0.116328344 0.20441766 0.033781663 0.01510115
0.17046541 -0.1308059 -0.1089014 -0.0104415165 0.15942708 -0.15620874 0.00788448 -0.019351615
0.072056234 0.042027954 -0.058308817 -0.037829664 -0.097160116 -0.14273015 0.0493842 -0.17746535
-0.12432858 -0.070841834 -0.0859939 0.06545839 0.098999664 0.13384494 0.2029456 0.25569433
-0.0025618242 0.00368104 0.15462007 0.10210644 0.24803795 0.08336913 0.024456244 0.21310998
0.21084313 0.11061166 0.04405891 0.13611087 0.0997779 -0.030260617 0.12581503 0.019579664
0.071393415 0.2192627 0.16642118 0.17524347 0.010092967 0.026054105 0.19237225 0.18438584
0.0951344 0.10896423 0.20672175 0.09321699 0.17520303 0.0036392123 0.13312736 0.14857994
0.12974034 0.12909465 -0.07107886 0.17816773 0.18458109 0.08269127 0.09065925 0.116230324
0.18626323 0.24370359 0.06515994 0.015678793 0.09575669 0.17155959 0.102104366 0.018798597
00000000: a99f 17bd 727e d83d 3a5d 5b3a 5d0d 2f3e
00000010: f5a8 393e 2339 fd3d 8aff fa3d 76f7 083e
00000020: 5051 d93d 518c 883e 46ce a93d 0151 283e
00000030: 0cf7 b83d a150 833e d667 223d c5b8 8f3d
00000040: adef 213e 6cf5 163e c625 48bd 25e5 823e
00000050: f62b 4e3e 092b 9c3d 6063 893d 89ce 0b3e
00000060: 3086 553e 5e8b e53c 5237 863d f35c 773e
00000070: d63b ef3d 30d9 1a3e 0de8 1b3d 79c1 b63d
00000080: 0f58 453e eb32 f23d 5c21 bb3d 5e93 263e
00000090: 7877 cc3d 2b85 c33d 54df 143e 7409 413e
000000a0: 9367 dd3d 5305 6d3e 0bde 5b3e a7ec 073e
000000b0: 43a8 903d 4f8b 433e 59a3 303e 6279 133d
000000c0: cf78 b33c 23ea 8b3d 7063 b93d 0330 0d3e
000000d0: 2bcd b7bd 70f2 793c 7a77 d83d 723e ba3d
000000e0: 1b4d dfbd b603 dbbd a6a4 b9bd 08a9 abbc
000000f0: f10b 95bd 0659 e23d 6009 803b 7ad0 ed3d
00000100: 659e 89bd ba27 54bd 6bd9 b7bd 82b4 fb3d
00000110: fa43 b03d e48f 9abc e8bb 20bd 0047 c23c
00000120: 00fd 763d 9a22 f13d 6085 d83b 7249 e2bd
00000130: 04be 39bd a6f7 943d f8f3 80bc f470 b5bd
00000140: 949b 4e3d 4f87 003e 7470 9dbd 3831 bb3d
00000150: d81b 3b3d bc77 ebbd 258a abbd 409b 3f3b
00000160: c2b9 0dbd ba1a 0fbd 30bb 963c 7c0c 12bd
00000170: 9600 44bd 0697 12bd ec11 ad3d 1e33 38bd
00000180: 982a fb3c ec7a 43bd 9d61 c7bd e00d 6fbc
00000190: 0c69 f8bc 8f66 cf3d 3908 20bd 2dc3 a8ba
000001a0: a7df bcbc 5811 523e cdb7 91bd 2ec0 32be
000001b0: acd8 813d b767 6ebd c8ea 3b3b 78e7 69bd
000001c0: 61c9 213d e98b 37bd 2d11 ee3d f628 3fbe
000001d0: 40e0 e7bc fe9a 153e 24c1 cc3d eb0e 24be
000001e0: da55 0d3e 95b5 ffbd 8dfc 333d ec9d 213e
000001f0: 8e3d eebd dd52 513e a45e 0a3d d06a 773c
00000200: 7c8e 2e3e fbf1 05be b207 dfbd e512 2bbc
00000210: da40 233e 2ff5 1fbe e82d 013c 4787 9ebc
00000220: 3892 933d 8125 2c3d 3ad5 6ebd 47f3 1abd
00000230: e2fb c6bd da27 12be 1647 4a3d 7ab9 35be
00000240: fc9f febd 8615 91bd 921d b0bd 0c0f 863d
00000250: 56c0 ca3d a60e 093e f9d0 4f3e 5eea 823e
00000260: 47e4 27bb 9a3d 713b b954 1e3e 2e1d d13d
00000270: a9fd 7d3e 6fbd aa3d 7658 c83c 8139 5a3e
00000280: 43e7 573e 5e88 e23d 1e77 343d a660 0b3e
00000290: 5b58 cc3d 1de5 f7bc a8d5 003e 8865 a03c
000002a0: b636 923d 6786 603e 506a 2a3e 0673 333e
000002b0: f95c 253c 6b6f d53c 3bfd 443e a4cf 3c3e
000002c0: d3d5 c23d a328 df3d deae 533e 8de8 be3d
000002d0: 6c68 333e da7f 6e3b 8a52 083e 5725 183e
000002e0: a7da 043e 6331 043e cb91 91bd 9a71 363e
000002f0: d302 3d3e 0a5a a93d 8fab b93d 2a0a ee3d
00000300: cabb 3e3e 6f8d 793e 9372 853d d070 803c
00000310: 151c c43d 51ad 2f3e 181c d13d 84ff 993c

lstm.weight_ih_l1 f4 [200, 50]
0.048397046 0.029409302 0.084382884 0.26636887 -0.0054799737 0.11463811 0.06346873 0.002387382
-0.20842358 -0.017804813 -0.0072841686 -0.024291195 -0.019336216 0.044694375 0.053077303 -0.18077841
0.050683632 0.11452218 -0.08916547 -0.0933578 0.28282058 -0.1312609 0.14842042 0.11897362
-0.10683881 0.050654776 -0.082882605 0.014689156 0.23163186 -0.018250337 0.11931666 -0.07252329
0.19343895 -0.0075936103 -0.034124766 0.089292 -0.022997798 -0.08047527 0.074154936 -0.07614353
0.19039905 -0.013664692 0.04955487 -0.034556236 -0.18131627 0.060727518 0.059117634 0.009484349
0.07921044 0.08862634 -0.080485515 0.03303455 -0.07875951 0.021255367 0.13352671 0.0927464
-0.22711201 -0.20694289 -0.0442316 -0.18276794 -0.15303023 0.013089198 -0.0040233005 -0.017306041
-0.06992644 -0.116033174 0.092615396 -0.0069721495 -0.008676959 0.09166854 0.043357246 0.030717522
-0.088006675 -0.008413888 0.11791816 0.06544304 0.07872885 0.09126877 0.17352769 -0.07703645
-0.20399566 -0.055873375 0.070422016 -0.17081055 0.108246885 0.10415782 0.108082816 0.059160925
-0.06527033 -0.088281944 0.2013025 -0.077674225 0.13010348 -0.056728367 0.03687346 -0.12693138
-0.05976867 -0.18250597 0.24679859 -0.085120894 0.015735721 0.1181904 0.09056296 0.177554
0.03254161 0.0880194 0.08384839 -0.06590773 -0.16716066 0.05258264 0.091617815 -0.030351356
0.09531569 0.11327476 0.017151685 -0.056895446 0.21632193 0.09484731 -0.026704604 -0.07861746
0.06400248 -0.16330741 0.22687198 0.1661807 0.16302653 -0.015007441 -0.04517947 0.18419583
0.100273885 -0.0017532875 -0.00061450875 -0.058345724 0.10543781 -0.044501998 0.035320282 -0.021327637
0.15983684 -0.011025954 -0.15573162 0.096348114 -0.021657526 -0.09341066 -0.006235466 -0.07497707
0.09931299 0.03630102 0.06873904 0.101806305 -0.11418383 -0.031264566 -0.018402975 0.049106263
-0.08517416 0.07279964 0.016156103 -0.0144029185 -0.03700122 0.011328752 -0.04326972 -0.16491523
-0.05395384 0.066220105 0.0656877 0.19393027 -0.13297093 -0.013105241 0.23253569 -0.038611673
-0.026647875 -0.092170276 -0.014442307 -0.10232489 -0.034401592 0.16493726 0.16450389 0.0500781
0.038128167 0.064589165 0.096749514 -0.09129724 0.05773971 -0.117098056 0.16484092 -0.06685972
0.11725713 0.2173223 -0.07000971 -0.044422157 -0.13410011 -0.02467501 -0.023582334 -0.11887539
0.20766567 -0.20487748 0.044645578 -0.027417198 -0.09060407 -0.17041527 0.16746779 -0.15166934
0.13560216 0.06305858 -0.048747964 0.10339158 -0.02834909 0.05069114 0.12827773 -0.08040474
-0.05088756 0.14867178 -0.056476913 -0.08428884 0.10589907 -0.06693354 0.057043787 -0.14573143
0.1230539 0.16710143 -0.088584155 0.025493061 -0.0007514383 -0.13529356 0.22091958 -0.059962787
-0.003802211 0.24696076 0.121203125 0.21636891 -0.004398575 -0.06756115 0.19968699 -0.116940826
-0.0059091286 -0.02362062 0.10023865 0.1285044 0.124337375 -0.22168216 0.08649135 0.19242369
0.07842518 -0.17728457 -0.09598637 0.0058079604 0.07305323 -0.029750848 0.06550901 0.06477086
0.09490867 0.12010323 -0.1252745 0.10894107 0.05904277 0.21138892 -0.009754284 -0.050601166
00000000: fb3b 463d c7eb f03c efd0 ac3d 8061 883e
00000010: 5a91 b3bb 63c7 ea3d e5fb 813d a075 1c3b
00000020: fe6c 55be 66db 91bc 09b0 eebb 54fe c6bc
00000030: fc66 9ebc 7311 373d 9667 593d fa1d 39be
00000040: a499 4f3d 9b8a ea3d 639c b6bd 6032 bfbd
00000050: dccd 903e 4269 06be 86fb 173e 71a8 f33d
00000060: 4ece dabd 627b 4f3d 5bbe a9bd c9aa 703c
00000070: e730 6d3e bb81 95bc 4b5c f43d 1787 94bd
00000080: dc14 463e d2d3 f8bb 69c6 0bbd b9de b63d
00000090: e165 bcbc 38d0 a4bd 8bde 973d 24f1 9bbd
000000a0: f8f7 423e dfe1 5fbc 0cfa 4a3d d78a 0dbd
000000b0: f9aa 39be 6bbd 783d 5525 723d 3e64 1b3c
000000c0: 1539 a23d ba81 b53d 97d5 a4bd 3c4f 073d
000000d0: aa4c a1bd bc1f ae3c 3abb 083e d3f1 bd3d
000000e0: 0d90 68be d6e8 53be 322c 35bd 8527 3bbe
000000f0: f5b3 1cbe 1374 563c e4d5 83bb 66c5 8dbc
00000100: 9835 8fbd cda2 edbd 24ad bd3d a176 e4bb
00000110: ce29 0ebc b7bc bb3d 5e97 313d 50a3 fb3c
00000120: d83c b4bd 67da 09bc 147f f13d 0007 863d
00000130: 973c a13d 1feb ba3d 3eb1 313e 49c5 9dbd
00000140: 3de4 50be 7bdb 64bd 6b39 903d f6e8 2ebe
00000150: 8bb0 dd3d b250 d53d 865a dd3d ba52 723d
00000160: 73ac 85bd 2acd b4bd 3e22 4e3e aa13 9fbd
00000170: d939 053e 015c 68bd a008 173d 4dfa 01be
00000180: fecf 74bd d8e2 3abe c5b8 7c3e dd53 aebd
00000190: 33e8 803c cf0d f23d 1379 b93d b7d0 353e
000001a0: 5a4a 053d 8443 b43d b4b8 ab3d a2fa 86bd
000001b0: 2a2c 2bbe e560 573d 1fa2 bb3d 68a3 f8bc
000001c0: df34 c33d 99fc e73d b181 8c3c 330b 69bd
000001d0: 7f83 5d3e 4e3f c23d 9dc3 dabc 3102 a1bd
000001e0: bb13 833d 0f3a 27be 2151 683e 462b 2a3e
000001f0: 6df0 263e c5e1 75bc 1c0e 39bd d59d 3c3e
00000200: 655c cd3d 91ce e5ba fc16 21ba edfb 6ebd
00000210: c7ef d73d ba47 36bd 00ac 103d 4cb7 aebc
00000220: 45ac 233e 34a6 34bc 1c78 1fbe 2952 c53d
00000230: 206b b1bc 174e bfbd e152 ccbb 948d 99bd
00000240: 9c64 cb3d 61b0 143d 0ec7 8c3d d37f d03d
00000250: 36d9 e9bd 460f 00bd d6c1 96bc a623 493d
00000260: ca6f aebd fa17 953d ce59 843c 38fa 6bbc
00000270: 978e 17bd 3b9c 393c 973b 31bd 8adf 28be
00000280: b4fe 5cbd 689e 873d 4687 863d a895 463e
00000290: 8829 08be 5db7 56bc d61d 6e3e 4627 1ebd
000002a0: a54c dabc c5c3 bcbd 6d9f 6cbc b68f d1bd
000002b0: afe8 0cbd 50e5 283e b573 283e b21e 4d3d
000002c0: 482c 1c3d 5347 843d 9c24 c63d 0cfa babd
000002d0: 7980 6c3d 1bd1 efbd 0fcc 283e c0ed 88bd
000002e0: 8224 f03d bd89 5e3e 4061 8fbd 02f4 35bd
000002f0: 8a51 09be 3f23 cabc bd2f c1bc f174 f3bd
00000300: 4fa6 543e 67cb 51be 48de 363d 089a e0bc
00000310: a08e b9bd 5781 2ebe ad7c 2b3e 354f 1bbe
00000320: 4bdb 0a3e db24 813d f2ab 47bd f7be d33d
00000330: 5a3c e8bc 83a1 4f3d 3d5b 033e 3eab a4bd
00000340: 796f 50bd 6a3d 183e 5654 67bd a19f acbd
00000350: 9de1 d83d 7414 89bd bfa6 693d 9f3a 15be
00000360: af03 fc3d a31c 2b3e 9c6b b5bd d3d6 d03c
00000370: 2cfc 44ba 658a 0abe be38 623e 8a9b 75bd
00000380: 842e 79bb 48e3 7c3e 5839 f83d d08f 5d3e
00000390: ec21 90bb 805d 8abd bf7a 4c3e ac7e efbd
000003a0: 5da1 c1bb 0880 c1bc ec49 cd3d a896 033e
000003b0: 98a4 fe3d a600 63be 6022 b13d b70a 453e
000003c0: 619d a03d 168a 35be 8194 c4bd b450 be3b
000003d0: ef9c 953d 0db8 f3bc 9629 863d 96a6 843d
000003e0: 7a5f c23d aff8 f53d f547 00be 7f1c df3d
000003f0: d5d6 713d 5676 583e 6fd0 1fbc 2b43 4fbd

lstm.weight_hh_l1 f4 [200, 50]
0.117342934 -0.04983066 -0.12387612 0.12297456 0.051687375 -0.1273828 0.0017739236 -0.046470374
-0.10159006 -0.015466049 -0.032896474 -0.04465671 0.016593635 -0.13358516 -7.468462e-05 -0.13212787
0.08417912 -0.021607004 0.0137042105 -0.08316093 0.10708882 0.07685433 -0.049428903 0.014709756
0.10056743 -0.02579283 -0.036189057 0.07581189 0.0005052537 0.052617773 -0.071206376 0.038689658
-0.099785775 -0.11265238 -0.06336435 -0.060270347 -0.121539734 0.06238334 0.025749877 0.025132135
0.034424394 -0.11081437 0.057458892 0.11287691 -0.038800016 -0.024909325 0.04315664 -0.00280644
0.013777286 0.040797472 0.016107127 -0.13078734 -0.08582798 0.010138869 -0.0912761 0.0057915896
-0.030894265 -0.13647719 -0.12915531 0.10062434 0.10887779 -0.12208631 -0.105390236 0.097161934
0.09541784 -0.049557567 0.02654083 0.08980857 -0.040168732 0.09747046 -0.029557973 -0.1208945
0.07045221 0.054094523 0.09529029 -0.04940395 -0.051894255 -0.060525745 -0.05777686 -0.0967907
-0.031349197 -0.07614968 -0.060893767 0.07025874 0.061305344 0.09164962 -0.075751446 0.12373774
0.005238682 -0.08352183 -0.06826488 0.12444405 -0.04344511 -0.08569699 0.03060557 0.08502117
0.03584948 0.108212695 0.024493337 0.11520313 0.067837596 -0.13638186 0.1162564 -0.1042998
0.046311215 -0.13538454 -0.094852515 0.14129864 0.0042663068 0.059109345 0.08522388 -0.03566338
0.0063409656 -0.0059800744 -0.06298931 0.10960527 0.08104588 -0.014119908 0.023646146 0.04234813
-0.093490615 0.08571771 -0.015497997 0.068908244 -0.13616398 0.015922457 0.10499941 0.0042635202
-0.13301493 -0.09694647 0.11222391 -0.11093462 -0.03644944 -0.12619127 -0.13932301 0.05771576
0.066447824 -0.1352132 -0.11029509 0.10823117 -0.07507549 -0.06167435 0.050079018 -0.0125450045
0.023026362 0.13857262 0.1281531 0.02623938 0.03722225 0.04655452 -0.07210525 0.10366878
0.06443252 -0.07183575 -0.12525952 -0.08923815 0.0144238025 0.027215093 0.004499525 -0.09138749
0.12966613 -0.124972425 0.010017753 0.069150105 0.011567086 -0.06372987 -0.029245377 -0.031334214
-0.040719897 -0.10856961 0.080210924 0.11757462 0.05647181 -0.08563228 -0.12161701 -0.07511253
0.13564093 -0.08723606 -0.039679505 -0.11909262 0.01262632 0.115981 -0.033732116 0.05279413
-0.1291205 -0.14030324 0.032342657 0.033240333 0.054691285 -0.07373254 0.08965072 0.0038363785
-0.025672793 -0.13497996 -0.042031623 -0.06267081 -0.020608716 -0.079865515 0.118838415 -0.020483844
-0.026822813 -0.06032054 0.07014787 0.117793754 0.04601875 -0.07429031 0.06538941 0.11315279
0.079750314 -0.007187173 -0.021996543 -0.054480888 -0.06754574 0.07623635 0.06653096 -0.03984636
0.015314445 -0.03968148 -0.13114786 -0.070442475 -0.008047104 0.1311361 -0.1062398 -0.09475659
0.071116775 0.057668105 0.07248579 -0.026150785 0.0124732405 -0.023980297 -0.047204047 -0.057269834
0.05446133 0.030661732 -0.023681536 -0.12001641 0.104104325 0.001997009 0.065651 -0.08993842
-0.07241247 -0.071199656 0.049931318 -0.09557985 -0.052305795 -0.11775494 0.08466856 0.05907516
0.13051347 -0.063058294 0.08517064 -0.09145718 0.05424325 0.0888551 -0.13751979 0.0526243
00000000: 7e51 f03d 3c1b 4cbd c3b2 fdbd 16da fb3d
00000010: 24b6 533d a370 02be 0083 e83a b857 3ebd
00000020: 730e d0bd 5065 7dbc 74be 06bd f4e9 36bd
00000030: 60ef 873c 8cca 08be 00a0 9cb8 874c 07be
00000040: 1a66 ac3d 2c01 b1bc a087 603c 4750 aabd
00000050: 6251 db3d ce65 9d3d f675 4abd 3001 713c
00000060: 4cf6 cd3d 7c4b d3bc fa3a 14bd 4443 9b3d
00000070: 0073 043a bc85 573d a6d4 91bd 0c79 1e3d
00000080: 7c5c ccbd 4ab6 e6bd 2bc5 81bd 0ade 76bd
00000090: d3e9 f8bd ac85 7f3d 68f1 d23c e8e1 cd3c
000000a0: 9800 0d3d a5f2 e2bd 045a 6b3d 022c e73d
000000b0: c4ec 1ebd a40e ccbc 04c5 303d 40ec 37bb
000000c0: 20ba 613c 401b 273d 18f3 833c 1eed 05be
000000d0: 94c6 afbd 801d 263c f7ee babd 60c7 bd3b
000000e0: f815 fdbc adc0 0bbe 4a41 04be 2214 ce3d
000000f0: 52fb de3d 6308 fabd d6d6 d7bd d6fc c63d
00000100: 6e6a c33d e0fc 4abd 286c d93c 8eed b73d
00000110: f887 24bd 989e c73d 9023 f2bc 8997 f7bd
00000120: 4049 903d 3892 5d3d 8e27 c33d cc5b 4abd
00000130: 128f 54bd d8e9 77bd 6ea7 6cbd 343a c6bd
00000140: 0468 00bd 5df4 9bbd be6b 79bd d0e3 8f3d
00000150: 501b 7b3d ccb2 bb3d 9323 9bbd 366a fd3d
00000160: 40a9 ab3b 7e0d abbd 75ce 8bbd 86dc fe3d
00000170: 80f3 31bd e781 afbd 88b8 fa3c 941f ae3d
00000180: e8d6 123d 9e9e dd3d 40a6 c83c 9eef eb3d
00000190: 70ee 8a3d b0a7 0bbe d617 ee3d 229b d5bd
000001a0: d4b0 3d3d 3fa2 0abe 0942 c2bd 97b0 103e
000001b0: 60cc 8b3b a41c 723d dc89 ae3d c413 12bd
000001c0: e0c7 cf3b 80f4 c3bb 8a00 81bd ba78 e03d
000001d0: 62fb a53d 3057 67bc 90b5 c13c 3c75 2d3d
000001e0: 0278 bfbd c48c af3d 50eb 7dbc c41f 8d3d
000001f0: 926e 0bbe d06f 823c ee09 d73d 00b5 8b3b
00000200: 1135 08be df8b c6bd a6d5 e53d b131 e3bd
00000210: 024c 15bd 4938 01be b1aa 0ebe 5c67 6c3d
00000220: cc15 883d 5475 0abe 64e2 e1bd 4ea8 dd3d
00000230: 2ec1 99bd 3e9e 7cbd a81f 4d3d 9089 4dbc
00000240: c8a1 bc3c fbe5 0d3e 913a 033e f8f3 d63c
00000250: 5c76 183d f4af 3e3d ebab 93bd 4c50 d43d
00000260: 32f5 833d 9f1e 93bd 0844 00be 7ec2 b6bd
00000270: d051 6c3c 30f2 de3c c070 933b 5d29 bbbd
00000280: 33c7 043e 8bf1 ffbd 8021 243c 929e 8d3d
00000290: e083 3d3c ce84 82bd 0094 efbc 4e58 00bd
000002a0: e8c9 26bd be59 debd a045 a43d f6ca f03d
000002b0: fc4e 673d fa5f afbd 5712 f9bd 99d4 99bd
000002c0: 75e5 0a3e d2a8 b2bd fa86 22bd d5e6 f3bd
000002d0: a0de 4e3c 7287 ed3d b02a 0abd a83e 583d
000002e0: 2a38 04be a7ab 0fbe bc79 043d 0427 083d
000002f0: f803 603d 1601 97bd cc9a b73d c06b 7b3b
00000300: c04f d2bc 3038 0abe 5a29 2cbd 8e59 80bd
00000310: 9cd3 a8bc 8890 a3bd 8e61 f33d bccd a7bc
00000320: 84bb dbbc ac12 77bd b0a9 8f3d da3d f13d
00000330: 287e 3c3d 8525 98bd e2ea 853d a6bc e73d
00000340: 2254 a33d 6082 ebbb 1832 b4bc 5a27 5fbd
00000350: 6c55 8abd ce21 9c3d 6241 883d f035 23bd
00000360: 70e9 7a3c 0c89 22bd a04b 06be 2544 90bd
00000370: 00d8 03bc 8b48 063e 4194 d9bd be0f c2bd
00000380: aca5 913d 6435 6c3d 6e73 943d 2c3a d6bc
00000390: 905c 4c3c 5472 c4bc 0859 41bd c693 6abd
000003a0: d812 5f3d 502e fb3c c8ff c1bc 2acb f5bd
000003b0: a634 d53d 40e0 023b 0874 863d a231 b8bd
000003c0: fd4c 94bd 20d1 91bd c884 4c3d 5ebf c3bd
000003d0: 9a3e 56bd 8129 f1bd b666 ad3d ccf8 713d
000003e0: 53a5 053e b524 81bd f26d ae3d e74d bbbd
000003f0: 2c2e 5e3d aaf9 b53d fdd1 0cbe 948c 573d

lstm.bias_ih_l1 f4 [200]
-0.00084311515 0.10196128 0.19796114 0.028645508 -0.037964236 0.09172798 0.04361877 0.25719708
0.13477154 0.08779326 0.043727685 0.0155053465 0.21521914 0.14764045 0.07807229 0.04838604
0.21465118 0.16539869 0.23623678 0.07568801 0.009654199 -0.022333615 0.2506441 0.015430755
-0.079629414 0.2438405 -0.016340066 0.06708796 0.12497431 0.0017282311 0.10975967 0.007798358
-0.018365813 0.11063448 0.0888077 -0.01694833 0.18837608 -0.1031051 0.10692746 0.13524967
0.14270516 0.18647635 0.17262794 0.15969402 -0.036754273 0.23468225 0.20882326 0.045627315
0.07057996 0.19120947 0.09475106 0.04140255 0.005846828 -0.07279621 -0.030918285 -0.10477716
-0.051120155 -0.099760145 0.10747084 -0.054627374 -0.00908044 -0.030673653 -0.016224802 -0.041210756
-0.08164582 0.060466826 0.008886144 -0.089065805 -0.096928716 -0.08799836 -0.083059184 0.12606348
-0.07289195 0.098879784 0.055837467 -0.06934065 -0.058800183 0.055512488 -0.08401491 0.022476256
-0.041604772 -0.09233694 -0.1313457 0.12180038 0.091917306 -0.071517356 -0.103925265 -0.1233215
-0.13773602 0.10167816 -0.030695952 0.07457934 -0.10945626 0.01302509 -0.079350784 -0.14122067
-0.13315937 0.10043414 0.08271724 -0.105806485 0.102394246 0.080990605 -0.15719815 0.10997287
-0.045775313 0.15528445 -0.07651254 0.030903433 0.004776759 -0.03603285 -0.06372196 -0.11057391
0.05915214 0.056982473 0.13616042 -0.1196173 0.027301356 -0.038695242 0.07618571 -0.01501174
0.0248905 -0.016390914 0.028729554 -0.11313039 0.058090847 -0.036926184 -0.048853226 -0.020065377
0.009413825 0.0801734 0.00019132032 -0.024314485 0.050528046 0.150852 -0.10350832 0.09148767
-0.029227188 -0.031803284 -0.1493359 -0.12828189 -0.12802973 -0.009503831 -0.023274181 -0.11341272
0.049321707 -0.03434349 0.06156028 0.075188674 0.1110825 -0.13368465 0.09630132 0.11169423
0.10355241 0.15605764 -0.0121598765 -0.0034683465 0.045981318 0.12691157 0.08768727 -0.003056505
0.23776326 0.041355066 0.17701653 0.07238155 0.05820295 0.089787416 0.042781502 0.09234434
0.064023234 0.21735199 0.23479818 0.11160324 0.1550312 0.00039191986 -0.004471083 0.10319577
0.16322635 0.19272907 0.088071704 0.052696995 0.014007131 0.2069631 0.052359886 0.20036663
0.04363389 0.041479513 0.107043825 0.10867637 0.13657704 -0.04267237 0.015598176 0.19961329
0.16564098 0.18770961 0.005688763 0.04606906 0.08625512 0.08856091 -0.037249926 0.054395087
00000000: 8004 5dba 13d1 d03d 53b6 4a3e fca9 ea3c
00000010: 6380 1bbd e1db bb3d 98a9 323d 56af 833e
00000020: 8d01 0a3e f4cc b33d cd1b 333d 230a 7e3c
00000030: 6862 5c3e 0f2f 173e 5de4 9f3d 7130 463d
00000040: 85cd 5b3e 465e 293e 0ee8 713e 5102 9b3d
00000050: a52c 1e3c fcf4 b6bc 6c54 803e 47d1 7c3c
00000060: bf14 a3bd 53b1 793e 9adb 85bc 6a65 893d
00000070: 88f2 ff3d d085 e23a aec9 e03d 5e89 ff3b
00000080: e773 96bc 5594 e23d d0e0 b53d 39d7 8abc
00000090: a9e5 403e c428 d3bd c9fc da3d e47e 0a3e
000000a0: 4d21 123e a8f3 3e3e 61c5 303e d486 233e
000000b0: a68b 16bd 8b50 703e c4d5 553e b5e3 3a3d
000000c0: 3a8c 903d 6acc 433e d80c c23d b895 293d
000000d0: c096 bf3b 2e16 95bd 5848 fdbc 6895 d6bd
000000e0: 5e63 51bd 0c4f ccbd ac19 dc3d f4c0 5fbd
000000f0: 20c6 14bc 5047 fbbc e0e9 84bc 9ccc 28bd
00000100: ec35 a7bd 10ac 773d 3097 113c 2268 b6bd
00000110: 9082 c6bd 7c38 b4bd ef1a aabd c916 013e
00000120: 6048 95bd 7c81 ca3d d4b5 643d 7902 8ebd
00000130: 76d8 70bd 1061 633d 0210 acbd 2020 b83c
00000140: c469 2abd 261b bdbd 7d7f 06be 7a72 f93d
00000150: 243f bc3d b177 92bd c5d6 d4bd fc8f fcbd
00000160: ac0a 0dbe a43c d03d 1476 fbbc 0ebd 983d
00000170: 9b2a e0bd 3067 553c aa82 a2bd 279c 10be
00000180: ee5a 08be 6ab0 cd3d a867 a93d 12b1 d8bd
00000190: 13b4 d13d 67de a53d 8df8 20be 7539 e13d
000001a0: e57e 3bbd e302 1f3e 9bb2 9cbd 3229 fd3c
000001b0: 5c86 9c3b 2f97 13bd a980 82bd 9374 e2bd
000001c0: 8449 723d 7466 693d a36d 0b3e eaf9 f4bd
000001d0: 18a7 df3c e77e 1ebd 4107 9c3d cdf3 75bc
000001e0: 29e7 cb3c 3d46 86bc 3e5a eb3c e8b0 e7bd
000001f0: abf0 6d3d e93f 17bd 521a 48bd 2560 a4bc
00000200: 723c 1a3c f431 a43d 289d 4839 2c2f c7bc
00000210: 7ff6 4e3d f278 1a3e 2cfc d3bd e35d bb3d
00000220: db6d efbc 2944 02bd 83eb 18be 545c 03be
00000230: 3a1a 03be f5b5 1bbc 7fa9 bebc ee44 e8bd
00000240: 8f05 4a3d c2ab 0cbd a226 7c3d 85fc 993d
00000250: 397f e33d a1e4 08be a039 c53d f2bf e43d
00000260: 4913 d43d 93cd 1f3e 383a 47bc 334d 63bb
00000270: e856 3c3d 1bf5 013e 6295 b33d a54f 48bb
00000280: 3678 733e ee63 293d d243 353e c73c 943d
00000290: 3766 6e3d 77e2 b73d a83b 2f3d 081f bd3d
000002a0: 9d1e 833d 8591 5e3e ef6e 703e 3d90 e43d
000002b0: 80c0 1e3e 987a cd39 2a82 92bb 4e58 d33d
000002c0: cf24 273e c55a 453e f05e b43d ced8 573d
000002d0: 2a7e 653c 23ee 533e 5277 563d e92c 4d3e
000002e0: 73b9 323d 6ce6 293d cb39 db3d b791 de3d
000002f0: dada 0b3e 39c9 2ebd 7e8f 7f3c 6d67 4c3e
00000300: ca9d 293e f336 403e ce68 ba3b e9b2 3c3d
00000310: 86a6 b03d 6c5f b53d 6193 18bd 62cd 5e3d

lstm.bias_hh_l1 f4 [200]
0.2112944 -0.031124163 -0.009190991 0.08014334 0.12709157 0.12670414 0.23755018 0.11780968
0.054322075 0.18522523 -0.032326803 0.0537346 0.16593535 0.16787778 0.07928107 0.01925499
0.04127435 -0.003667489 0.04221933 0.038889192 0.19590671 0.0075079827 0.27003008 0.011955504
0.0568194 0.041437116 -0.024891673 0.16941658 0.124181 0.21511234 0.0001616216 0.032760173
0.19228876 0.2624185 0.012252479 0.11887599 0.041038662 -0.09456594 0.01286007 0.14788692
-0.047738854 0.1663582 -0.0076839663 0.17083713 0.17367913 0.065273 0.14066206 0.13550925
0.16017221 0.17541999 0.0042636245 0.075106695 0.070062205 -0.023140877 0.029179856 -0.1289958
-0.0053393543 0.11928062 0.12074737 -0.055902943 -0.09941779 -0.009069204 -0.010601759 0.07183482
0.042744547 -0.010589123 -0.080310404 0.012029991 -0.044647068 0.06283221 -0.06765541 0.105290204
0.121558234 0.03883557 0.07920173 -0.101245 0.052795738 0.013529092 -0.013677105 -0.09287067
-0.056596458 0.0908626 -0.025133938 -0.08159053 -0.057786353 -0.040883794 0.11778067 -0.06700446
-0.051882923 -0.108337365 0.05808118 -0.09734963 0.12487216 0.10517576 -0.12983581 -0.06026922
-0.058163702 0.13962547 0.09863198 0.012738556 0.024961723 0.10791763 -0.06653321 0.13174602
0.15736501 -0.004809652 0.019372776 0.08911738 0.061252877 0.069427095 -0.044425666 -0.103587784
0.09911667 0.14277625 0.087228045 -0.07684971 0.13648044 0.11491633 -0.0075795352 0.17270288
0.094985425 -0.056463234 -0.05057785 0.09063701 -0.09377169 -0.09182646 -0.17141537 0.13402872
-0.006917621 -0.12185889 0.12771548 -0.096270956 0.08196771 -0.06375293 -0.041532595 -0.05857898
-0.015881212 -0.04954749 -0.026445288 -0.080461405 -0.04040084 0.15681146 -0.09415729 -0.02511165
0.12482388 -0.057060618 -0.08725339 0.08879911 -0.13028444 -0.081026904 0.045046113 0.017472828
0.110418476 0.15993163 -0.022833396 0.10957152 0.117390156 0.023414206 0.19948368 0.018761339
0.1580118 0.1282192 0.10100672 0.09663346 0.13327798 0.11743321 0.19958258 0.12230427
0.2367723 0.2724397 0.029456481 0.19305032 0.19735616 -0.044517424 0.1426879 0.05525753
0.00023060746 -0.03438776 0.09846894 0.07282325 0.237178 0.04670842 0.020894483 0.06774627
-0.020431446 0.07805757 0.044439968 -0.11006315 0.16510871 -0.056099158 -0.05136212 0.17075332
0.02639776 0.12145728 0.006384128 0.052327543 0.06894686 -0.052885536 0.03447495 -0.003215956
00000000: 8f5d 583e 1af8 febc cf95 16bc 3122 a43d
00000010: 4b24 023e bbbe 013e 5b40 733e 3446 f13d
00000020: d380 5e3d afab 3d3e 1c69 04bd d018 5c3d
00000030: f5ea 293e 27e8 2b3e 1d5e a23d a4bc 9d3c
00000040: 4b0f 293d 415a 70bb 2dee 2c3d 464a 1f3d
00000050: c59b 483e 8605 f63b 6241 8a3e 05e1 433c
00000060: 76bb 683d f7b9 293d 9fe9 cbbc 8a7b 2d3e
00000070: 9c52 fe3d 6946 5c3e f878 2939 882f 063d
00000080: 58e7 443e b85b 863e 9fbe 483c 4175 f33d
00000090: 2818 283d caab c1bd 0bb3 523c ab6f 173e
000000a0: d189 43bd ce59 2a3e c8c9 fbbb eeef 2e3e
000000b0: f1d8 313e daad 853d b709 103e f0c2 0a3e
000000c0: 2f04 243e 4ca1 333e e0b5 8b3b 8ad1 993d
000000d0: c67c 8f3d f091 bdbc 980a ef3c 7a17 04be
000000e0: c0f5 aebb 6649 f43d 664a f73d 7cfa 64bd
000000f0: 8e9b cbbd 0097 14bc 00b3 2dbc 221e 933d
00000100: e814 2f3d 007e 2dbc c879 a4bd 7019 453c
00000110: d8df 36bd 2cae 803d eb8e 8abd 64a2 d73d
00000120: 86f3 f83d 0c12 1f3d 8434 a23d 8a59 cfbd
00000130: 5840 583d 20a9 5d3c f015 60bc fa32 bebd
00000140: b0d1 67bd 2c16 ba3d b0e5 cdbc f018 a7bd
00000150: 62b1 6cbd c475 27bd fe36 f13d a239 89bd
00000160: 3083 54bd fbdf ddbd 88e6 6d3d 3e5f c7bd
00000170: fabc ff3d 6466 d73d aef3 04be dcdc 76bd
00000180: 103d 6ebd fbf9 0e3e 90ff c93d 60b5 503c
00000190: 877c cc3c eb03 dd3d 9042 88bd 6ee8 063e
000001a0: 4b24 213e 499a 9dbb a8b3 9e3c 2c83 b63d
000001b0: 4ce4 7a3d cb2f 8e3d b0f7 35bd d525 d4bd
000001c0: aefd ca3d f033 123e 9ea4 b23d 6163 9dbd
000001d0: 87c1 0b3e 4159 eb3d c05d f8bb 06d9 303e
000001e0: b887 c23d fe45 67bd b82a 4fbd e69f b93d
000001f0: 5f0b c0bd 830f bcbd 8387 2fbe d33e 093e
00000200: 36ad e2bb 2791 f9bd d9c7 023e b529 c5bd
00000210: b0de a73d e590 82bd 151e 2abd 83f0 6fbd
00000220: 5119 82bc 4ff2 4abd caa3 d8bc f3c8 a4bd
00000230: 5a7b 25bd 2f93 203e 8ad5 c0bd f2b6 cdbc
00000240: aaa3 ff3d 65b8 69bd e8b1 b2bd 4fdc b53d
00000250: 4969 05be 6ff1 a5bd 4682 383d 2d23 8f3c
00000260: 1523 e23d 1ec5 233e 1a0d bbbc 0867 e03d
00000270: 406a f03d 26cf bf3c 7345 4c3e 61b1 993c
00000280: d8cd 213e e54b 033e 9cdc ce3d c3e7 c53d
00000290: 067a 083e d380 f03d 605f 4c3e a97a fa3d
000002a0: 7074 723e 377d 8b3e b84e f13c fcae 453e
000002b0: bc17 4a3e e757 36bd c71c 123e b855 623d
000002c0: 38cf 7139 2eda 0cbd 15aa c93d 5b24 953d
000002d0: cade 723e 5451 3f3d e82a ab3c 8ebe 8a3d
000002e0: d95f a7bc a6dc 9f3d af06 363d ca68 e1bd
000002f0: 4212 293e 3bc8 65bd 1661 52bd f5d9 2e3e
00000300: 1d40 d83c 98be f83d f231 d13b 6855 563d
00000310: 0334 8d3d 819e 58bd 9b35 0d3d cac2 52bb
