LSTM_for_PDE/codes/Burgers/model/lstm_pinn2D.pth (torch, 130053 bytes, 10 tensors)

lstm.weight_ih_l0 f4 [200, 3]
-0.72523665 -0.8935959 0.4855929 -0.29636672 0.87656635 -0.24961095 0.12462993 -1.2833225
-0.8979489 -1.0463024 0.13942939 -0.036893073 1.2688364 -0.1987778 -0.6594233 0.103262566
-0.45739442 0.47933218 0.9631143 -0.050728716 -0.36808622 1.0089209 0.9725906 0.21382849
0.70986646 0.6258003 -1.3323263 -0.20622902 -0.5103166 -0.4961608 0.55476767 1.351205
0.3612287 -0.12960777 1.0037677 0.03538353 0.35860923 1.3449365 -0.58374846 1.2459221
0.97174543 -0.7897186 -1.3679047 1.6155509 0.7224153 0.9882698 -1.3478404 -0.2741653
-0.12986282 -0.5131223 -0.8135061 -1.0108991 0.22358538 -0.32294062 -0.9976838 -0.0075376816
0.45099837 -0.6469151 1.2950592 -0.6135602 -0.3688365 0.1035227 0.16810478 -1.246901
1.371367 -0.31788817 1.241294 -0.6399631 -1.3652033 -1.5935669 -0.6606626 -1.2129068
-0.93129146 -0.19859403 0.06168586 0.92008394 0.147428 -0.2302457 0.760051 1.3193805
-0.8260657 1.0342163 0.53975075 -0.6955169 0.32371882 1.2950606 0.15271246 -0.07099831
0.18737818 -0.64501435 -0.99018186 -1.1133804 -0.36775827 -0.3714652 -1.1540242 -1.6071641
1.349982 -0.029394003 -0.42101595 -0.04421568 -0.967948 -0.17207061 -0.86789036 -0.14926973
-0.10558715 -0.6957504 -0.2085183 -0.42742437 -1.4157041 1.48121 -0.51212555 -0.44812578
-0.8730755 -0.6301229 1.5560361 1.6973658 -1.2542781 -1.0117828 -0.40997854 -0.66138804
-0.879843 -0.045468263 -0.9209389 -0.83810914 -0.26610786 -1.3807069 0.69135994 -0.034536388
0.5402214 1.2847792 0.13776314 -1.1679189 -0.0776207 -0.9176775 -0.49557972 0.8849785
0.95854664 -1.0330178 -0.9833479 -0.19885473 -0.6742422 -0.37499294 0.9062547 -0.65196735
0.7337647 -0.7278834 0.35138038 0.24053407 -0.6701629 -0.3265511 0.11561172 -0.119861156
-0.11308865 0.0704567 -0.13877183 -0.11828847 -0.016255617 -0.03276766 -0.057225123 -0.121306
0.034808308 -0.012106955 0.083076045 0.06967975 0.11827539 0.01779811 -0.05774334 -0.06656958
0.12227042 -0.0005482584 0.04642169 -0.04254642 -0.04580874 0.09837878 -0.0882566 0.044315025
0.10624325 0.030731335 0.09688282 -0.09091738 0.10178177 -0.12533975 -0.11881735 -0.12120893
0.08056547 -0.13888222 -0.069764584 0.07310894 0.13080777 -0.0045991093 -0.12014184 -0.037716158
0.14135806 -0.05379536 -0.08602199 0.12205951 0.09232873 0.08663227 0.031908363 0.030833095
0.09225136 0.05471188 0.07441947 -0.01440607 -0.0050777197 -0.11792753 -0.069224566 0.08339776
0.101717114 -0.08142005 0.12735836 -0.09640783 -0.12705058 -0.08263923 -0.108467095 0.06375229
0.08642894 -0.062214434 0.070528105 -0.13893072 -0.0025759041 -0.0926377 -0.007048607 0.063001856
-0.013547137 0.089433566 -0.021575898 -0.036924012 0.10689628 0.13733707 -0.08075534 0.079918936
-0.043184638 -0.016985282 0.031053543 0.103986844 -0.12562053 -0.13072276 -0.057892963 0.13532011
0.027896434 -0.063147835 0.103220806 0.051979974 -0.13839751 -0.00785166 -0.13936567 -0.12977317
0.110528246 -0.109354876 0.064536095 -0.00961636 -0.12676154 0.10287982 0.069787264 -0.11279817
00000000: 1ca9 39bf b3c2 64bf a29f f83e 61bd 97be
00000010: a766 603f 039a 7fbe fa3d ff3d e943 a4bf
00000020: fbdf 65bf 3ded 85bf 94c6 0e3e 311d 17bd
00000030: 3b69 a23f 688c 4bbe f7cf 28bf 537b d33d
00000040: 9a2f eabe 076b f53e a98e 763f eac8 4fbd
00000050: cc75 bcbe 5224 813f b3fb 783f dbf5 5a3e
00000060: cfb9 353f 7334 203f ab89 aabf b32d 53be
00000070: 1ca4 02bf ca08 febe 4105 0e3f 49f4 ac3f
00000080: f8f2 b83e e6b7 04be 767b 803f 52ee 103d
00000090: a19b b73e e126 ac3f 8a70 15bf 607a 9f3f
000000a0: 4fc4 783f 002b 4abf 8017 afbf 5fca ce3f
000000b0: 36f0 383f 40ff 7c3f 0986 acbf 655f 8cbe
000000c0: c2fa 04be fc5b 03bf f041 50bf 2465 81bf
000000d0: 91f3 643e 7958 a5be 3568 7fbf a8fe f6bb
000000e0: 42e9 e63e 3a9c 25bf 80c4 a53f 4812 1dbf
000000f0: 23d8 bcbe b603 d43d a923 2c3e 749a 9fbf
00000100: f488 af3f 3dc2 a2be b9e2 9e3f 9fd4 23bf
00000110: fbbe aebf 00fa cbbf 2f21 29bf 8840 9bbf
00000120: 1e69 6ebf 3c5c 4bbe 50aa 7c3d 9f8a 6b3f
00000130: 5ef7 163e 87c5 6bbe b492 423f 76e1 a83f
00000140: 0b79 53bf 3361 843f 1b2d 0a3f 650d 32bf
00000150: 79be a53e 8cc4 a53f a860 1c3e 9067 91bd
00000160: 11e0 3f3e a91f 25bf 8f7c 7dbf 4083 8ebf
00000170: d04a bcbe b030 bebe 11b7 93bf 8eb7 cdbf
00000180: 36cc ac3f b1cb f0bc 678f d7be 801b 35bd
00000190: 71cb 77bf 4733 30be 102e 5ebf 2ada 18be
000001a0: 133e d8bd b31c 32bf d285 55be 5ed7 dabe
000001b0: cb35 b5bf 4a98 bd3f a91a 03bf be70 e5be
000001c0: e081 5fbf bc4f 21bf 312c c73f 4843 d93f
000001d0: 2f8c a0bf 1982 81bf b5e8 d1be ba50 29bf
000001e0: 643d 61bf ee3c 3abd a7c2 6bbf 528e 56bf
000001f0: 4a3f 88be 01bb b0bf f7fc 303f 0776 0dbd
00000200: f34b 0a3f a573 a43f c811 0d3e 5e7e 95bf
00000210: 9af7 9ebd eaec 6abf a0bc fdbe f38d 623f
00000220: 5063 753f ed39 84bf b0bc 7bbf 93a0 4bbe
00000230: 239b 2cbf 13ff bfbe 4f00 683f 55e7 26bf
00000240: 01d8 3b3f 9156 3abf 21e8 b33e 904e 763e
00000250: cc8f 2bbf b531 a7be d6c5 ec3d c479 f5bd
00000260: 069b e7bd 9a4b 903d 341a 0ebe 3a41 f2bd
00000270: 802a 85bc 6237 06bd e464 6abd 486f f8bd
00000280: 2893 0e3d 405c 46bc c623 aa3d 42b4 8e3d
00000290: 5e3a f23d 58cd 913c 4884 6cbd a255 88bd
000002a0: ea68 fa3d 00b9 0fba ac24 3e3d 2845 2ebd
000002b0: f2a1 3bbd d07a c93d e0bf b4bd ac83 353d
000002c0: 1096 d93d 48c0 fb3c 806a c63d e432 babd
000002d0: f672 d03d 1059 00be 8356 f3bd 633c f8bd
000002e0: 82ff a43d 2437 0ebe bce0 8ebd 24ba 953d
000002f0: 79f2 053e 20b4 96bb ed0c f6bd 427c 1abd
00000300: 2bc0 103e 8658 5cbd 4c2c b0bd 56fa f93d
00000310: d816 bd3d 426c b13d 58b2 023d b095 fc3c
00000320: 48ee bc3d 9019 603d 3c69 983d 7007 6cbc
00000330: 0063 a6bb fd83 f1bd 9cc5 8dbd 72cc aa3d
00000340: 1051 d03d 8ebf a6bd 3b6a 023e 7871 c5bd
00000350: 8c19 02be c23e a9bd ff23 debd 9090 823d
00000360: a801 b13d 90d4 7ebd 0a71 903d db43 0ebe
00000370: 80d0 28bb d6b8 bdbd 00f8 e6bb 1e07 813d
00000380: d0f4 5dbc f228 b73d f0bf b0bc a23d 17bd
00000390: 70ec da3d 17a2 0c3e 0e63 a5bd 8aac a33d
000003a0: 60e2 30bd b824 8bbc 0064 fe3c 0ef7 d43d
000003b0: aba2 00be 30dc 05be 2c21 6dbd 5b91 0a3e
000003c0: 1087 e43c a753 81bd 6e65 d33d f4e8 543d
000003d0: 14b8 0dbe 40a4 00bc e0b5 0ebe 42e3 04be
000003e0: a25c e23d 73f5 dfbd 802b 843d f08d 1dbc
000003f0: c7cd 01be a8b2 d23d a0ec 8e3d ba02 e7bd

lstm.weight_hh_l0 f4 [200, 50]
0.015640318 0.033124357 0.1166745 0.053575262 -0.10307066 0.039901808 -0.02228973 0.1367565
-0.044015944 0.08952823 0.05027868 -0.05455804 0.008168519 0.03624612 0.014157444 -0.017941527
0.071247384 0.015153244 0.09707703 -0.03546398 0.041332483 -0.044932507 0.026322529 -0.07465064
-0.08037834 -0.13570145 0.049437195 0.017617926 0.07710937 0.023656636 -0.019000798 0.13467984
-0.085198425 -0.053350903 0.08067715 0.13455479 0.08094345 -0.061095774 0.0037280023 0.11673649
-0.06719209 -0.01665558 -0.11651271 0.042340234 0.1086003 0.01897952 -0.0567009 0.012059763
-0.10783199 0.048851803 6.456673e-05 0.045526236 -0.084612235 -0.045139566 -0.036858045 0.12929522
-0.044604212 0.1016127 0.11817552 0.08434911 -0.0052856207 -0.08143412 0.047304407 0.068470255
-0.01876796 0.08853009 0.075337425 -0.0052616596 0.08834009 0.06838742 -0.04129076 0.04179558
-0.07901585 0.11720751 0.04916899 0.05055818 0.117532805 -0.055926934 -0.03536643 -0.12542623
0.11281885 -0.036972597 -0.04373756 -0.017790861 0.06498045 -0.01416266 -0.026971437 -0.009808049
-0.11921154 -0.08287597 -0.099683404 0.09060103 -0.013713673 0.038700223 0.11045106 0.10585384
-0.12010765 -0.11805916 -0.07315702 -0.04070787 0.0032598078 -0.07360418 0.124351785 0.039866
-0.0064340085 0.083534956 0.13536386 0.068672776 0.04829973 -0.07754466 0.0791256 0.007283151
-0.0036958307 0.05821517 0.12407081 0.057715565 0.10936685 0.06023535 0.07221632 0.070123434
-0.05518567 0.10527517 0.02614382 -0.13361876 0.12853293 -0.015531182 -0.08855662 -0.04203902
0.12723921 0.0025835484 0.040772557 0.061976656 0.023331031 0.08471528 -0.05973377 -0.002327308
0.020542607 -0.09704842 0.10043092 0.028791323 0.0041495413 0.12680377 0.023094863 0.05378428
-0.03585566 -0.04339637 -0.12620553 -0.029837392 -0.0044223815 0.06480761 0.08871266 -0.107733786
0.105944216 0.12458788 -0.03495235 0.11219175 -0.015970498 0.12745158 0.09740399 0.07117212
-0.08178738 -0.0077076703 0.10002035 0.111971214 -0.12789083 0.0033099204 0.06207545 0.10154934
-0.095025465 0.038884893 -0.05079574 -0.106726974 0.1261441 -0.039418668 -0.02004575 -0.098428994
-0.11120364 0.12857686 0.06390427 -0.097397596 -0.095541075 -0.08414705 0.09622289 -0.13135307
-0.011503711 0.05858542 -0.037014462 0.020695046 -0.08158386 -0.13578314 -0.12897968 -0.033600904
-0.13895401 0.024704903 -0.09582694 -0.08810374 0.089376554 -0.03298512 -0.07737589 -0.06744707
-0.074204534 -0.0923256 0.054170385 -0.1351095 0.06379992 -0.11023581 -0.025298633 -0.08137277
-0.077481285 0.12320669 0.0032508373 -0.045072936 -0.12236601 -0.11078633 0.049546212 -0.030087575
-0.0083069205 0.12728827 -0.061318085 -0.104394615 -0.057714954 -0.085791364 -0.08983657 -0.08425628
0.13156523 -0.007497549 -0.084906146 0.10017258 -0.059913583 -0.10842736 0.024571836 0.09343423
0.1095642 0.04140486 0.059842095 -0.008469582 -0.0035514086 -0.035067074 -0.006687194 0.1309473
0.13003828 0.092768 0.13559587 0.085467294 0.12789868 -0.043632187 0.07866448 0.061320722
0.12719058 0.04655716 0.09312035 0.0956569 0.10514052 -0.008259788 0.004935533 0.074341595
00000000: 2020 803c 68ad 073d 0af3 ee3d bc71 5b3d
00000010: b616 d3bd 1470 233d f498 b6bc e509 0c3e
00000020: 104a 34bd 945a b73d 04f1 4d3d 4078 5fbd
00000030: 40d5 053c d076 143d a0f4 673c 1cfa 92bc
00000040: 26ea 913d 5045 783c 52d0 c63d ae42 11bd
00000050: 404c 293d 260b 38bd 58a2 d73c 6fe2 98bd
00000060: 669d a4bd 52f5 0abe a87e 4a3d 7853 903c
00000070: 84eb 9d3d 90cb c13c 90a7 9bbc 83e9 093e
00000080: 837c aebd 7a86 5abd 103a a53d bbc8 093e
00000090: aec5 a53d 903f 7abd 8051 743b 8a13 ef3d
000000a0: 029c 89bd 4871 88bc 379e eebd f46c 2d3d
000000b0: d669 de3d f07a 9b3c 343f 68bd 5096 453c
000000c0: 05d7 dcbd d418 483d 0068 8738 b879 3a3d
000000d0: 2e49 adbd 44e4 38bd 76f8 16bd f765 043e
000000e0: e8b2 36bd 521a d03d 0206 f23d 3abf ac3d
000000f0: 0033 adbb efc6 a6bd 44c2 413d 223a 8c3d
00000100: 44bf 99bc 444f b53d 824a 9a3d 006a acbb
00000110: a6eb b43d b40e 8c3d 8020 29bd d831 2b3d
00000120: 10d3 a1bd 7e0a f03d 6c65 493d 1816 4f3d
00000130: 0ab5 f03d a413 65bd 64dc 10bd bc6f 00be
00000140: 920d e73d 9470 17bd 2826 33bd 24be 91bc
00000150: 7814 853d 800a 68bc 34f3 dcbc f0b1 20bc
00000160: 2e25 f4bd e0ba a9bd d026 ccbd 088d b93d
00000170: 50af 60bc 2084 1e3d 2a34 e23d e6c9 d83d
00000180: 00fb f5bd 00c9 f1bd 59d3 95bd 4cbd 26bd
00000190: 80a2 553b cabd 96bd 26ac fe3d 884a 233d
000001a0: 60d4 d2bb 6014 ab3d d39c 0a3e 50a4 8c3d
000001b0: f0d5 453d bccf 9ebd 9a0c a23d 80a7 ee3b
000001c0: c035 72bb 0873 6e3d d618 fe3d 2867 6c3d
000001d0: bafb df3d 58b9 763d 26e6 933d e09c 8f3d
000001e0: 5e0a 62bd 829a d73d 902b d63c 5bd3 08be
000001f0: 239e 033e 8076 7ebc 2c5d b5bd 1c31 2cbd
00000200: ff4a 023e c050 293b 2001 273d 3cdb 7d3d
00000210: b820 bf3c 347f ad3d 66ab 74bd c085 18bb
00000220: f848 a83c 52c1 c6bd baae cd3d c8db eb3c
00000230: e0f8 873b d9d8 013e 7031 bd3c e84c 5c3d
00000240: 62dd 12bd 64c0 31bd 063c 01be 8c6d f4bc
00000250: a0e9 90bb dab9 843d fcae b53d 88a3 dcbd
00000260: 48f9 d83d ee27 ff3d 322a 0fbd cac4 e53d
00000270: 90d4 82bc ab82 023e be7b c73d b0c2 913d
00000280: 2480 a7bd a090 fcbb 78d7 cc3d 2a51 e53d
00000290: d0f5 02be 40eb 583b d442 7e3d 1af9 cf3d
000002a0: b69c c2bd c445 1f3d 320f 50bd ac93 dabd
000002b0: eb2b 013e 7875 21bd fc36 a4bc 2495 c9bd
000002c0: bcbe e3bd a7a9 033e 3ee0 823d 6478 c7bd
000002d0: 0aab c3bd 4a55 acbd 8210 c53d 6b81 06be
000002e0: 107a 3cbc 44f7 6f3d 7a9c 17bd a888 a93c
000002f0: 7015 a7bd bc0a 0bbe 4013 04be 1aa1 09bd
00000300: f649 0ebe f061 ca3c ea40 c4bd bc6f b4bd
00000310: 0e0b b73d 681b 07bd 4077 9ebd b021 8abd
00000320: 8cf8 97bd 3415 bdbd c4e1 5d3d 255a 0abe
00000330: 88a9 823d 50c3 e1bd 143f cfbc c4a6 a6bd
00000340: 82ae 9ebd ca53 fc3d 000c 553b 669e 38bd
00000350: 089b fabd f2e3 e2bd f8f0 4a3d 387a f6bc
00000360: c019 08bc db57 023e ac28 7bbd d8cc d5bd
00000370: 8466 6cbd 62b3 afbd 3cfc b7bd 8e8e acbd
00000380: 09b9 063e 00ae f5bb 46e3 adbd 4827 cd3d
00000390: f267 75bd 2a0f debd e04a c93c 725a bf3d
000003a0: 3263 e03d 2498 293d fc1c 753d 00c4 0abc
000003b0: c0be 68bb 7ea2 0fbd 4020 dbbb 0d17 063e
000003c0: c128 053e 26fd bd3d a5d9 0a3e 7a09 af3d
000003d0: dff7 023e aab7 32bd d81a a13d 702b 7b3d
000003e0: 3f3e 023e b8b2 3e3d e2b5 be3d c4e7 c33d
000003f0: ea53 d73d 1054 07bc 40ba a13b 6840 983d

lstm.bias_ih_l0 f4 [200]
0.89186776 1.1666672 0.06055721 1.1414132 0.04125313 0.9065424 0.93278426 1.0764325
1.0172437 1.0731865 0.20740719 1.1935679 0.9494736 0.390589 1.0282292 1.1363178
0.69572705 0.5714121 1.3049083 1.1169194 1.111364 0.8376344 0.41476917 0.026916297
0.8905142 1.0645784 0.85488755 0.7191985 0.13519238 1.1152612 0.99381703 -0.29561988
-0.2569141 1.127517 0.9188938 1.086042 0.88535047 0.987519 0.8279056 1.3450295
0.68330824 -0.020962082 0.6837755 -0.09380863 0.9329497 0.6924137 1.3523942 0.8723321
1.4011246 0.9097185 0.14004304 0.02633828 -0.13477777 -0.10840492 0.097458005 0.089989126
-0.12694022 -0.11819858 -0.073786035 -0.015469849 -0.058549717 0.11516021 -0.019561872 -0.12170598
0.08153318 -0.01068446 0.054280654 0.024758726 -0.06060572 -0.0395384 -0.027473912 0.07965797
-0.04303871 0.103331015 -0.13320448 0.003970161 0.09297809 -0.0683777 0.002377212 0.03919962
0.030908898 0.13577701 -0.11426057 -0.113860175 0.04329963 0.05827023 0.11415933 -0.091933325
-0.058905162 0.14061107 0.08062211 0.12203376 -0.09984376 0.11118652 0.041107297 0.020153344
-0.019256763 0.042311877 0.05649653 0.035760686 0.68610793 0.66911036 0.23047899 -0.6026894
-0.29710677 0.71327466 0.88505083 -0.37873414 0.05921446 0.9387068 0.13339286 0.8149215
-0.8791189 0.5647543 0.47618952 -0.29735354 -0.15059051 0.6449005 0.9283681 -0.42395863
-0.6665888 -0.37724966 -0.43364197 -0.37518683 0.60207397 0.92340773 -0.61954886 0.62723565
0.074960604 0.42049992 -0.16232724 0.14766124 -0.20578548 0.97718734 0.7708221 0.5173752
0.22820087 0.8458692 0.16127072 0.5206491 -0.3927474 -0.11020539 0.5343625 0.069560185
-0.7540211 -0.49049097 -0.6929012 0.61660546 -0.2976465 -0.5247432 0.846705 0.98152536
0.34167254 1.2032955 0.14042766 1.1166314 1.2105442 1.1088495 1.2310011 1.2105616
0.14125173 1.3835031 1.1772839 0.32829157 1.2431213 0.9730168 0.9934408 0.7173149
1.2522223 1.2712255 1.2677157 1.0041181 0.5990291 0.37925866 1.0476933 1.2163253
1.0150841 0.9331715 0.40450728 0.95918363 0.9961214 -0.2795749 -0.028173376 1.1426842
1.161569 1.0014412 0.7752624 1.100127 0.5268261 1.3866282 1.0245796 0.04179481
0.96089715 -0.2272771 1.0553305 0.9826046 1.3043853 1.1748112 1.0286224 0.99135387
00000000: 7251 643f 5a55 953f d60a 783d d419 923f
00000010: 0bf9 283d 2a13 683f f3ca 6e3f 8ac8 893f
00000020: 0b35 823f 2d5e 893f 8d62 543e d5c6 983f
00000030: b410 733f 48fb c73e 049d 833f dd72 913f
00000040: 2b1b 323f 1048 123f 3c07 a73f 37f7 8e3f
00000050: 2d41 8e3f 356f 563f a05c d43e 917f dc3c
00000060: bdf8 633f 1b44 883f e9d9 5a3f 651d 383f
00000070: df6f 0a3e e1c0 8e3f cb6a 7e3f 7d5b 97be
00000080: 3f8a 83be 7a52 903f a03c 6b3f 6d03 8b3f
00000090: 54a6 623f 0cce 7c3f 9ff1 533f ed29 ac3f
000000a0: 4aed 2e3f acb8 abbc e90b 2f3f bd1e c0bd
000000b0: cbd5 6e3f 0642 313f 411b ad3f 2851 5f3f
000000c0: 0d58 b33f 50e3 683f 7167 0f3e 60c3 d73c
000000d0: 2f03 0abe 6603 debd 1098 c73d 384c b83d
000000e0: 9efc 01be 1912 f2bd 221d 97bd 4075 7dbc
000000f0: d4d1 6fbd 1ed9 eb3d 3840 a0bc fc40 f9bd
00000100: defa a63d e00d 2fbc 6455 5e3d d0d2 ca3c
00000110: b43d 78bd 04f3 21bd f810 e1bc b823 a33d
00000120: 5c49 30bd 369f d33d c166 08be 2018 823b
00000130: 4c6b be3d 9c09 8cbd 00cb 1b3b c88f 203d
00000140: a834 fd3c 2109 0b3e 7201 eabd 862f e9bd
00000150: f45a 313d c4ac 6e3d 5ecc e93d 8a47 bcbd
00000160: 8a46 71bd 59fc 0f3e 341d a53d d6ec f93d
00000170: e37a ccbd c2b5 e33d 2060 283d a018 a53c
00000180: 5cc0 9dbc 384f 2d3d e868 673d cc79 123d
00000190: c5a4 2f3f d14a 2b3f af02 6c3e da49 1abf
000001a0: 611e 98be 2b99 363f b192 623f 71e9 c1be
000001b0: dd8a 723d 174f 703f 2398 083e b29e 503f
000001c0: f00d 61bf bd93 103f 1dcf f33e b93e 98be
000001d0: 6634 1abe 3318 253f 88a9 6d3f 1b11 d9be
000001e0: 90a5 2abf de26 c1be 5206 debe 7d18 c0be
000001f0: 8521 1a3f 7364 6c3f c19a 1ebf 8492 203f
00000200: f284 993d c44b d73e 1d39 26be 8234 173e
00000210: 6eb9 52be f328 7a3f 9954 453f b372 043f
00000220: 7dad 693e e28a 583f 2724 253e 4249 053f
00000230: 3016 c9be 5db3 e1bd fbcb 083f 9275 8e3d
00000240: 8707 41bf a221 fbbe f961 31bf dbd9 1d3f
00000250: 1f65 98be 9255 06bf a9c1 583f 3f45 7b3f
00000260: b4ef ae3e 9605 9a3f 45cc 0f3e c7ed 8e3f
00000270: 1df3 9a3f c8ee 8d3f 7291 9d3f aff3 9a3f
00000280: 4ba4 103e a116 b13f 3db1 963f d515 a83e
00000290: 991e 9f3f a117 793f 2352 7e3f f3a1 373f
000002a0: d248 a03f 84b7 a23f 8244 a23f f186 803f
000002b0: f959 193f 312e c23e d01a 863f 8cb0 9b3f
000002c0: 47ee 813f 54e4 6e3f 941b cf3e 0f8d 753f
000002d0: d001 7f3f 7124 8fbe dacb e6bc 7a43 923f
000002e0: 4bae 943f 3a2f 803f 9977 463f f6d0 8c3f
000002f0: 13de 063f 087d b13f 6d25 833f 0931 2b3d
00000300: 5bfd 753f 54bb 68be 1215 873f fa8b 7b3f
00000310: 19f6 a63f 3760 963f e6a9 833f 5ec9 7d3f

lstm.bias_hh_l0 f4 [200]
0.8324297 1.1457919 0.16995779 0.9257482 -0.094907925 0.81262827 1.061956 0.9849655
1.1742287 0.8965067 0.14843196 1.3700544 0.8857263 0.3808831 0.8800888 0.97222453
0.7447725 0.7096197 1.240232 1.2003419 0.9521947 0.9689178 0.3638666 0.08026151
0.8025334 1.0460447 0.9064173 0.8706095 0.21870281 1.0148832 0.981817 -0.5533255
-0.22642152 1.1994144 0.89991206 0.8343929 0.85435265 0.8953673 0.65903556 1.2738638
0.5411333 -0.13617563 0.9004494 -0.027183533 1.0199437 0.7202039 1.2796574 1.0082452
1.1686201 0.90473723 -0.018098243 0.12251915 0.10131943 0.001097694 0.015047923 0.015866637
-0.039147496 -0.050427087 0.0013817102 -0.009629205 -0.047648698 0.123570725 -0.0008419901 -0.059287198
0.10546912 -0.12328714 -0.03703452 0.077598795 -0.01033996 -0.13586266 0.1347477 -0.10031891
-0.1255883 0.047097623 -0.0323062 0.0873685 -0.14116858 0.009814411 -0.015993223 0.0045031756
-0.0015190542 0.110911265 0.06910114 -0.13523526 0.0473769 -0.09452077 -0.057523288 -0.10430856
-0.13248244 0.14021973 -0.05145628 -0.033032037 -0.041971825 0.11405708 0.031523064 -0.10787761
-0.04580324 0.131885 0.048888117 -0.06592851 0.7114817 0.6034178 0.41823623 -0.5608347
-0.11179158 0.790425 0.7441627 -0.37479213 -0.08899758 0.955695 0.11875118 0.8777552
-0.95674175 0.41594687 0.5962135 -0.49132362 -0.3773109 0.61075497 1.0194733 -0.5195847
-0.6263482 -0.6086969 -0.37429988 -0.30820054 0.6404731 0.8991464 -0.4331212 0.6169059
0.052415866 0.5218382 -0.07056114 0.22381245 -0.00901994 1.00662 0.71239 0.5457101
0.3050263 0.7612576 0.015794914 0.34452462 -0.48773003 -0.076732166 0.50014347 -0.1044279
-0.63316417 -0.5997061 -0.66665447 0.5720222 -0.3263735 -0.65000963 0.8296455 1.0348744
0.23696774 1.0136001 0.006786871 1.1127752 1.0911112 0.90095526 1.3477942 1.1072736
0.16575928 1.327771 1.2553296 0.4402219 1.2445372 1.0601667 0.8816155 0.6519156
1.233987 1.3508699 1.2457869 1.0109701 0.69152284 0.27663773 1.1115881 0.9959193
0.994912 0.80973035 0.2552098 0.93100476 1.0404489 -0.42476243 -0.19346504 1.2655503
0.9741991 0.94607913 0.736254 1.0646828 0.77105385 1.3031334 0.96386063 0.1330219
0.74282616 -0.025391119 1.1338257 0.9005251 1.3185337 1.0694927 1.139248 0.92524946
00000000: 1d1a 553f 4fa9 923f 6a09 2e3e d6fd 6c3f
00000010: 165f c2bd 6808 503f 2dee 873f b326 7c3f
00000020: 204d 963f 7781 653f 8cfe 173e f15d af3f
00000030: f5be 623f 1c03 c33e 804d 613f b5e3 783f
00000040: 69a9 3e3f a3a9 353f ecbf 9e3f cea4 993f
00000050: 08c3 733f ff0a 783f b94c ba3e 2660 a43d
00000060: d472 4d3f cbe4 853f f70a 683f 44e0 5e3f
00000070: a1f3 5f3e b1e7 813f 5c58 7b3f bda6 0dbf
00000080: 0bdb 67be 6986 993f a360 663f c69a 553f
00000090: dbb6 5a3f cb36 653f 8eb6 283f f80d a33f
000000a0: b687 0a3f a071 0bbe da83 663f 00b0 debc
000000b0: 848d 823f 485f 383f d0cb a33f 2e0e 813f
000000c0: 5895 953f dc9c 673f c442 94bc 52eb fa3d
000000d0: 9080 cf3d 80e0 8f3a 908b 763c c0fa 813c
000000e0: 2059 20bd a28c 4ebd 801a b53a d0c3 1dbc
000000f0: 482b 43bd a612 fd3d 00b9 5cba 22d7 72bd
00000100: 3200 d83d f87d fcbd 82b1 17bd 1eec 9e3d
00000110: f068 29bc 951f 0bbe 4dfb 093e 0074 cdbd
00000120: 389a 00be 70e9 403d 8253 04bd 42ee b23d
00000130: 7f8e 10be a0cc 203c 3804 83bc 608f 933b
00000140: 001b c7ba 7225 e33d e684 8d3d 1d7b 0abe
00000150: 480e 423d 1b94 c1bd 8a9d 6bbd ba9f d5bd
00000160: 7aa9 07be c395 0f3e d2c3 52bd 9a4c 07bd
00000170: a6ea 2bbd c296 e93d 541e 013d f0ee dcbd
00000180: 2e9c 3bbd dd0c 073e e83e 483d 8705 87bd
00000190: aa23 363f 9779 1a3f 0f23 d63e dd92 0fbf
000001a0: fcf2 e4bd 4b59 4a3f 7281 3e3f c1e4 bfbe
000001b0: 5d44 b6bd 6da8 743f d233 f33d 91b4 603f
000001c0: 07ed 74bf fdf6 d43e 73a1 183f c58e fbbe
000001d0: e52e c1be 705a 1c3f 1a7e 823f 8103 05bf
000001e0: 5b58 20bf 8fd3 1bbf 3ca4 bfbe 76cc 9dbe
000001f0: 0cf6 233f 752e 663f 10c2 ddbe 8ced 1d3f
00000200: 05b2 563d 3097 053f 5c82 90bd 172f 653e
00000210: 5fc8 13bc edd8 803f 315f 363f a8b3 0b3f
00000220: 682c 9c3e c7e1 423f 5664 813c 8865 b03e
00000230: c0b7 f9be c125 9dbd 6709 003f 4bde d5bd
00000240: 0c17 22bf 5786 19bf dea9 2abf 0c70 123f
00000250: 6d1a a7be 0867 26bf a663 543f c476 843f
00000260: aca7 723e a6bd 813f 6664 de3b 6b6f 8e3f
00000270: 88a9 8b3f 01a5 663f 8584 ac3f 24bb 8d3f
00000280: cdbc 293e 66f4 a93f a4ae a03f c464 e13e
00000290: ff4c 9f3f 8bb3 873f 8eb1 613f f1e3 263f
000002a0: 49f3 9d3f 4ee9 ac3f f275 9f3f 7867 813f
000002b0: a407 313f 76a3 8d3e 8548 8e3f 91f4 7e3f
000002c0: 8eb2 7e3f 7d4a 4f3f dcaa 823e 5456 6e3f
000002d0: 6e2d 853f 767a d9be b31b 46be 8dfd a13f
000002e0: 1d65 793f 3e32 723f 247b 3c3f 8747 883f
000002f0: c963 453f 13cd a63f 92bf 763f e536 083e
00000300: db29 3e3f 0901 d0bc 3321 913f d088 663f
00000310: b6c5 a83f 23e5 883f e1d2 913f 26dd 6c3f

lstm.weight_ih_l1 f4 [200, 50]
-0.5421719 -0.95013094 0.0680072 1.539222 -0.4676188 -0.55114156 -1.1628118 0.46626547
-0.8539169 -1.085982 0.038510695 -1.7599006 1.8243027 -0.111444265 -0.9700517 -0.28681514
1.1669424 -1.2828692 -2.3703864 1.2406034 0.9388194 0.50096846 -0.5557965 0.15032376
-1.6628915 -1.0359921 0.4479082 -0.761073 0.006259186 -0.91516894 0.07415554 -0.20339388
-0.54599047 -0.39583814 -0.29791933 -0.55986565 -0.1302145 -0.4350745 -0.997922 -0.20797685
0.8636548 0.6293333 -0.35452595 -1.1705904 -0.46959245 1.1927947 1.8702409 -0.5169314
-1.1242518 0.18019538 -1.119798 -0.91213655 0.97312903 1.0165411 -0.044596408 0.18631515
-1.3437474 0.78762054 -1.0927112 -1.0884304 -0.8213669 -1.6988395 1.1206696 -1.107386
-0.21375597 -0.2927555 1.6759381 -0.2982444 -1.3810501 1.1506909 -0.34395233 -0.18306331
-0.2690574 0.86731803 -0.7813281 -1.8708643 0.51536983 -1.8625091 1.1672173 0.41056338
1.2022 -0.9153597 -0.61171544 -1.2639843 -0.36830738 0.5955307 0.44978288 -0.9327328
-1.4823729 -1.1819386 -0.6683277 -0.7973935 -0.13566531 -0.8950073 0.048417915 1.6285201
1.2400254 0.36327195 -0.058037795 -0.043069076 -1.084351 -0.96136796 0.84715676 0.5761812
-1.2224022 0.4432949 -0.46183127 1.3468044 -1.5789144 -0.8415177 -0.99535924 -1.0981
1.3315856 -0.7182837 -0.511744 -0.3041322 0.13439092 -1.1717881 -0.5456948 1.2577593
-0.25537667 0.47059014 -0.07853318 0.8957931 -1.5563935 -1.2627728 1.1275873 -1.1327022
0.9547857 0.68074304 0.7895104 -1.3283402 -0.6658947 -1.1471331 -1.6120558 0.32187673
1.0600902 -1.2118437 -1.4269692 -0.68437386 -0.5879617 -1.7922738 0.2022873 -1.1089987
1.4968307 1.432365 0.38670188 -0.3358524 -1.2241455 -0.27072 0.26839593 -1.2946328
0.1674933 1.1199046 0.80154383 0.02502696 -0.85832 -0.9175841 -0.2494428 -0.61998403
0.9349494 -1.6312354 1.7335954 1.2148907 -1.4085722 0.23914994 1.2762698 -1.1014946
-1.2535154 1.1395156 0.59308827 1.0820472 0.9182209 -0.2623061 -0.068986826 0.48241344
-0.11249647 -0.07322192 -0.9043446 -0.63001835 0.3500094 -0.3625148 0.69346446 -1.8228459
-1.1676464 -0.3107565 -1.3443174 -1.3742903 0.1285621 -0.72424054 0.08358723 0.41077253
-0.44895363 0.38388816 1.2164623 0.36024785 0.80992 -1.3919005 1.0543506 0.15321998
-0.1955072 0.045226272 -0.074591674 -0.19783357 -0.024147814 0.26772067 0.5282472 0.06428046
-0.021385195 -0.27539262 -0.14365259 -0.27401593 0.056552067 0.049046863 -0.47048265 0.2793047
-0.45179302 -0.0017227394 0.33464682 0.29815277 -0.30588487 0.3493041 0.1600682 0.088369496
0.55213493 0.17187363 -0.08881054 -0.05574318 0.15593177 0.32277292 0.41010106 0.19192743
0.08353684 -0.04006226 0.28997567 0.22452548 -0.34200206 -0.3669641 -0.38751352 -0.16321506
-0.18836035 0.08703345 0.1062832 -0.0010370582 0.13169266 -0.0070813233 -0.38078633 -0.006957344
-0.21847916 -0.18834011 0.012658713 0.19459775 -0.8942053 0.58614975 1.4939454 0.37480643
00000000: c7cb 0abf c83b 73bf 5c47 8b3d 3a05 c53f
00000010: bb6b efbe 9d17 0dbf 04d7 94bf 59ba ee3e
00000020: 4c9a 5abf 7501 8bbf 64bd 1d3d 6c44 e1bf
00000030: c082 e93f e43c e4bd 4f55 78bf 6fd9 92be
00000040: 5e5e 953f 0f35 a4bf 69b4 17c0 18cc 9e3f
00000050: 7856 703f 783f 003f ae48 0ebf 79ee 193e
00000060: a1d9 d4bf 649b 84bf 3954 e53e aed5 42bf
00000070: dc19 cd3b 8348 6abf dcde 973d 7c46 50be
00000080: 08c6 0bbf 4cab cabe e288 98be 5b53 0fbf
00000090: f356 05be 16c2 debe d177 7fbf e2f7 54be
000000a0: 7b18 5d3f fd1b 213f 6d84 b5be e8d5 95bf
000000b0: 6c6e f0be 7fad 983f 0e64 ef3f 9e55 04bf
000000c0: 7ce7 8fbf 2385 383e 8a55 8fbf c881 69bf
000000d0: fc1e 793f 051e 823f b9aa 36bd 66c9 3e3e
000000e0: eaff abbf 80a1 493f f6dd 8bbf b051 8bbf
000000f0: 1a45 52bf 9373 d9bf 1a72 8f3f d3be 8dbf
00000100: d8e2 5abe 0de4 95be 2485 d63f 7db3 98be
00000110: 40c6 b0bf d749 933f 851a b0be f374 3bbe
00000120: e4c1 89be 8e08 5e3f 1e05 48bf 7b78 efbf
00000130: 47ef 033f b366 eebf 6067 953f 5d35 d23e
00000140: b1e1 993f 0355 6abf 6299 1cbf 3dca a1bf
00000150: c992 bcbe b374 183f f149 e63e 94c7 6ebf
00000160: 65be bdbf c449 97bf 8617 2bbf fb21 4cbf
00000170: d9eb 0abe 331f 65bf dd51 463d 5973 d03f
00000180: 27b9 9e3f c8fe b93e 0ab9 6dbd 3369 30bd
00000190: 03cc 8abf 361c 76bf 44df 583f 9c80 133f
000001a0: ad77 9cbf 8df7 e23e 2675 ecbe 1664 ac3f
000001b0: de19 cabf b46d 57bf ddcf 7ebf 8a8e 8cbf
000001c0: 6671 aa3f 71e1 37bf a801 03bf 37b7 9bbe
000001d0: c69d 093e 27fd 95bf a8b2 0bbf 42fe a03f
000001e0: bbc0 82be 31f1 f03e 01d6 a0bd b252 653f
000001f0: e737 c7bf 8aa2 a1bf c854 903f 63fc 90bf
00000200: d66c 743f 2d45 2e3f 5b1d 4a3f 0d07 aabf
00000210: 1378 2abf 42d5 92bf d857 cebf 07cd a43e
00000220: 09b1 873f b21d 9bbf eda6 b6bf 2033 2fbf
00000230: a884 16bf 3a69 e5bf 6724 4f3e abf3 8dbf
00000240: 2698 bf3f bc57 b73f cafd c53e d9f4 abbe
00000250: cdb0 9cbf d09b 8abe 316b 893e 87b6 a5bf
00000260: 5d83 2b3e 0959 8f3f fa31 4d3f 5705 cd3c
00000270: dcba 5bbf cbe6 6abf ef6d 7fbe 46b7 1ebf
00000280: d858 6f3f 52cc d0bf 74e6 dd3f 8a81 9b3f
00000290: 184c b4bf b9e3 743e cf5c a33f c6fd 8cbf
000002a0: 3173 a0bf a6db 913f a2d4 173f 8680 8a3f
000002b0: 8610 6b3f fc4c 86be f748 8dbd e5fe f63e
000002c0: 8d64 e6bd 60f5 95bd 2183 67bf e248 21bf
000002d0: 6f34 b33e 8a9b b9be e386 313f 0453 e9bf
000002e0: 7075 95bf 7a1b 9fbe 9812 acbf bfe8 afbf
000002f0: c8a5 033e d467 39bf c82f ab3d c750 d23e
00000300: 40dd e5be fd8c c43e 09b5 9b3f 6872 b83e
00000310: eb56 4f3f cc29 b2bf f6f4 863f b3e5 1c3e
00000320: 0a33 48be 2f3f 393d 85c3 98bd e294 4abe
00000330: a3d1 c5bc af12 893e 353b 073f 79a5 833d
00000340: 0130 afbc 4300 8dbe aa19 13be d14b 8cbe
00000350: 24a3 673d 5de5 483d 1ae3 f0be 0701 8f3e
00000360: 6a51 e7be 8bcd e1ba d456 ab3e 7ba7 983e
00000370: f19c 9cbe fdd7 b23e ebe8 233e 11fb b43d
00000380: b758 0d3f a4ff 2f3e 4de2 b5bd f652 64bd
00000390: 94ac 1f3e 7e42 a53e c4f8 d13e a088 443e
000003a0: 5d15 ab3d 5318 24bd b177 943e 02ea 653e
000003b0: e51a afbe b8e2 bbbe 2c68 c6be d921 27be
000003c0: 89e1 40be 983e b23d 02ab d93d e6ed 87ba
000003d0: 71da 063e 720a e8bb 6df6 c2be 6efa e3bb
000003e0: 00b9 5fbe 3bdc 40be 7e66 4f3c a244 473e
000003f0: a3ea 64bf e90d 163f 9a39 bf3f a1e6 bf3e

lstm.weight_hh_l1 f4 [200, 50]
0.07048851 -0.062142394 -0.12672356 -0.09328902 -0.080331475 0.029012725 -0.11784357 -0.10446535
-0.011300579 0.05548829 -0.013416305 0.038415298 -0.10040778 0.07621965 0.1367733 0.057369232
0.08696735 0.053744525 -0.0177079 0.0003697425 -0.057035767 0.09914723 -0.026469685 0.12709863
0.14081053 -0.050316393 -0.077365786 -0.06826333 0.1291122 0.13189985 -0.06878491 0.06667259
0.0050272048 -0.073912024 0.012748957 0.119858876 0.025193319 -0.033503458 0.13380863 -0.13005243
-0.07368554 -0.050144248 0.10539809 -0.0503475 -0.11706738 0.03897199 -0.07119074 -0.022326991
0.11454089 0.027594998 0.041979447 -0.104765706 0.049590454 -0.03167884 -0.078156345 -0.040198825
-0.021703467 -0.10760462 -0.038867205 0.020382136 0.09717344 0.041305453 -0.08958979 0.08072336
-0.02431529 0.015971184 -0.06957998 -0.1196016 0.09707548 -0.08227974 -0.08350605 -0.06318474
0.09608103 0.08486594 -0.086737424 -0.12520488 -0.060056224 0.035871983 -0.016035423 -0.038288765
0.08699538 0.14112802 0.04612334 0.050524488 0.04386796 -0.024746537 0.125407 -0.062424444
-0.005324602 0.035352275 0.06786439 -0.1321287 0.10934065 0.09527634 -0.09493118 0.11253987
-0.10532918 0.07468523 -0.11693888 0.101849824 -0.08281748 0.08859205 0.13718794 -0.10513702
-0.098461464 -0.0022637248 0.07655209 0.09592335 0.05669643 -0.10230109 -0.03854476 -0.04035382
0.03503515 -0.12266121 -0.06762118 0.13195081 0.10710761 0.049532637 -0.13274716 -0.050840832
-0.01873748 -0.05523994 0.055086225 0.06738487 0.1226735 0.021575123 0.061028928 0.09473282
0.050775185 -0.06288895 -0.06314657 -0.022244416 0.13806258 -0.051276363 -0.01822187 0.053367466
-0.040455043 0.107680276 -0.04110454 -0.05411753 -0.09687108 0.12839384 0.1361338 -0.062844224
-0.03525112 0.0024067163 -0.027876869 -0.031638175 -0.08294165 -0.11000566 0.050964713 0.05136442
-0.04462178 -0.038601995 0.12734087 0.020185664 0.038056076 0.009205192 0.040024787 -0.0667229
-0.12038351 0.1258965 -0.07338999 0.10904859 0.11819528 -0.051897034 -0.05514846 0.037842497
0.06732772 0.12588404 -0.02690281 0.06034188 0.103452966 -0.11776681 0.05303076 -0.040302806
0.073338434 -0.057399124 -0.10541106 0.038002625 -0.057376347 -0.0422858 -0.0079176575 0.06853981
0.06865738 0.023049787 -0.1375721 0.016348645 0.021342635 0.05938898 -0.123359315 0.08907099
-0.082729176 -0.042301327 -0.048360378 -0.034411892 -0.046550892 0.12058498 -0.10914755 -0.03878358
-0.11676512 0.13503484 0.12536399 0.058240637 -0.003539145 -0.08185404 0.1002976 -0.007170096
-0.0016082376 0.11268784 0.028116956 0.062182084 -0.030409455 0.07609819 -0.048420914 0.06779188
0.021169037 -0.06429905 -0.011788487 0.06334631 -0.04598882 -0.040157482 0.0065544695 -0.09070198
-0.11143005 0.024610907 0.063025385 0.09749012 -0.07238902 0.07635455 -0.00089254975 -0.06304441
0.13172458 0.052257195 -0.006185949 -0.08118274 -0.014359891 0.10506277 -0.016985312 0.02915603
-0.01933746 -0.09215653 -0.00254412 -0.014000729 0.009668052 0.11890186 -0.06079351 -0.055076152
0.11315565 -0.10729467 0.11615379 -0.058242247 0.04024914 0.030438423 -0.11697267 -0.11760007
00000000: 485c 903d 0689 7ebd d2c3 01be 500e bfbd
00000010: d484 a4bd 18ac ed3c f857 f1bd eef1 d5bd
00000020: 1026 39bc b047 633d 10d0 5bbc 5c59 1d3d
00000030: 98a2 cdbd 0c19 9c3d 4d0e 0c3e 00fc 6a3d
00000040: f01b b23d 3823 5c3d 2810 91bc 00da c139
00000050: 569e 69bd b40d cb3d f4d6 d8bc 2526 023e
00000060: a330 103e 9018 4ebd f471 9ebd a5cd 8bbd
00000070: fd35 043e c110 073e 1adf 8cbd a48b 883d
00000080: 40bb a43b 305f 97bd 00e1 503c 9278 f53d
00000090: 3862 ce3c ec3a 09bd 2105 093e 772c 05be
000000a0: 72e8 96bd 0e64 4dbd f4da d73d 2e39 4ebd
000000b0: 06c1 efbd 18a1 1f3d 73cc 91bd 18e7 b6bc
000000c0: 6a94 ea3d e80e e23c a4f2 2b3d 678f d6bd
000000d0: 5c1f 4b3d acc1 01bd 6f10 a0bd 86a7 24bd
000000e0: 78cb b1bc d05f dcbd 3833 1fbd 70f8 a63c
000000f0: de02 c73d e82f 293d da7a b7bd 4a52 a53d
00000100: dc30 c7bc 00d6 823c f37f 8ebd aff1 f4bd
00000110: 82cf c63d 4882 a8bd 3805 abbd 0067 81bd
00000120: 22c6 c43d 32ce ad3d 64a3 b1bd b535 00be
00000130: 84fd 75bd 80ee 123d b85c 83bc aed4 1cbd
00000140: a22a b23d dd83 103e d4eb 3c3d c4f2 4e3d
00000150: e4ae 333d 40b9 cabc b16a 003e c6b0 7fbd
00000160: 007a aebb 8ccd 103d 7cfc 8a3d bf4c 07be
00000170: feed df3d 3e20 c33d 476b c2bd 4e7b e63d
00000180: d3b6 d7bd 92f4 983d a77d efbd a496 d03d
00000190: 369c a9bd c06f b53d ff7a 0c3e 1452 d7bd
000001a0: 2aa6 c9bd 005b 14bb 58c7 9c3d 7673 c43d
000001b0: 843a 683d 3c83 d1bd 1ce1 1dbd 0c4a 25bd
000001c0: 0481 0f3d cd35 fbbd f97c 8abd 1d1e 073e
000001d0: 3c5b db3d bce2 4a3d dfee 07be 7a3e 50bd
000001e0: 587f 99bc 4643 62bd 18a2 613d 1401 8a3d
000001f0: 3e3c fb3d 50be b03c 78f9 793d 4803 c23d
00000200: a4f9 4f3d eccb 80bd fd52 81bd ec39 b6bc
00000210: 4760 0d3e 2a07 52bd 0846 95bc d897 5a3d
00000220: 30b4 25bd 7a87 dc3d 3c5d 28bd 58aa 5dbd
00000230: 5864 c6bd ad79 033e a966 0b3e 79b4 80bd
00000240: 7a63 10bd 00ba 1d3b 085e e4bc 0897 01bd
00000250: 50dd a9bd a64a e1bd 60c0 503d 8063 523d
00000260: 54c5 36bd 201d 1ebd a565 023e 685c a53c
00000270: b0e0 1b3d 60d1 163c 08f1 233d 04a6 88bd
00000280: a18b f6bd 03eb 003e 7e4d 96bd de54 df3d
00000290: 5e10 f23d fc91 54bd 5ae3 61bd bc00 1b3d
000002a0: 1ee3 893d bfe7 003e 4863 dcbc 0c29 773d
000002b0: 26df d33d ba2f f1bd c836 593d 8e14 25bd
000002c0: 7632 963d 581b 6bbd c1e1 d7bd a4a8 1b3d
000002d0: 7603 6bbd e033 2dbd 10b9 01bc 9a5e 8c3d
000002e0: 3e9c 8c3d e8d2 bc3c b3df 0cbe 98ed 853c
000002f0: c0d6 ae3c dc41 733d cfa3 fcbd da6a b63d
00000300: ea6d a9bd 2844 2dbd 8815 46bd 7cf3 0cbd
00000310: 26ac 3ebd 42f5 f63d c088 dfbd 88db 1ebd
00000320: 8d22 efbd 9346 0a3e 6b5f 003e bc8d 6e3d
00000330: 00f1 67bb 17a3 a7bd d468 cd3d 20f3 eabb
00000340: 80cb d2ba e2c8 e63d 8855 e63c a4b2 7e3d
00000350: 401d f9bc 5ed9 9b3d 0255 46bd 78d6 8a3d
00000360: b06a ad3c 38af 83bd 8024 41bc b6bb 813d
00000370: c65e 3cbd 2c7c 24bd e0c6 d63b f6c1 b9bd
00000380: 7035 e4bd d09c c93c 7413 813d e6a8 c73d
00000390: b240 94bd c65f 9c3d 00fa 69ba 6d1d 81bd
000003a0: cfe2 063e a40b 563d 80b3 cabb 2343 a6bd
000003b0: c045 6bbc 262b d73d c824 8bbc a0d8 ee3c
000003c0: 9869 9ebc 90bc bcbd 40bb 26bb 5063 65bc
000003d0: c066 1e3c d282 f33d 9e02 79bd 8897 61bd
000003e0: 26be e73d 4fbd dbbd 0ae2 ed3d 6c8f 6ebd
000003f0: 48dc 243d 005a f93c 5e8f efbd 4ed8 f0bd

lstm.bias_ih_l1 f4 [200]
-0.3798367 0.12997763 0.3239788 -0.13232836 0.13468671 0.4199984 0.2413965 0.1887307
-0.124890216 -0.05953445 0.19316158 -0.50626963 0.17477998 0.15988334 0.19221145 -0.057910517
0.22100993 0.05505832 0.0021307736 0.7358903 -0.16182607 0.5253174 -0.08201397 -0.021167293
-0.32420856 -0.017787404 0.1867167 0.11637635 0.020645278 0.22542888 0.09688942 0.65726566
0.44006246 -0.20778948 0.19637036 -0.18911578 0.020116651 0.44755596 0.25690335 -0.119216256
0.19857475 -0.39131206 -0.74196166 -0.41633514 0.54530936 0.06017033 0.3936024 0.059446093
0.11827795 -0.052192997 0.05199574 0.09582955 -0.05632183 0.026827276 -0.04358974 -0.06430583
0.093695596 -0.07097228 -0.016216666 -0.08991542 -0.120611556 0.13425611 0.10834992 0.01634413
0.0025259107 -0.062141754 -0.08554479 -0.14110744 0.047779158 0.050373077 0.0011237413 0.052958876
-0.047988333 0.058472052 -0.04276941 -0.048199512 0.10233365 -0.085725695 0.010794759 0.07413058
0.08461313 0.073115125 -0.10288672 -0.041888207 -0.11846261 -0.03464611 -0.0027184188 -0.07912746
0.045354098 0.0008467734 0.11223908 0.021750197 -0.044987395 -0.0019102544 0.07446854 -0.06127943
-0.01643107 0.051468655 -0.061781734 -0.03892368 -0.10931945 0.07497403 0.06984657 0.3005347
0.1330645 0.07027882 0.105901115 -0.16394988 0.22616018 0.056844003 0.064902045 0.2873722
0.06662317 -0.16960993 0.18810143 0.04090614 0.15616901 0.026984349 -0.05734446 -0.04223923
-0.004479508 0.093978554 -0.23684949 -0.14165471 0.031672724 -0.09268627 -0.038969412 0.18082705
-0.11040896 0.03430795 -0.08070799 -0.08762561 0.11263276 0.25886983 0.084363736 0.08021057
-0.071599424 -0.20311491 -0.09041169 -0.1674923 -0.08653196 -0.23776658 -0.43005332 0.23287717
-0.08101296 -0.13470626 0.022597175 0.10554891 -0.10145927 -0.048093446 -0.2586273 0.5180327
0.49745342 0.20593017 0.21443139 0.3363122 0.0342384 0.14618568 -0.19129196 -0.048683763
0.1667178 -0.24272223 0.23701416 0.041460406 0.2558557 -0.32976645 0.390839 0.13596217
0.10306574 0.7675764 -0.084003516 0.64287907 -0.061859827 0.056590986 -0.21147941 -0.05242492
-0.021660844 0.01703344 0.10866496 0.08699136 -0.017970929 0.63586444 0.15827918 -0.23922485
0.19488212 -0.12686951 -0.23285307 0.37968054 0.36459136 -0.050307985 0.005194122 -0.31311247
-0.8312149 -0.3197561 0.32819366 -0.12250536 0.3418542 0.24818924 0.23841283 0.19525936
00000000: f579 c2be db18 053e 8de0 a53e 1681 07be
00000010: 50eb 093e 080a d73e a530 773e 9f42 413e
00000020: 71c6 ffbd 65da 73bd 26cc 453e e39a 01bf
00000030: 86f9 323e 75b8 233e 14d3 443e 9433 6dbd
00000040: 6d50 623e d584 613d 73a4 0b3b 4f63 3c3f
00000050: bcb5 25be 337b 063f f1f6 a7bd 0867 adbc
00000060: aafe a5be e4b6 91bc aa32 3f3e b956 ee3d
00000070: 4920 a93c d4d6 663e f66d c63d 9042 283f
00000080: de4f e13e c4c6 54be 5015 493e 91a7 41be
00000090: adcb a43c 0e26 e53e d688 833e a727 f4bd
000000a0: 2e57 4b3e 0e5a c8be 33f1 3dbf e129 d5be
000000b0: 6599 0b3f 2a75 763d 4186 c93e bf7d 733d
000000c0: b63b f23d 53c8 55bd 7cf9 543d 4842 c43d
000000d0: b8b1 66bd e0c4 db3c 288b 32bd c6b2 83bd
000000e0: 7ae3 bf3d ea59 91bd d0d8 84bc 9325 b8bd
000000f0: 3103 f7bd 6f7a 093e 90e6 dd3d 20e4 853c
00000100: c089 253b 5a88 7ebd 1b32 afbd 787e 10be
00000110: 14b4 433d 0054 4e3d 804a 933a 68eb 583d
00000120: 6a8f 44bd 6480 6f3d fa2e 2fbd da6c 45bd
00000130: 4e94 d13d f490 afbd 80dc 303c c6d1 973d
00000140: a649 ad3d 62bd 953d 46b6 d2bd f892 2bbd
00000150: 869c f2bd 14e9 0dbd 8027 32bb 940d a2bd
00000160: 38c5 393d 00fa 5d3a 9add e53d 782d b23c
00000170: b444 38bd 8061 faba f682 983d 2400 7bbd
00000180: 749a 86bc ccd0 523d d80e 7dbd 706e 1fbd
00000190: e0e2 dfbd fc8b 993d b80b 8f3d afdf 993e
000001a0: 0f42 083e 58ee 8f3d afe2 d83d 7ae2 27be
000001b0: 8996 673e 42d5 683d 5deb 843d 7322 933e
000001c0: bb71 883d 3aae 2dbe a99d 403e 328d 273d
000001d0: c5ea 1f3e 480e dd3c 06e2 6abd 0b03 2dbd
000001e0: d6c8 92bb d477 c03d ac88 72be ef0d 11be
000001f0: 42bb 013d 4dd2 bdbd 649e 1fbd ba2a 393e
00000200: 181e e2bd 7e86 0c3d 3b4a a5bd 0e75 b3bd
00000210: 01ac e63d 968a 843e e5c6 ac3d 7045 a43d
00000220: b8a2 92bd 5bfd 4fbe c429 b9bd 1a83 2bbe
00000230: ab37 b1bd 1579 73be f32f dcbe 5a77 6e3e
00000240: 1fea a5bd 70f0 09be b61d b93c 072a d83d
00000250: e1c9 cfbd a2fd 44bd cc6a 84be cb9d 043f
00000260: 37b2 fe3e 5cdf 523e e793 5b3e 1d31 ac3e
00000270: 913d 0c3d b3b1 153e 0ae2 43be a068 47bd
00000280: 12b8 2a3e 2d8c 78be d7b3 723e 63d2 293d
00000290: 85ff 823e 26d7 a8be 0d1c c83e ab39 0b3e
000002a0: 2114 d33d e37f 443f 090a acbd b993 243f
000002b0: bb60 7dbd f3cb 673d 0f8e 58be 83bb 56bd
000002c0: 1572 b1bc b689 8b3c bc8b de3d 8728 b23d
000002d0: c537 93bc 03c8 223f f013 223e 5cf7 74be
000002e0: 2e8f 473e 15ea 01be 0971 6ebe 7d65 c23e
000002f0: b8ab ba3e bf0f 4ebd 7433 aa3b 4750 a0be
00000300: 80ca 54bf 12b7 a3be 0009 a83e 17e4 fabd
00000310: 8407 af3e 5225 7e3e 7e22 743e 12f2 473e

lstm.bias_hh_l1 f4 [200]
-0.5061659 0.106316596 0.30497444 0.082332015 0.31808028 0.32559618 0.024537718 0.17453218
0.009785555 0.053170223 -0.0028773376 -0.33565184 0.3789862 -0.09107692 0.37391016 -0.16293807
0.065034874 0.27731058 0.013986676 0.6813289 -0.15546589 0.44363314 -0.17878623 -0.07194395
-0.32878703 0.046960585 0.011772397 0.13062812 -0.14846666 0.013965372 -0.13504046 0.608322
0.26057363 -0.14514855 0.18958522 -0.24096392 -0.1953932 0.5435386 0.25672027 0.109049685
0.19237591 -0.25931233 -0.7085043 -0.39782104 0.4598171 -0.0781225 0.38274488 0.089424394
0.09968065 0.15126221 -0.04472688 0.12989758 0.11486308 0.11889355 0.028948054 0.08533119
0.040547684 -0.037043594 -0.028949998 0.08805363 -0.11565243 -0.042504594 0.0515265 0.12995695
0.04524803 0.077787906 0.13626413 0.104072005 -0.10644629 0.01863873 -0.0646971 -0.1396092
-0.064298324 -0.13801561 -0.016008824 0.018970296 0.033070937 -0.11042164 -0.1048604 -0.12012171
-0.11876124 -0.090901285 0.10404572 -0.047315754 0.11094181 0.09054752 0.08425227 0.03783144
0.13409443 0.11679368 -0.09707309 0.012627259 -0.14042006 -0.10953513 -0.032305896 -0.06500059
0.010756537 0.09767294 -0.036096655 -0.06685475 0.031016294 0.0337724 0.07937179 0.185714
0.08585871 -0.044694327 0.051115755 -0.040992506 0.23026875 0.11604042 -0.04414069 0.4646847
-0.032221474 -0.03315214 0.25414646 0.0208707 0.2234327 0.14165208 0.11698405 -0.25745532
0.1454306 -0.0838738 -0.034223095 -0.091641754 0.023847552 -0.14060748 -0.019345924 0.17617542
0.1434304 -0.072013475 0.095511876 0.028958663 0.06816833 0.2677332 0.040590953 -0.047963392
-0.09476382 0.070247784 -0.06532859 -0.10935365 0.050927717 -0.12495555 -0.48617744 0.000789264
-0.14927304 -0.074468724 0.023475565 -0.01276923 -0.16048269 -0.07865206 -0.4526786 0.5166309
0.32418534 0.2352374 0.23885897 0.4846648 0.02674476 0.13129647 -0.045090087 -0.02797656
0.14453188 -0.32135615 0.14872935 -0.099811874 0.46424708 -0.37118042 0.19524583 0.09850316
-0.1232115 0.76572466 -0.06447038 0.67408955 -0.09185778 0.028495733 -0.3830374 0.016198896
-0.06980055 -0.06814727 0.09920492 0.0077066394 -0.02207144 0.5645317 0.3257347 -0.2757694
0.038026676 -0.10012245 -0.28725094 0.49654523 0.51009876 0.031448603 0.17301221 -0.29946846
-0.9802926 -0.23525162 0.39367172 -0.12575287 0.25888577 0.15396906 0.34129766 0.08439109
00000000: 1794 01bf 84bc d93d 9c25 9c3e b09d a83d
00000010: 6bdb a23e 8bb4 a63e 5303 c93c 90b8 323e
00000020: 9853 203c 05c9 593d b791 3cbb 8fda abbe
00000030: 7b0a c23e 8986 babd 2771 bf3e 3dd9 26be
00000040: 0131 853d a7fb 8d3e 5f28 653c 926b 2e3f
00000050: 7332 1fbe e223 e33e bd13 37be 5a57 93bd
00000060: c656 a8be be59 403d 03e1 403c 61c3 053e
00000070: a507 18be 04cf 643c 0c48 0abe feba 1b3f
00000080: e869 853e d2a1 14be a122 423e 3fbf 76be
00000090: 2815 48be 5825 0b3f d770 833e 7155 df3d
000000a0: 31fe 443e 96c4 84be 8a60 35bf 33af cbbe
000000b0: 266d eb3e b0fe 9fbd 23f7 c33e 2324 b73d
000000c0: 5e25 cc3d 7be4 1a3e 8833 37bd df03 053e
000000d0: 563d eb3d 767e f33d 7824 ed3c 1ec2 ae3d
000000e0: 5415 263d 06bb 17bd 8c28 edbc 7655 b43d
000000f0: 2edb ecbd 4c19 2ebd 740d 533d 6f13 053e
00000100: 0056 393d 444f 9f3d d388 0b3e b423 d53d
00000110: 8300 dabd 40b0 983c ea7f 84bd b7f5 0ebe
00000120: d7ae 83bd f753 0dbe f024 83bc 9867 9b3c
00000130: 6475 073d be24 e2bd 0dc1 d6bd 5f02 f6bd
00000140: 1839 f3bd 742a babd ec15 d53d 2ace 41bd
00000150: 7635 e33d fa70 b93d 748c ac3d 24f5 1a3d
00000160: 0d50 093e 8631 ef3d 42ce c6bd 90e2 4e3c
00000170: 47ca 0fbe f453 e0bd 3053 04bd 081f 85bd
00000180: 303c 303c c008 c83d 16da 13bd 25eb 88bd
00000190: e215 fe3c ee54 0a3d ad8d a23d d02b 3e3e
000001a0: b1d6 af3d 6611 37bd c15e 513d c2e7 27bd
000001b0: 92cb 6b3e 9aa6 ed3d decc 34bd 27eb ed3e
000001c0: aafa 03bd 8aca 07bd 7c1f 823e 08f9 aa3c
000001d0: 8bcb 643e 3e0d 113e 5595 ef3d 2fd1 83be
000001e0: c2eb 143e 07c6 abbd 842d 0cbd acae bbbd
000001f0: f15b c33c 68fb 0fbe 587b 9ebc 5467 343e
00000200: 6bdf 123e cd7b 93bd bb9b c33d b83a ed3c
00000210: d69b 8b3d 5314 893e b342 263d 4375 44bd
00000220: 8913 c2bd 12de 8f3d ffca 85bd cef4 dfbd
00000230: 9599 503d b2e8 ffbd 40ec f8be 9ce6 4e3a
00000240: 08db 18be 0f83 98bd d44f c03c 0836 51bc
00000250: 9355 24be 5514 a1bd 7dc5 e7be ec41 043f
00000260: 9ffb a53e 13e2 703e 7297 743e fc25 f83e
00000270: d417 db3c 9572 063e 62b0 38bd 192f e5bc
00000280: 2a00 143e cb88 a4be 824c 183e 2b6a ccbd
00000290: cbb1 ed3e 5c0b bebe 86ee 473e 06bc c93d
000002a0: 5056 fcbd 8806 443f 0c09 84bd 2291 2c3f
000002b0: ef1f bcbd e26f e93c 7a1d c4be 8cb3 843c
000002c0: 97f3 8ebd cc90 8bbd f32b cb3d fa87 fc3b
000002d0: 2acf b4bc 2685 103f b3c6 a63e a631 8dbe
000002e0: dcc1 1b3d 000d cdbd 8e12 93be 2d3b fe3e
000002f0: d595 023f 40d0 003d 1d2a 313e ee53 99be
00000300: 75f4 7abf cde5 70be 578f c93e 5cc5 00be
00000310: ad8c 843e 11aa 1d3e 91be ae3e 3cd5 ac3d

fc.weight f4 [2, 50]
-0.8121034 -0.88520867 -0.92164135 0.7935711 -0.2586257 0.71835095 -0.3476144 0.9592088
-1.2221285 -0.1261109 0.56283414 0.83033895 -0.4448817 0.25259256 -0.6446633 0.58751
0.8876348 0.2288187 -0.35133696 0.9660038 0.21031475 -0.88237184 -0.6370696 -0.7161483
-0.70846486 -0.8464937 -0.552009 -0.5767799 -0.5772328 0.20641062 0.2500623 -0.5610447
-0.43338087 1.0072228 0.62807935 0.4237811 -0.9639397 -1.1007874 -0.6676174 -0.23817699
0.72442514 1.4463758 -1.2911518 -1.1094651 0.76622707 -0.46994862 -0.8300183 -0.05181844
-0.4968471 0.55340904 -1.0957086 -0.8737866 -0.8767871 0.8495895 -0.3102745 0.68134886
-0.30292255 0.9578129 -1.2972383 -0.17838061 -0.0691476 0.79337484 -0.51136094 0.05279518
-0.6692505 0.6412888 0.8940667 0.32335004 -0.2496922 0.92605627 -0.21667425 -0.8626753
-0.64508575 -0.7073772 -0.33602157 -0.87239164 -0.6112249 -0.5904222 -0.5517819 0.031855598
0.23215568 -0.7559847 -0.40629268 0.8142767 0.6299043 0.49545658 -0.84303683 -1.04498
-0.63562673 -0.3853862 0.58953905 1.5141802 -1.2256048 -1.1051649 0.7688805 -0.54783237
-0.8042443 0.34278464 -0.47639185 0.33486742
00000000: 02e6 4fbf 099d 62bf b0f0 6bbf 7a27 4b3f
00000010: 966a 84be d9e5 373f 84fa b1be b58e 753f
00000020: b56e 9cbf 3723 01be e615 103f 1891 543f
00000030: 89c7 e3be d053 813e a708 25bf 0e67 163f
00000040: 093c 633f 734f 6a3e 70e2 b3be 064c 773f
00000050: c05c 573e 1fe3 61bf fe16 23bf 7f55 37bf
00000060: f45d 35bf d0b3 58bf 7650 0dbf d9a7 13bf
00000070: 87c5 13bf 4e5d 533e 2a08 803e a0a0 0fbf
00000080: 19e4 ddbe adec 803f cfc9 203f d6f9 d83e
00000090: c1c4 76bf 9ae6 8cbf f9e8 2abf abe4 73be
000000a0: ed73 393f d822 b93f 7644 a5bf f402 8ebf
000000b0: 7527 443f 1b9d f0be 147c 54bf 933f 54bd
000000c0: be62 febe 37ac 0d3f 2e40 8cbf 7bb0 5fbf
000000d0: 1f75 60bf b37e 593f 4ddc 9ebe e16c 2e3f
000000e0: aa18 9bbe 3a33 753f e80b a6bf 68a9 36be
000000f0: 429d 8dbd 9d1a 4b3f 8de8 02bf c23f 583d
00000100: 0054 2bbf 812b 243f 8ee1 643f 238e a53e
00000110: 50af 7fbe 0612 6d3f dbdf 5dbe 4ad8 5cbf
00000120: 5724 25bf ac16 35bf 050b acbe 0f55 5fbf
00000130: 3c79 1cbf e925 17bf 9441 0dbf 047b 023d
00000140: 38ba 6d3e 3788 41bf 9805 d0be 7074 503f
00000150: 6941 213f 7cac fd3e 43d1 57bf e8c1 85bf
00000160: 6fb8 22bf 5751 c5be 08ec 163f a8d0 c13f
00000170: 9ee0 9cbf 0b76 8dbf 5ad5 443f be3e 0cbf
00000180: f4e2 4dbf 7881 af3e a2e9 f3be be73 ab3e

fc.bias f4 [2]
-0.007321143 -0.002445316
00000000: 33e6 efbb 9841 20bb
