LSTM_for_PDE/codes/experimentalCodes/models/LSTM_NS2d_cyl.pth (torch, 141099 bytes, 12 tensors)

rnn.weight_ih_l0 f4 [200, 3]
000000 55 40 1b 3b c5 df 25 be 57 06 77 bd 4f 88 3c be
       0.0023689468 -0.16198643 -0.06030878 -0.18411373
000010 93 68 e7 bc fd b2 d7 bd 95 d3 74 3d 8e 19 22 bd
       -0.028248107 -0.10532186 0.059772093 -0.039575152
000020 25 97 73 bd 98 78 36 be a7 b3 8d 3d d3 21 cd bd
       -0.059470315 -0.1781944 0.069190316 -0.10016217
000030 7e 96 aa bc b6 83 d8 bc ef ba 63 3d 05 01 3a 3d
       -0.020823713 -0.026429992 0.055598196 0.04541113
000040 63 9c 25 3e b0 39 6a bc f2 37 12 be c7 fd 3f 3d
       0.16172938 -0.01429598 -0.14279154 0.04687288
000050 f2 75 54 bd 5b 39 65 bc da 60 19 3e f1 5c 17 3e
       -0.051870294 -0.013990725 0.14978352 0.14781548
000060 8f fb 0a be f4 b6 0a 3e 3e c3 66 3e e4 4b c4 bc
       -0.13572524 0.13546354 0.22535416 -0.023961969
000070 8e 21 78 3c 3d 3c fe bd e9 bf a0 bc e5 16 5b 3e
       0.015144719 -0.12413833 -0.01962276 0.21395452
000080 cf c5 dd 3d f9 cd f9 bd c3 7c 81 3d eb 82 05 3e
       0.108287446 -0.12197489 0.063226245 0.13038222
000090 76 75 23 be 0b fd ec bd fe 26 7d bd ec ac d7 bd
       -0.15962777 -0.115717016 -0.061804764 -0.10531029
0000a0 25 33 c6 3d d1 69 eb bd b0 48 60 3d 1e 4c 51 3e
       0.09677724 -0.11494792 0.05475682 0.20439193
0000b0 9c 4d 8d 3d 0f 62 f5 bd ce 41 90 3b 70 92 9f 3c
       0.068995684 -0.11981594 0.004402376 0.019479007
0000c0 51 ec f6 bd 61 25 a3 bd 91 44 a8 3d fd d3 71 3d
       -0.120567925 -0.07966114 0.08216203 0.05904006
0000d0 94 be 8f 3d bd 20 aa bd 77 c2 2b be fb ee c5 3d
       0.07018772 -0.083070256 -0.16773401 0.096647225
0000e0 dc a2 b1 bd bf da e9 bd 6c 75 0f bd 96 e6 a4 bd
       -0.08673641 -0.11418676 -0.03502409 -0.08051793
0000f0 87 06 59 be 6d 1e bf bd 91 40 3a 3e a7 0c 48 bd
       -0.21193896 -0.09331975 0.18188693 -0.04884019
000100 a9 5b 31 3c 81 1f e9 bd 0b 66 92 be 34 5a 48 be
       0.010825076 -0.11382962 -0.28593478 -0.1956566
000110 ab db 65 3d 34 22 cd bd 34 9d ee 3d 2a f9 0c 3e
       0.056117695 -0.10016289 0.11651078 0.13766924
000120 24 dd 48 3d 59 19 e6 3d c7 c7 0b 3e 21 bc 67 bd
       0.04903902 0.112353034 0.13650428 -0.056575898
000130 44 12 e8 3d dd 03 3f 3d 30 7a de bd 39 b8 5f bd
       0.11331609 0.046634544 -0.10863149 -0.054619048
000140 7a 81 64 3a bd 1a 94 3b 69 28 2c be ae 0d 56 3e
       0.0008716803 0.004519789 -0.1681229 0.20903656
000150 cc bc 8b be 5c ae 68 3e cf a2 b7 bd 17 58 26 be
       -0.27292478 0.22722763 -0.089666 -0.16244541
000160 b3 67 7d 3d 35 91 34 bc 4e 07 28 be 8e a1 3a 3e
       0.061866473 -0.011020948 -0.16409037 0.1822569
000170 e5 31 66 be 59 70 67 3d 42 c0 9a 3d fe e5 2a be
       -0.22479971 0.056503627 0.075562015 -0.16689298
000180 6f 32 b4 3d 77 6e 18 3c e5 de 72 3d dc fe a2 bd
       0.08798682 0.009303681 0.0592946 -0.07958767
000190 5e d4 94 3d 38 ec d3 bd 24 fc b1 bb 96 73 28 3e
       0.07267068 -0.103477895 -0.005431669 0.16450343
0001a0 75 92 21 bd 09 1f fa bd 27 1e 2a 3e 2c 1f 26 bd
       -0.039446313 -0.12212951 0.16613065 -0.04055707
0001b0 84 44 37 be df 95 d8 bc 8a da c5 3c a3 97 1b bb
       -0.1789723 -0.026438652 0.02415206 -0.0023741506
0001c0 85 f3 78 bd 5f a9 79 3e f8 91 fc bd 9a ac 05 3e
       -0.060779113 0.24381016 -0.12332529 0.13054124
0001d0 82 6a a1 bd 3c 10 b2 bd d7 9b 5c 3d b4 7b 21 3b
       -0.07881643 -0.08694503 0.053859558 0.0024640383
0001e0 ca be 69 bd 5b 79 e8 3d 9f b6 3a bd 0e 14 03 3e
       -0.057066716 0.11351272 -0.045584317 0.12800619
0001f0 dc 4a 1b 3e 5a 4c 85 3c 2d 40 27 3e ca 65 27 be
       0.15165275 0.016271759 0.16333075 -0.16347423
000200 84 cf 85 3c 47 23 fa bd 56 f4 8a 3e c2 db 25 3d
       0.016334303 -0.1221376 0.2713954 0.04049278
000210 7c 64 13 be 09 60 ce 3c 00 ba a0 3c a2 ca 0a be
       -0.143938 0.025192278 0.019619942 -0.13553861
000220 ec 74 49 3e 4a 80 b1 3d 64 dc 7c bd 97 3a 86 3d
       0.19673508 0.08667047 -0.06173362 0.06554144
000230 7d 97 b4 3d 36 69 74 be 0c 89 0f 3e a7 03 04 3d
       0.088179566 -0.2386826 0.14017123 0.032230046
000240 3d 93 9f 3d 7f 5e 59 3e 4c 6f 5c 3d c2 bf 1d bd
       0.07791755 0.21227454 0.05381708 -0.038512953
000250 0c a5 b3 3d 40 82 65 3e c8 1f bd 3d 74 34 b8 3d
       0.087717146 0.22412968 0.092345774 0.0899438
000260 d2 31 98 3d de f1 f6 3d 10 77 df bd 3d e2 98 bd
       0.074313775 0.12057851 -0.10911381 -0.074650265
000270 97 82 0e 3e 40 1f c1 3b 1e d6 b6 3d 2e dc bf 3d
       0.13917004 0.005893618 0.08927558 0.09368168
000280 ef 3f 0d 3e 14 a5 05 bd 2c 43 a3 bd ec 22 ad bd
       0.1379392 -0.032628134 -0.079717964 -0.084539264
000290 4b 4f 96 bd 4e f1 96 3d 20 f5 5c bc 36 c2 b2 3d
       -0.07339343 0.07370244 -0.013486177 0.08728449
0002a0 e4 8a 0d be b6 b0 87 3d 22 7a 8d bd 4a f2 84 bd
       -0.13822514 0.06625502 -0.069080606 -0.064915255
0002b0 0e df 8f bd ce b4 ed 3d 20 80 9f 3d 52 70 f6 3d
       -0.07024966 0.116067514 0.0778811 0.12033142
0002c0 78 cf eb bd b2 ec 2b bd 98 5d eb 3c 3e f5 d4 3d
       -0.11514181 -0.041973777 0.028731152 0.10398339
0002d0 4f 0d 05 be 4e b8 ae 3d f0 9d d9 3d 74 ef 48 3d
       -0.12993358 0.08531247 0.10625827 0.049056485
0002e0 c0 7d ed bb 2f a2 82 bd 70 5e 5f bd 02 bc a8 3d
       -0.0072476566 -0.0637859 -0.054533422 0.08238985
0002f0 8d ce 9e bd 68 8f 6b 3d 30 24 52 bc 70 1f 05 bc
       -0.0775424 0.05750981 -0.012826011 -0.008125171
000300 2e 3c 82 3d 40 0b 99 3d f4 6e d2 bd 78 55 a2 3d
       0.063591346 0.07472849 -0.10275069 0.07926458
000310 a0 ca 10 be 02 40 48 bd 3c 51 89 3d fc 41 2c 3d
       -0.14139795 -0.048889168 0.06704947 0.042055115
000320 cf 5b 06 3e bd 23 eb bd 10 59 33 bd ec dc 77 3d
       0.1312096 -0.11481426 -0.04378611 0.060513422
000330 be 26 d9 bd a9 99 0b be 94 aa da bc e2 85 0e bd
       -0.106030926 -0.13632835 -0.026692666 -0.03479565
000340 c2 90 e7 bd 10 41 86 3d 86 20 9b 3d cf 54 c3 bd
       -0.11306907 0.065553784 0.07574563 -0.0953766
000350 de f1 c8 3d f6 e2 e2 3d 09 1d 0d 3e d8 7c a4 bc
       0.098117575 0.110784456 0.13780607 -0.020079061
000360 28 88 31 bd 24 a7 a9 3d 2e fd d9 3d 80 6f f7 3c
       -0.04334274 0.08283833 0.10643993 0.030204535
000370 f8 b3 a0 bd 0c 4a 18 3d e3 65 b6 bd 95 71 04 be
       -0.07846826 0.03717999 -0.08906152 -0.12933953
000380 ce 56 f2 3d f7 1f de bd 46 96 d0 3d 98 1e ad 3d
       0.11832963 -0.108459406 0.101849124 0.08453101
000390 c0 56 c9 3b e8 87 b8 3d b8 03 5f bd 7b ff 03 be
       0.0061443746 0.09010297 -0.054446906 -0.12890427
0003a0 a0 41 cb 3c 4f f1 0b 3e e5 3e fd bd 1c 45 71 3d
       0.024811566 0.1366627 -0.12365512 0.0589038
0003b0 48 c0 5a bd 16 ea cc 3d 8b bc c0 bd 26 15 b9 3d
       -0.05340603 0.10005586 -0.09410962 0.09037237
0003c0 4e 1b 89 3d 20 fd c1 3c de 37 de bd 70 d4 de bd
       0.06694661 0.02368027 -0.108504996 -0.10880363
0003d0 5e c3 fd 3d 40 bb d0 3c df 10 07 3e 2e a7 06 be
       0.12390779 0.025479913 0.1319003 -0.13149711
0003e0 da b8 fa 3d c8 32 86 bc 62 9b 4f bd b2 8a 92 3d
       0.12242289 -0.016381636 -0.050685294 0.0715536
0003f0 38 29 24 3d 60 e9 26 3c 74 1c cd bd 08 22 ff 3c
       0.04007837 0.010187477 -0.10015193 0.031144157

rnn.weight_hh_l0 f4 [200, 50]
000000 d3 0c 03 3e 38 88 d7 3d b8 81 80 3c a4 4f a6 3d
       0.12797861 0.105240285 0.015686855 0.08120659
000010 ee 36 b6 3d f8 06 19 3d a6 dc f0 3d 20 e0 c2 3b
       0.08897196 0.03736016 0.11760835 0.005947128
000020 40 d0 89 3c 34 08 f7 bc f4 47 d3 bd ec 70 bd bd
       0.016822934 -0.030155279 -0.10316458 -0.09250054
000030 b8 d4 9e bd 94 11 fa bd ee 60 f8 3d a2 c2 8e 3d
       -0.07755417 -0.12210384 0.12127863 0.06970717
000040 5e d4 f7 3d 54 e2 98 bc 80 cb 42 bc c2 f4 07 be
       0.12101053 -0.01866261 -0.0118893385 -0.13276961
000050 00 a0 8a 38 d0 b4 be bc 2b a6 d0 bd 28 63 b7 3c
       6.610155e-05 -0.023279577 -0.10187944 0.022386149
000060 52 4b b0 bd 1e b9 8d 3d ca 47 04 be 80 eb b0 3d
       -0.08608116 0.06920074 -0.1291801 0.08638668
000070 f4 4b 93 3d 66 22 db bd a6 8e ef 3d 96 f4 fb 3d
       0.07192221 -0.1069992 0.1169713 0.123025104
000080 9a d7 9d 3d 80 5f 9a ba 17 4f 01 3e 42 70 a4 bd
       0.07707138 -0.0011777729 0.12627827 -0.08029224
000090 80 b2 72 bc 2d fe e8 bd 9e 5a 2a bd d2 e9 b2 bd
       -0.0148130655 -0.11376605 -0.041590326 -0.08736004
0000a0 00 80 1f b8 42 ec d3 bd ac e6 da bc 30 da 5f 3d
       -3.8027763e-05 -0.10347797 -0.026721321 0.05465144
0000b0 64 9d 8f 3d df c2 05 3e c0 8d ca bb 08 5d 8a 3c
       0.07012442 0.13062619 -0.0061814487 0.016890064
0000c0 e1 77 bb bd d0 02 00 3c e8 1a fa bd 48 5a b3 bc
       -0.091537245 0.007813171 -0.12212163 -0.021893635
0000d0 94 23 23 3d 4c d5 cf bd e2 83 c4 bd 81 5c 05 be
       0.03982885 -0.10148105 -0.09595467 -0.13023569
0000e0 3b 3c a0 bd ec c2 34 3d 3e eb 9e bd 40 1f fe bd
       -0.07823988 0.044131204 -0.07759713 -0.12408304
0000f0 fc 70 59 3d 3a fb e1 3d e9 37 07 3e e8 ec 7a 3d
       0.053086266 0.11034246 0.13204922 0.061261088
000100 39 45 0a 3e de 1b e6 bd 86 13 ab 3d d5 9f 96 bd
       0.13502969 -0.11235784 0.08353333 -0.07354704
000110 60 71 9a 3c 00 c8 3a bb e8 62 08 3d ec e1 5d 3d
       0.01885289 -0.0028500557 0.03329745 0.054170534
000120 66 e5 30 bd 0e 6e f5 bd 1a 71 8b bd 3c ed d9 bd
       -0.04318752 -0.11983882 -0.06808682 -0.10640952
000130 a0 ee 36 3c 38 40 3a 3d d8 22 e8 3c 15 d1 00 3e
       0.011165291 0.0454714 0.028336927 0.12579758
000140 dc 1e 10 3d dc 5f 68 3d da 3d 86 bd df 08 07 3e
       0.03518568 0.056732044 -0.06554766 0.13186978
000150 50 ae 60 bc 40 b9 24 bc be 12 8a 3d d8 73 af 3d
       -0.013713434 -0.010053933 0.06741856 0.08567017
000160 b8 25 a2 bc 32 6d bf bd 00 84 de 39 c0 b6 47 3c
       -0.019793376 -0.09346999 0.00042441487 0.012189567
000170 c8 4f 28 bd 1a ad 1f bd 9d 15 00 3e 7d 4b 85 bd
       -0.04109171 -0.038983442 0.12508245 -0.06508539
000180 e0 61 88 3b a8 c2 af bd 2c ef 4c 3d 10 fd e4 bc
       0.0041620582 -0.085820496 0.05003278 -0.0279527
000190 4e a8 0f bd 06 5f 19 bd 69 86 08 be 80 84 dc ba
       -0.035072617 -0.037444137 -0.13332523 -0.0016824156
0001a0 ad 5e 0b 3e ae 62 5f bd 9e 78 ff bd 7b 4e 05 3e
       0.13610335 -0.054537468 -0.12474178 0.13018219
0001b0 00 56 d9 bb f0 34 ca 3d 80 90 76 3b 44 64 97 3d
       -0.0066325665 0.09873378 0.003762275 0.07392171
0001c0 68 82 e3 bd 80 81 01 bd ae 01 fa 3d 68 30 9f bc
       -0.111088574 -0.03161764 0.122073516 -0.019432262
0001d0 26 78 34 bd d0 d0 95 3d 1a 1c 0d be c6 26 a6 bd
       -0.044059895 0.073152184 -0.13780251 -0.08112864
0001e0 c1 e6 fa bd 3a f0 e2 3d 40 29 a9 3b 08 22 d3 3d
       -0.12251044 0.11080976 0.005162388 0.10309225
0001f0 98 b2 ec bc 22 da e8 3d 56 c1 d0 bd 82 d6 e3 bd
       -0.028893754 0.113697305 -0.10193126 -0.111248985
000200 04 df 12 3d 36 e2 f9 bd 20 c2 d7 3c 1a 20 c7 bd
       0.035857216 -0.122013494 0.026337683 -0.0972292
000210 88 48 97 3c 80 86 07 bd 26 09 8c bd e8 11 fe bc
       0.018467203 -0.033087254 -0.068376824 -0.031014398
000220 db 7e fa bd b6 b8 fc 3d e4 9e b5 bc f0 3d cf bc
       -0.12231227 0.12339918 -0.022170492 -0.025298089
000230 b4 fe 02 3d 2c cc 95 bc 12 e0 40 bd c4 08 27 bd
       0.031981185 -0.018285833 -0.04708869 -0.040779844
000240 90 ce 6c 3d 5a b0 b0 3d 50 4e e4 bd 16 8e f5 3d
       0.05781418 0.086273864 -0.111477494 0.11989991
000250 58 9d c7 bc f0 e2 31 bd 18 61 fd bc 44 d1 90 bd
       -0.02436702 -0.043429315 -0.030930087 -0.07071164
000260 08 d9 a0 3d 3f 0a 09 be 10 f8 6b bc c0 02 ab bc
       0.078538954 -0.13382815 -0.014402404 -0.020875335
000270 ac a5 1a bd 9c 94 0f 3d 06 e6 96 bd 57 7b 02 be
       -0.037755653 0.035053834 -0.07368092 -0.12742363
000280 bc 76 05 be ce 93 aa bd 24 4b 8e 3d 46 75 75 bd
       -0.13033575 -0.08328973 0.06947926 -0.059926294
000290 df 8d c3 bd 26 e3 f7 bd e0 85 de bd 04 b1 43 3d
       -0.09548544 -0.12103872 -0.108653784 0.047776237
0002a0 0c ab a4 bd cd 78 95 bd a4 00 dc bd fc ea 93 bd
       -0.08040437 -0.072984315 -0.1074231 -0.07222554
0002b0 c0 88 b9 3d 08 91 f4 bd 95 8c 96 bd ae 02 69 bd
       0.09059286 -0.11941725 -0.07351033 -0.05688732
0002c0 40 00 0e be 93 8b 0a 3e 0c f4 d7 3d 7e 28 82 3d
       -0.13867283 0.13529806 0.10544595 0.063553795
0002d0 80 de a4 bc 38 7e 80 bd f2 c9 dd 3d a2 48 ab bd
       -0.020125628 -0.06274074 0.10829534 -0.08363463
0002e0 26 f5 c8 3d c0 82 a6 3b b4 88 9d 3d 4e e4 9b bd
       0.09812383 0.0050815046 0.0769209 -0.07611905
0002f0 7c 7e 4f 3d 2b ff e3 bd 60 67 bc bd 97 aa 10 3e
       0.050657734 -0.11132654 -0.09199405 0.14127575
000300 12 ca 46 bd 20 ca 20 bc 68 00 9f 3d 8a 97 f2 3d
       -0.048532553 -0.009813815 0.07763749 0.1184531
000310 97 66 02 3e b0 c3 ca bd f8 4b 8d 3d 50 2c 11 bc
       0.12734447 -0.09900606 0.068992555 -0.008860663
000320 92 e0 fc 3d 48 ca 10 3d 62 fe cd bd 5a b5 c0 3d
       0.12347521 0.03534916 -0.10058285 0.0940959
000330 39 65 01 3e c0 97 f7 3c a0 2c cf bd 2a 1f ce bd
       0.1263627 0.030223727 -0.101159334 -0.10064538
000340 56 9b df 3d df 13 c1 bd a2 66 27 bd 51 aa 0a be
       0.109183 -0.09427618 -0.040869363 -0.13541533
000350 c0 61 ca bc c9 21 88 bd a4 f8 c9 3d 04 0d e6 bd
       -0.024704814 -0.06647069 0.098618776 -0.11232951
000360 90 fa 74 bc 98 0d da bd b6 22 a3 bd 02 4e f6 3d
       -0.014952317 -0.10647124 -0.07965605 0.120265976
000370 6a e3 f2 3d 40 ae f4 bc 48 c1 de bd ff 3b 05 be
       0.11859782 -0.029868245 -0.10876709 -0.13011168
000380 00 71 e6 ba b5 50 0b 3e 6b 4a 03 3e b0 16 e7 bd
       -0.0017581284 0.13605006 0.12821357 -0.11283624
000390 a8 06 ce bd 20 d8 00 bc f5 70 a7 bd 38 ba cb bd
       -0.10059863 -0.007864028 -0.08175842 -0.09947628
0003a0 80 62 79 bc 7a b3 f2 3d 3d bb dd bd c0 30 4c bb
       -0.015221238 0.11850639 -0.108267285 -0.0031156987
0003b0 47 11 10 be cc 5a a3 bc c8 ff 0e be 92 82 ae 3d
       -0.14069091 -0.019940756 -0.1396476 0.08520998
0003c0 08 38 ec bd cc 89 fd bc b0 b6 cf bd ff a4 06 be
       -0.115341246 -0.030949496 -0.10142267 -0.13148879
0003d0 38 ae d8 3c 48 be ca bc 00 bd c5 bd 45 bb ab bd
       0.026450261 -0.024748936 -0.096551895 -0.08385328
0003e0 2a 5b 02 be bc a4 bd bd 5c b9 ce bd 90 9e 48 3d
       -0.12730089 -0.09259936 -0.10093948 0.048979342
0003f0 d6 32 67 bd 50 52 85 bc 70 a4 c1 3c 20 bd 83 3b
       -0.056444965 -0.016274601 0.02363798 0.004020348

rnn.bias_ih_l0 f4 [200]
000000 f6 45 83 3d d6 50 7a 3c 74 65 21 3d 64 2b 55 bd
       0.06409828 0.015278062 0.039403394 -0.052043334
000010 17 10 4f bd 5b cf f2 3d 9d 2b 5d 3e 18 1c 90 3b
       -0.050552454 0.11855956 0.21598668 0.0043978803
000020 ea 99 c6 bb 94 79 44 bc 97 d1 dc 3b e3 68 3d 3d
       -0.0060608285 -0.011991877 0.0067388522 0.046242606
000030 6b 3a c2 3d 81 ae 22 3d b2 f0 a4 bd ae 3a 0d 3e
       0.094837986 0.0397172 -0.080537215 0.13791916
000040 7e 6d 46 3d 66 37 bb bd d6 18 24 be ea 69 00 3e
       0.048444264 -0.09141426 -0.16025099 0.12540403
000050 e6 36 49 be dd a7 06 be 84 38 59 3d 94 87 9c bd
       -0.19649848 -0.13149972 0.053032413 -0.07643047
000060 22 95 fc bb 9b 99 0e 3e 84 cd c5 3c 3d 07 70 3e
       -0.0077082077 0.13925783 0.024145849 0.23440261
000070 74 f4 32 3e 87 37 3b 3d 9e 86 96 bd 6c e7 a5 3d
       0.17476064 0.045707252 -0.07349895 0.08100781
000080 17 30 d0 bb c6 23 7f 3d e8 a8 ef 3d 0c 7e 11 be
       -0.006353389 0.062289976 0.11702138 -0.1420824
000090 37 90 76 3d 6d e7 89 bd bb 60 8b 3c b0 ab 48 bd
       0.060196128 -0.06733594 0.017013898 -0.04899186
0000a0 52 e8 46 3e be 20 14 3d b4 18 71 3d 87 81 d5 3d
       0.1942456 0.036164038 0.05886145 0.10425096
0000b0 73 0f 1e 3e 6f 0b 78 3e 17 75 6e 3d 61 16 fe bd
       0.15435581 0.24223112 0.058217134 -0.12406612
0000c0 7a d7 88 bd 6e ae 46 bd a6 51 ed 3d 10 fc 00 3c
       -0.06681724 -0.048506193 0.11587839 0.007872596
0000d0 f3 87 97 bd 6a 3c 8b bd 8c 08 4c bd f2 cd 6a bd
       -0.07398977 -0.067986324 -0.04981284 -0.05732531
0000e0 ac 70 a9 3d da 6a fe 3d 94 16 be bd 22 f3 d4 bd
       0.082734436 0.12422724 -0.0928165 -0.103979364
0000f0 d6 3f ba 3d e5 39 a1 bd 80 77 99 ba 0e af b9 bd
       0.09094207 -0.07872371 -0.0011708587 -0.09066592
000100 2c 2d 6a 3d 10 36 68 3c 80 20 26 bb be 78 47 bd
       0.057171986 0.014173046 -0.0025348961 -0.048699133
000110 f4 f8 29 3d 9d 0a dc bd d6 80 cb bd ac cb 3e 3d
       0.041497186 -0.10744212 -0.09936683 0.046580955
000120 c8 ef f4 3c 56 bd 85 bd 88 1d e2 3c f8 81 1b bd
       0.029899493 -0.065302536 0.027601972 -0.037965745
000130 90 ba 1a 3c 55 42 00 be 12 e8 f8 3d ec 40 4b 3d
       0.009443894 -0.12525304 0.12153639 0.04962246
000140 e9 e3 0b 3e 61 cb 07 3e 92 81 fe 3d d9 88 00 be
       0.1366116 0.13261177 0.12427057 -0.12552203
000150 96 bf a5 bd 95 9e 10 3e 34 0b 74 3d 68 8e 46 3d
       -0.08093183 0.14122994 0.059580997 0.048475653
000160 38 b6 84 bd 5c 6d 2d bd da c7 86 3d 34 b9 1e 3d
       -0.06480068 -0.04234062 0.065810874 0.038750842
000170 a8 04 2d 3d 39 4e 00 3e 10 61 46 bd 0c fb 7a bd
       0.04224077 0.1252984 -0.04843241 -0.061274573
000180 08 71 bb 3d e4 1b 57 3d a4 f4 6c 3d 48 47 b0 bc
       0.091524184 0.052516833 0.057850495 -0.021518365
000190 57 be c1 bd 29 ce 04 3e c6 ac f9 3d d9 85 4a be
       -0.094601326 0.12969269 0.12191157 -0.19777621
0001a0 15 11 03 be 88 fa c4 bd be 1e 4f 3e c6 9f 17 bd
       -0.12799485 -0.096180975 0.20226571 -0.037017606
0001b0 6d 39 a0 bb 81 a4 ec bc 47 45 6d 3d 1f 95 fb 3c
       -0.004889658 -0.028887035 0.057927396 0.030710755
0001c0 52 03 e0 3d 9c 5b c3 3d 8c 5a eb 3d 99 ce 22 bd
       0.10938133 0.095389575 0.1149188 -0.039747808
0001d0 2b 5c 2d 3d 55 9c 89 bd 01 0a 03 be a0 85 06 3d
       0.042324226 -0.06719271 -0.12796785 0.03284228
0001e0 f0 67 ca bd cc cd d0 bd 7c 93 44 3e b5 3b 95 bd
       -0.09883106 -0.10195503 0.19196886 -0.07286779
0001f0 99 4e ba bd ed 40 d4 bc 7e 8f 7b 3d cb a3 2d bd
       -0.090970226 -0.025909865 0.06141614 -0.042392533
000200 d1 4d 76 bd 34 3f b9 bb f6 c2 07 3d a9 ff 61 3d
       -0.060132805 -0.0056532864 0.033144914 0.055175457
000210 4c 48 45 bd bd 38 73 3d 85 42 f8 3d 25 3f 02 3e
       -0.04816465 0.05938028 0.121220626 0.127194
000220 3f 8b 91 bd 9a 93 00 3e 5a 42 38 3c a9 ff 7e 3d
       -0.07106637 0.12556306 0.011246288 0.062255535
000230 21 d4 71 bc 64 c3 40 bd 1a 7b 01 be b9 8c 2c be
       -0.014760048 -0.04706134 -0.12644616 -0.16850556
000240 e1 e5 05 3e 9a f6 a8 bd 6c 48 d2 3d 9f 60 86 3b
       0.13075973 -0.082501605 0.102677196 0.0041008736
000250 0e 92 e3 bc 45 65 27 bc 53 da ac bd 96 f5 a0 3d
       -0.027779605 -0.010217016 -0.084400795 0.07859342
000260 d2 a9 28 3e b0 5f 8d bd 8d 8f a2 3c 5e 05 c5 3d
       0.16471031 -0.069030166 0.019843841 0.09620164
000270 49 d0 5d 3d c6 a3 b5 3d e8 6b 30 3e c8 08 59 3d
       0.054153714 0.08869128 0.17228663 0.05298689
000280 4b ae 48 bd 8c 4d 20 3d 13 71 8e 3c 00 40 18 3e
       -0.048994344 0.039136454 0.017387902 0.14868164
000290 1f 13 c9 bd 9c d8 f9 bb 27 e5 03 3d 9b 8d d5 3d
       -0.098181 -0.007624699 0.03220096 0.104274
0002a0 67 4b ec bd fd de d4 bd 1c 6d b1 3d 27 0e f5 bd
       -0.11537819 -0.10394094 0.08663389 -0.1196559
0002b0 27 3b 7f 3c 10 65 1a 3e 85 41 ab 3d 4b bc a0 3c
       0.015578068 0.15077615 0.08362106 0.019621035
0002c0 7e d5 52 3d 66 1a 6d 3d 1e ba 1b bd 18 99 22 3e
       0.051473133 0.057886504 -0.038019292 0.15878713
0002d0 5f 98 b6 bd d4 4e c9 3d 54 6e a7 3d 4e 39 0b be
       -0.08915781 0.098294884 0.0817534 -0.13596079
0002e0 36 d8 3e bd 9a 59 50 3d af bc 32 3c 42 b3 eb bc
       -0.046592914 0.0508667 0.0109092435 -0.028772
0002f0 e8 5d dd 3d 08 75 03 be aa 57 47 3b 61 41 da 3d
       0.10808927 -0.12837613 0.0030417242 0.10657001
000300 f9 1f 05 3e d5 3f d4 bd e3 20 9f bc 32 ee 1b 3e
       0.13000478 -0.103637375 -0.019424861 0.15227583
000310 cf 4f 96 3c e0 50 a3 3c 93 c3 ca bd 61 62 05 3e
       0.018348603 0.019936025 -0.09900584 0.1302581

rnn.bias_hh_l0 f4 [200]
000000 29 29 a8 3d 1c 0f 7e bd 14 5c dc 3d b4 53 8d 3d
       0.08210976 -0.06202613 0.1075975 0.06900731
000010 4d 8d ff bd 24 bc 90 3e d5 52 3e bc 0f 74 02 be
       -0.12478123 0.2826854 -0.011616428 -0.12739585
000020 33 9d 9c 3c 31 fa d8 bb 3b da e0 bd 88 b6 f3 bd
       0.019117927 -0.006621622 -0.10979124 -0.119000494
000030 cd b6 21 3e 72 14 87 3d 09 5a 37 bb ea d8 5f bc
       0.15792389 0.065956965 -0.002797725 -0.013662556
000040 34 d8 bd bd 09 87 a0 3d 15 39 9f bd c4 ff e4 3d
       -0.09269753 0.07838256 -0.077745594 0.11181596
000050 f3 02 f2 bd 1a 92 87 3b 33 83 18 bb 2e 84 5d bd
       -0.11816969 0.0041372897 -0.002327156 -0.054081134
000060 ab 8a 6e 3c 2c 81 5c bc 9a 05 05 3e 4f ea 31 3e
       0.014559428 -0.013458531 0.12990418 0.17374538
000070 f1 65 ce bd 12 fe b9 bc f4 a6 43 be d1 a0 53 3e
       -0.100780375 -0.022704158 -0.19106656 0.20666815
000080 9f 9f 70 bd 0e 90 83 bd 27 9a a2 3d d1 a2 bb bb
       -0.058745977 -0.064239606 0.079395585 -0.0057261963
000090 5d 39 c5 bc 04 39 6b 3d d6 33 d2 bd 24 19 f7 bd
       -0.024075205 0.05742742 -0.10263793 -0.12065342
0000a0 1f 2b 9b 3d c7 ff 98 3d af a4 bd 3d 90 28 b8 bc
       0.07576584 0.07470661 0.092599265 -0.02248028
0000b0 96 77 14 3e 3c 71 89 3d de ee ad 3d c3 5c ec bd
       0.14498743 0.06711051 0.08492826 -0.115411304
0000c0 8d ce 19 be 75 d9 4e 3e 24 7a d7 bc 60 b2 45 3c
       -0.15020199 0.20200141 -0.026303358 0.012066454
0000d0 34 45 5a bd 38 59 5f 3d 10 f4 02 3c c9 ac f6 bd
       -0.053288653 0.054528445 0.007992759 -0.12044675
0000e0 a0 8c 45 3c da a6 e3 3d 03 24 02 3e 08 89 03 be
       0.012057453 0.11115809 0.1270905 -0.12845242
0000f0 a5 18 f8 bd 7a 68 70 bd 48 d5 b5 bd 28 89 00 be
       -0.121140756 -0.058693387 -0.08878571 -0.12552321
000100 36 36 9f 3d ca 6a 82 3d d0 03 cf bc 75 a0 a5 bd
       0.07774012 0.06368025 -0.025270373 -0.080872454
000110 0c 1f 55 3d a8 62 aa 3c ac cc f2 bc 20 58 7d 3c
       0.05203156 0.020798996 -0.02963861 0.015462905
000120 14 09 d4 3d 4d 8e f3 bd 80 12 94 bb 60 a2 00 3c
       0.10353294 -0.11892376 -0.004518807 0.007851213
000130 76 28 8a 3d 68 33 5f 3d f6 9f a7 bd aa 8d 4a bd
       0.067459986 0.054492384 -0.08184807 -0.049451508
000140 08 1a f8 bc 56 25 f4 3d 63 09 03 be e4 ae 79 3d
       -0.03028585 0.11921184 -0.1279655 0.060957804
000150 c6 bb ee bd 1a 61 30 bd dc 83 17 3d 09 7b 09 be
       -0.11656909 -0.043061353 0.036990985 -0.1342584
000160 e2 b0 1f bd 20 ae 8a 3b bc fc 28 3d b8 3a e8 bc
       -0.038987048 0.004232183 0.04125665 -0.028348312
000170 f8 45 80 bc d5 81 08 3e 0a 59 ec 3d 1a 00 fe bd
       -0.015658364 0.13330777 0.1154042 -0.12402363
000180 00 17 10 3b 64 8a 84 3d a8 64 63 3d cc 49 be bd
       0.0021986365 0.064717084 0.055515915 -0.092914194
000190 90 c7 95 3c 85 87 eb 3c c6 84 81 bd 85 d3 2c 3d
       0.018283635 0.028751144 -0.06324153 0.04219391
0001a0 46 05 00 be fb 42 b9 bd 3c b2 0f bc ef 73 5d bd
       -0.12502012 -0.09045979 -0.008770522 -0.05406564
0001b0 2b 37 aa 3d 40 95 73 3e f9 8a 88 bc e2 1e 07 3d
       0.08311304 0.23787403 -0.01666783 0.032988437
0001c0 a7 4b d2 bd 3d 2f 90 3c bd fe 10 bd c7 61 c9 bd
       -0.10268336 0.01760065 -0.035399187 -0.09833103
0001d0 58 30 3f 3e c2 1a 1e be b2 3a 08 bd 38 7e 7e 3d
       0.18670785 -0.15439895 -0.0332591 0.06213209
0001e0 d2 1f d2 bc 81 3b b2 bc 05 c9 41 3e a7 ed 45 bd
       -0.025649939 -0.02175689 0.18924339 -0.048322346
0001f0 5f a9 f5 3c fd 5f 74 be 40 d8 f8 3d 05 5d 45 be
       0.029987989 -0.23864742 0.121506214 -0.19273765
000200 91 13 54 bc f0 55 97 3d 29 f3 6b bc ad aa ba 3d
       -0.012944118 0.07389438 -0.014401236 0.09114585
000210 55 18 b6 3c 44 45 b3 3d 7c 24 09 3e 37 ee 65 3d
       0.0222284 0.08753446 0.13392824 0.056135383
000220 32 86 07 3e 41 36 16 3e 9d bb 74 3d 6c 05 13 be
       0.13234785 0.14669134 0.059749234 -0.14357537
000230 4c d1 a8 3c 32 9e d7 bc a7 69 30 3d 7c 0f 31 bc
       0.020607613 -0.02632055 0.043069508 -0.010806914
000240 5c 6d 8c 3e 90 c1 f5 3d a0 c0 d9 3d a9 8b d0 3d
       0.27427185 0.1199981 0.106324434 0.10182888
000250 1a dc 42 bd 45 a7 43 bd ad 9a e6 3d 0d f7 27 3d
       -0.047573186 -0.047766943 0.11259971 0.04100709
000260 e9 18 9a bb 4e 37 ee bd af 99 ed 3c 40 2c e4 3d
       -0.0047026766 -0.11631642 0.029003946 0.111412525
000270 b0 e4 19 3d 6a b8 13 3e dd 38 ed 3d 72 92 5a 3d
       0.03757161 0.14425817 0.115831114 0.053362317
000280 94 72 0a 3d e0 fc 29 3d 41 c0 3f 3e 12 45 1a 3d
       0.033800676 0.041500926 0.18725683 0.037663527
000290 b3 ff 1b be 89 32 7d bd 99 0d 04 bc ff be ab bd
       -0.1523426 -0.061815772 -0.008059883 -0.08386039
0002a0 8a 18 ff 3d c7 af af 3d d5 0b 2e 3e 52 43 63 3d
       0.12455852 0.08578449 0.16996701 0.055484124
0002b0 02 17 54 3e 99 ea 63 3d 70 38 b5 3d df 67 0d be
       0.20711902 0.05564365 0.08848655 -0.13809155
0002c0 53 84 07 be a8 3d aa bb 59 e2 39 bd 38 b3 6f 3d
       -0.13234071 -0.0051953383 -0.045381878 0.058520526
0002d0 b0 94 9b bd 6f fd 10 3e b2 30 e0 bc 0b 39 a0 3d
       -0.07596719 0.14159177 -0.02736697 0.0782338
0002e0 30 16 a8 3d 88 cd 8d 3d 15 91 18 be 85 82 22 bc
       0.08207357 0.069239676 -0.14899094 -0.009918814
0002f0 75 e0 1f 3c 64 a6 d1 bd f8 ce a8 bb 0f 8f b0 3c
       0.009758105 -0.102368146 -0.0051516257 0.02155259
000300 e6 19 33 3c 3d 82 ff 3d 1f 78 b5 3d f9 08 e5 3c
       0.010931468 0.12476013 0.08860802 0.02795838
000310 ab b1 00 bd 90 0a de bd d5 90 03 be 96 94 62 3d
       -0.031419437 -0.108418584 -0.12848218 0.055317484

rnn.weight_ih_l1 f4 [200, 50]
000000 78 cc 99 3d 06 6a 16 be 20 be 52 bd 13 06 91 3c
       0.075097024 -0.14688882 -0.05145085 0.017703092
000010 0b db 0d 3d bb 78 d2 3d 58 df 6e 3d 96 ff 3b 3d
       0.034632724 0.10276934 0.058318466 0.045898043
000020 c0 04 98 bc 12 33 12 be 67 b6 b0 3d 4e 90 07 3d
       -0.018556952 -0.14277294 0.086285405 0.033096604
000030 6b 75 31 bd 6c f1 3c 3e 33 91 fa 3c 7e 02 47 3d
       -0.04332487 0.1845147 0.030586815 0.04858636
000040 f0 99 90 bc e6 4c b0 3c 44 5c c6 3d aa f9 02 3e
       -0.017651528 0.021521043 0.09685567 0.12790552
000050 10 3e 83 bd 0b ca ba bd df 32 af bd 58 96 4e 3e
       -0.06408322 -0.09120568 -0.08554625 0.20174539
000060 4c 58 3f 3c e4 45 27 3e 38 20 f4 3c eb 85 6d 3c
       0.011678766 0.16335255 0.02980052 0.014497261
000070 f0 c5 6f be 68 6c 0f 3e fc 38 57 3e e8 c9 b7 3d
       -0.23415351 0.14006197 0.21017832 0.089740574
000080 f5 15 06 3e a5 3a 74 3c 33 6f 47 3e 54 7b ba bd
       0.13094313 0.01490656 0.19476013 -0.09105554
000090 5b 72 ea bd 8e 84 19 bd 26 0c c5 3c 10 ea c2 3d
       -0.11447593 -0.03747993 0.024053644 0.095173
0000a0 8d 2f 5a be ca 11 07 3e 98 13 9c 3d 7e bf a3 3d
       -0.21307202 0.1319038 0.07620925 0.079955086
0000b0 b6 da 73 be f3 8e 13 3e 4a f5 84 3b 3b c5 2d 3d
       -0.238139 0.1441 0.004057561 0.04242442
0000c0 f0 32 e3 3d 8a 3a 58 bd c2 ef ca 3d be e6 66 bd
       0.110937 -0.052790202 0.099090114 -0.056372397
0000d0 2f 59 c9 bd 58 52 a5 bd 52 67 05 3e 01 25 a4 bb
       -0.098314635 -0.080723464 0.13027695 -0.005009294
0000e0 d6 d7 a7 bd 1c fc 6e bb 12 7d 80 bd 3f eb a0 bd
       -0.08195464 -0.0036466187 -0.06273855 -0.0785737
0000f0 83 c7 8b bc fd 26 cd 3c 40 f6 9e 3d 79 07 c9 bd
       -0.017062908 0.025043005 0.07761812 -0.098158784
000100 83 aa 0b be 7a 48 c9 bd 4a 1b 0b 3e 00 b0 98 bd
       -0.13639264 -0.09828277 0.13584629 -0.07455444
000110 a4 b8 3c bd a0 dd 0b bd e7 9b dd bd 80 d7 d2 bd
       -0.046074525 -0.034146905 -0.10820752 -0.102950096
000120 c9 b0 0c 3c e0 de 3a 3d 24 23 01 be 5d e0 8a 3d
       0.008587071 0.045622706 -0.12611061 0.06781075
000130 78 ee 14 bd 61 4b 9c 3d 84 3a f9 3d fc 01 72 bc
       -0.036360234 0.07631565 0.12169364 -0.014770981
000140 c8 7f ce 3d 3a 87 a5 bc a4 80 dd 3d 57 dd 8c bd
       0.10082966 -0.020206083 0.10815552 -0.06878155
000150 dd 4e bd bd 6a 23 7b 3d 15 b3 84 3d 3d 89 6c bc
       -0.092435576 0.06131307 0.0647947 -0.014437017
000160 d7 59 16 be 29 ec dc bd ef f4 17 bc 13 df f1 3d
       -0.14682709 -0.107872315 -0.009274705 0.11810126
000170 4d 6e 5b 3c fc 5b 10 bd 51 f4 08 bc d3 a9 aa bd
       0.013392997 -0.035243973 -0.008359031 -0.08333173
000180 d0 51 d3 bb c9 e2 d6 3c d0 23 58 bb 5a 50 8e 3d
       -0.006448962 0.026231186 -0.003298033 0.069489196
000190 73 1f 43 be 90 ee 95 bd 39 d3 ec 3d 83 c2 85 3d
       -0.19054966 -0.07320893 0.11563725 0.06531241
0001a0 84 7a 19 be c5 89 48 3e d7 bd 2d be 14 2e 0d 3d
       -0.14988142 0.19583805 -0.1696695 0.03446777
0001b0 db 7c 61 bd db 0d 82 bd bc 9e 16 bd 03 09 04 3e
       -0.055050712 -0.06350299 -0.036772475 0.12894063
0001c0 62 97 96 bb 31 f5 43 3e 7a bf 50 be c2 a6 79 3c
       -0.004595683 0.19136502 -0.20385543 0.015237512
0001d0 8b 94 44 be cf e6 56 bd 64 a4 bb 3d d6 67 fa bc
       -0.1919729 -0.05246621 0.091622144 -0.030567091
0001e0 a5 9d c6 bd 9d fb 2c 3e 19 ed a6 be 1f 25 8c 3e
       -0.09698037 0.16892858 -0.32602766 0.2737207
0001f0 25 e3 92 bd 8c 7c 19 3d c8 8f 2b bd 6a f4 05 3d
       -0.07172231 0.037472293 -0.041885167 0.032703795
000200 6e b9 65 be 39 cb 63 3e de d1 33 be 6e ef 19 3e
       -0.22434017 0.22245492 -0.17560527 0.15032741
000210 2e 17 e6 3b f7 4a 2a bc 84 97 5b be 8e 60 01 bd
       0.007021806 -0.01039385 -0.21444517 -0.031586222
000220 0a 3e f6 bd 1d df e2 bd 97 48 eb bc 32 52 78 3d
       -0.12023552 -0.11077712 -0.028721137 0.060625263
000230 42 1d 1d 3d 22 c7 8f 3d 13 31 bb 3d 23 db 61 3d
       0.03835798 0.070204034 0.091402195 0.055140626
000240 c6 2e f2 bd 91 ec a1 3e b3 bb 2e 3e f9 37 e2 3d
       -0.118253276 0.31625798 0.17063789 0.11045832
000250 97 bb 83 3d 37 82 af 3c b2 ac 78 be 9e 90 89 bc
       0.06432264 0.021424396 -0.24284628 -0.016792592
000260 91 a9 08 3e d9 93 34 3d 33 d4 34 be a4 90 8e bc
       0.13345934 0.04408631 -0.17659073 -0.017402954
000270 97 19 a2 be 0c 13 c5 bd fc 7d b5 be 2d 1c 2b bd
       -0.31660149 -0.096227735 -0.3544768 -0.041774917
000280 5e 8e 4f bd 77 fd 8a bd 4f 09 3c 3e ff a5 d3 3d
       -0.05067288 -0.06786626 0.18362926 0.103343956
000290 15 1e 16 be 73 5d 04 3e 2f 40 2b be 44 68 0b 3d
       -0.14659913 0.12926273 -0.16723703 0.034034982
0002a0 90 3d fe 3d 65 21 38 3e af f5 ba 3d aa d1 99 3c
       0.12414086 0.17981489 0.09128892 0.018776733
0002b0 34 18 94 be e5 9a 17 3e d0 8d ea bd ae 6b e2 3d
       -0.28924716 0.14805181 -0.1145283 0.110556945
0002c0 62 8e 49 3d a6 19 67 3e 5c 60 9b bd ec 1e 34 3e
       0.049208052 0.22568378 -0.075867385 0.17589921
0002d0 b0 c6 95 bd ae a2 ac 3e d9 08 23 3d f7 a2 91 3d
       -0.07313287 0.33717865 0.03980336 0.07111161
0002e0 bb 86 36 be 92 ba 47 bd 9f b6 d9 3d 3f 07 50 be
       -0.17824833 -0.04876191 0.10630535 -0.20315264
0002f0 8b 2a 35 bc 80 91 86 3d 6a 8d 79 3e 4d 3f 48 3e
       -0.011057506 0.06570721 0.24370351 0.19555397
000300 bd 91 02 be 8a 5d 41 3e 32 1d 9c be e8 ce 41 3e
       -0.12750907 0.18883339 -0.30491024 0.18926585
000310 97 4b 83 bd 62 31 b7 3d 6e f0 27 3e 1a 7f 33 3e
       -0.06410902 0.08944966 0.1640031 0.17528954
000320 d4 41 9b bd f2 22 39 bd 16 50 c6 bd bf 24 29 3d
       -0.07580915 -0.045199342 -0.09683244 0.04129481
000330 58 0e eb bc 65 63 3a 3d 85 08 80 bc 1d 10 b7 3d
       -0.028693363 0.045504946 -0.015629062 0.0893862
000340 c4 82 13 be 1e e0 61 3d ce e9 18 3a c1 8b ac 3d
       -0.14405352 0.055145375 0.00058331795 0.084250934
000350 e1 fa 24 3e da 5a 1e bc f4 8d cd 3d c6 25 18 3d
       0.16111328 -0.009665215 0.10036841 0.0371454
000360 b4 d2 17 bd 76 65 f8 3d b0 10 17 3e 50 11 be bc
       -0.037066177 0.12128727 0.1475246 -0.023201615
000370 d5 34 bd 3d 6a ef 59 bc 62 bd 1d bd 2d 56 83 3d
       0.092385925 -0.01330171 -0.038510688 0.06412921
000380 6c 9b 0a be e7 81 ac 3d 6f 6b 20 3e 49 4f 1d bd
       -0.13535851 0.084232144 0.15665983 -0.03840569
000390 6d c2 a5 bc ed c1 10 3d 04 66 11 be d1 4b 96 bd
       -0.020234311 0.035341192 -0.14199072 -0.073386796
0003a0 ed 7d 33 bd a0 c0 ef 3c ff 7f 50 3b b1 d2 40 bd
       -0.043821264 0.029266655 0.0031814573 -0.04707593
0003b0 31 69 df bc ce 39 18 3d c3 ac c2 bd 18 e5 17 3e
       -0.027271839 0.0371645 -0.09505608 0.14833486
0003c0 ed 81 28 bd 73 7c fa 3d f8 82 98 3d f3 6d 66 3d
       -0.041139532 0.12230768 0.07446855 0.0562572
0003d0 44 0c 76 bd 15 05 2d 3e 1c 79 df 3d 41 86 87 bd
       -0.06007029 0.1689647 0.10911772 -0.06617404
0003e0 9d 00 db 3d de 86 d0 3d ee 66 d8 3c 2a ef 6d bd
       0.10693476 0.10181974 0.026416268 -0.058089413
0003f0 1a ba b2 3d 0b 92 01 3d 0c 79 a5 3d fc bd d1 bd
       0.08726902 0.031633418 0.080797285 -0.10241315

rnn.weight_hh_l1 f4 [200, 50]
000000 5c 3c 57 3d 3a 72 aa 3d b4 ee 0a be 66 98 c0 3d
       0.052547798 0.08322568 -0.1356762 0.09404068
000010 52 a1 b8 3d 44 26 b1 3d d5 2c 0d 3e 14 b8 16 3d
       0.090151444 0.08649877 0.13786633 0.036796644
000020 f0 bf 49 bc a8 a2 28 3d 72 23 e0 3d c8 ed 34 3d
       -0.012313828 0.041170746 0.10944261 0.04417208
000030 d6 50 d6 bd e8 a4 ef bd 69 7a 00 be 5e 1d e2 3d
       -0.10464637 -0.11701375 -0.12546696 0.110407576
000040 03 ae ed bd c0 17 37 3c d0 50 41 bd 38 fc b4 3c
       -0.11605456 0.011175096 -0.04719621 0.022092924
000050 45 31 97 bd a8 67 07 3d 4e 32 b1 bd ca 94 b4 bd
       -0.07382444 0.03305784 -0.08652173 -0.08817442
000060 bd 78 8e bd 32 b1 e7 3d 54 5b e8 bd dc 55 db bc
       -0.06956623 0.11313094 -0.113455445 -0.02677434
000070 bc ae 1e 3d d0 92 ec bc 5b b6 8a bd 1c d1 ba 3d
       0.03874086 -0.0288786 -0.06773063 0.09121916
000080 45 e4 06 3e a6 61 ca bd 40 ea 5b 3b 50 e9 31 3d
       0.13173015 -0.09881906 0.0033556372 0.043435395
000090 38 24 8a 3d b0 5c 28 3d 40 a2 e9 bd 84 50 3e 3d
       0.067451894 0.04110402 -0.114079 0.046463504
0000a0 a1 42 f7 bd f2 13 4b bd 16 58 8b 3d 71 53 93 bd
       -0.12073255 -0.04957957 0.068039104 -0.071936496
0000b0 66 66 b0 bd c5 8b b6 bd 8e ae 7c bd 3d ec 87 bd
       -0.08613281 -0.08913378 -0.061689906 -0.06636856
0000c0 39 0f d6 bd 70 28 63 bc 87 0a 03 3e 48 03 ac bc
       -0.10452122 -0.0138646215 0.12796985 -0.020997658
0000d0 6f d1 03 be ee 30 a1 3d 50 35 da 3d b0 58 72 bc
       -0.12872861 0.07870661 0.106547 -0.014791653
0000e0 58 8e b0 3d 14 ad f4 bd 7e 49 af bd 24 ed 18 3d
       0.086209 -0.119470745 -0.085589394 0.03733553
0000f0 70 d1 98 3c 50 e2 71 3d ec c8 3b 3d e4 6f a1 bc
       0.018654555 0.05905372 0.04584591 -0.019706674
000100 58 a3 07 3d b8 9a cf 3c b2 29 48 bd d1 1f e6 bd
       0.03311476 0.02534233 -0.04886789 -0.11236537
000110 8e fa 0c be d8 92 b5 bd 3a a3 81 3d c0 51 49 bc
       -0.13767454 -0.08865899 0.06329961 -0.012287557
000120 88 3f f4 3c 28 cc a2 3d a6 4c e9 3d 10 79 ce 3d
       0.02981545 0.07949096 0.11391573 0.100816846
000130 e4 0c d4 bd 52 d6 e9 3d b6 c5 6a bd 4a 25 fb 3d
       -0.10354021 0.114178315 -0.057317458 0.12262972
000140 9a 35 bc 3d 09 72 f1 bd 00 a6 ed 3a 9c 45 ff bd
       0.09189911 -0.117893286 0.0018131137 -0.12464449
000150 0c 7b 94 3d 72 2c 26 bd 6f 9c 04 be d6 f3 85 3d
       0.07250032 -0.04056973 -0.129503 0.06540649
000160 10 4f c1 bd a6 bf e5 3d 3c 4d 10 be 40 96 79 3d
       -0.09438908 0.11218195 -0.14091963 0.060934305
000170 08 70 e7 bd 5e 95 b4 3d 30 0f 5f 3c 54 c0 97 3d
       -0.11300665 0.08817552 0.013614461 0.074097306
000180 b8 c4 81 bd e6 a1 09 bd bd 69 af bd c0 51 6f bb
       -0.06336349 -0.033601664 -0.0856509 -0.0036517233
000190 c8 6a 6d bd 08 c7 95 3d 1c 30 03 bd 0e 8e d6 3d
       -0.057963163 0.07313353 -0.032028303 0.104763135
0001a0 80 6d c1 ba f0 1e 73 bd 48 78 fc 3c 24 ad 0e 3d
       -0.0014757365 -0.059355676 0.030819073 0.03483309
0001b0 1a 6f 99 bd d0 9f ad bd 5c ab b0 3d 20 fa 9e 3b
       -0.07491894 -0.084777474 0.08626434 0.0048515946
0001c0 b8 87 ce bc 20 e1 da bd e3 61 b1 bd a2 aa 73 bd
       -0.0252112 -0.106874704 -0.086612485 -0.0594889
0001d0 f4 8c c9 3d e2 9e 7f bd bc 02 bf bd 10 eb 16 3d
       0.09841338 -0.06240738 -0.093266934 0.036845267
0001e0 9e 00 ad bd 30 2a 32 3c 2c 62 a4 bd 5c d3 ac bc
       -0.08447383 0.010874316 -0.08026537 -0.021096878
0001f0 bc e8 28 3d 92 9a f5 3d 68 ee e0 3c 98 27 e8 bd
       0.041237578 0.119923726 0.027457431 -0.11335677
000200 ae 65 ed 3d 38 b6 ba 3d cc 68 44 3d c0 7d 6a bc
       0.115916595 0.09116787 0.047951505 -0.014312208
000210 0c 8c 02 3d d0 52 3c 3d 88 c6 ae 3d ea ca f6 3d
       0.03187184 0.045977414 0.085339606 0.120504215
000220 b3 9f 07 be 60 a6 af 3c d9 89 00 be 70 87 b7 3d
       -0.13244514 0.021441638 -0.12552585 0.089613795
000230 b7 59 f7 bd 40 00 05 bc 66 c6 f3 3d 10 dd b2 3c
       -0.120776586 -0.008117735 0.11903076 0.021833926
000240 6c a2 84 bd 71 77 0e be c4 ee 60 3d bc 1d 4a 3d
       -0.06476292 -0.13912751 0.054915205 0.049344763
000250 38 49 52 3d b6 dd c9 bd ac ea 72 3d 1d 65 04 be
       0.051339358 -0.09856741 0.05930583 -0.12929197
000260 2e e1 f8 bd 04 bf 5d bd 64 64 56 3d 00 d3 2a bd
       -0.121523246 -0.054137245 0.052341834 -0.04170513
000270 f0 39 db 3d 14 03 61 bd c4 52 cf bd 58 35 05 3d
       0.1070441 -0.054934576 -0.10123208 0.032521576
000280 18 55 94 3c 32 5e ed bd 5d 0e 8b bd 29 71 e6 bd
       0.018106982 -0.11590232 -0.06789849 -0.11252052
000290 08 4c 83 bc 2f 6e 84 bd f0 00 3e 3c cc f4 9e bd
       -0.016027465 -0.06466328 0.011596903 -0.07761535
0002a0 87 31 9d bd 7c 3e d9 bc b0 8e 3a bd 14 4a 83 3d
       -0.07675462 -0.026519053 -0.045546234 0.06410614
0002b0 e8 08 cb 3d 41 9b 01 3e ae c2 83 3d 40 2c f9 3c
       0.09913808 0.12656881 0.064336166 0.030416608
0002c0 54 47 71 3d 00 05 18 bd 7a a9 04 be 8d b2 92 bd
       0.058905914 -0.037114143 -0.12955275 -0.07162962
0002d0 f0 a1 2a bc 9a 26 e3 bd 78 47 8a bc 0f 0d ff bd
       -0.0104145855 -0.11091347 -0.016879782 -0.124536626
0002e0 03 4c 0e 3e d2 68 cb 3d fe 55 c4 bd 00 68 b9 3a
       0.13896184 0.09932102 -0.09586714 0.0014145374
0002f0 14 9d 2d bd c4 cd 53 bd 80 a4 f1 bc fe 19 92 3d
       -0.04238613 -0.051709905 -0.029497385 0.07133864
000300 2c 96 00 be 38 29 8c 3c 54 90 49 bd 8e 5c 74 bd
       -0.12557286 0.017109498 -0.049209908 -0.05965858
000310 38 f4 ec bc 90 30 15 bc 00 78 42 bb 3a 9e a6 3d
       -0.028925046 -0.0091058165 -0.0029673576 0.08135648
000320 70 29 0a be 4c f4 77 3d 54 da db 3d c0 f4 e4 3c
       -0.1349237 0.060535714 0.10735002 0.027948737
000330 87 dc 8e bd 6a 7a aa 3d 00 d9 5b 3b e8 27 c3 bd
       -0.06975656 0.0832413 0.003354609 -0.09529096
000340 04 cc 1d 3d 4a ad d1 3d fa c9 29 bd d8 0c da 3d
       0.038524643 0.102381304 -0.041452385 0.10646981
000350 a6 33 95 3d 3b 76 ab bd 70 15 81 bc 33 fc 00 3e
       0.07285242 -0.0837216 -0.015757293 0.12596206
000360 e8 41 63 3d b6 82 ce bd ce de ee 3d 92 f2 e5 3d
       0.055482775 -0.10083525 0.1166359 0.11227907
000370 ae 62 a2 3d 00 d4 45 ba 05 61 c9 bd 13 f9 00 3e
       0.07928978 -0.0007546544 -0.09832958 0.12595014
000380 08 71 89 3d 64 5c 07 3d b0 b8 3a bd 80 37 a7 ba
       0.06711012 0.033047095 -0.045586288 -0.0012757629
000390 71 41 0d be b8 1f 44 3d b8 48 3f bd 86 45 be 3d
       -0.13794495 0.04788181 -0.04670021 0.09290604
0003a0 01 38 cc bd 1e 47 6c bd f3 ca c2 bd 7c af b0 bd
       -0.099716194 -0.05768501 -0.09511366 -0.08627221
0003b0 c7 15 84 bd 30 cd fe bd 70 15 64 bc 82 ce fe 3d
       -0.06449466 -0.1244148 -0.013921127 0.12441732
0003c0 e2 ca 9d 3d f0 da 1f 3d 82 39 d6 3d e2 70 99 3d
       0.077047125 0.039027154 0.104601875 0.07492234
0003d0 46 b1 c5 3d 82 fb c5 3d 12 e0 d5 3d 20 c2 c6 3d
       0.09652953 0.09667112 0.10443129 0.09704995
0003e0 de 93 7f bd 24 14 18 3d d0 07 6e bd 88 35 5d 3d
       -0.062396877 0.037128583 -0.05811292 0.05400613
0003f0 34 80 0c 3d 6e 57 1e bd 52 59 c2 3d d2 82 a9 bd
       0.03430195 -0.0386576 0.09489693 -0.08276905

rnn.bias_ih_l1 f4 [200]
000000 fc 87 52 3c ca ac 21 be 62 18 29 3b c0 df 1d 3e
       0.012849804 -0.1578857 0.0025801887 0.15417385
000010 ae ef 0a 3e f0 aa 02 3e 8e c7 f1 bc eb 5f 13 be
       0.13567993 0.1276052 -0.0295141 -0.14392059
000020 96 d1 12 3e 47 bb 8d 3d 23 a2 db bd 01 5e ef 3c
       0.14337763 0.06920486 -0.107242845 0.02921963
000030 54 b7 cf 3d 5a 96 29 3d 99 8a 54 bd 2d f2 52 bc
       0.10142389 0.041403152 -0.05188999 -0.012875122
000040 75 dc b9 3d 0b cf 1a bd f4 43 b2 bd c2 f3 9a 3a
       0.09075252 -0.037795108 -0.08704367 0.0011821913
000050 3e a2 4c bd ca c8 98 3d b8 9d 0e bd 21 0c 8b 3d
       -0.049959414 0.074601725 -0.03481838 0.06789423
000060 52 4b 8a bd c2 28 eb 3d c6 33 64 3b 14 7d 18 3e
       -0.067526475 0.11482383 0.0034820898 0.14891464
000070 e8 cb 0f 3e af 71 a7 bc db 63 bf 3d fb e9 5d 3d
       0.14042628 -0.02043995 0.09345218 0.05417822
000080 65 85 22 3d 5d 66 65 bd 03 b3 9b 3c c3 3f 99 3b
       0.039677996 -0.056005824 0.019006258 0.0046767904
000090 70 fb 10 3d 44 22 3a bb b7 da 3d 3d 14 7d 0a bc
       0.03539604 -0.0028401772 0.04635116 -0.0084526725
0000a0 c0 a1 c1 bd b0 1f de bd 94 e4 37 bd 92 41 56 bd
       -0.094546795 -0.10845888 -0.044895723 -0.052308626
0000b0 1c 99 70 bd 76 d4 c1 3d c6 29 00 3e d6 57 df 3d
       -0.058739766 0.09464352 0.12515935 0.10905425
0000c0 1c 1f 66 3c 4c 05 f0 3c 0c 28 a2 bc 78 c5 a0 3d
       0.014045503 0.0292994 -0.019794486 0.07850164
0000d0 4a 00 9d 3d 84 b3 30 3d 80 e2 7b 3d ac 20 54 bd
       0.07666071 0.04313995 0.061495304 -0.05178897
0000e0 cc 02 6c 3d 53 2d 00 3e 30 f4 0e 3c a2 55 4b bd
       0.057619855 0.1251729 0.008725211 -0.049642213
0000f0 6b 1a 10 3e 18 97 f0 3c 12 3a eb 3d 4c 0a a8 bc
       0.14072578 0.029368922 0.114856854 -0.020512722
000100 20 11 de 3c 60 00 02 be 60 b3 e3 bb 01 ad 0f be
       0.027107775 -0.12695456 -0.0069488734 -0.1403084
000110 d5 21 87 bd 36 88 e1 bd 6d 68 bf bd d6 5f b5 bd
       -0.0659825 -0.11012308 -0.093460895 -0.0885617
000120 c2 87 7d bd a4 bc 4b 3d 5e e4 fd bd a4 1b 95 bc
       -0.061897047 0.04974045 -0.12397073 -0.018201657
000130 f6 8f ac bd 18 e6 a3 3d 10 8b 15 3d 3a 56 a6 bd
       -0.08425896 0.08002871 0.036509573 -0.08121915
000140 b0 b1 06 be a0 dc 5b 3c 00 31 71 3a 20 df 1f 3c
       -0.1315372 0.0134193 0.0009200722 0.009757787
000150 9c 44 74 3d f4 af 3a 3d a0 07 ad 3c 60 81 e9 bb
       0.059635743 0.04557796 0.0211218 -0.0071260184
000160 f8 9a 8b 3c 38 01 04 3d a0 b5 d4 3b 27 e9 02 3e
       0.017041668 0.032227725 0.006491378 0.12784253
000170 48 66 fb bd 22 ac 09 bd e6 f9 e7 3d ea 1a e6 3d
       -0.12275368 -0.033611424 0.11326961 0.11235602
000180 90 00 13 bc 02 e3 a9 3d 94 f7 6a 3d b0 8f 17 3c
       -0.008972302 0.082952514 0.057365015 0.009250566
000190 d3 ea 72 3d 63 d8 1e 3d ac f4 d2 bd 33 08 3c bb
       0.059305977 0.03878058 -0.10300574 -0.002869141
0001a0 0e 30 ad bd 05 04 ba 3c 8d 86 9e bd 1c 9b 13 bb
       -0.08456431 0.022706995 -0.07740507 -0.0022522872
0001b0 79 ba 03 be 83 43 ab bd e4 e7 62 bc 81 0a fb 3d
       -0.12864102 -0.08362486 -0.013849232 0.12257863
0001c0 a4 e3 f8 3d f4 a2 0c 3e e0 37 82 3d 69 7c 9d bd
       0.12152794 0.13734037 0.063583136 -0.07689745
0001d0 6c 0e 15 bc 24 98 d9 3d 67 37 6e 3d 66 50 9a 3d
       -0.009097677 0.10624722 0.058158305 0.07534866
0001e0 66 b2 77 bc aa 14 ed bd 5c 63 81 3d c1 d9 da 3d
       -0.015118217 -0.11576207 0.063177794 0.106860645
0001f0 6f 50 ca 3c 6c 3c b1 3d b4 d6 81 3d 15 ba a5 3d
       0.024696557 0.08654103 0.063397795 0.08092133
000200 18 63 94 3d b1 fe 9b bd fc 5a 5a 3c 16 3b a6 3d
       0.07245463 -0.07616938 0.013327356 0.081167385
000210 0f ec 92 bd 09 61 b0 3d 48 5d ad 3c e6 8c 55 bc
       -0.07173931 0.08612258 0.021162644 -0.013034081
000220 7b 82 d6 3d 3b b2 fb 3c 76 ef c2 3c 2a bd 88 3c
       0.10474106 0.030724635 0.023795824 0.016691763
000230 91 7c 6c 3d ef 44 d8 3d f3 77 8d 3d b2 3d fb 3c
       0.057735983 0.10560023 0.06907644 0.030669067
000240 03 8b 8f 3d 92 21 fd bd 4d 83 cb 3d f3 86 0a be
       0.07008936 -0.12359919 0.09937153 -0.13528042
000250 da 53 a2 3d f1 a9 d5 3d 81 6b a5 3d fe af e9 bd
       0.0792615 0.104328044 0.08077145 -0.11410521
000260 c1 4e b0 3d 1b fc 17 3e 13 3f 01 3e cd 94 e8 3d
       0.08608771 0.14842264 0.12621717 0.113565065
000270 6c 1c 23 3d 24 33 05 bd 9d 24 93 bd 20 6f 56 3d
       0.039822027 -0.032519475 -0.07184718 0.05235207
000280 a9 9c 50 3d 5f 1c a1 3d 7a b9 86 bd 94 ff cb bd
       0.050930653 0.078667395 -0.065783456 -0.09960857
000290 a3 b9 97 bd 99 05 0b be 9f 17 eb 3d 49 ff 08 be
       -0.07408454 -0.13576354 0.11479115 -0.13378634
0002a0 d4 ea a1 bd 05 b6 06 3e f7 13 d2 bd 78 54 0b be
       -0.07906118 0.13155372 -0.10257714 -0.13606441
0002b0 ff 45 25 3d 59 02 3b 3d a0 92 d2 bd c1 3c f3 bc
       0.040349957 0.045656536 -0.10281873 -0.029692056
0002c0 56 bf 68 3d f2 ff 36 3d a9 2a 0d 3e 01 78 a8 bd
       0.056823097 0.044677682 0.13785805 -0.08226014
0002d0 b0 3c 48 3d 96 e3 ab 3b 85 90 d6 bd 37 88 87 bd
       0.048886 0.005245636 -0.10476784 -0.06617778
0002e0 f7 fd ec 3d fe 09 9c 3c b5 d5 a5 3d fa 22 cd 3d
       0.115718774 0.019047733 0.08097402 0.10016437
0002f0 b1 0b 98 3d 94 ed a7 3d 6d fa 19 be 2b 8a 04 3e
       0.07424105 0.08199611 -0.15036936 0.12943332
000300 a6 4f ea 3c 26 35 96 bd 3e 4f 0c 3d b9 de aa 3c
       0.028602432 -0.07334356 0.03425526 0.020858156
000310 52 96 0a be a4 bd 3e 3c b5 e7 b0 bd d2 1e d2 3d
       -0.13533905 0.011641894 -0.086379446 0.10259785

rnn.bias_hh_l1 f4 [200]
000000 90 d7 c9 bd a3 c5 29 3d 17 70 6e 3c aa 0c 9c bc
       -0.098555684 0.041448247 0.0145530915 -0.019049007
000010 4b 41 8f 3d 4f f0 04 3e b8 64 72 bd eb 0b 0c 3e
       0.069948755 0.12982295 -0.059178084 0.13676421
000020 23 a5 97 bd 89 24 08 be e8 8a f8 3d 4d db 7a bd
       -0.07404544 -0.13295187 0.12135869 -0.061244298
000030 85 74 1d 3d 57 46 e7 bd 6d c6 6f 3d 9b 11 63 bc
       0.0384412 -0.11292713 0.058538843 -0.013859178
000040 9c c8 a7 3d e1 86 ee 3d ee 6c 00 3c 02 34 9e bd
       0.0819256 0.1164682 0.007838471 -0.077247635
000050 69 e0 98 bd 0d 4c ba bb ee 5a 9f 3d fd b7 73 3d
       -0.07464678 -0.0056853355 0.07781015 0.059501637
000060 19 2d b0 3d c0 48 83 bd 59 6f cb bc 29 21 02 3e
       0.08602352 -0.0641036 -0.024833368 0.12707962
000070 de 91 01 3e cd 27 bc bd fa 9b 4c bd 30 35 3f 3c
       0.126533 -0.09187279 -0.04995344 0.011670396
000080 e4 c6 6c bc d5 14 41 bd 0a 0c c1 bd 32 53 01 3e
       -0.014451716 -0.047139008 -0.094261244 0.12629393
000090 36 0f ed bc 40 ea 68 bd ef ea c0 3d bc 17 41 3d
       -0.028937917 -0.056864023 0.0941981 0.047141775
0000a0 42 47 69 3d df fb f9 3d 8b b0 aa bd a2 53 d3 3d
       0.056952722 0.12206244 -0.08334454 0.10318686
0000b0 7b 29 94 bd ab 53 57 3d 91 9a ce bb d5 13 3c 3d
       -0.07234474 0.052570026 -0.006305047 0.04591735
0000c0 fe 18 e4 3c 57 90 ef 3d bc 22 8c 3d 98 0a 99 3c
       0.027843948 0.116974525 0.068425626 0.01868181
0000d0 57 b9 d0 bd 6e 8b f3 3d 90 ba 7a 3c 31 18 cf bd
       -0.10191601 0.118918285 0.015303269 -0.10112036
0000e0 d4 d8 46 3d f2 ce fd 3d ab 39 89 bd 30 45 d2 bd
       0.048546627 0.12392987 -0.067004524 -0.10267103
0000f0 52 af 9c 3d f0 e4 60 3c 51 8d 0f 3e 72 d0 9a 3d
       0.07650627 0.013726458 0.14018752 0.07559289
000100 55 36 c4 bd 18 f0 89 bd eb 5e 98 bd 3c 4e c4 bd
       -0.095806755 -0.067352474 -0.07439979 -0.095852345
000110 60 c1 35 bd e4 62 c0 bd 1e c9 77 bd 3f 07 0f 3e
       -0.04437387 -0.09393862 -0.060494535 0.13967608
000120 ae 73 fa 3d 7a 72 ee 3d 02 4f 9a bd 80 6d 85 3b
       0.122290954 0.116429284 -0.07534601 0.0040718913
000130 6b 45 f1 bd fa 18 d9 bd 64 30 e0 bc fb 1b 10 be
       -0.117808186 -0.10600467 -0.027366824 -0.14073174
000140 a8 a1 00 be 44 e1 c7 bd 02 ec c9 3d f2 f8 e2 bd
       -0.12561667 -0.09759763 0.09859468 -0.11082639
000150 d8 1e 74 3d 18 8e 6a bd 5d 8c 06 be 80 8c 29 3c
       0.059599727 -0.057264417 -0.13139482 0.010348439
000160 c8 ae be bd 48 ed de bc da ef 92 3d 3c 15 85 3d
       -0.09310681 -0.027212754 0.07174654 0.06498191
000170 a2 11 15 bd 1c f3 3e 3d f7 13 e5 bd 54 86 93 bc
       -0.03639377 0.046618566 -0.111854486 -0.018008389
000180 10 50 63 bd ff 7d 07 be 27 ba 03 3e 94 ea 84 3d
       -0.055496275 -0.13231657 0.1286398 0.06490055
000190 cf 56 65 bd 92 e4 fd bc fc d3 3f 3c 48 ac 94 3c
       -0.05599099 -0.03099278 0.011708256 0.018148556
0001a0 c7 a9 dd bd b4 7d ab bd 0c 4e 82 bd 82 96 73 bd
       -0.10823398 -0.08373585 -0.063625425 -0.059469707
0001b0 eb b2 9e 3d cd ee 2d bd b8 8e 88 3d 8a 8c e2 3d
       0.0774897 -0.042464066 0.066678464 0.11061962
0001c0 ed 69 e3 3d af 6c c1 3c 6e 9c f3 3d 98 e8 bf bd
       0.11104188 0.023611395 0.11895071 -0.093705356
0001d0 cb f7 ad b9 da 6a eb bd 51 ad 5c bc 58 c5 9d 3d
       -0.00033181751 -0.1149499 -0.013469056 0.07703656
0001e0 27 bb 07 be 2c 06 45 3d 92 64 b7 bd f2 89 00 bd
       -0.13254987 0.04810159 -0.08954729 -0.031381555
0001f0 d3 e5 ab bd 1c 5c b7 3d aa 95 51 3d ae 45 db 3c
       -0.08393445 0.08953115 0.05116812 0.026766624
000200 d6 f0 17 bc ef ce 31 bd 9e 51 5e 3b e2 6f b6 3d
       -0.009273728 -0.043410238 0.003392316 0.08908059
000210 3f 17 e4 3d 57 12 b4 3c 86 bc 3b bd f3 cc d3 3d
       0.11137246 0.021981401 -0.045834087 0.10341825
000220 fb 3d df 3d af 3b 55 bc aa 27 95 3d 04 59 9b bd
       0.10900494 -0.013014718 0.07282956 -0.07585338
000230 51 eb 54 3c 48 2b 01 3e 8f 7f 51 3d 21 4a 0c bd
       0.012995557 0.12614167 0.05114704 -0.034250382
000240 51 2a 9d bd 0d b8 21 3c a1 ba da 3d 34 d7 08 3e
       -0.07674087 0.009870541 0.10680128 0.13363343
000250 21 d3 cb bd b5 0f 36 3d b8 5d 33 3d ac 96 37 bd
       -0.09952379 0.044448573 0.04379055 -0.044821426
000260 ab 8e ac 3d 8a 22 27 bd 49 ff b4 3d 7f a4 f2 3d
       0.08425649 -0.040804423 0.08837754 0.118477814
000270 d6 91 07 be d4 31 69 3d 2a 60 e0 bc 87 5d b2 bd
       -0.13239226 0.056932285 -0.027389605 -0.08709245
000280 eb 97 41 bd 3b 69 84 3d e3 2b 08 bd 24 f7 6e bd
       -0.04726402 0.064653836 -0.03324498 -0.05834116
000290 7f ed bd 3d 9c 72 ee bc be e3 ee 3c 45 bf e0 bd
       0.092738144 -0.029107384 0.02916133 -0.10973982
0002a0 da c4 59 bd 14 94 7e bd 01 b8 93 bd d7 9b bc bc
       -0.053166248 -0.062152937 -0.0721283 -0.023023529
0002b0 f1 6c a1 bd 2d f9 48 3d d8 6e eb bc 01 51 81 bd
       -0.07882107 0.049065758 -0.028739378 -0.063142784
0002c0 e2 b5 81 3d 86 aa 2e 3c 36 74 b1 3b f2 23 37 bd
       0.063335195 0.010660773 0.0054154648 -0.044712014
0002d0 3d b1 92 bd 2f b3 50 3d 5a 94 98 bd bf 74 fc bd
       -0.07162712 0.050952133 -0.07450171 -0.12326955
0002e0 45 56 d7 3d cf 97 da 3b 00 1b 06 be 74 d5 12 bd
       0.105145015 0.006670929 -0.13096237 -0.035848096
0002f0 a1 67 db bd 9c 2d 8e 3d bf 5d f9 3d 51 77 d1 ba
       -0.10713125 0.06942293 0.12176084 -0.0015980994
000300 2e 8c e9 3c 04 2c a8 bd 41 d5 79 b9 a9 f5 a7 3c
       0.028509226 -0.0821152 -0.00023825934 0.020502882
000310 18 1c e5 3d 1a 1c 84 3d 27 65 62 3d 5f 75 42 3d
       0.11186999 0.064506724 0.055272248 0.047475215
