LSTM_for_PDE/codes/experimentalCodes/models/LSTM_NS2d_obstacle.pth (torch, 141189 bytes, 12 tensors)

rnn.weight_ih_l0 f4 [200, 3]
00000000: 6247 d13e a918 513e 56b9 553e baf3 703e
00000010: 599d 73be 04d2 943d 1dde 6dbe 542e 95be
00000020: 541e dabd 26a5 4a3d ef59 95bd 5f2b 8f3e
00000030: 8a61 a0be f551 323d 64d5 24bd df5c 343d
00000040: b0c8 383e 9007 4e3e 2b45 95be 09af ebbd
00000050: 07fd 3d3e a0ce 6f3d 2698 003e bf89 f2bd
00000060: ace4 6a3e b98c 533e f024 9b3d fc2e 9e3d
00000070: 6d39 f43e 98fe 873d b3e1 afbe 1a50 26be
00000080: 555d 7d3e 98a0 14be 78ec a73d e5ed 093c
00000090: 4150 633c 083c 923e d881 0ebd 4fd3 7dbd
000000a0: 8538 f3be 819e cf3d 5298 eabd 2876 023f
000000b0: c8b2 323e 959b 2a3e 9705 bebe acf7 903e
000000c0: d02c a4bc 5f29 80be d7bf 643e 260b 10be
000000d0: d0b3 d4bd 2a9a a13e d4e5 bcbe 803c 0f3f
000000e0: 96bd 04be 9fa7 afbc e4c8 803c 3b4f 673c
000000f0: 01f4 abbc d23e c83d e57c b3bc bf3d 283e
00000100: 3c41 08be e25e ed3d f265 b33c 711c 363e
00000110: dd88 94bd e9e7 e7be 8dae afbd bf51 283d
00000120: 9982 8dbd b9ff 1abe 5a9f 803e 630a 3abe
00000130: d748 ee3c 28aa ecb9 ad86 03bf 63e4 2b3e
00000140: e523 1bbe fb72 9bbe 3358 61bd a5e7 7ebd
00000150: bad9 0a3f 69a3 dbbe 0cf2 6e3e 0453 dfbd
00000160: defe eebd 2de4 ab3d 2661 8abe f9ce b03e
00000170: 760d 253d df6b 8d3d 371c 433e d66f 693e
00000180: eb36 823b ef60 e6bc 0889 553e ee5f 883e
00000190: 3123 e1bd ff14 cbbc 57df f63e 5c3d 2ebe
000001a0: ce0d f63d 68e1 25bd 7b32 c8be bdc5 b33d
000001b0: 2579 fcbd ecd3 143d 8651 c93d 7c58 c3bd
000001c0: f467 a93c f953 af3d 2d9e 523e 2ac1 483e
000001d0: 2f31 cebd eca2 33be 17e3 803d e827 fbbd
000001e0: a574 8d3b 3766 1f3b ed1c fd3d 2ca5 823d
000001f0: 03c0 7abe c01d 883e 4cf2 cfbd 3314 d13e
00000200: f30f 123e b1ed 583e 21e2 acbd f509 20be
00000210: ad87 a1be f0d4 3a3d 2c2d 4a3e c223 83be
00000220: e2cf 6e3d c85d dd3d 0e44 e3be ca0e 17bd
00000230: ad98 85bb 4171 9b3d c836 f4be 1708 f43c
00000240: 46ae 8dbe f770 bd3d b8c1 303d 1e0e 2bbe
00000250: 52d1 80be e0ee 61bd a688 823d b29c 37bd
00000260: 9c56 eebd 9fd1 afbd c498 4c3d a462 973d
00000270: f676 923d 8065 8eba 2cab c53d b862 c83c
00000280: 7c04 94bd 962d 0ebe 587a cd3d 3c6f 9fbc
00000290: 00a8 a539 67e9 033e baac cebd 0aa0 c83d
000002a0: 5488 25bd 4a74 bfbd 0645 95bd 44fb 793d
000002b0: 8c57 183d d7b0 003e 8e20 55bd 286a b93c
000002c0: c226 afbd 6ebf b63d 8e80 8c3d 142a 31bd
000002d0: 740c 5e3d 3ebc ea3d 14d2 f6bc 18ea 813d
000002e0: be97 d3bd 6d74 0a3e 4032 343b d8ff b83c
000002f0: 7aae c3bd 40ae 2f3c 6e23 d33d 3030 29bd
00000300: d719 04be c089 3c3d c037 b83b 8022 d2bc
00000310: b051 093c b48f c03d 744d 553d 103b 943c
00000320: 9ae1 a2bd 669c 883d 427e a6bd ecbe b3bd
00000330: a35f 033e de56 efbd 94af 5c3d 705e 8dbc
00000340: d7f1 80bd 2089 bd3c 382f ccbd 60ae 973d
00000350: 105c 70bc a88a db3d a44c 6d3d b034 a83c
00000360: 102e 473c a480 8cbd 20a3 d23c cef3 a8bd
00000370: a025 623d 02d3 01be 61d8 b2bd 148b 59bd
00000380: de93 d33d 0004 8539 c2a1 ee3d 6c2e 983d
00000390: 6b16 09be b074 4b3d 1f6b bebd 4dd3 0cbe
000003a0: 00c0 85b9 32c9 a5bd 1859 06bd aefe e43d
000003b0: c8ac a83c 30fa 7dbd 4e12 e43d 72f8 d7bd
000003c0: 581c 2c3d 002b ba3b 04ec 8abd 904b 6c3d
000003d0: 3ec7 883d 0af8 e53d e974 90bd 92b0 bcbd
000003e0: a155 083e 1e15 a9bd 04cd 2d3d 649e e9bc
000003f0: a7fe 003e 6c80 ddbc f22b a3bd 902a 62bd
0.40874773 0.20419563 0.20871481 0.23530474 -0.23790492 0.0726662 -0.2322926 -0.29136908
-0.10650316 0.049473904 -0.07292544 0.27962777 -0.31324416 0.04353519 -0.040242568 0.04403388
0.18045306 0.20120072 -0.29154333 -0.11507995 0.18553554 0.058546662 0.1255804 -0.11842679
0.22938794 0.2065915 0.07575405 0.07723805 0.47700062 0.06640357 -0.34351882 -0.16241494
0.24742635 -0.14514387 0.081994 0.008418535 0.0138741145 0.28561425 -0.034791797 -0.061969098
-0.47504058 0.10137654 -0.11454834 0.5096154 0.17451012 0.16660912 -0.3711364 0.2831396
-0.0200409 -0.25031564 0.22338806 -0.14066753 -0.10385859 0.3156293 -0.36894095 0.5595169
-0.12962946 -0.021442233 0.015720792 0.014118011 -0.020990374 0.09777607 -0.02191014 0.16429804
-0.13306135 0.11590363 0.021899197 0.17784287 -0.07252667 -0.4529412 -0.08578215 0.041093584
-0.06909675 -0.15136613 0.25121576 -0.18168025 0.029087467 -0.00045140204 -0.51377374 0.16786341
-0.15150411 -0.3036116 -0.055015754 -0.062232632 0.54238474 -0.4289811 0.23334521 -0.10904506
-0.11669706 0.083931305 -0.27027243 0.34532908 0.04029604 0.069053404 0.19053732 0.22796568
0.003973832 -0.028122393 0.20853055 0.2663569 -0.1099304 -0.024790285 0.4821727 -0.17015594
0.12014352 -0.040498167 -0.39101014 0.0877795 -0.12327794 0.036334917 0.098300025 -0.095383614
0.020679452 0.085609384 0.20568152 0.19604936 -0.10067975 -0.17542619 0.06293314 -0.12263471
0.0043168836 0.00243224 0.12359033 0.0637916 -0.24487309 0.26585197 -0.10153636 0.40835723
0.14263897 0.21184422 -0.08441568 -0.15628798 -0.31548825 0.04561323 0.19743794 -0.2561322
0.05830372 0.10808903 -0.4438786 -0.03687934 -0.0040770383 0.07589961 -0.47698045 0.029789014
-0.27672023 0.09250062 0.043153495 -0.16704604 -0.251597 -0.05515945 0.0637372 -0.04482717
-0.11637613 -0.08584904 0.049950376 0.07391861 0.07151596 -0.001086399 0.09651789 0.024461135
-0.07227418 -0.13884577 0.10033101 -0.01946222 0.00031596422 0.12882005 -0.10091539 0.0979615
-0.040413216 -0.09348352 -0.07288556 0.06103064 0.037192866 0.12567459 -0.052033 0.022633627
-0.08552314 0.08923231 0.06860457 -0.04325302 0.054211095 0.114616856 -0.03012947 0.06343478
-0.10331677 0.13520975 0.0027495772 0.022582933 -0.09554763 0.010722697 0.10309492 -0.04130572
-0.12900482 0.046029806 0.0056218803 -0.025651217 0.008381292 0.09402409 0.05207582 0.01809457
-0.07953186 0.06670456 -0.081295505 -0.0877665 0.12829451 -0.116864905 0.05387838 -0.017256945
-0.06296127 0.023136675 -0.09969944 0.07406306 -0.014670387 0.10719806 0.05793442 0.020532936
0.012156978 -0.06860474 0.02571255 -0.08249627 0.055211663 -0.1267815 -0.08732677 -0.05311115
0.10330938 0.00025370717 0.116519466 0.07430729 -0.13387458 0.04967183 -0.092977755 -0.1375248
-0.00025510788 -0.080950156 -0.03279981 0.11181389 0.020590201 -0.062006176 0.11136304 -0.10545434
0.04201922 0.0056813955 -0.06783298 0.05768925 0.066786274 0.1122895 -0.07053549 -0.092133656
0.13313915 -0.08255981 0.042431846 -0.02851791 0.12597142 -0.027038775 -0.07967366 -0.055216372

rnn.weight_hh_l0 f4 [200, 50]
00000000: a9ec 033e 88dc e3bd ab04 e1bd eea8 973d
00000010: acd3 84bd 60af bc3d 04f5 c6bc be25 f6bd
00000020: 9a4c 06be 780f 493d a257 a13d f8c8 0abd
00000030: 9070 e0bd c6b8 62bd c0ee 90bb eca8 703d
00000040: a79c c0bd 8ae0 b73d 4c01 9bbd 64d1 bc3d
00000050: 50ee 063d 58e4 8abd e44c 193d c8c1 7f3d
00000060: b47a adbd 64e8 cb3d 607f 86bd 834b 9fbd
00000070: 405a 3f3c 809d 55bd 7349 05be 2e60 ed3d
00000080: 3efd 7cbd d162 073e 26cb e93d e063 213c
00000090: 5a36 1ebd 0cd6 263d b8d0 9d3d d254 e8bd
000000a0: cc47 a43d 70da ab3d 7097 aa3d 96e6 a2bd
000000b0: c6d6 8e3d 92c7 fe3d 509d 573d 2a98 bf3d
000000c0: 29f4 ddbd 5ada 79bd 3478 c9bd e5bd 083e
000000d0: 1060 1fbd f378 053e 6673 c83d 7042 9cbd
000000e0: 4e06 80bd 6c51 b2bd 2018 51bd 7bd9 0f3e
000000f0: 1081 07be 56d1 8d3d 0b6c 033e 04d5 c23d
00000100: a89c d33c 0066 f8bd c013 603c ccb9 a53d
00000110: 8034 2f3c 1589 01be 3620 923d 96e2 963d
00000120: b806 c43c c272 ef3d 4a30 b43d 68be d0bd
00000130: e6aa 943d 6ea6 bcbd d641 21bd b518 94bd
00000140: 6594 0c3e 80a2 9c3d 6e0d 03be 720c d83d
00000150: 281d ae3d 223b f8bd aeeb 803d ce5d e4bd
00000160: 0f5d ebbd 706f 2b3d 9c23 17bd eeb7 e83d
00000170: f2c3 ba3d 38a6 133d ac40 04be d5c6 9ebd
00000180: 4077 5abd b054 29bd c0ba ff3b a272 9c3d
00000190: bcae 2bbd 1413 00bd e67c debd 874f a8bd
000001a0: c08e 5dbc c38f 84bd 973e 8abd 6637 d5bd
000001b0: a0aa 1c3c bdbd 0ebe 55ab f9bd f00a 0a3d
000001c0: ba2f 84bd acfa cbbc d001 ca3c ea7f 0ebe
000001d0: f8bf 893c a8b3 d9bd 8ce3 153d bc45 2e3d
000001e0: 624c ef3d 0095 b83a 7021 03be ae1b 51bd
000001f0: 79e8 b4bd da81 f7bd abdc 86bd 0a6b f5bd
00000200: b8fe b4bd b458 1e3d 1826 e43c b891 123d
00000210: 0069 33ba 802f 913d 8049 153c e2ad 66bd
00000220: 24ab 963d 1a3d e4bd 2f91 f1bd 0497 d3bd
00000230: 8088 d5bb 8c3c cf3d 407e 05bc 34a8 d1bc
00000240: 6dfe 0c3e 4f27 d5bd 107d 61bc 0a4e cebd
00000250: 021b c53d e009 763d 184e f73c fc6a 6c3d
00000260: 10ed 89bc 05c6 ecbd a407 863d 55c8 e2bd
00000270: b0c2 c33c f2a9 07be c0a6 ab3d dc95 8fbd
00000280: 8094 eebb 88da b7bd 3669 5cbd 40ff fa3c
00000290: f9ac 0fbe 00e0 2439 a4b8 573d 9a8d bc3d
000002a0: 77fb 033e f0d7 0d3c c238 e03d 4cb8 90bc
000002b0: 0042 e639 ff5b 80bd 7ffb 92bd a9cc 083e
000002c0: d0ab a03c ce12 5cbd 7cff fbbd 3891 dabd
000002d0: aca4 d0bd 7859 0dbd ce85 df3d 8a5e 02be
000002e0: 77b8 0f3e 9c53 763d 408b f23c e244 c4bd
000002f0: 2837 8f3c daf0 17bd a17f c7bd 6406 673d
00000300: f80e 05be 140c a6bc 00a7 fc3b e258 8d3d
00000310: c016 6ebb 6cca 0fbd 72c3 ab3d 8068 71bc
00000320: 99be dcbd 9439 adbd e6c8 e53d 76df a73d
00000330: 7926 0c3e 5029 aa3c 8ca9 953d 5078 a4bd
00000340: 394b 103e f048 723c 96db f5bd b069 1d3d
00000350: b676 fa3d c2bf 2bbd 9a24 a23d d088 f4bd
00000360: f2d0 ba3d 09ba 01be 4266 03bd f6e4 81bd
00000370: ae73 a23d 4143 07be 7041 5a3c 346b a23d
00000380: e053 4c3d 0a74 d73d 4058 923c 6a65 a83d
00000390: 18c1 bf3c c4d9 b43d 5812 cfbc f409 273d
000003a0: b5d5 07be a855 bf3c c0d3 273c e874 e7bd
000003b0: d8f2 9e3d a8ae 8abd d726 03be 4c05 2e3d
000003c0: f866 9a3d a893 01be 8c57 663d f87c d63c
000003d0: 4409 96bd 5462 763d c7d1 bdbd 2782 043e
000003e0: 4531 c1bd 7cd9 9abd f47f cebd bcc4 123d
000003f0: 6c1d 4f3d 60be 5d3c 6efc 20bd d066 b83d
0.12883247 -0.111260474 -0.109872185 0.07405268 -0.06485686 0.092131376 -0.024286754 -0.120189175
-0.13115159 0.049087018 0.07878043 -0.033883065 -0.109589696 -0.055351995 -0.0044229925 0.058754846
-0.09404879 0.08978374 -0.07568607 0.092196256 0.032942116 -0.06781834 0.037426844 0.062440664
-0.084706694 0.09956434 -0.065672636 -0.077780746 0.011679232 -0.052152157 -0.130163 0.115906104
-0.061764948 0.13221289 0.114157006 0.009850472 -0.038626052 0.040731475 0.077058256 -0.11344303
0.08021507 0.08391273 0.08329666 -0.07954137 0.069745585 0.12440409 0.05264026 0.09355195
-0.108375855 -0.060999252 -0.0983738 0.13353689 -0.03890997 0.1303442 0.097876355 -0.076298594
-0.062512025 -0.08706936 -0.051048398 0.14047806 -0.13232827 0.06924693 0.12834184 0.09513286
0.025831535 -0.1212883 0.013676584 0.080920786 0.010693669 -0.12649949 0.0713505 0.073674366
0.023928985 0.1169181 0.08798273 -0.10192567 0.07259159 -0.092114314 -0.039369427 -0.07231275
0.13728483 0.07648182 -0.12798092 0.10549249 0.08501655 -0.12120654 0.06294952 -0.11150704
-0.11492359 0.041854322 -0.036899194 0.11363207 0.09119405 0.03604719 -0.12915295 -0.07752768
-0.053336382 -0.04134053 0.0078042448 0.07639052 -0.041914687 -0.031268194 -0.10863666 -0.08218294
-0.013522804 -0.06472733 -0.06750219 -0.10410957 0.009562165 -0.13939567 -0.12190882 0.033701837
-0.064544156 -0.024899803 0.024659067 -0.13915983 0.01681517 -0.1062997 0.03659396 0.042546973
0.11684491 0.0014082491 -0.12805724 -0.051051788 -0.08833403 -0.12085314 -0.06585058 -0.11983307
-0.08837646 0.038658813 0.027850196 0.0357835 -0.00068439543 0.07089138 0.009111762 -0.05631817
0.07356861 -0.11144467 -0.1179527 -0.10331538 -0.006516516 0.1011897 -0.008147776 -0.0255929
0.1376893 -0.10407888 -0.013762727 -0.100734785 0.09624292 0.06006801 0.030188605 0.057719216
-0.016836673 -0.11561207 0.06544426 -0.110733666 0.023896545 -0.13248423 0.083814144 -0.07011005
-0.007280886 -0.089772284 -0.053811274 0.03063929 -0.14030828 0.00015723705 0.05266632 0.09206696
0.12888895 0.008657441 0.10948326 -0.017666005 0.00043918192 -0.06267547 -0.07176875 0.13359322
0.019613177 -0.05372887 -0.12304589 -0.106722295 -0.10187659 -0.034509152 0.10914193 -0.12731376
0.14035212 0.06013833 0.029607415 -0.09583451 0.017482355 -0.03709493 -0.0974114 0.05640258
-0.12993991 -0.020269431 0.0077103376 0.06901719 -0.0036329478 -0.035105154 0.083868876 -0.014734387
-0.10778541 -0.08458248 0.11219959 0.08196919 0.13686551 0.020771652 0.07307729 -0.0803076
0.14091195 0.0147878975 -0.12004773 0.03843087 0.122296736 -0.04193092 0.079171374 -0.119401574
0.091218844 -0.12668623 -0.032079943 -0.06342499 0.079322204 -0.13209249 0.013321266 0.079306036
0.049884677 0.105201796 0.017864347 0.08222468 0.023407504 0.08830598 -0.025277302 0.040780976
-0.13265117 0.023356274 0.010243356 -0.11301595 0.077611625 -0.06771594 -0.12807785 0.04248552
0.07539171 -0.12653983 0.056235835 0.026182637 -0.07325986 0.060152367 -0.092685275 0.12940274
-0.094332255 -0.07561013 -0.10082999 0.03583215 0.05056517 0.0135341585 -0.039303236 0.09003985

rnn.bias_ih_l0 f4 [200]
00000000: 0e61 cbbd 54b2 243e b31b 1c3e 8472 d53c
00000010: f1a0 923d 10e6 e6bd d2cb b33c 0299 0a3e
00000020: e797 233e 672c 90bd cee3 a13d 67da 83bd
00000030: 977e 75bd c512 6b3d 4a9a a23e f051 ae3c
00000040: 216f 573e 726d 913e b5c1 9ebc 5c59 ad3d
00000050: d2d2 fb3d 750b 033e 1534 b1bd dcf0 ef3d
00000060: c6e5 4b3e 977a 5c3d 20d7 613e be9c 7e3d
00000070: 9820 5ebd 0869 5fbd 6152 b63c 0283 953d
00000080: b941 b0bd 7566 10bb 9dd9 90bc 5c81 0a3e
00000090: 468a 433b a94f 143e 4b5d 593d 43e1 e43c
000000a0: 3bf3 cebd 74e9 f93a b909 293e 5dc8 0fbc
000000b0: ff19 1b3e 8c66 353e a04d 243e 8b65 893d
000000c0: 03fb 673e 1cbb 1f3d b069 6e3c 203f 4bbc
000000d0: 5433 ac3d 6b35 0abe 6423 723d ca71 0abe
000000e0: 70f9 a13c e8b5 5a3d 2c7c 10bd 384e 93bd
000000f0: 0c39 68bd 00cf 103c 6e22 ecbd 6e82 e53d
00000100: a6f0 37bd 80ec cf3b 40f7 54bb 8f31 eebd
00000110: d4d3 ddbd b857 813c 5a8f 92bd f6c9 e63d
00000120: 14ee 113d a696 923d efd3 bcbd 578d 0c3e
00000130: b237 8c3d b21b a9bd b16a 8ebd be0d c63d
00000140: 2cf6 743d f880 443d 6f2c f7bd b070 2abc
00000150: aa43 b7bd aebe 36bd 097b 9abd eca6 cc3d
00000160: 21a6 0fbe 94f4 dbbc a0fb 33bd 5e2a e43d
00000170: 00ec 033c 7c6b 6f3d 8269 b7bd 36e4 8bbd
00000180: a0ee 463c d26f 0dbe e94c 073e ceb5 33bd
00000190: 0dd4 57be 5dca 273e 29c5 8c3d c8fd ff3d
000001a0: 65ae 20be 95e0 233d 099b 12be 2540 1abe
000001b0: ab0a 20be b78f 9a3d 2a65 0e3d 49da 66bb
000001c0: 7a09 483d b813 eabc d6c6 193d 1037 513e
000001d0: b711 f73b 7765 5fbd 4c88 483e a613 a83d
000001e0: cd78 fd3d 0b4d 30bd 830f 3b3d f68e e93c
000001f0: 563e e0bd 2828 093e 485d 893e f06f a63d
00000200: 191d 17be 1775 a03d 1f7c 363e 4b3e c5bd
00000210: 6c67 f0bc ce9b b53d a9da acbb 64dc 1f3c
00000220: a41e 3a3d dfec 543d 4cb6 38bd 76bb 04bc
00000230: cace 99bc b510 a839 8586 943d 7afb f03c
00000240: cf9e 5bbd 86fc 68bd 1733 8f3d 2b4b 063e
00000250: a07b 23bd 4ea9 52bd 7689 a6bd 0f6f 103e
00000260: 6dc2 223e ed24 d3bd 0448 2c3e a997 dabd
00000270: 0d9c 9fbb 2b7e d83c fcad c5bb 7b57 da3c
00000280: 940e 653e 3ef0 d0bc 2a01 5d3c 8a59 1fbe
00000290: e70b a13e da8d 8d3d 235e 833e 8e8d b03e
000002a0: 584d aebd 98b0 903d 0f6f 6a3d 27e6 033e
000002b0: 9ff6 6f3c 2e5b 91bb cfd9 c93d 21c2 f03d
000002c0: 2fd4 653d 695c 58bd 060b 4abe 8e09 bcbd
000002d0: c640 433d 0989 943d a2dc 1c3e 7c2d 61bd
000002e0: 7de4 2fbe 02b8 343e 1dd3 c93d 8fd7 503d
000002f0: b5d2 a73d dda9 d4bc 9507 9ebd 9296 9e3c
00000300: 0097 12be c0ad 253c a5ab a13d bbc2 b8bb
00000310: 2593 893e 447d 1d3e 9bbf a33d 8e40 453e
-0.09930621 0.16083652 0.15244941 0.026055582 0.071596034 -0.1127435 0.021947775 0.1353493
0.15975915 -0.07039719 0.079047784 -0.06438141 -0.05993518 0.057390947 0.31758338 0.021279305
0.21038486 0.28403813 -0.019379476 0.084643096 0.1229607 0.1279734 -0.08652512 0.11715862
0.1991187 0.05382785 0.2205472 0.0621612 -0.054230303 -0.054543525 0.022256078 0.073003784
-0.086062856 -0.0022033725 -0.017681891 0.13525909 0.0029837056 0.14483513 0.053067487 0.027939444
-0.10104986 0.0019066767 0.16507615 -0.008775798 0.15146635 0.177149 0.16045237 0.06708821
0.22654347 0.0389968 0.014551565 -0.012405187 0.084082276 -0.1349694 0.059115782 -0.1351997
0.019772261 0.053396136 -0.03527467 -0.071926534 -0.05669503 0.008838415 -0.115300044 0.11206518
-0.044907235 0.0063453317 -0.0032496005 -0.11630546 -0.10831419 0.015788898 -0.071562484 0.1126899
0.03562744 0.0715764 -0.092201106 0.13725792 0.068465605 -0.082572356 -0.069539435 0.0967059
0.05980508 0.047974557 -0.12069022 -0.010402843 -0.08948453 -0.04461544 -0.07542998 0.09992775
-0.14028217 -0.026850022 -0.04394114 0.111408934 0.008051872 0.058452114 -0.08955671 -0.06830637
0.012141854 -0.13812187 0.13212933 -0.043874554 -0.21076985 0.16385789 0.06873543 0.12499577
-0.15691526 0.0400091 -0.14316954 -0.15063532 -0.1562907 0.07546943 0.034764446 -0.0035225323
0.048837163 -0.028573856 0.03754314 0.20431161 0.0075399536 -0.054540124 0.19583243 0.08206873
0.123765565 -0.043042224 0.04566909 0.028510552 -0.1094939 0.13394225 0.2682898 0.08126819
-0.14757194 0.07834833 0.17820786 -0.09631022 -0.02934619 0.08867608 -0.0052750898 0.009757135
0.045439377 0.05198371 -0.045095727 -0.008101335 -0.018775363 0.00032055905 0.0725222 0.029416788
-0.05361825 -0.05688145 0.069921665 0.13114612 -0.03991282 -0.051430993 -0.08131687 0.14104865
0.1589448 -0.103097774 0.16824347 -0.10673458 -0.0048708976 0.02642735 -0.0060327034 0.026653042
0.22368842 -0.025505181 0.013489047 -0.155615 0.31454393 0.06911822 0.25657758 0.34482998
-0.08510846 0.070649326 0.05723482 0.12880765 0.014646201 -0.0044359183 0.09855997 0.11755777
0.056110557 -0.052822504 -0.19730768 -0.0918151 0.047669195 0.072527 0.1531854 -0.054975018
-0.17177005 0.17648318 0.0985472 0.050986823 0.08194486 -0.025959903 -0.0771629 0.019358907
-0.14315414 0.010112226 0.07894067 -0.005638448 0.26870075 0.15379816 0.0799553 0.19262907

rnn.bias_hh_l0 f4 [200]
00000000: 9017 d9bc b51c 77bd a8f4 50bd 9c88 323d
00000010: 074b ed3d 9466 7d3d ede5 8b3c 4e3f a53d
00000020: 04d7 7f3e 51ca 04be 82ee 783e 478c 8f3d
00000030: 82b5 21bd a4a7 9cbd e31f b03e eddc 58bd
00000040: bb4e bc3e c0b6 963e 2169 28be 5a62 063e
00000050: 13f9 7fbc 5e3b 19bc b6d3 ee3c df32 113e
00000060: f0fa 063e 11a0 913d 28cb d43d b999 303d
00000070: 5d8b f73a e17d bbbd 7251 7fbd 5705 853d
00000080: beb1 a9bd 1255 3b3d 6baa 33bd 3c1e 79bd
00000090: 5b75 f93d e3c1 cf3c 9568 443e b20a 02bd
000000a0: ffe2 f7bc 3c35 123e 2649 53bd 62ca 0f3e
000000b0: 7151 a93e b7b8 17bc f1a1 6f3e a1ca e83c
000000c0: 7c20 9a3c a5df 22bc b0d2 31bd 60d6 523d
000000d0: 60ab e63b e502 013e 6095 f4bb e040 0bbd
000000e0: c8a1 53bd 406e 333b 5059 38bd e86e aabd
000000f0: 0044 63bb ebcd f0bd e2ab 0abe ec59 c9bd
00000100: 0028 f2ba b093 4ebc 1037 6d3c 8679 863d
00000110: fc79 1d3d 00de 8f3b ebb4 0d3e 06e8 ee3d
00000120: 8007 f2bb 002e 1a3a b2b3 bf3d f43e 033d
00000130: 90f7 603c 9689 8ebd 587e d23c a800 c93d
00000140: 8037 62bb 3037 0e3d 804e ebbd d863 ad3d
00000150: e2fe e43d 6c08 6c3d 8091 8c3a ae7d c13d
00000160: 965e ccbd b49a c5bd 3042 893c 8f5a 0cbe
00000170: dea5 afbd 6479 79bd 95f0 84bd 08b2 c73d
00000180: 6dba e7bd deef ac3d cac5 93bd 88a8 1f3d
00000190: e750 96bd 4e80 78bc ae70 debd 3908 883d
000001a0: 24c2 a63a 9496 0dbd ed42 8bbc 6b6f 14be
000001b0: ffc3 2bbe 3fcb bbbc 98be 123c 9c5e 353e
000001c0: 34d2 1abd cca1 e6bd cdf1 11be f189 733e
000001d0: 2c6c 8fbd 34da 31bd 9d07 743e 8270 4fbd
000001e0: 4534 dd3d 9a82 8dbd b1db 69bd 465d 0abe
000001f0: 3587 633d 2964 123e 0f3c 2e3e a276 77bd
00000200: 2d75 8fbe 6c4a cdbd fa3a 983d 8e05 973c
00000210: e834 c6bc 60d2 9a3d 59f2 71be f135 efbd
00000220: a2c7 02be 1ab6 cabd 7667 35be 54b0 46bd
00000230: 98f3 e23d e193 2bbe b9c2 97bd f19d 143a
00000240: 33c9 b73c c3f5 a8bd d358 1abb d1d7 b1bd
00000250: 4622 923b 526a a53d 1ba1 3fbd f675 1f3e
00000260: 4ed5 ebbc 9a67 e33c 62e7 203e 63c2 78bd
00000270: ecb2 9fbc 6e0a 943d 0778 27bd 50f8 813d
00000280: 94a9 7b3e 5946 15be 075b c43d fa3d 543d
00000290: d3c3 533e fed7 383d 1726 6d3e 223a 843e
000002a0: 0dd9 8fbd ba11 e33d ec99 8d3c f0fe 0dbd
000002b0: e08a 06be 0863 f33c 1b26 573e a92c 783d
000002c0: 4bb0 ac3d 0b39 5fbd c2d9 81bd d4ae eb3d
000002d0: e571 713d 73e5 973c 03e2 d0bd 63d8 333e
000002e0: f53d efbd cbf7 3e3e 0215 6cbb 1100 cb3d
000002f0: d65d de3d b847 233e 0546 c93d ef61 da3d
00000300: 1f60 56bd 4332 dabd b554 9d3e bb0d 443e
00000310: 5367 9c3e 4782 f7bd 6242 1a3e aca2 2f3e
-0.026500493 -0.06033011 -0.051014572 0.043587312 0.11586576 0.061865404 0.01707741 0.08068715
0.24984366 -0.12967803 0.24309734 0.07009178 -0.03947974 -0.076491624 0.34399328 -0.052945066
0.36778817 0.29436302 -0.16446353 0.13123456 -0.015623349 -0.009352533 0.029153686 0.14179562
0.13181663 0.07110608 0.103903115 0.04311535 0.0018886138 -0.09154869 -0.06233353 0.06495159
-0.08285855 0.045735426 -0.043863695 -0.06081985 0.12180587 0.025361007 0.1918052 -0.03174848
-0.030259607 0.1427812 -0.05158343 0.14042047 0.33069947 -0.009260348 0.2340162 0.028416933
0.018814318 -0.009941016 -0.043413818 0.051473975 0.0070394725 0.1259876 -0.007464096 -0.033997416
-0.05166796 0.0027378947 -0.04500705 -0.08321935 -0.0034677982 -0.11758026 -0.1354213 -0.09831604
-0.0018475056 -0.012608454 0.01447846 0.065661475 0.03844641 0.004390478 0.13838546 0.11665349
-0.007386148 0.00058814883 0.09360446 0.03204246 0.0137308985 -0.06959836 0.025695011 0.09814578
-0.0034517944 0.0347206 -0.11489582 0.08466309 0.111814275 0.05762522 0.0010724515 0.094477996
-0.09978978 -0.09648648 0.016755193 -0.1370642 -0.085765585 -0.060906783 -0.064912 0.09750754
-0.11314855 0.084441885 -0.0721546 0.038979083 -0.0733965 -0.015167309 -0.10861336 0.06642193
0.0012722653 -0.03456743 -0.016999686 -0.14495628 -0.16773985 -0.022924064 0.008956574 0.17711872
-0.03779812 -0.11261329 -0.14252396 0.23783089 -0.07003054 -0.043420985 0.23831029 -0.050644405
0.10800985 -0.06909676 -0.05709428 -0.13512143 0.055548865 0.1429602 0.17015098 -0.06041587
-0.28019086 -0.100239605 0.07433124 0.018435266 -0.02419515 0.07559657 -0.23627605 -0.116802104
-0.12771466 -0.09898014 -0.17715248 -0.048508003 0.11081618 -0.1675563 -0.07410187 0.0005669287
0.022434806 -0.0825 -0.0023551479 -0.08683742 0.004459652 0.080769196 -0.0467845 0.15572342
-0.028788235 0.027759362 0.15713266 -0.060732257 -0.019494496 0.07228552 -0.04088595 0.0634619
0.24576408 -0.14577617 0.095876746 0.051816918 0.2068017 0.04512786 0.23159061 0.25825602
-0.07023821 0.110873654 0.01728531 -0.034666955 -0.13138914 0.029710308 0.2101063 0.060589466
0.08432063 -0.05449776 -0.06340362 0.11507955 0.05894651 0.018542027 -0.10199358 0.17563014
-0.11681739 0.18649213 -0.0036023264 0.09912122 0.108577415 0.15945327 0.09827808 0.106632106
-0.052337762 -0.10654118 0.3072869 0.19145863 0.3054758 -0.12085395 0.15064386 0.17151898

rnn.weight_ih_l1 f4 [200, 50]
00000000: bf43 953d 1a1c 7bbd acb3 c4bc d47a cb3d
00000010: f2bd a73d 3755 ab3c 57f5 1c3d e198 e3bd
00000020: 00d6 2abb 8467 e83d d033 63be f501 48bd
00000030: f927 cc3b 69e7 ba3c aa6c 5fbe fd8d d6bb
00000040: 043c 68be c01e 49bc c553 4b3c d323 d63d
00000050: 973e 373d f25d 2dbe a0a4 e03d da9b 973d
00000060: 5d6c 4ebe b8b5 7dbd d47d f1bd ce79 3e3e
00000070: c68f 77bd 2325 fe3b 969d f33d b375 fc3d
00000080: 7cbd 723d 9a32 b43d 1054 f2bd eea0 23bd
00000090: 85ec 8dbd 15fe 92bd 27a7 33bd dba5 92bc
000000a0: 23ff be3b 7ad6 edbc 4639 b8bd 1e8e e0bd
000000b0: 1873 60bc e7fb 2f3e 64e2 1e3e 3643 5a3d
000000c0: 3ce0 82bd 8202 c2bd cfcc b63e d369 6bbe
000000d0: 7cb4 eb3e b594 8d3d d566 913e ce80 40be
000000e0: 7df2 39be 8e30 d93d 8f63 133e d0dc a0be
000000f0: c511 0cbe ee8a d4bd 03c8 eebd 3dae d83d
00000100: 5a17 823e e212 93bc a500 2e3e 8009 18bd
00000110: ab42 813d ddb9 0bbc 94a2 833d 17cd c2bd
00000120: e237 1e3d a37e e13e dfce 8abd d05b 24be
00000130: 84f8 56be 3e21 ca3e 6881 b1bd 48a2 8e3d
00000140: 0059 873c fb90 a7bb 560c 12be 9d33 e9bd
00000150: 579f 80be a356 a03e 67a6 843d 756e 20bd
00000160: d53c 863d 6e50 abbe ab7a 843d 70f7 cfbd
00000170: dcd7 a63d eb03 1f3e ff14 2c3e 1c8e 1c3e
00000180: 4e5e 0f3e adc8 623e e5dd b73d af51 173e
00000190: 744f 103e c7ec f7ba a9c3 b1bd 1738 6f3e
000001a0: f825 13bd fead 74bd 0038 85bd 3bb5 c53c
000001b0: d171 bb3d 78cc b6be 2c29 c1bd 7423 c23d
000001c0: 3ac4 28be a3d2 9f3c 3131 4d3e 983e b4bd
000001d0: 452a 41bd f77a 833d c2cb a2bd a433 f4bd
000001e0: dde4 ad3d d2aa 513d c945 6cbb 7a06 2e3e
000001f0: 2ab8 0d3e 7f7d 213d 05cb b1bd ebf9 1e3e
00000200: b9b6 2ebe 9f39 10be 6c41 903d d675 4abe
00000210: 63f3 203e 9ed0 a23c b6c2 9e3c f3ba 3e3c
00000220: bc79 983d 48ec 05be 9a5c 523e 3bc2 213e
00000230: ccb6 113e 32fd 3a3d 4da5 d33d 2cd3 3c3e
00000240: ebb1 483d 16b0 37be 8ca5 21be 0945 bc3d
00000250: 681f 3bbe 02c4 84bc 1618 d23e a062 81bd
00000260: e4ec 993e d639 023e d40d 6e3e 12ca 283d
00000270: d360 b0bd 6e29 8e3e d33e b93e abe5 773c
00000280: 4320 8ebe 4de2 e23c b94e 003d a6a5 053e
00000290: a9e0 223e ee26 bfbd 63dd 9cbe a2cd bcbd
000002a0: 8eca 77be 0e23 053e 911d 4a3e e896 073e
000002b0: 0841 ed3c 79d4 a73c 4b0c 31bd 0a48 ac3c
000002c0: afe0 9fbe 7d59 2b3e ecb8 1cbe 0fe8 b33d
000002d0: b34f 1dbe 2d8a f93b 2107 323c e006 853d
000002e0: b1e6 29be e7f5 6e3e 0734 28be 5e23 813d
000002f0: b523 313e 6506 83be 97a8 b63d 4a7c c0bc
00000300: c4ca 2bbe 2933 be3d b87f b23e 0272 a03e
00000310: 4dc1 813e 7380 923d 92e8 a33e acab fc3d
00000320: 6e4d 4c3e cd9f 39bc 732d 733c 35eb a73d
00000330: 1aa5 123d a3e8 513c 1383 b03b 685a 973d
00000340: dab8 5f3e 9c50 bfbe 2516 1cbe 978e 54bd
00000350: eb91 19be 2ff3 4f3c e769 b73e 3945 e8bd
00000360: 7431 aa3e 9547 0cbe 55ce 60be 40a3 3f3e
00000370: 6e64 7f3d 4cdf 0fbc d156 283d 2f56 083f
00000380: b7f8 ddbd 1ef0 7fbd 1d51 76be cfd9 0e3d
00000390: 88ca f6bd 8073 babd 763e 5dbe 876d 5ebe
000003a0: 963d 00be e4af bf3d 42db debd afdb 3e3d
000003b0: adba b5bd b0e5 483e f82f 263d 0921 4dbe
000003c0: 2871 453c 4d6b 38be d863 453e 9ffd 193d
000003d0: f7ad db3d 24a1 edbc 30e9 9a3e a80b 073d
000003e0: e90d 883e 436e d03b 5189 933e 4bb3 bc3c
000003f0: 311d db3c 3e3e 813d 2086 48bd ce10 8cbd
0.07288312 -0.061306097 -0.024011455 0.09935537 0.08190526 0.020914657 0.03831991 -0.11113144
-0.0026067495 0.11347869 -0.22187734 -0.04882999 0.006230351 0.022815423 -0.21818796 -0.006547688
-0.22679144 -0.012275398 0.012410109 0.10456052 0.044737425 -0.16930369 0.109689 0.07402773
-0.20158525 -0.06194088 -0.11791578 0.18601152 -0.060439847 0.007755892 0.118952915 0.12327137
0.059262738 0.08798714 -0.1183244 -0.039948396 -0.06929878 -0.071773686 -0.04386058 -0.017901352
0.0058287545 -0.029032934 -0.08995299 -0.10964607 -0.0136993155 0.17185937 0.15516049 0.053286754
-0.063904256 -0.094731346 0.35703132 -0.22989587 0.46036136 0.06913129 0.28398767 -0.18799135
-0.18158908 0.10604964 0.14393447 -0.31418467 -0.13678654 -0.10378061 -0.11659243 0.10580108
0.2540844 -0.01795334 0.16992433 -0.037118435 0.06311544 -0.0085282 0.06427494 -0.09511774
0.038627513 0.4404193 -0.06777739 -0.16050649 -0.20993239 0.39478487 -0.086672604 0.069645464
0.01652193 -0.0051137186 -0.14262518 -0.113867976 -0.25121567 0.313161 0.06477051 -0.03916784
0.065545715 -0.334598 0.064687096 -0.10154617 0.08146641 0.15528838 0.16804884 0.15288585
0.14000818 0.22146864 0.0897787 0.14777254 0.14092809 -0.001891517 -0.08679897 0.2336124
-0.03592488 -0.059736244 -0.06504822 0.024134269 0.09152568 -0.35702872 -0.09431681 0.094794184
-0.16481104 0.01950962 0.20038296 -0.08801001 -0.047159452 0.06419938 -0.0794902 -0.11923912
0.08490918 0.051188298 -0.0036052337 0.16994658 0.13839784 0.039426323 -0.08681301 0.15525024
-0.1706189 -0.1408448 0.07043728 -0.19771513 0.15717845 0.019874867 0.019379955 0.011641252
0.07445094 -0.13078415 0.20543137 0.1579675 0.14229888 0.045651622 0.10334263 0.1843993
0.0489978 -0.17938265 -0.15785807 0.09192855 -0.182737 -0.016206745 0.41034 -0.06317639
0.30063546 0.12717375 0.23247463 0.041208334 -0.08612218 0.27765983 0.36180744 0.015130441
-0.2775899 0.0276958 0.031325076 0.13051471 0.15906014 -0.09333597 -0.30637655 -0.09218909
-0.24198362 0.13001654 0.19737841 0.1324116 0.028961673 0.020487057 -0.043224614 0.021030445
-0.31226107 0.16733356 -0.15304917 0.08784496 -0.15362434 0.007615349 0.0108659575 0.06495452
-0.16591908 0.23335992 -0.16426097 0.06305574 0.17298777 -0.25590816 0.08918875 -0.023496766
-0.16776568 0.09287102 0.34863067 0.3133698 0.2534279 0.07153406 0.32013375 0.12337431
0.19951412 -0.011329603 0.014842379 0.08199159 0.035801984 0.012811813 0.005386719 0.073902905
0.21847859 -0.37366188 -0.15242822 -0.051893797 -0.1499707 0.012692257 0.35822985 -0.11341328
0.33240855 -0.13699181 -0.2195371 0.18714619 0.062351637 -0.0087812655 0.04109842 0.53256506
-0.10838454 -0.062484853 -0.2405438 0.034875687 -0.120503485 -0.09104061 -0.21605858 -0.21721469
-0.12523493 0.0935972 -0.10881664 0.046596225 -0.08873496 0.19618869 0.04057309 -0.20032133
0.012050904 -0.18009682 0.19276369 0.037595388 0.107265405 -0.029007502 0.30256033 0.0329701
0.26573113 0.0063608005 0.28815702 0.023034712 0.026747318 0.063107 -0.048956037 -0.06839143

rnn.weight_hh_l1 f4 [200, 50]
00000000: c0fb 3b3c 62f7 d4bd 6fa4 0e3e 34cb f0bc
00000010: 9d0e 10be 759d f5bd c76b a6bd fc39 4dbd
00000020: 6513 003e 44ca 773d d2c5 f8bd b1c1 053e
00000030: 72e4 60bd 5ef5 82bd fd45 04be b035 163d
00000040: 06b7 adbd 40d5 a03b b477 6fbd e8e3 07be
00000050: 8259 10bd 1a33 ffbd b4b2 1a3d 3c27 cc3d
00000060: f6b2 fe3d cb66 0d3e 252a 063e de7d ce3d
00000070: f8be 86bc f8ca b23c ac16 c4bd 7632 d5bd
00000080: aa30 c5bd 6292 f33d 8465 8bbd 7da5 073e
00000090: 98c3 f7bd 928b 9c3d fc2e 873d dc38 b0bd
000000a0: 3028 10be 00bd 583a 7cac fdbc f298 c5bd
000000b0: c847 a53d 00bf 823d 22dd 9fbd 5045 583d
000000c0: 42b4 f63d 623b 933d 443b 603d 78d4 42bd
000000d0: fd71 abbd 169b f03d 10e5 2f3c ae39 60bd
000000e0: a09b a53c 5235 52bd f422 2f3d 6859 ffbd
000000f0: cd38 95bd 9c83 f7bd 1043 633d 00dc 98b9
00000100: 3414 253d 1619 923d 88db b6bc 0ddb 093e
00000110: 5013 45bd 7642 b8bd ccc6 cb3d 3bb4 10be
00000120: 1c28 9dbc f83d 3abd 8210 b53d f00d 2f3c
00000130: 60f3 05be fafe e63d 9840 963d 2063 383c
00000140: 1ee5 29bd f43f d2bc 366a 923d de01 93bd
00000150: 61f0 f2bd 40ba e03b 8008 dc3a 0aaf febd
00000160: fc57 0dbe 60d4 253d 5687 c53d a269 ed3d
00000170: 2697 ef3d e252 89bd 4020 75bc 305e 183c
00000180: 0f52 c3bd ca3b 09be c022 c9bb efa0 87bd
00000190: b0d8 dc3c e024 153c 84a2 f0bc 829e fc3d
000001a0: e898 d5bd b2c1 a03d fccd 77bd 881e 783d
000001b0: d02e f3bc 5642 c43d f3a7 003e 108b d4bc
000001c0: 766a a7bd b4e6 6b3d a50f f8bd 4e94 f93d
000001d0: ed71 0f3e 0a5b f23d 4419 ac3d e028 7a3c
000001e0: 6d9c a8bd d1b3 0f3e b04b 55bd 4242 e63d
000001f0: 9c72 b83d b5ae 0d3e 2806 6abd 92f7 f03d
00000200: 1602 dabd 884c a93c 985a 8fbc d6d3 31bd
00000210: 5ed1 a73d 8800 813c bcdc debd e822 81bd
00000220: 5a93 a33d c05d 733b bbfd 013e 3e71 fb3d
00000230: 28a3 a3bd 5613 f43d b5d3 eebd d2bf ecbd
00000240: 8058 b3bd 7a51 ff3d 3ce9 e4bc 3cd9 573d
00000250: 134d f0bd 60ca 1dbd 3a6c e03d b68b febd
00000260: 1067 113c f842 373d e01e cebb 7f76 f7bd
00000270: 03bf 083e f030 91bd ba78 febd 7f64 0d3e
00000280: f3c9 0e3e 3c94 083d 303e 1c3d 1760 dfbd
00000290: ca5b c63d 040c 13bd e834 bf3d a0da 4bbc
000002a0: d03d 973d 7c2d f9bd d4f6 86bd 2aad eebd
000002b0: 6cd9 8bbc b631 d8bd b4d7 c43d a071 863b
000002c0: 536e e7bd 8017 823b 487d 48bd f045 633c
000002d0: dcb3 aebd 29ab debd 303e e7bd 8e61 ed3d
000002e0: 083b ae3d 004c ef3c 82bd 52bd acd2 88bc
000002f0: 02a0 b73d 48f9 ca3c 7440 dbbd 3cb6 c0bd
00000300: 7abf ce3d 805d 553b 48c3 5cbd e442 cc3d
00000310: e476 673d 58d0 ce3c 1e88 a83d 7cbc 56bd
00000320: e4df 093d 9048 543c 641d 143d 38c7 f33c
00000330: bf0b 013e 006d a73b d19e 06be e212 8bbd
00000340: 92db e9bd c4cc 823d 46e0 fa3d 8c2e 093d
00000350: 6ee4 d33d a83a 0ebe 75bf 8ebd 30e8 643d
00000360: e001 52bc 8871 b13d aa2c ae3d 8ceb f9bd
00000370: 4e0a 4fbd a441 01be 320c b03d 40b7 28bd
00000380: d4ac d9bd 708b 0bbc 3e43 e13d 169b e83d
00000390: 2283 e53d 1a4f d3bd 66d2 da3d 40fc dc3c
000003a0: 3f27 9fbd 46bd acbd ac4a 2c3d 3a06 933d
000003b0: 88fc cabc 1b04 003e 4ccc aa3d e0d7 a2bc
000003c0: 406b 32bb 443e 773d e057 a5bb 7d98 093e
000003d0: 9a20 893d 988d 1f3d b21b 9dbd d6cf e6bd
000003e0: 42f2 a23d de3c 93bd b8c3 8b3d 2d16 043e
000003f0: 2e60 1ebd 8c2a a83d ea38 983d 36d1 bebd
0.011473596 -0.10398747 0.13929914 -0.02939377 -0.14068075 -0.11992923 -0.08126026 -0.050104126
0.12507398 0.06049563 -0.12147106 0.13062169 -0.054905362 -0.06394456 -0.12917323 0.036672294
-0.084821746 0.004908234 -0.058463767 -0.13270533 -0.03524161 -0.12460919 0.03776808 0.09968421
0.12436478 0.13808744 0.13102014 0.10082601 -0.016448483 0.021825299 -0.09574637 -0.10410015
-0.096284226 0.11893155 -0.06806472 0.13246723 -0.120978534 0.076438084 0.066007584 -0.08604595
-0.1407783 0.0008267909 -0.030966036 -0.09648313 0.08070332 0.063840866 -0.078058496 0.052800477
0.120461 0.07189061 0.05474402 -0.047565907 -0.08371351 0.1174833 0.010735765 -0.054742508
0.02021581 -0.05132038 0.042757943 -0.12468225 -0.072862245 -0.12085649 0.055483878 -0.00029155612
0.04030247 0.07133691 -0.022321478 0.13462467 -0.04811412 -0.089970514 0.09950027 -0.14131252
-0.019184165 -0.045469254 0.08841039 0.010684475 -0.13081121 0.11279102 0.07336539 0.011254102
-0.04147827 -0.02566526 0.071491644 -0.071780905 -0.11862255 0.00685814 0.0016787201 -0.1243573
-0.13803095 0.04048574 0.09644954 0.115924135 0.11698751 -0.06705262 -0.014961302 0.0092998
-0.09537136 -0.13401714 -0.0061381757 -0.066224925 0.026958793 0.00910303 -0.029374368 0.123349205
-0.10429555 0.078494444 -0.060499176 0.060575992 -0.029685408 0.09582965 0.12564068 -0.025945216
-0.08174603 0.057593063 -0.12112359 0.1218649 0.14008303 0.118337706 0.084032565 0.015268534
-0.08232961 0.14033438 -0.052074134 0.112431064 0.09006235 0.13836177 -0.057134777 0.1176597
-0.10644929 0.020666376 -0.017499253 -0.043414913 0.081942305 0.015747324 -0.108819455 -0.06305486
0.079870895 0.0037134737 0.12694447 0.122774586 -0.07990104 0.119177505 -0.11661474 -0.11560024
-0.087571144 0.12466712 -0.027943246 0.052697405 -0.11733451 -0.038523078 0.109581426 -0.124289915
0.00887467 0.0447416 -0.0062903017 -0.12083148 0.13354115 -0.07089412 -0.124253705 0.13807867
0.13944225 0.033344492 0.038145244 -0.109069996 0.09685476 -0.03590013 0.09336263 -0.012442261
0.07384837 -0.121668786 -0.065900475 -0.11654122 -0.017071448 -0.105563566 0.096114546 0.0041029006
-0.113003395 0.0039700866 -0.048947603 0.013871655 -0.08530399 -0.1087249 -0.11291158 0.11590873
0.08507353 0.029211044 -0.05145026 -0.016702019 0.08966066 0.02477707 -0.10705653 -0.094097584
0.10095115 0.003255695 -0.053897172 0.09973696 0.056509867 0.02524583 0.08229087 -0.052425846
0.033660784 0.012956753 0.03616084 0.02975808 0.12602137 0.0051094294 -0.13146521 -0.06790711
-0.11418833 0.06386712 0.12249808 0.033491656 0.10346304 -0.13889563 -0.06970111 0.055885494
-0.01281783 0.086642325 0.08504613 -0.1220313 -0.050546937 -0.12622696 0.08596076 -0.041190386
-0.106286675 -0.008517131 0.109991536 0.11357705 0.11206652 -0.10317822 0.106846616 0.02697575
-0.077711575 -0.084345385 0.0420634 0.07178922 -0.02477862 0.12501566 0.08339748 -0.019878328
-0.002722457 0.060362116 -0.005045876 0.13437076 0.066956714 0.038953394 -0.07671298 -0.1127011
0.07956363 -0.07189344 0.0682444 0.12899084 -0.038665943 0.0821124 0.074327305 -0.093172476

rnn.bias_ih_l1 f4 [200]
00000000: 6aa4 a63d 629b b63a 840e 233e 6634 493d
00000010: a394 eb3d b961 4e3d 7988 6cbd ac24 e1bc
00000020: ceb7 903a 0e9f 9dbc 4408 6e3d a0fa 5b3d
00000030: 13a5 e7bd 7558 733e 256f cebc 1f5f 993d
00000040: 5692 023e 80b6 f0bd 5f8b 1abd 7ed4 e3bd
00000050: fc9e e93d 54b1 d83d 45f1 013e e628 bf3d
00000060: 09dc 2b3e dd4f 3f3e 4c37 a1bd ca66 553d
00000070: dfe5 adbd ddb1 3638 7ab7 f0bd 4380 04be
00000080: 8f25 b1bc 5f75 b13d 187d a53d d79a 903e
00000090: 7656 c2bd d43c bfbd bd62 69bd 646a 473d
000000a0: 71c5 933c 16f9 103d 26e4 abbd 2379 7d3d
000000b0: 298f 073e 8318 1a3d b6ca 5ebd e9fe 0f3e
000000c0: fad8 033d 8032 6ebd 967f d23d 0008 453b
000000d0: dec4 e93d ea98 a43d 001f 833c 500e 73bc
000000e0: aa30 0dbd 983f c23c 4af1 8e3d 8015 a83c
000000f0: 2e35 09bd 023f 10be 6076 19bc cdb3 f8bd
00000100: c49a d03d 240e 00bd 047b 8c3d 1cec adbd
00000110: 0421 cabd 04ff 1cbd 90fa 7b3d 8056 5abb
00000120: e4c1 a8bc 6179 053e 4a72 d4bd dcf0 da3d
00000130: 48f3 b9bc f8fb 03bd 60e7 3b3d 2058 ecbb
00000140: ff41 0c3e 26dd 883d eeb2 03be b02b 4a3c
00000150: 00d5 fc3c 1483 a8bd d84e 883d c800 913c
00000160: 71f6 043e a09f 6c3c 8eba 0ebe a0bd 043c
00000170: e873 b43d d822 1fbd afd1 04be 046c b4bd
00000180: e27f 68bd ac85 2e3d 32ae ef3d 4252 a43d
00000190: 413c 313d 838d c63d 2f4f 463d e35d 0dbe
000001a0: 2f77 223d 3c2a c4bd 7cc2 f23d 28f1 dfbd
000001b0: 5280 0cbd dce1 22bd 69d0 cd3b 3f7b f53d
000001c0: 0897 2a3d 97ee 7cbd 4b65 b73d 6174 a83d
000001d0: 50d3 60bd cc53 993c 8c09 fabc a941 7d3d
000001e0: e030 ab3d 612f 213c b55f ad3d 3efa 413c
000001f0: feef d23d 0f11 01bd 3ffc 5dbc 87b0 633d
00000200: 4ea5 cd3d a40d d3bd d9e6 083e f2c9 073d
00000210: 4e5c e4bb 34a9 a7bd 830c b2bd 5dce 0d3d
00000220: fe72 8cba 668f cf3d abd8 b9bb 9aed 1bbd
00000230: b252 b0bc 1dea 023e 3f48 a93c 491f 783d
00000240: a08d 58bd e375 e0bd b86b c93c c248 92bd
00000250: e58c d73d 6a36 a43d 4e2e c3bc 0c2b 723d
00000260: 1522 4d3e 4796 233e cd6f 523e ac03 77bd
00000270: b290 203d 8d27 333c cd8f c0bd 1a5b 6a3d
00000280: 6d4c 8eba fe8f 81bd ab46 acbd ae7e 823d
00000290: 5e6d 0a3d 307b 473d 88d3 48bd f643 12bd
000002a0: 2dc8 003e 029d 953d db1e 363d 8644 023e
000002b0: 8aea 723b 6887 f1bc 9c8a 84bb 8cb2 1e3d
000002c0: 3a65 b53c 94f6 b339 6758 0c3e e68b 12be
000002d0: ab1f 9b3d 709f 39bd fb05 913c 483e 35bd
000002e0: 1d26 99bd 7079 d03c 5a71 c93d ec05 92bd
000002f0: 8926 08be d1b5 0ebe f17b 1b3d cee6 90bd
00000300: daee 43bc 9f5b 323e b9e3 5f3d 4992 89bd
00000310: 7360 b93d 167a fc3d ca2e b83c 261e 29bd
0.08136828 0.0013931806 0.15923506 0.049122237 0.115029596 0.050386164 -0.057747338 -0.027483307
0.0011041106 -0.019240882 0.05811335 0.05370581 -0.11310782 0.23764212 -0.025199482 0.07488846
0.12751135 -0.11753559 -0.03773057 -0.11124514 0.11407277 0.10580698 0.12689693 0.09333973
0.16783156 0.18682809 -0.07871875 0.05209998 -0.0849111 4.355783e-05 -0.117537454 -0.12939553
-0.021624355 0.08664965 0.080805 0.28243133 -0.09489147 -0.09337774 -0.05697893 0.048685446
0.018038483 0.035393797 -0.08393125 0.061883103 0.13238205 0.037621032 -0.05439254 0.14062084
0.032189347 -0.05815363 0.10278241 0.0030064583 0.114145026 0.080369785 0.016005993 -0.014834955
-0.034470238 0.023711964 0.06979616 0.020518064 -0.03349798 -0.14086536 -0.009366602 -0.12143669
0.10185769 -0.031263486 0.06859401 -0.084923 -0.098695785 -0.03832914 0.061518252 -0.0033315718
-0.020600267 0.13034584 -0.103733614 0.106904715 -0.022699013 -0.032222718 0.045874953 -0.0072126538
0.1369705 0.06682806 -0.12861225 0.0123395175 0.030863285 -0.08228126 0.06655663 0.017700568
0.12984635 0.014442354 -0.13938352 0.008101851 0.0881117 -0.03885159 -0.12970613 -0.08809665
-0.056762584 0.04260795 0.11703147 0.08023502 0.043270353 0.0969496 0.04841536 -0.13805346
0.039664444 -0.09578368 0.11853501 -0.10934669 -0.034302063 -0.039766178 0.006280948 0.11986398
0.04164794 -0.061750975 0.08954867 0.082253225 -0.054889023 0.018716715 -0.03052213 0.061830197
0.083589315 0.009837956 0.0846552 0.011839448 0.10299681 -0.03151041 -0.01354891 0.05558827
0.10041295 -0.10305336 0.13369311 0.033151574 -0.0069690114 -0.0818657 -0.08693793 0.03462063
-0.0010715423 0.10134773 -0.005671581 -0.03806839 -0.021523807 0.1278462 0.020664332 0.06057671
-0.05286944 -0.10959985 0.024587497 -0.07142784 0.105249204 0.08018191 -0.02382579 0.059123084
0.20032533 0.15975295 0.20550461 -0.060306236 0.039200492 0.010934723 -0.09402428 0.057215787
-0.0010856517 -0.063262925 -0.08411916 0.063718185 0.033795707 0.048701465 -0.049029857 -0.035709344
0.12576361 0.073053375 0.04446302 0.12721452 0.0037066066 -0.029483512 -0.004044844 0.038744494
0.022142995 0.00034325256 0.13705598 -0.1431118 0.075743996 -0.045318067 0.017703047 -0.04424885
-0.07477973 0.02544853 0.09836073 -0.07130036 -0.1329595 -0.13936545 0.037959997 -0.070752725
-0.011958802 0.17417763 0.054660533 -0.06717355 0.09051599 0.123279735 0.022483248 -0.041288517

rnn.bias_hh_l1 f4 [200]
00000000: b0a2 d8bc d329 3fbc 18c8 373e 80cb 3c3d
00000010: bebc d13d ef05 2e3c a492 cabd 2a79 413d
00000020: 8659 05be bb89 673e eaa2 3abd b8a7 61bd
00000030: b3b1 ccbd 59c2 1e3e f3ef 2ebd ca2e 79bd
00000040: f7d0 cb3d a08c b7bd 381c c43d 58dd cd3d
00000050: 38a1 c53d 4db1 f6ba d69d d9bd bcbf 0cbd
00000060: 092d 38bc 913d b43d e23b f43d 8724 e83d
00000070: ab28 103e 8527 95bd e083 8e3d 0c87 29bc
00000080: a51b 953d 5b76 8fbd a8c9 ef3d 5c47 673e
00000090: de06 32bc a5cf 293d 8604 03be 9442 6cbc
000000a0: 6e47 9d3d 61d6 20bd 7866 be3d a34e d33b
000000b0: 5505 febd fbe3 0f3d 0eef 073d 9fc2 21bd
000000c0: b148 bfbb 6df0 7ebd b486 96bc 48b0 a5bd
000000d0: 6ec7 fa3d 42f2 f23d 9cf2 823d 7d3e 0bbe
000000e0: 22c1 cabd 22ef bdbd 2060 39bc 10bc 803d
000000f0: a005 f93c 00b7 9e3d 78ff eebd db51 08be
00000100: c097 01be 6e46 f43d 47fd 95bd 0887 cbbc
00000110: 44f2 473d 528e aa3d 8c05 30bd b649 57bd
00000120: 8e1a 12bd f4d3 673d d4c5 cf3d 4366 f2bd
00000130: c00f ac3b 6e68 52bd bcef e3bc ee7f f83d
00000140: 092f 8abd 2e24 993d 7a1d eb3d c3a8 05be
00000150: f833 32bd 6d2a d8bd 40f4 4fbb b64b e03d
00000160: 26f6 cc3d a402 cebd a084 afbd 6674 ba3d
00000170: 00d0 30bc 3c32 663d f055 51bc 76f8 44bd
00000180: 7ecd 26bd 047b 01be 387b b3bd 7c2e 0abe
00000190: 84b4 f33d e1f2 d2bd 3ae7 333d ba69 d03d
000001a0: cb26 b5bd b1a0 863b be12 d9bb 875e 2abd
000001b0: 92b7 23bd 9d84 613c 38e3 49bd 2b39 cf3d
000001c0: b690 57bd 0695 0f3c 9661 833c 6a81 bdbd
000001d0: fd64 d7bd bb10 2cbe c18c 1ebb 15ca d5bd
000001e0: 2bc8 ca3c 086a f33d 3987 bebd 26fb a13d
000001f0: 6628 63bd d60b 723d 34fd 673d 250c 103a
00000200: f80b e2bd 768a 1bbd 7d76 bbbd f1db c93c
00000210: ad62 ea3c 1711 a8bd c91e 223d 6986 37bc
00000220: aa40 db3c e0ad 063d 734a 593c 867f 35bd
00000230: 0eae 043e c29e 8c3d 0c4f f13c 8174 33bd
00000240: 9e93 a2bd 4887 1abd e933 053d 5805 c83d
00000250: ba7d 4abd fa46 63bd a063 223d f966 8c3d
00000260: 3b06 4cbd cc2b 043e e2e1 5dbd 9bf9 dfbd
00000270: 5c4c 04be 476a 0e3e d8e8 f7bd a54d ef3d
00000280: 9530 693d 8f92 193d cb62 e33c 93d0 343e
00000290: a306 023e 83b2 4a3c 406a 4abd f770 f4bd
000002a0: fe5c 98bd 0f25 383d c1fd dbbc be46 883d
000002b0: b8fa fc3d 31a0 c73d f632 053e d439 113e
000002c0: 8943 ef3d 5f20 c8bd 6442 7e3d abf8 8e3d
000002d0: d6dd d33d ca74 24be 6865 013b 3706 1a3e
000002e0: d2f5 b43d cece 103e bc2e 883d 2bd1 d3bd
000002f0: 42e2 6f3b 1c04 f5bd b370 1abe 482e 8bbd
00000300: 141f 703d f2f1 853c 8a13 8dbd ce21 5bbd
00000310: 6bb3 c0bd 83b4 c93d fc0b a93d 2e09 efbd
-0.026444763 -0.0116676865 0.17947423 0.04609251 0.10241078 0.010621532 -0.09891251 0.04723469
-0.13022432 0.22611134 -0.045565523 -0.05509159 -0.09994831 0.15503825 -0.042709302 -0.060835637
0.09951966 -0.08962369 0.09575695 0.100519836 0.09649891 -0.001882115 -0.10625808 -0.03436254
-0.011241206 0.08800805 0.11925484 0.11335092 0.14078014 -0.072829284 0.06958747 -0.010347139
0.072806634 -0.070049964 0.11708385 0.22585815 -0.010865895 0.04145779 -0.12794694 -0.01442017
0.0767964 -0.039266948 0.09296888 0.006448583 -0.12403361 0.03512953 0.033186965 -0.039492246
-0.005837523 -0.062241007 -0.018374778 -0.080902636 0.122450694 0.11862613 0.0639393 -0.13598056
-0.099001184 -0.092741266 -0.011314422 0.0628587 0.03039819 0.07749748 -0.116698205 -0.13312475
-0.12655544 0.11927496 -0.073236994 -0.024844661 0.048815027 0.08327927 -0.04297404 -0.05256053
-0.035669856 0.05659862 0.101451546 -0.11835911 0.005250901 -0.051369123 -0.027824275 0.12133776
-0.067472525 0.07477604 0.114802316 -0.13052659 -0.043506593 -0.10554967 -0.0031731278 0.10951941
0.100078866 -0.100590974 -0.08570218 0.091042325 -0.010791779 0.05620025 -0.012776837 -0.048088513
-0.040723316 -0.12644583 -0.087637365 -0.13494295 0.11899665 -0.10300232 0.043921687 0.10176416
-0.0884529 0.0041085114 -0.0066245487 -0.041594055 -0.03996999 0.013764528 -0.04928896 0.10118326
-0.05262824 0.008763557 0.016037744 -0.092531994 -0.10517309 -0.16803257 -0.0024192783 -0.10438935
0.02475365 0.11885458 -0.093031354 0.07909231 -0.05545845 0.05909332 0.056637958 0.0005494974
-0.11037439 -0.037973844 -0.09153459 0.024641009 0.028611505 -0.08206385 0.03958014 -0.0112014795
0.026764233 0.032880664 0.013262379 -0.04431107 0.12957022 0.06866218 0.029456638 -0.04381228
-0.07938312 -0.03772667 0.03252021 0.09766644 -0.04943631 -0.05548761 0.03964579 0.06855578
-0.04981063 0.12907332 -0.054170497 -0.1093628 -0.12919754 0.13907729 -0.12104958 0.116847314
0.056931097 0.037493285 0.02775707 0.1765769 0.12697844 0.012371662 -0.049417734 -0.11935609
-0.07439612 0.044957217 -0.026854398 0.06654118 0.12352508 0.09747351 0.13007721 0.14182216
0.11682803 -0.09771799 0.062075034 0.069810234 0.10345046 -0.16060176 0.001974428 0.15041433
0.08835949 0.1414139 0.06649539 -0.1034263 0.0036603366 -0.119636744 -0.15082054 -0.06795937
0.05862339 0.01635072 -0.068884924 -0.053499036 -0.09409221 0.09848883 0.08254239 -0.11671673
