LSTM_for_PDE/codes/experimentalCodes/models/LSTM_NS2d_tg_cyl.pth (torch, 162809 bytes, 16 tensors)

rnn.weight_ih_l0 f4 [200, 3]
0	0x3e44d730	0.19222713
1	0xbe3dce1b	-0.18535654
2	0x3cbef679	0.023310887
3	0x3e8d4b55	0.27596536
4	0xbeb7f92a	-0.35932285
5	0xbd979cc7	-0.0740295
6	0x3e403733	0.18771057
7	0xbe82f551	-0.25577787
8	0xbdd9f8b3	-0.10643139
9	0xbe085cb8	-0.1331662
10	0x3e5a3f65	0.21313246
11	0xbdf118ac	-0.11772284
12	0xbe06a5f4	-0.13149244
13	0x3d69703d	0.056991804
14	0xbe2a357a	-0.16621962
15	0x3e7ae00f	0.24499534
16	0xbe27243d	-0.16322418
17	0x3d43266b	0.04764406
18	0x3eb4da1a	0.35322648
19	0xbe8eea35	-0.2791306
20	0xbd334d6b	-0.043775003
21	0xbea07b45	-0.31344047
22	0x3e7a8fdb	0.24468939
23	0x3da53a72	0.08067788
24	0x3e78c154	0.24292499
25	0x3ea5451a	0.32279283
26	0xbca01e45	-0.019545684
27	0xbe82be12	-0.25535637
28	0x3e960dfa	0.29307538
29	0xbdfbbb19	-0.122915454
30	0xbe887246	-0.26649684
31	0x3e650130	0.22363734
32	0x3d265c61	0.040615443
33	0xbe2fa99b	-0.17154543
34	0x3db69d76	0.08916752
35	0x3d8f420e	0.06995021
36	0xbe75dad4	-0.24009258
37	0x3e898af8	0.26863837
38	0xbe375be1	-0.17906143
39	0xbea74eba	-0.3267725
40	0xbea69139	-0.3253267
41	0xbd8c95e0	-0.06864524
42	0xbe2f7eb1	-0.17138173
43	0xbe8c2104	-0.2736894
44	0x3c2c08d2	0.01050015
45	0xbe0a7e2a	-0.1352469
46	0xbe8e956a	-0.2784837
47	0xbe40744b	-0.18794362
48	0xbe571cef	-0.21007131
49	0x3e893b32	0.26802975
50	0x3e24e271	0.16102006
51	0x3e759c32	0.23985365
52	0xbe1b70d5	-0.15179761
53	0x3bfda7b3	0.0077409386
54	0x3e6f4e4c	0.23369712
55	0x3ea4ee46	0.32213038
56	0xbc1c2b23	-0.009531769
57	0x3e1e5efb	0.1546592
58	0xbe499516	-0.19685778
59	0xbddf32f2	-0.10898389
60	0xbd7c1028	-0.061538845
61	0xbe37ee96	-0.17962107
62	0xbe7c47c4	-0.24636751
63	0xbe8fd339	-0.28090838
64	0xbe6f5377	-0.23371683
65	0xbd6630de	-0.056198947
66	0x3e8d0427	0.2754223
67	0x3eb9c45b	0.3628262
68	0xbd8b5178	-0.06802648
69	0x3dbb6e19	0.09151859
70	0x3e4811d2	0.19538048
71	0xbd34e9a9	-0.04416815
72	0xbe8e691b	-0.27814564
73	0x3e9bffbe	0.30468553
74	0xbe71678c	-0.23574656
75	0xbe60a239	-0.21936883
76	0xbe628621	-0.22121479
77	0xbe7527b5	-0.23940928
78	0x3e88ecc9	0.26743153
79	0x3e5e1ca6	0.21690616
80	0x3dd5e896	0.10444753
81	0x3e80aeb8	0.251333
82	0x3e180933	0.14847259
83	0xbe58f865	-0.21188505
84	0x3eab481d	0.33453456
85	0xbe0ed99d	-0.139502
86	0x3d7749cb	0.06037311
87	0x3ea13745	0.3148748
88	0x3e56a3f4	0.2096098
89	0xbe37bab0	-0.1794231
90	0x3da73039	0.081634946
91	0xbe2e58ed	-0.1702611
92	0xbdec0926	-0.115251824
93	0xbc875af0	-0.016522855
94	0xbe7f54a6	-0.24934635
95	0xbd475800	-0.048667908
96	0xbc6ca851	-0.014444427
97	0xbd00146f	-0.031269487
98	0x3ba77a34	0.0051110033
99	0xbde8fef2	-0.11376752
100	0xbe702ad1	-0.23453833
101	0xbe095a61	-0.13413383
102	0x3e472485	0.19447525
103	0x3d094fa1	0.033523206
104	0xbdfffd79	-0.12499518
105	0x3de1bfcb	0.1102291
106	0x3e288480	0.16456795
107	0xbce2bf56	-0.027679127
108	0xbe7f0092	-0.24902561
109	0x3e623235	0.22089465
110	0xbe85d076	-0.26135606
111	0xbeac9137	-0.3370454
112	0xbec4e4b2	-0.3845573
113	0xbe77e90c	-0.24209994
114	0xbe04d79e	-0.12972876
115	0x3e4d7b0c	0.2006647
116	0xbea32a86	-0.3186838
117	0x3e0e7ef0	0.1391561
118	0xbe8da497	-0.27664635
119	0xbe08d3da	-0.13362065
120	0xbd45b6ac	-0.048269913
121	0x3e1d5ce3	0.15367465
122	0xbe4fe420	-0.20301867
123	0xbe60dddc	-0.21959633
124	0x3ca53a81	0.020169498
125	0xbe6323ef	-0.22181676
126	0x3e8958da	0.268256
127	0xbdb880f0	-0.09008968
128	0xbdd11a39	-0.1021008
129	0x3e83dfc5	0.2575666
130	0x3daa72b3	0.083226584
131	0xbdd4ab2b	-0.1038421
132	0xbe64d718	-0.22347677
133	0x3eb35e19	0.35032728
134	0x3de174f1	0.11008633
135	0x3ec9a00b	0.39379916
136	0x3ec382c8	0.38185716
137	0x3da3c094	0.07995716
138	0x3ebc832e	0.36818832
139	0xbeace0c3	-0.3376523
140	0xbe2e0ea6	-0.16997775
141	0x3dde61be	0.108584866
142	0xbdde5390	-0.10855782
143	0xbe8b3374	-0.27187693
144	0x3df6479e	0.12025379
145	0x3e8bd387	0.2730982
146	0xbe10293f	-0.14078234
147	0xbe8686db	-0.26274762
148	0xbeb48a9c	-0.35262
149	0xbd3599a5	-0.04433598
150	0xbdaa222e	-0.083073005
151	0x3d5bc8f8	0.053658456
152	0xbdd77e54	-0.10522142
153	0xbd42465c	-0.04743038
154	0x3dfb8cbe	0.12282704
155	0xbc0a4a50	-0.008440569
156	0xbcff51c4	-0.031166919
157	0x3d11d21c	0.035600767
158	0x3d99ee2c	0.07516131
159	0xbdaa1574	-0.08304873
160	0xbd627c48	-0.055294305
161	0xbdd3a364	-0.10333899
162	0x3d87b11c	0.06625578
163	0xbc62d4d0	-0.013844684
164	0xbd2d1dbe	-0.042264692
165	0xbe04ca38	-0.12967765
166	0x3cbff3b8	0.023431644
167	0x3dd803d4	0.10547605
168	0x3e03d979	0.12875928
169	0xbddff908	-0.10936171
170	0x3dc549a6	0.09633188
171	0x3e04b25b	0.12958662
172	0x3c8750d0	0.016518027
173	0xbd86a658	-0.06574696
174	0xbdacb8e6	-0.08433704
175	0xbde31581	-0.11088086
176	0x3e0db151	0.13837172
177	0x3d2daba4	0.042400017
178	0xbdace219	-0.08441562
179	0x3d4bebe0	0.049785495
180	0xbe0f3ef2	-0.13988855
181	0x3cb22ce0	0.021749914
182	0xbd052af6	-0.032511674
183	0xbe091327	-0.13386212
184	0x3cd54ab0	0.02603659
185	0xbdddef10	-0.10836613
186	0xbdcbe5aa	-0.09955914
187	0x3d64e038	0.055877894
188	0xbdb3369c	-0.0875065
189	0x3dda39f4	0.10655585
190	0x3d568de8	0.052381426
191	0xbd52195a	-0.05129371
192	0xbd0cae3a	-0.034345843
193	0xbde4ec11	-0.111778386
194	0x3c1de030	0.00963597
195	0x3d41a2b8	0.04727432
196	0x3dc63000	0.09677124
197	0x3ca25ba0	0.01981908
198	0xbc7dafd0	-0.0154838115
199	0xbb43f240	-0.002989903
200	0x3bd49080	0.0064869523
201	0xbd8d7cc0	-0.0690856
202	0x3d41d860	0.047325492
203	0xbdb116c0	-0.08646917
204	0xbd8fa306	-0.07013516
205	0x3d53e9f4	0.051736787
206	0xbdc58b26	-0.09645681
207	0x3d7965b8	0.060888022
208	0x3cdeff80	0.027221441
209	0xbde7deb6	-0.113217756
210	0xbe0b9c0e	-0.13633749
211	0x3a9eb500	0.0012108386
212	0xbce800fc	-0.028320782
213	0xbdcfcd56	-0.101465866
214	0x3d38a314	0.0450774
215	0xbdb26ab3	-0.087117575
216	0xbdb4b0f5	-0.088228144
217	0xbdb1f778	-0.08689779
218	0xbdd6ccb4	-0.10488263
219	0x3cdf6400	0.027269363
220	0xbdac63f8	-0.08417505
221	0x3b98e580	0.0046660304
222	0x3e0555f5	0.13021071
223	0x3dd087e6	0.101821706
224	0x3dc071f0	0.09396732
225	0xbdbfe880	-0.09370518
226	0x3d49a0a0	0.04922545
227	0xbdd14d96	-0.102198765
228	0x3e07fae7	0.13279305
229	0x3d91dc48	0.071220934
230	0xbd803ec9	-0.06261975
231	0x3c843558	0.016138718
232	0xbb9f9a80	-0.0048707128
233	0x3d03e200	0.032197952
234	0xbb01f700	-0.0019831061
235	0x3d607168	0.054795653
236	0xbdf9e9f7	-0.122028284
237	0xbe00dc0c	-0.12583941
238	0x3dc06c48	0.09395653
239	0xbde122c8	-0.10992962
240	0x3e086149	0.13318361
241	0x3e0abe9f	0.13549279
242	0x3db6f494	0.08933368
243	0x3e01ea8b	0.12687127
244	0xbdfbd2dc	-0.122960776
245	0x3db791de	0.08963369
246	0x3d0b1900	0.03395939
247	0x3cfc6e48	0.030814305
248	0xbe0aaef6	-0.13543305
249	0x3d295604	0.041341797
250	0xbe100e49	-0.1406795
251	0x3dc82324	0.097723275
252	0xbd7dae7e	-0.061933987
253	0xbe0b1d9b	-0.13585512
254	0xbd9850aa	-0.074372604
255	0x3b46c880	0.003033191

rnn.weight_hh_l0 f4 [200, 50]
0	0x3c4ee4b0	0.012627766
1	0xbd89198a	-0.06694324
2	0x3e038613	0.12844114
3	0x3c6b8db0	0.014377043
4	0x3d26da74	0.040735677
5	0xbdbff716	-0.093733
6	0xbdf0c6a2	-0.11756636
7	0x3d7da1cc	0.06192188
8	0xbd69ee34	-0.057111934
9	0x3d8b95d2	0.06815685
10	0x3dca928a	0.09891231
11	0xbdd5c01e	-0.10437034
12	0xbdf1c29c	-0.11804697
13	0xbd981b7f	-0.074271195
14	0x3d87cd0a	0.06630905
15	0x3e0d5151	0.13800551
16	0x3d95d748	0.07316452
17	0xbcb1f3ac	-0.021722637
18	0x3cd65b88	0.026166692
19	0xbddabb92	-0.106803074
20	0x3d33be9c	0.04388295
21	0xbdb0eaa6	-0.08638506
22	0x3dd2c4c8	0.10291439
23	0x3dd48af4	0.10378066
24	0x3c0bb740	0.008527577
25	0xbceae6a8	-0.028674439
26	0xbdd91f1a	-0.10601635
27	0x3d648e48	0.055799752
28	0xbdad3510	-0.084573865
29	0x3d67dd3c	0.05660747
30	0x3d9b53c2	0.07584335
31	0xbe0664a7	-0.13124333
32	0x3de34f8a	0.11099155
33	0xbd4549c6	-0.04816606
34	0xbd496b06	-0.04917433
35	0xbd80fc6c	-0.06298146
36	0xbd99840f	-0.07495891
37	0xbd48142a	-0.048847355
38	0x3daa2844	0.08308461
39	0xbbd30340	-0.0064395964
40	0x3e0c8923	0.13724189
41	0xbd86ee58	-0.06588429
42	0x3da9713c	0.08273551
43	0x3caddb18	0.021222636
44	0xbd7c068c	-0.06152968
45	0x3e0fd829	0.14047302
46	0x3d9a7bc0	0.07543135
47	0xbd2b3a1a	-0.041803457
48	0x3df9a6b2	0.12189998
49	0xbe0e6977	-0.13907419
50	0x3ced8ef8	0.028998837
51	0xbdbdef34	-0.0927414
52	0xbc8aca10	-0.016942054
53	0xbe0d4e27	-0.13799344
54	0xbdc07d6a	-0.09398921
55	0xbca7bc4c	-0.02047553
56	0x3d407f54	0.04699643
57	0xbc9c0fb8	-0.019050464
58	0xbca06fe8	-0.019584611
59	0x3daf4620	0.08558297
60	0xbd5ffa32	-0.054681964
61	0x3d3004d8	0.04297337
62	0xbd18be5e	-0.037290923
63	0xbda68b99	-0.08132095
64	0x3e00bc5b	0.12571852
65	0xbc832498	-0.01600866
66	0x3da54978	0.08070654
67	0x3e0682c7	0.13135825
68	0xbde710a2	-0.11282469
69	0x3dd53c5a	0.10411902
70	0xbdbebcd4	-0.0931336
71	0x3de6c536	0.11268084
72	0x3dc04ec8	0.09390026
73	0xbca7902c	-0.020454489
74	0x3d97478a	0.07386692
75	0x3dcce79e	0.10005115
76	0x3cdd6ad8	0.027028486
77	0xbd961ce7	-0.073297314
78	0xbca66e68	-0.020316318
79	0x3d0aec4c	0.033916757
80	0x3d74eacc	0.059794232
81	0xbda0cbee	-0.078513965
82	0xbd3c74b6	-0.04600974
83	0xbcc7c420	-0.024385512
84	0xbe0b3f7b	-0.13598435
85	0x3d903b9e	0.07042621
86	0xbb4e5880	-0.0031485856
87	0xbce22ae4	-0.027608342
88	0x3dfd4e4a	0.12368448
89	0xbdc3f202	-0.09567644
90	0xbca3ce44	-0.019995816
91	0xbe097518	-0.13423574
92	0x3cb26220	0.021775305
93	0xbe0d073f	-0.13772295
94	0x3e05daf3	0.13071804
95	0xbdc2cc88	-0.095116675
96	0x3dc7c402	0.097541824
97	0x3dc7ec54	0.09761873
98	0x3db29f28	0.08721763
99	0x3d759d24	0.059964314
100	0x3cfb9d80	0.03071475
101	0x3dd3aab0	0.103352904
102	0x3da971d0	0.08273661
103	0x3d691970	0.056909025
104	0xbc8228a8	-0.015888527
105	0x3c95b600	0.01827526
106	0xbe0dbda3	-0.13841872
107	0x3988cc00	0.00026091933
108	0xbdedf117	-0.1161825
109	0x3d3b020c	0.04565625
110	0xbdab40dc	-0.0836198
111	0x3de4240a	0.111396864
112	0x3e105469	0.140947
113	0xbdb8ec43	-0.09029438
114	0x3d68d3b8	0.056842536
115	0xbd3033ea	-0.04301826
116	0x3de1c522	0.11023928
117	0xbd5072b8	-0.050890654
118	0xbd335f6e	-0.04379218
119	0xbccd5310	-0.025064021
120	0x3dae134e	0.08499776
121	0xbcdacbcc	-0.026708506
122	0xbe0a8d3d	-0.1353044
123	0xbe02f868	-0.12790072
124	0xbe0a2363	-0.13490061
125	0x3da6d4ee	0.08146082
126	0x3e035881	0.1282673
127	0x3d5e2624	0.054235592
128	0x3d8a5e0a	0.06756218
129	0x3dc747a4	0.09730461
130	0xbd0021b6	-0.03128215
131	0x3d875396	0.066077396
132	0xbcc89b30	-0.024488062
133	0xbd0c823a	-0.03430388
134	0xbdaf735f	-0.08566927
135	0x3c8a6c60	0.01689738
136	0xbcf8e454	-0.030382313
137	0xbe06a80e	-0.13150045
138	0x3dbea5a2	0.09308936
139	0xbdcb0d33	-0.09914627
140	0xbcb267b4	-0.021777965
141	0xbdf36c68	-0.11885911
142	0xbdd14bc4	-0.10219529
143	0xbdcf8f54	-0.101347595
144	0xbd8a841e	-0.067634806
145	0xbdde295a	-0.10847731
146	0xbb1e4e00	-0.0024155378
147	0xbe058610	-0.13039422
148	0xbc6333e0	-0.013867348
149	0xbe07d602	-0.13265231
150	0xbe0f1e8e	-0.139765
151	0x3dd11b1e	0.1021025
152	0x3db196d0	0.08671343
153	0xbce0461c	-0.02737718
154	0x3ce1cc30	0.027563184
155	0xbd5cd304	-0.053912178
156	0x3d9a79a6	0.07542734
157	0xbd1f3a26	-0.038873814
158	0x3dbd0ae8	0.09230596
159	0x3dcdb32c	0.1004394
160	0x3deaa616	0.1145746
161	0x3d29dfec	0.041473314
162	0xbe1088c2	-0.14114669
163	0xbb1e3ec0	-0.0024146289
164	0x3dbdffc2	0.092772976
165	0x3e0b8b75	0.13627417
166	0x3d8c4f56	0.0685107
167	0x3e0c8ef5	0.13726409
168	0xbc104ff0	-0.008808121
169	0x3cd4fa90	0.025998384
170	0xbdfcd27a	-0.12344833
171	0x3db8fc80	0.090325356
172	0x3bc85340	0.00611344
173	0xbd65d9ee	-0.056116037
174	0xbdf7eebf	-0.12106084
175	0xbe0396a9	-0.12850441
176	0xbde515f4	-0.11185828
177	0x3db01172	0.085970774
178	0x3d4784b0	0.048710525
179	0xbd89b21d	-0.067234255
180	0x3df04596	0.117320225
181	0x3d8247ac	0.063613266
182	0x3d2e8ae8	0.04261294
183	0xbdbe4614	-0.0929071
184	0x3e06329b	0.13105242
185	0x3daa3c1c	0.08312246
186	0xbdd1b6ea	-0.10239966
187	0xbdb8d5e6	-0.09025173
188	0x3d9f5492	0.077798024
189	0xbcf0b48c	-0.029382966
190	0x3ca9aed8	0.020713255
191	0xbd70a79e	-0.058753602
192	0x3dc201f0	0.09473026
193	0xbca8ac0c	-0.02058985
194	0xbd9404f4	-0.07227507
195	0xbd16c298	-0.036806673
196	0xbd0927d4	-0.03348525
197	0x3d8738e0	0.06602645
198	0xbde3cfdb	-0.1112363
199	0xbe0a51e0	-0.13507795
200	0xbc91f2a4	-0.017815895
201	0x3e0fe3b7	0.1405171
202	0x3df750d6	0.12075965
203	0xba3b7e00	-0.00071522593
204	0x3d7e5988	0.062097102
205	0x3dba0c24	0.09084347
206	0x3cb3d830	0.021953672
207	0xbe03a0cc	-0.12854308
208	0x3dd3621c	0.10321447
209	0xbe0b43d2	-0.1360009
210	0xbdcb7a43	-0.09935429
211	0xbb8ad7a0	-0.0042371303
212	0xbddd8ca2	-0.10817839
213	0x3d20d4e8	0.039265543
214	0x3dabb5a0	0.083842516
215	0xbceaad98	-0.02864723
216	0xbd02266a	-0.031774916
217	0x3ba19820	0.004931465
218	0xbe066dd3	-0.13127832
219	0xbdb54391	-0.08850778
220	0xbe0bceb7	-0.13653074
221	0xbddba238	-0.107243
222	0xbce3c6a4	-0.02780468
223	0x3dac006a	0.083985165
224	0x3dd61964	0.104540616
225	0xbcd32d48	-0.025778428
226	0x3c42fc40	0.011900961
227	0xbd4322d0	-0.04764062
228	0x3dabc9d8	0.08388108
229	0xbe07b878	-0.13253963
230	0xbdd989ee	-0.10622011
231	0xbaacf100	-0.0013194382
232	0x3dfa2b72	0.12215318
233	0xbdb63fef	-0.08898913
234	0xbe0c2aa9	-0.13688149
235	0xbc8b2588	-0.01698567
236	0x3d83d744	0.06437543
237	0x3d89ef08	0.06735045
238	0xbd616504	-0.055027977
239	0x3db1a0a6	0.086732194
240	0xbcc36f84	-0.023856886
241	0x3e019f77	0.12658487
242	0xbd0f92d0	-0.03505212
243	0xbe105637	-0.14095388
244	0xbde49056	-0.111603424
245	0x3de20b12	0.11037268
246	0xbd4e0542	-0.050297983
247	0x3d9b247a	0.07575317
248	0x3deb283a	0.11482282
249	0x3daf6c50	0.08565581
250	0x3debda16	0.11516206
251	0x3cb05798	0.021526143
252	0xbc5940a0	-0.013260037
253	0xbde9d3b8	-0.11417335
254	0xbd1abb50	-0.03777629
255	0xbe06a37f	-0.13148306

rnn.bias_ih_l0 f4 [200]
0	0x3e00fc84	0.12596327
1	0x3e940b6b	0.2891496
2	0x3e0debe9	0.13859524
3	0x3e5146e4	0.20437199
4	0x3dab080e	0.08351146
5	0x3e4f8519	0.20265616
6	0x3e20e37b	0.15711777
7	0x3ed015a5	0.40641513
8	0x3eb244b4	0.3481804
9	0x3e7e1c1a	0.24815407
10	0x3e0096ff	0.125576
11	0x3dff4efd	0.12466238
12	0x3a4b23d5	0.0007749175
13	0x3e827d4b	0.25486216
14	0x3e0ee819	0.13955726
15	0x3e54dd52	0.20787552
16	0x3e769ae4	0.24082524
17	0x3d74ab7e	0.05973386
18	0x3ebb06d5	0.3652865
19	0xbd2dcf15	-0.042433817
20	0x3e3b1c25	0.18272455
21	0x3dd5f207	0.10446554
22	0x3e14b95c	0.14523834
23	0x3d1b089e	0.037850015
24	0x3e132ffb	0.14373772
25	0xbd777a4a	-0.06041936
26	0x3e2e55b0	0.17024875
27	0xbe1af5b2	-0.15132788
28	0x3e596c0d	0.21232624
29	0x3ea7b0be	0.3275203
30	0x3d54a0d3	0.051911186
31	0x3d9c03c9	0.076179095
32	0x3e6b9297	0.23005138
33	0x3e749b9c	0.23887485
34	0x3e82906d	0.25500813
35	0x3df4eda0	0.11959386
36	0x3dcf8d37	0.101343565
37	0x3e3861e0	0.18006086
38	0x3e9fb125	0.31189838
39	0x3dec6e58	0.11544484
40	0x3e8e378c	0.27776754
41	0xbe0059e8	-0.12534297
42	0x3d360203	0.044435512
43	0x3e94dabe	0.29073137
44	0x3e0ef47e	0.13960454
45	0x3e2af421	0.1669469
46	0x3e910769	0.28325966
47	0x3e599d74	0.2125147
48	0xbde6bc39	-0.112663694
49	0x3da1ef69	0.07906992
50	0xbb14d5c0	-0.0022710413
51	0x3dadad6e	0.08480345
52	0xbe034685	-0.1281987
53	0xbdb3fb1e	-0.08788131
54	0x3baa4e00	0.0051972866
55	0xbdfa4156	-0.12219493
56	0x3d961722	0.07328631
57	0xbd5cb6e8	-0.05388537
58	0xbbe8d420	-0.0071053654
59	0xbda649fa	-0.08119579
60	0x3cdf41e0	0.027253091
61	0x3dbb7e70	0.091549754
62	0xbdb2d904	-0.08732799
63	0xbc020550	-0.007935837
64	0xbd902a2d	-0.070392944
65	0x3d4b5818	0.04964456
66	0xbb562200	-0.0032674074
67	0x3d680050	0.056640923
68	0xbdb55c0a	-0.08855446
69	0xbb647fc0	-0.0034866184
70	0xbdfbd2ce	-0.12296067
71	0xbe07ab0f	-0.13248847
72	0xbd6b3cae	-0.057430916
73	0x3deba9e2	0.11507012
74	0xbd88efe6	-0.06686382
75	0x3dfd5ed2	0.12371601
76	0xbde1ebe0	-0.11031318
77	0xbe00c323	-0.12574439
78	0xbd929447	-0.07157188
79	0xbddba66f	-0.10725104
80	0x3d83fe7e	0.06445025
81	0xbe0d5c27	-0.13804685
82	0x3dda0d62	0.10647084
83	0x3d3112e0	0.04323089
84	0x3de2929e	0.11063121
85	0x3e0ab251	0.13544585
86	0xbcc81090	-0.02442196
87	0x3c844ba0	0.016149342
88	0x3e0c7687	0.1371709
89	0x3dfd54fa	0.123697236
90	0x3e0b5ed5	0.13610394
91	0xbd3798a6	-0.04482331
92	0xbd9f68ac	-0.077836365
93	0xbc2a8eb0	-0.010409996
94	0x3c65abd0	0.014018014
95	0xbd8d85f2	-0.06910314
96	0x3d3b232c	0.04568784
97	0x3d815c4a	0.06316431
98	0x3d89e706	0.06733517
99	0xbde8bf2a	-0.11364587
100	0xbdd5a0d4	-0.10431066
101	0xbd90d247	-0.07071357
102	0xbde5e9b5	-0.11226217
103	0x3c0bb4f2	0.008527027
104	0xbdd7d3ab	-0.10538419
105	0xbd949efc	-0.07256886
106	0xbdc94257	-0.098271064
107	0x3d49b8c0	0.049248457
108	0xbcb68fc1	-0.022285344
109	0x3d9eef27	0.077604584
110	0x3de7bdc0	0.11315489
111	0x3cb74a4c	0.022374295
112	0x3d365649	0.04451588
113	0x3e2063e1	0.15663101
114	0xbd743023	-0.05961622
115	0x3e1f5782	0.15560725
116	0x3d2bd32a	0.04194943
117	0x3d69c647	0.057073858
118	0xbd2d7b5d	-0.042353977
119	0xbe0ee097	-0.13952862
120	0xbe1213e7	-0.14265405
121	0x3e406742	0.1878939
122	0xbda3038b	-0.0795966
123	0x3e3f2334	0.18665773
124	0xbd9a1303	-0.075231574
125	0x3b96676a	0.0045899646
126	0xbc85ca8e	-0.016331937
127	0x3cfa119c	0.030525975
128	0x3d46c004	0.048522964
129	0x3e171a6c	0.14756173
130	0xbc3e2b86	-0.0116070565
131	0x3d3c35a2	0.045949586
132	0xbda3f620	-0.08005929
133	0x3a5389a8	0.00080695236
134	0x3da89e37	0.08233302
135	0x3debfe18	0.11523074
136	0xbd614764	-0.054999724
137	0xbe5343b7	-0.206313
138	0x3d87e94e	0.06636296
139	0xbdd8c0cd	-0.10583649
140	0xbe04951c	-0.12947506
141	0xbd054f90	-0.03254658
142	0xbd60611f	-0.054780122
143	0xbe106db5	-0.1410435
144	0x3d56acda	0.052410938
145	0x3d39ff50	0.0454095
146	0xbde608b1	-0.112321265
147	0xbe3b3580	-0.18282127
148	0x3d896e94	0.06710544
149	0x3d93b806	0.07212834
150	0x3d0a03b4	0.033694938
151	0x3e3feaaf	0.18741868
152	0x3bb5849b	0.0055394894
153	0x3b67d24a	0.0035373145
154	0x3e101bb4	0.14073068
155	0x3e61adee	0.22039005
156	0x3e3fb7b2	0.18722418
157	0x3ec1ea19	0.37873915
158	0x3e5ba541	0.21449758
159	0x3e313be6	0.17308006
160	0x3e1afad0	0.1513474
161	0xbd3ee022	-0.04660047
162	0x3d3a36c0	0.04546237
163	0x3e60f333	0.21967773
164	0xbdfd331d	-0.12363265
165	0x3e267fe7	0.16259728
166	0x3de65886	0.11247353
167	0x3e06c732	0.13161924
168	0x3e1a7f6f	0.15087675
169	0xbdb402ee	-0.08789621
170	0x3e670b33	0.22562866
171	0x3e98e1f5	0.29859892
172	0x3e894ddb	0.26817212
173	0xbd69609e	-0.056976907
174	0x3eab9190	0.33509493
175	0x3dfc2814	0.12312332
176	0x3e50bed6	0.20385298
177	0xbd40e8b1	-0.04709691
178	0x3e34897e	0.17630574
179	0x3e15920e	0.14606497
180	0x3d96e4c0	0.07367849
181	0xbd785ed7	-0.06063732
182	0x3e2d90a2	0.16949704
183	0x3dc985fb	0.09840008
184	0x3deb3682	0.11485006
185	0x3db9a2c5	0.09064249
186	0x3e4b1d0e	0.19835302
187	0x3e341bfb	0.17588799
188	0x3e583ae5	0.21116216
189	0x3db319f0	0.087451816
190	0x3e760135	0.24023898
191	0x3dbc9138	0.09207386
192	0x3e093a81	0.13401224
193	0x3dd1022d	0.10205493
194	0x3e93d0c2	0.28870207
195	0x3eccc42d	0.3999342
196	0x3e96b7a2	0.29436976
197	0x3d6c1935	0.057641227
198	0x3e16cbf3	0.14726238
199	0x3c34baa2	0.011030825

rnn.bias_hh_l0 f4 [200]
0	0x3eb82ebf	0.35973164
1	0x3edbcf35	0.42931524
2	0x3e52e912	0.20596722
3	0x3d8e8bc7	0.06960254
4	0x3e836b74	0.25667918
5	0x3ea90ef8	0.33019233
6	0x3e815f6d	0.25268117
7	0x3e4ef64c	0.20211142
8	0x3e5bac7a	0.21452513
9	0x3db62b0e	0.08894931
10	0x3daec865	0.08534316
11	0x3dec1347	0.11527114
12	0x3ddf4f2f	0.10903775
13	0x3e70db5c	0.23521179
14	0x3db283c0	0.087165356
15	0x3e53c715	0.20681413
16	0x3e9c1bf2	0.3049007
17	0x3af615d7	0.0018774819
18	0x3e216dff	0.15764616
19	0x3c195e1c	0.009360816
20	0x3ec2ca82	0.38045126
21	0x3e9c49d5	0.3052508
22	0x3e68cffc	0.2273559
23	0x3e53e02a	0.2069098
24	0x3e0d0abb	0.13773625
25	0xbdb145dd	-0.086559035
26	0xbc2d20fc	-0.010566946
27	0xbdaa495c	-0.083147734
28	0x3e622f45	0.22088344
29	0x3e7a7b68	0.24461138
30	0xbdec2343	-0.11530163
31	0xbd7a8ca5	-0.061169285
32	0x3d979703	0.0740185
33	0x3ea00f67	0.3126175
34	0x3d2d1a40	0.042261362
35	0xbc14b50f	-0.009076371
36	0x3e809ec1	0.2512112
37	0x3dbacab2	0.09120692
38	0x3e8cff91	0.27538732
39	0x3dbd911d	0.09256194
40	0x3dad9f1b	0.084776126
41	0x3db5fc4b	0.08886012
42	0xbcd833e4	-0.02639193
43	0x3ea1a748	0.31572938
44	0x3e334ffa	0.17510977
45	0x3ed16a0a	0.40901214
46	0x3e58c608	0.21169293
47	0x3e50b1e0	0.20380354
48	0xbdaaefbb	-0.08346506
49	0x3e26d704	0.1629296
50	0xbd80333d	-0.06259773
51	0x3e0c68eb	0.13711898
52	0x3df320ea	0.11871512
53	0x3d1fb5c4	0.038991705
54	0xbd3a1f36	-0.04543992
55	0xbda92b8e	-0.082602605
56	0x3d9f5fac	0.0778192
57	0xbd0955f8	-0.03352925
58	0x3de0e162	0.10980488
59	0x3dd52dbe	0.10409115
60	0xbd8f6069	-0.07000811
61	0x3d148f40	0.036269426
62	0xbb4bfb00	-0.003112495
63	0xbdbb3620	-0.09141183
64	0x3d57790c	0.052605674
65	0xbd9ce5b1	-0.07660998
66	0xbdb07d5e	-0.08617662
67	0x3cf325a8	0.029681042
68	0x3df22602	0.11823656
69	0xbdd14ccc	-0.10219726
70	0xbdaa032a	-0.08301385
71	0x3d056954	0.03257115
72	0x3b43e540	0.0029891282
73	0xbe014d3e	-0.12627122
74	0x3d5546ac	0.05206935
75	0xbd852e13	-0.065029286
76	0xbd87a96d	-0.06624112
77	0xbd1fb1ca	-0.038987912
78	0x3e0d553f	0.1380205
79	0xbdf3907e	-0.11892794
80	0x3cf80f90	0.030280858
81	0xbcfcdef4	-0.030868031
82	0xbdc9261c	-0.09821722
83	0x3d34a49c	0.044102296
84	0xbddf3662	-0.108990446
85	0xbd80f366	-0.062964246
86	0xbdfc6690	-0.1232425
87	0xbc1faf10	-0.009746328
88	0xbe048cf7	-0.12944399
89	0x3d987e12	0.07445921
90	0xb9ccea00	-0.00039084256
91	0xbd194126	-0.037415646
92	0xbd9b2307	-0.0757504
93	0x3dcfb45e	0.10141824
94	0x3da5cb6a	0.08095439
95	0xbce75060	-0.028236568
96	0xbd1019de	-0.03518092
97	0x3d72e4d4	0.05930026
98	0x3d85f924	0.065416604
99	0x3d7cf0dc	0.06175314
100	0x3bc0cffe	0.0058841696
101	0xbd69f8dd	-0.0571221
102	0x3d386a3a	0.04502318
103	0xbc8eda10	-0.017437965
104	0xbde670de	-0.112519965
105	0xbc8f710f	-0.017509965
106	0x3c00d352	0.007862883
107	0xbda977f9	-0.08274836
108	0xbe1c264d	-0.15248986
109	0xbd84cedd	-0.064847685
110	0xbcf455a8	-0.029826
111	0xbcd7ef9b	-0.02635937
112	0x3c11b0ca	0.008892247
113	0xbcfd2b65	-0.030904481
114	0xbd50985e	-0.05092656
115	0x3d3c51b7	0.045976367
116	0xbcb7af3f	-0.022422431
117	0x3d841983	0.064501785
118	0xbdc39eaf	-0.09551751
119	0xbddd18df	-0.107957594
120	0xbe17d27a	-0.14826384
121	0x3dfa96ce	0.12235795
122	0xbdf45edb	-0.11932155
123	0xbd84b647	-0.06480079
124	0x3d98e9f4	0.07466498
125	0x3cc6ab1f	0.024251519
126	0x3b2f858a	0.0026782476
127	0xbd8d1bb1	-0.06890047
128	0x3d53fcd7	0.0517548
129	0x3b04f418	0.0020287093
130	0xbe2a950d	-0.16658421
131	0x3d45a82b	0.04825608
132	0xbde2f90e	-0.1108266
133	0x3e6352a6	0.22199497
134	0x3e1d754e	0.1537678
135	0xbdd43394	-0.103614
136	0x3d318562	0.043340094
137	0xbd9ac519	-0.07557125
138	0x3df69b44	0.12041333
139	0x3d4a7e8e	0.0494371
140	0xbcda083c	-0.026615255
141	0x3cde2840	0.027118802
142	0x3b2e1c09	0.0026567003
143	0xbd4ab91e	-0.049492948
144	0x3d7cbe31	0.06170482
145	0xbd7f3c94	-0.06231363
146	0xbdb3d839	-0.087814756
147	0xbd509ab1	-0.050928775
148	0x3d6c8a31	0.057748977
149	0x3c36c89c	0.011156227
150	0x3e35b49b	0.17744677
151	0x3e42b3a0	0.19013834
152	0x3e26361c	0.16231579
153	0x3c46b839	0.012128883
154	0x3d931985	0.07182602
155	0x3d9c1d9a	0.076228335
156	0x3e919018	0.28430247
157	0x3e67be2a	0.22631136
158	0x3de03ed0	0.109494805
159	0x3da4115f	0.08011126
160	0x3e3ac095	0.18237527
161	0xbdb161c8	-0.086612284
162	0x3e6bc165	0.23022993
163	0x3dd5da0c	0.1044198
164	0x3cdb45a1	0.0267666
165	0x3e01dd40	0.12682056
166	0x3e13f4b7	0.1444882
167	0x3d150fe6	0.036392115
168	0x3e9667da	0.29376107
169	0x3deaa282	0.11456777
170	0x3e8bac40	0.27279854
171	0x3e8efee7	0.2792885
172	0x3e207ae1	0.15671875
173	0x3e44fbda	0.19236699
174	0x3e997beb	0.29977354
175	0x3d02855d	0.031865466
176	0x3e005a65	0.12534483
177	0xbd10f4c8	-0.03538969
178	0x3e7acdcb	0.24492566
179	0x3e8f3e8b	0.27977404
180	0x3e28e05f	0.16491841
181	0x3e0e0308	0.13868344
182	0x3e50989b	0.20370714
183	0x3da4eeed	0.08053384
184	0x3d88775a	0.066633895
185	0x3e057a3c	0.1303491
186	0x3e07bc19	0.13255347
187	0x3e402977	0.18765818
188	0x3e3a4952	0.18192032
189	0x3e08b7c3	0.1335135
190	0xbc7b37c0	-0.015333116
191	0x3cc5da54	0.024151959
192	0x3e191d06	0.14952478
193	0x3e97ace6	0.296241
194	0x3cd2ecbb	0.025747648
195	0x3e0cedec	0.13762635
196	0x3e88ac4d	0.26693955
197	0x3d8d755c	0.0690715
198	0x3e2e5aa4	0.17026764
199	0x3e358858	0.17727792

rnn.weight_ih_l1 f4 [200, 50]
0	0xbe52d9c0	-0.20590878
1	0xbe8bbaba	-0.272909
2	0xbe6758d6	-0.22592482
3	0x3e8889da	0.26667672
4	0xbd1f7631	-0.038931075
5	0x3e38ac0a	0.18034378
6	0xbdb95924	-0.09050205
7	0xbde2f10b	-0.110811315
8	0xbea8fc09	-0.33004788
9	0xbe3eb4db	-0.18623678
10	0xbd9b1926	-0.07573156
11	0xbdbd7914	-0.092516094
12	0x3e1f638c	0.15565318
13	0x3daa924b	0.083286844
14	0xbe95af89	-0.29235485
15	0x3e928fea	0.28625423
16	0xbbe4d343	-0.006983192
17	0xbdd89e0e	-0.105770215
18	0xbdb8f397	-0.09030836
19	0x3da50c64	0.08059004
20	0xbec334a5	-0.38126102
21	0x3e645468	0.22297823
22	0xbe8df94b	-0.27729258
23	0x3e5f5ff6	0.2181395
24	0x3ea2f32e	0.31826156
25	0x3e4a096e	0.1973016
26	0x3d0eddf1	0.03487963
27	0xbd2ccd36	-0.042187892
28	0x3c128606	0.0089430865
29	0x3e859dff	0.26097104
30	0xbdd5c4dd	-0.10437939
31	0xbe53e007	-0.20690928
32	0x3e2a3c81	0.16624643
33	0x3e9bcd64	0.30430138
34	0x3db368cf	0.08760225
35	0xbe1bf67a	-0.15230742
36	0xbeb2a0ef	-0.34888408
37	0xbe87c399	-0.26516417
38	0x3e511d3f	0.20421313
39	0xbe80af98	-0.25133967
40	0xbe8a27cd	-0.2698349
41	0xbe72f81f	-0.23727463
42	0x3c1d1b44	0.00958902
43	0xbe97afad	-0.29626217
44	0xbd668c66	-0.056286238
45	0xbd7ec889	-0.062202964
46	0xbdfc24ec	-0.1231173
47	0xbe887c82	-0.26657492
48	0x3d39a06e	0.045319013
49	0x3d7f5bdb	0.06234346
50	0xbe3e0eea	-0.18560377
51	0xbea1d149	-0.31604984
52	0xbeb2affe	-0.34899896
53	0x3e8a6c11	0.27035573
54	0xbe3d89fd	-0.1850967
55	0x3e86118d	0.26185265
56	0xbe160dab	-0.14653651
57	0xbe8fe2b6	-0.28102654
58	0xbe649aa8	-0.22324622
59	0xbe54d9e6	-0.20786247
60	0x3e471651	0.19442107
61	0xbce30651	-0.027712973
62	0x3e6841a3	0.22681288
63	0xbdb1dbf8	-0.08684534
64	0x3c63e853	0.013910371
65	0x3e847add	0.25874987
66	0xbe928f8d	-0.28625146
67	0xbe124e24	-0.14287621
68	0xbeb89fe0	-0.36059475
69	0xbe721a79	-0.23642911
70	0xbd9240d8	-0.07141274
71	0x3e18e457	0.14930855
72	0xbe28ef88	-0.16497624
73	0x3dfc905a	0.123322204
74	0x3e8980d4	0.268561
75	0x3db70b13	0.08937659
76	0x3e3ed1a5	0.1863466
77	0x3e28c0a9	0.16479744
78	0x3ea5992b	0.3234342
79	0x3d6e36a7	0.05815759
80	0xbb90fd34	-0.0044247154
81	0xbc10f90e	-0.008848442
82	0xbdc5f2ec	-0.09665474
83	0xbcf4e74a	-0.029895443
84	0x3e6b3d5f	0.2297263
85	0xbe09cdc8	-0.13457406
86	0xbdf5c59a	-0.1200058
87	0x3df1e57a	0.11811347
88	0x3ec4c713	0.38433132
89	0xbe59df99	-0.21276702
90	0xbe48a655	-0.195947
91	0xbe88f75f	-0.2675123
92	0x3e389549	0.18025698
93	0xbe77a894	-0.24185401
94	0xbe573408	-0.21015942
95	0xbe0dda86	-0.13852891
96	0xbe4175ce	-0.18892595
97	0xbea08e5a	-0.31358606
98	0x3d781f38	0.060576648
99	0xbd61fa4b	-0.05517034
100	0xbe388f86	-0.180235
101	0x3d34e77a	0.044166066
102	0xbd8c164e	-0.06840192
103	0x3e924717	0.28569862
104	0xbe67dce7	-0.22642861
105	0xbe141eda	-0.14464894
106	0x3d4cf5e6	0.050039195
107	0xbd168b93	-0.036754202
108	0xbd381fdd	-0.044952262
109	0x3ba5760f	0.005049474
110	0xbd07b0cb	-0.033127587
111	0xbd2ac897	-0.041695204
112	0x3d884999	0.06654663
113	0x3ce9e30b	0.028550645
114	0xbdc49998	-0.09599608
115	0x3e355f09	0.17712034
116	0xbdb6ff1c	-0.08935377
117	0xbd21a806	-0.03946688
118	0x3d9abb5a	0.07555266
119	0x3d77ecca	0.060528554
120	0xbe69fa33	-0.2284935
121	0x3e8d76e0	0.27629757
122	0xbcac4df1	-0.02103326
123	0x3daacccb	0.083398424
124	0x3e1c8e90	0.15288758
125	0x3bfd3aa6	0.0077279387
126	0xbdacf9f5	-0.08446113
127	0x3d4d2ab3	0.05008955
128	0x3d3a0190	0.045411646
129	0x3df77485	0.12082771
130	0x3d740807	0.059577968
131	0x3dd80a99	0.10548896
132	0xbe0c5084	-0.1370259
133	0x3ea7266a	0.32646495
134	0x3b4013a7	0.0029308589
135	0xbd830350	-0.06397116
136	0xbe46621b	-0.19373362
137	0xbdc5f918	-0.096666515
138	0x3e46c468	0.1941086
139	0xbdb91282	-0.09036733
140	0xbe8e29a4	-0.27766144
141	0xbda2f3a8	-0.0795663
142	0x3b47ecfc	0.0030506244
143	0xbe1eb6e0	-0.15499449
144	0xbda94940	-0.082659245
145	0xbd8d7181	-0.06906415
146	0x3c83af32	0.01607475
147	0xbd00584c	-0.031334206
148	0x3d6f7b30	0.05846709
149	0x3e82d7f1	0.25555375
150	0xbe7c3902	-0.24631122
151	0xbe3738e0	-0.1789279
152	0xbe228496	-0.1587089
153	0x3d49c6d8	0.049261898
154	0xbe09fe71	-0.13475968
155	0x3e37b40b	0.17939775
156	0xbea1f781	-0.31634143
157	0xbcc12547	-0.023577346
158	0xbed415e4	-0.4142295
159	0xbe58dbff	-0.21177672
160	0xbcf7e0ba	-0.030258525
161	0xbd3a8a23	-0.045541894
162	0x3dbeae4c	0.09310588
163	0x3e1d013f	0.15332507
164	0xbeaf6b0c	-0.34261358
165	0x3ebc9e13	0.3683935
166	0xbe4613a4	-0.1934343
167	0xbe01201e	-0.12609908
168	0xbea3635a	-0.31911737
169	0xbd1ad5c3	-0.037801515
170	0xbeae1e9c	-0.34007728
171	0x3ead3328	0.33828092
172	0xbea1482f	-0.31500384
173	0x3e980118	0.29688334
174	0x3ea94073	0.33056983
175	0xbcbb3c47	-0.02285589
176	0x3e8cbb8a	0.2748683
177	0x3e4dd5ee	0.20101139
178	0x3eacea07	0.337723
179	0x3ea8bb64	0.32955468
180	0xbe7e9f29	-0.24865402
181	0xbea3bea3	-0.31981382
182	0xbd93fe1b	-0.07226201
183	0x3e8d9050	0.27649164
184	0x3e19effc	0.15032953
185	0xbe530dc4	-0.2061072
186	0xbc856cc6	-0.016287219
187	0xbe859faa	-0.26098377
188	0x3e2c6652	0.16835907
189	0xbe16b4e0	-0.14717436
190	0xbe848ba8	-0.258878
191	0xbdbbaaad	-0.09163413
192	0x3e997eb6	0.29979485
193	0xbe2d044e	-0.16896173
194	0xbdd4997b	-0.103808366
195	0xbe81f284	-0.25380337
196	0xbe7517b9	-0.2393483
197	0xbe719187	-0.2359067
198	0x3e726e8a	0.2367498
199	0x3e5c4b9f	0.21513222
200	0xbda6f962	-0.08153035
201	0xbe17c6b0	-0.14821887
202	0xbe9e10ed	-0.30872288
203	0xbde8a0c4	-0.113587886
204	0x3e17decb	0.14831083
205	0x3e8c08b2	0.27350384
206	0x3cab6dfc	0.020926468
207	0x3da639dd	0.08116505
208	0x3d13c252	0.03607399
209	0xbd6b29de	-0.057412975
210	0x3d8af7f0	0.067855716
211	0xbe07deda	-0.13268605
212	0x3de8aa5e	0.1136062
213	0xbd8e6426	-0.069526955
214	0xbe87d6ba	-0.2653101
215	0xbd783249	-0.06059483
216	0x3e1523d3	0.14564447
217	0x3d8152bd	0.06314609
218	0xbe2bdb81	-0.16782953
219	0xbe93249c	-0.28738868
220	0x3df41577	0.119181566
221	0x3d2ce74c	0.04221277
222	0x3d9435e0	0.07236838
223	0x3de7febf	0.11327886
224	0xbdc2f65c	-0.095196456
225	0x3d4d8c59	0.050182674
226	0x3dc4c086	0.096070334
227	0xbd371273	-0.04469533
228	0x3e1bf029	0.15228333
229	0xbe20b91e	-0.15695617
230	0xbe8d1244	-0.27552998
231	0xbe99111d	-0.2989587
232	0xbdd965f4	-0.10615149
233	0xbe0fd076	-0.14044365
234	0x3d97910a	0.07400711
235	0xbd2b3c0d	-0.041805316
236	0x3db1f6ba	0.086896375
237	0xbdf61f3f	-0.120176785
238	0xbddf3cf7	-0.109003
239	0xbe0bb937	-0.13644873
240	0x3e5f2ba9	0.21793999
241	0xbe1bcb34	-0.15214235
242	0x3df509fc	0.11964795
243	0xbe5f6b2c	-0.21818227
244	0xbd600ee2	-0.054701693
245	0x3dc9746f	0.09836661
246	0xbd66a405	-0.056308765
247	0xbe5c4432	-0.2151039
248	0x3e1d89fc	0.15384668
249	0x3d8dfd7c	0.06933114
250	0x3c902e2a	0.017600138
251	0xbe57fe1a	-0.21093026
252	0xbe5b78b8	-0.2143277
253	0x3ec53b9a	0.38522035
254	0xbe2eee70	-0.17083144
255	0xbdb76064	-0.08953932

rnn.weight_hh_l1 f4 [200, 50]
0	0xbe0909f9	-0.1338271
1	0xbc9a7970	-0.018856734
2	0xbdcc36ff	-0.09971427
3	0x3d75e3f0	0.06003183
4	0x3cf9db20	0.030499995
5	0x39feec00	0.0004862249
6	0x3df7d22a	0.121006325
7	0x3d7c61ec	0.061616823
8	0x3de07096	0.10958974
9	0x3d01f6c4	0.031729475
10	0xbcd6332c	-0.026147448
11	0xbde11d76	-0.10991947
12	0xbdc8492c	-0.097795814
13	0x3e103969	0.140844
14	0x3dccb874	0.09996119
15	0xbd4b075c	-0.049567565
16	0xbe0302bb	-0.1279401
17	0xbe05126f	-0.12995313
18	0xbd42134e	-0.04738169
19	0x3c966928	0.01836069
20	0xbdff7682	-0.124737754
21	0x3df58366	0.11987953
22	0xbdc2dc34	-0.09514657
23	0xbd9a5bea	-0.075370625
24	0xbdac3b6c	-0.08409771
25	0xbc9712c0	-0.018441558
26	0x3e00650f	0.12538551
27	0x3cee2558	0.029070541
28	0xbdb3829e	-0.087651476
29	0xbd34c094	-0.04412897
30	0x3add5000	0.0016884804
31	0x3d224930	0.03962058
32	0xbdefa4cc	-0.117013544
33	0x3bf5d820	0.0075025707
34	0xbda0d11a	-0.07852383
35	0x3dd20cac	0.10256323
36	0xbced0a40	-0.028935552
37	0x3cf07208	0.02935125
38	0x3c9b6488	0.018968835
39	0xbd1d96da	-0.03847394
40	0xbde50688	-0.11182886
41	0x3d492780	0.049109936
42	0xbdb9519e	-0.0904877
43	0x3dafbc86	0.0858088
44	0xbdc923ec	-0.09821305
45	0xbda72850	-0.08161986
46	0xbce45098	-0.027870461
47	0x3dd1af40	0.102385044
48	0xbdfbc60d	-0.122936346
49	0x3b303c40	0.002689138
50	0x3d7ca7f0	0.061683595
51	0x3c91f9e0	0.017819345
52	0x3dfa38ae	0.12217842
53	0xbdaf5b10	-0.08562291
54	0x3e03a979	0.12857617
55	0x3be1d140	0.0068913996
56	0x3d830ea0	0.06399274
57	0x3d87d7b6	0.066329405
58	0x3dc422ca	0.09576948
59	0x3d7a2f24	0.061080113
60	0xbdce0c70	-0.10060966
61	0xbd911cef	-0.07085597
62	0xbdde97de	-0.1086881
63	0x3d730be8	0.059337527
64	0x3c9e6608	0.019335762
65	0xbda494bd	-0.08036182
66	0xbd9e0508	-0.077158034
67	0xbda01820	-0.078171015
68	0xbc8c1dd4	-0.017104067
69	0xbe01df71	-0.12682892
70	0x3d93421e	0.07190345
71	0x3dda847c	0.10669801
72	0xbcd8f9c8	-0.026486292
73	0xbcf23a78	-0.029568896
74	0xbdb8e756	-0.09028499
75	0xbd871bb7	-0.06597083
76	0x3d8c518e	0.06851493
77	0xbdd0e3ea	-0.10199721
78	0x3d5438e4	0.051812068
79	0x3d6968d4	0.056984738
80	0xbd531132	-0.05153007
81	0xbde19202	-0.11014177
82	0x3ca375e8	0.019953683
83	0xbddfa142	-0.10919429
84	0xbe0b5649	-0.13607134
85	0xbd837c16	-0.06420152
86	0x3d036478	0.032078236
87	0x3c5f3820	0.013624221
88	0x3d8c7b5e	0.06859468
89	0x3df025f2	0.117259875
90	0x3d9a4998	0.07533568
91	0x3dd7f3c2	0.1054454
92	0x3dc70aba	0.09718843
93	0xbd4ca728	-0.0499641
94	0xbddc2b4e	-0.10750447
95	0x3c67f9d0	0.014158681
96	0x3dde144a	0.108437136
97	0xbd7b54cc	-0.061360165
98	0x3c3196c0	0.010839164
99	0x3df8c00a	0.121460035
100	0xbb8e7020	-0.0043468624
101	0x3ceace10	0.028662711
102	0x3ab9d680	0.0014178306
103	0x3dbf602a	0.09344514
104	0x3d6c3e00	0.057676315
105	0x3d2858ec	0.041100428
106	0x3d61b9ec	0.05510895
107	0x3dea541e	0.11441825
108	0xbe017696	-0.12642893
109	0xbd8754cc	-0.066079706
110	0x3d88215c	0.06646988
111	0x3e0192ed	0.12653704
112	0xbda9de8e	-0.08294402
113	0xbc575dc0	-0.01314491
114	0x3d906cc6	0.07051997
115	0x3ddeed86	0.10885148
116	0x3d4057a0	0.046958566
117	0xbdcf183a	-0.10112043
118	0xbd084cd2	-0.033276387
119	0x3e0612b7	0.13093077
120	0x3d2ff45c	0.04295765
121	0xbca2f03c	-0.019889943
122	0x3db8289c	0.089921206
123	0x3dba557c	0.09098336
124	0xbc0b0420	-0.00848487
125	0x3cd76998	0.026295468
126	0x3d7b90ec	0.061417505
127	0x3dd8dde8	0.105892
128	0x3cf76fe0	0.030204713
129	0xbde4f800	-0.11180115
130	0x3dacbb9a	0.0843422
131	0x3df636be	0.1202216
132	0x3dac85ce	0.08423959
133	0x3d7efa20	0.062250257
134	0x3df07e12	0.11742796
135	0xbe0bcfea	-0.13653532
136	0x3dcfb136	0.10141222
137	0x3d656570	0.05600494
138	0xba965d00	-0.0011471808
139	0xbce57d54	-0.028013863
140	0x3dd99dc2	0.10625793
141	0x3b3b6900	0.002859652
142	0x3dbda98e	0.092608556
143	0xbd8fafc7	-0.07015949
144	0x3dd03f9e	0.10168384
145	0xbd1432c6	-0.036181234
146	0x3d4c6fbc	0.049911246
147	0xbd698cde	-0.057019107
148	0x3e00977b	0.12557785
149	0x3e0b6751	0.13613631
150	0xbdbae810	-0.09126294
151	0xbbe0ce20	-0.0068605095
152	0xbd68aa94	-0.0568033
153	0x3da15912	0.07878317
154	0x3d6db6a8	0.058035523
155	0xbda00d6e	-0.078150615
156	0xbded83a8	-0.11597377
157	0x3d9a92f2	0.07547559
158	0xbcc76ba8	-0.024343327
159	0x3c02bf70	0.007980213
160	0xbdb99a41	-0.09062625
161	0xbdf23918	-0.11827296
162	0x3dc437b0	0.09580934
163	0x3dcfd506	0.10148053
164	0x3df364b6	0.118844435
165	0x3e0cd295	0.13752206
166	0xbdef6940	-0.11689997
167	0x3c886a70	0.016652316
168	0x3d40da1c	0.047083005
169	0xbe05c4f9	-0.1306342
170	0xbc51a4d0	-0.012795642
171	0xbdf443d3	-0.11926999
172	0xbdf8a912	-0.121416226
173	0x3e0fff79	0.14062299
174	0xbdb3ae06	-0.08773427
175	0x3e028809	0.12747206
176	0x3e09d7a3	0.13461165
177	0xbdf968d4	-0.121781975
178	0x3d47367c	0.048635945
179	0xbdfaf046	-0.1225286
180	0x3db595ce	0.088664636
181	0xbc556340	-0.013024151
182	0xbe05fa6b	-0.13083808
183	0x3de46fc2	0.111541286
184	0x3cb3aa08	0.021931663
185	0x3dad5d1e	0.08465026
186	0xbdfca558	-0.12336224
187	0x3e0e9b4d	0.1392643
188	0xbc869d48	-0.01643242
189	0xbdc5678c	-0.096388906
190	0xbddf0f08	-0.10891539
191	0xbdfa5d1e	-0.12224792
192	0x3bdc0440	0.006714374
193	0xbdca04a2	-0.09864165
194	0xbdf760fe	-0.12079047
195	0x3d8c886c	0.06861958
196	0xbc186110	-0.009300485
197	0xbdb4a6ef	-0.088209026
198	0x3db20152	0.08691658
199	0xbe073612	-0.1320422
200	0xbd50a616	-0.050939642
201	0x3c772f90	0.015087023
202	0x39a65600	0.00031726062
203	0x3de648a2	0.11244322
204	0x3db4479c	0.08802721
205	0x3d4e0dc0	0.05030608
206	0xbd0d22f8	-0.034457177
207	0xbd9b9e29	-0.07598526
208	0x3dd8d57e	0.105875954
209	0xbdbe10a1	-0.092805155
210	0xbd0650fe	-0.032792084
211	0xbd5f7fcc	-0.054565236
212	0xbd2902ee	-0.04126256
213	0x3dda4cc4	0.10659173
214	0x3e0c4abd	0.13700385
215	0x3ddcc67a	0.10780044
216	0xbcf8dde8	-0.03037925
217	0x3d5349f4	0.0515842
218	0xbd79eb9c	-0.06101571
219	0xbd5ac04c	-0.053406045
220	0x3d8723b2	0.06598605
221	0x3d05d374	0.03267236
222	0xbe0ff57b	-0.14058487
223	0xbc8a1e48	-0.016860142
224	0x3de3c052	0.111206666
225	0x3dcb7bda	0.09935732
226	0xbc980aa0	-0.018559754
227	0x3dc2b5ae	0.09507309
228	0xbd631ba6	-0.05544629
229	0x3dc6abd4	0.09700742
230	0x3dca2dc2	0.09872009
231	0x3d16e458	0.03683886
232	0x3d38c390	0.045108378
233	0xbd87a5d9	-0.0662343
234	0xbcaf2704	-0.021380909
235	0x3d2386ec	0.039923593
236	0xbd384bac	-0.04499404
237	0x3e0621cb	0.13098828
238	0x3dc1dcf6	0.09465973
239	0xbd12bd7a	-0.03582523
240	0xbd425168	-0.047440916
241	0x3dca09d0	0.09865153
242	0x3e0f1f6d	0.13976832
243	0x3de6e5c6	0.112742946
244	0xbdad24e0	-0.08454299
245	0x3de2959e	0.110636935
246	0xbe0a8c79	-0.13530149
247	0xbdce3098	-0.10067862
248	0xbcb9f6ac	-0.02270063
249	0xbde12dba	-0.1099505
250	0x3d629180	0.05531454
251	0xbadad800	-0.0016696453
252	0x3d958afe	0.07301901
253	0x3b089a00	0.0020843744
254	0x3c34dbd0	0.0110387355
255	0x3dce8d7e	0.10085581

rnn.bias_ih_l1 f4 [200]
0	0x3e04fab9	0.12986268
1	0xbd8abdd7	-0.0677449
2	0x3e43baad	0.1911418
3	0x3cb1fd3d	0.021727199
4	0xbd8bc51a	-0.068247035
5	0x3e497a32	0.1967552
6	0x3da5f3fe	0.081031784
7	0xbdd2b06c	-0.10287556
8	0x3ddbbe5a	0.10729666
9	0x3ddadde6	0.10686855
10	0x3e07bb40	0.13255024
11	0x3dab0cbf	0.083520405
12	0x3d8a1f03	0.06744196
13	0x3da543f3	0.08069601
14	0xbc8e52d5	-0.017373482
15	0x3d3f191f	0.046654817
16	0xbc877ed3	-0.016539967
17	0x3e464787	0.19363223
18	0x3e02faef	0.12791036
19	0xbddfbde4	-0.10924891
20	0x3e0809a3	0.13284926
21	0xbc33e9b3	-0.010981011
22	0x3e0c2fb3	0.13690071
23	0x3e0b6294	0.13611823
24	0xbd5bb48b	-0.053638976
25	0x3dfa2802	0.12214662
26	0xbdc8ec02	-0.0981064
27	0x3d8a5210	0.067539334
28	0x3c9cb47c	0.01912903
29	0x3c6d7bf1	0.014494882
30	0x3e0b9f66	0.13635024
31	0x3e4f26ff	0.2022972
32	0x3d1836fe	0.03716182
33	0xbd94bc0f	-0.07262432
34	0x3dcd0ea8	0.10012561
35	0xbc9ab351	-0.018884333
36	0xbdace99f	-0.08442997
37	0xbd2944fe	-0.04132556
38	0x3e0d0aa1	0.13773586
39	0x3d32211b	0.043488603
40	0xbdd613ad	-0.104529716
41	0x3e16ec7d	0.1473865
42	0x3de8c2bc	0.11365268
43	0xbdde6909	-0.108598776
44	0xbd0811bb	-0.033220034
45	0x3db24a4d	0.08705578
46	0xbd2bc8bf	-0.041939493
47	0x3dd6421f	0.1046183
48	0x3d734618	0.05939302
49	0x3dccf115	0.1000692
50	0x3d9c34ea	0.0762728
51	0xbd9f067e	-0.0776491
52	0xbe0c70d6	-0.13714918
53	0xbc0e8720	-0.0086992085
54	0x3d1831ac	0.037156746
55	0x3d76d45c	0.060261115
56	0x3d340888	0.04395345
57	0xbd2ea7e2	-0.042640574
58	0x3d8378a2	0.06419493
59	0xbb2e7740	-0.0026621372
60	0x3d5ae608	0.05344203
61	0x3da5f6c8	0.081037104
62	0x3d12d074	0.035843328
63	0x3cc0f970	0.023556441
64	0xbdd476c6	-0.10374217
65	0x3c7de0d0	0.015495494
66	0xbdbbcb14	-0.091695935
67	0xbd88e255	-0.066837944
68	0xbd12cd78	-0.03584048
69	0x3d31b878	0.043388814
70	0x3d4c989c	0.049950227
71	0x3dc21992	0.094775334
72	0xbdb44bb8	-0.08803505
73	0xbdb52fa7	-0.088469796
74	0x3d71a5a8	0.058995873
75	0xbdd6bb5e	-0.10484956
76	0xbd76f7ec	-0.06029503
77	0xbd6ebd34	-0.058285907
78	0x3da47a02	0.08031084
79	0x3d41646c	0.04721491
80	0x3d2f326c	0.042772695
81	0xbd053ef0	-0.032530725
82	0x3e090023	0.13378958
83	0xbdc4c3d8	-0.09607667
84	0x3ceea1f0	0.029129952
85	0xbcf9a7b4	-0.030475475
86	0xbbdf7f00	-0.0068205595
87	0x3de24d56	0.11049907
88	0x3de0e112	0.10980429
89	0xbdf9a60e	-0.121898755
90	0x3d657048	0.056015283
91	0x3dd63d42	0.10460903
92	0x3cea68b8	0.028614387
93	0xbdbd592e	-0.09245525
94	0xbdbd7dd6	-0.09252517
95	0x3dfa92f6	0.12235062
96	0xbdd1b86e	-0.10240255
97	0x3d92e04a	0.07171686
98	0xbdee41f2	-0.11633672
99	0x3de1d7be	0.11027478
100	0xbe1467b9	-0.14492692
101	0xbd98829a	-0.07446785
102	0x3e6a179e	0.22860572
103	0xbd049fd0	-0.03237897
104	0xbdcccd7d	-0.10000131
105	0xbe081f67	-0.13293229
106	0xbd841676	-0.064495966
107	0x3dceab8b	0.10091313
108	0xbe139204	-0.1441117
109	0xbcadde3d	-0.021224136
110	0xbc1af4c4	-0.009457771
111	0x3dfba92a	0.12288125
112	0xbccf98ff	-0.025341509
113	0xbdcfea41	-0.10152102
114	0x3e114b23	0.14188819
115	0xbce2dc5f	-0.027692972
116	0xbd94ea23	-0.072712205
117	0x3d7ea6c1	0.062170748
118	0x3d7cfd5b	0.061765056
119	0x3e0a615d	0.13513704
120	0x3e13f871	0.14450242
121	0x3e4cf434	0.20015031
122	0xbdbb7147	-0.09152465
123	0x3db4960c	0.08817682
124	0xbc6fbaeb	-0.014631967
125	0x3d9bcdfa	0.07607646
126	0x3e300626	0.17189845
127	0x3ccc9ecf	0.02497807
128	0xbe3e0a2f	-0.18558572
129	0x3da49e63	0.08038022
130	0xbd02e453	-0.03195603
131	0xbdb79af4	-0.08965102
132	0x3d974963	0.07387044
133	0x3ca272fb	0.019830218
134	0x3e374d93	0.17900686
135	0x3de372ab	0.111058556
136	0xbdb87f13	-0.090086125
137	0x3c252dd5	0.010081728
138	0xbd8792cb	-0.066197954
139	0x3d83dfb7	0.064391546
140	0xbdd5c8ed	-0.10438714
141	0xbcb8d88e	-0.022564199
142	0x3e606616	0.21913943
143	0xbd626dc9	-0.05528048
144	0x3d03931a	0.03212271
145	0xbd6dbb55	-0.058039982
146	0x3d869f06	0.065733
147	0x3c8e60d4	0.017380156
148	0xbbfa96db	-0.007647378
149	0x3e8bbf53	0.27294406
150	0x3dc70605	0.09717945
151	0x3bc036b5	0.0058658966
152	0x3de35012	0.110992566
153	0x3b23f062	0.0025015105
154	0x3d8cef2d	0.06881557
155	0x3d9521cb	0.07281836
156	0xbc757cbd	-0.014983353
157	0x3d0c7706	0.034293197
158	0x3e2a22fa	0.16614905
159	0x3dc348bc	0.09535357
160	0x3d5fd3ec	0.054645464
161	0x3e3eb783	0.18624692
162	0xbde21bf1	-0.11040486
163	0x3e2ab600	0.1667099
164	0x3ddb327b	0.10702988
165	0x3df5bff8	0.11999506
166	0x3d4c2f6d	0.049849916
167	0xbca72c93	-0.020406997
168	0x3cb503b0	0.022096485
169	0xbd930a76	-0.0717973
170	0x3d991896	0.074753925
171	0x3e6103f7	0.21974169
172	0xbcbd3d08	-0.023100391
173	0x3cdde425	0.027086327
174	0xbd043705	-0.032279033
175	0x3dd34e2d	0.10317645
176	0x3d96783b	0.07347151
177	0x3cf9fa8e	0.030514982
178	0x3e415ce0	0.18883085
179	0xbde83e56	-0.11340015
180	0x3dae1d89	0.08501727
181	0x3d85946b	0.06522449
182	0xbc4a8bf4	-0.012362469
183	0xbd02133c	-0.031756625
184	0x3e3bda1f	0.18344925
185	0x3d946c26	0.0724719
186	0xbde4f70b	-0.11179932
187	0xbd877100	-0.0661335
188	0x3ddda861	0.10823131
189	0x3dc0061e	0.09376167
190	0xbd1ed24d	-0.038774777
191	0xbd6031a3	-0.054734837
192	0x3e26f424	0.1630407
193	0xbdcd4bea	-0.10024245
194	0x3d52a15a	0.051423408
195	0xbd0ee8ee	-0.034890108
196	0x3d829a7f	0.06377124
197	0x3e028343	0.12745385
198	0x3e03f6cf	0.12887119
199	0x3e30e378	0.17274272

rnn.bias_hh_l1 f4 [200]
0	0xbdc8e6df	-0.0980966
1	0x3e00b7c1	0.12570097
2	0x3c82a9c8	0.015950099
3	0xbc2eb5fe	-0.0106635075
4	0xbd9233c9	-0.071387835
5	0xbb8e6212	-0.004345187
6	0x3c11a52f	0.0088894805
7	0xbd5f1882	-0.05446673
8	0xbd3490a5	-0.044083256
9	0x3e48045a	0.1953291
10	0x3daa83a8	0.08325893
11	0x3d792291	0.06082398
12	0x3dd45d8b	0.103694044
13	0x3dcfb362	0.101416364
14	0xbd9f0a36	-0.077656195
15	0x3e0a8f1f	0.13531159
16	0x3e575a84	0.21030623
17	0x3bbb5071	0.0057163765
18	0x3c0eda6c	0.008719068
19	0x3e137982	0.1440182
20	0xbd531a0a	-0.051538505
21	0x3e1b82ec	0.15186661
22	0x3d9a46dd	0.07533047
23	0x3e47e359	0.1952032
24	0xbd4ffbb5	-0.050777156
25	0x3e2b9423	0.16755728
26	0xbd951d4d	-0.07280979
27	0xbdd1023a	-0.10205503
28	0x3d66bb66	0.05633106
29	0xbd2827a3	-0.041053426
30	0x3df82c4b	0.12117823
31	0x3dd27648	0.102764666
32	0xbcd9b423	-0.026575154
33	0xbd4247a9	-0.04743162
34	0x3ddf7cd9	0.10912485
35	0xbda20ce4	-0.07912615
36	0x3da3ea32	0.080036536
37	0xbd6a2101	-0.05716038
38	0x3a9eb59b	0.0012108566
39	0x3ce79435	0.028268913
40	0x3d2738e3	0.040825736
41	0x3b2ece31	0.0026673193
42	0x3d3d6594	0.04623945
43	0xbdead42e	-0.11466251
44	0x3e330a3a	0.1748437
45	0x3d4d30db	0.05009542
46	0xbd58ebbc	-0.05295919
47	0x3d33f400	0.04393387
48	0xbe0ded0b	-0.13859956
49	0x3e0e46c9	0.1389419
50	0x3df78ba2	0.1208718
51	0x3cdf4a50	0.027257115
52	0xbc8428e0	-0.016132772
53	0x3dc93b88	0.09825808
54	0x3d1f6ef4	0.038924173
55	0xbc1b5f30	-0.009483144
56	0xbc17dc80	-0.00926888
57	0x3d33a41c	0.04385768
58	0x3dd08b24	0.10182789
59	0xbcd62a68	-0.026143268
60	0xbd1eef5e	-0.038802497
61	0x3d194af4	0.037424996
62	0x3cdba098	0.026809976
63	0x3e0e88c9	0.13919367
64	0xbde2a574	-0.11066714
65	0xbde35eac	-0.111020416
66	0x3cdc8868	0.026920512
67	0x3d6a1d28	0.05715671
68	0xbcb221e4	-0.021744676
69	0x3e0a7483	0.13521008
70	0xbd9960cb	-0.07489165
71	0xbdb19fdb	-0.08673068
72	0xbcb2bc88	-0.021818414
73	0xbcd35db0	-0.02580151
74	0xbd652892	-0.055946894
75	0x3d928d72	0.07155885
76	0x3da6cc1e	0.08144401
77	0x3d8a0d28	0.067407906
78	0x3b857780	0.0040730834
79	0xbd90f279	-0.07077498
80	0x3c46a720	0.012124807
81	0x3e01730f	0.12641548
82	0xbd725104	-0.059159294
83	0x3d3175ac	0.04332511
84	0xbda50cf4	-0.08059111
85	0x3d9a323a	0.07529111
86	0xbc9cf730	-0.019160837
87	0xbdd51f72	-0.10406388
88	0x3de6e816	0.11274736
89	0xbc2c6060	-0.010521024
90	0xbc46ce90	-0.012134209
91	0xbdb50368	-0.0883854
92	0xbe0c66e4	-0.13711125
93	0x3db6c79c	0.08924791
94	0xbd7989b6	-0.060922347
95	0xbd210f62	-0.03932131
96	0x3b1539c0	0.0022770017
97	0xbd33a1b4	-0.043855384
98	0xbe09910f	-0.13434242
99	0xbdc99ed8	-0.0984475
100	0x3cc57aab	0.024106344
101	0x3d42c0dc	0.047547206
102	0x3dd4b901	0.10386849
103	0xbd3e7d2e	-0.0465061
104	0x3daa6fbb	0.08322092
105	0xbd8288d9	-0.06373758
106	0x3b8aa319	0.0042308685
107	0x3d7ad898	0.061241716
108	0xbe068276	-0.13135704
109	0xbd4b334f	-0.04960948
110	0xbe070cdd	-0.131885
111	0x3c361d3b	0.0111153675
112	0x3dc25d0e	0.09490405
113	0x3c998020	0.018737853
114	0x3c0a800d	0.008453381
115	0xbdc417fe	-0.09574889
116	0xbde6dccf	-0.11272585
117	0xbe2b828c	-0.16749018
118	0x3e39c3fe	0.18141171
119	0x3e09ab9f	0.13444375
120	0xbd433555	-0.047658283
121	0x3e86472e	0.2622618
122	0xbdb4b7df	-0.08824133
123	0x3d3e6a97	0.04648837
124	0x3dec58cb	0.115403734
125	0x3d6d0798	0.05786857
126	0x3e0c0eae	0.13677475
127	0xbd11745b	-0.035511356
128	0x3bf9ef6f	0.0076274197
129	0x3dbd2cbf	0.0923705
130	0xbdcd42e8	-0.10022527
131	0xbcaca9ca	-0.021077055
132	0x3d9a4784	0.07533172
133	0x3b127c5c	0.0022351956
134	0x3ca88418	0.0205708
135	0x3d3b231e	0.045687787
136	0x3c9a635b	0.018846205
137	0x3a3ba9cd	0.0007158786
138	0xbe2f1c1f	-0.17100571
139	0x3d228047	0.039673116
140	0xbe0b89af	-0.13626741
141	0x3e12694f	0.14297985
142	0xbb81d41e	-0.003962054
143	0xbcff99a8	-0.031201199
144	0x3cca1e0a	0.024672527
145	0x3e07aede	0.132503
146	0xbb89b691	-0.004202672
147	0xbe5356ce	-0.20638582
148	0xbb0f1ca5	-0.0021837142
149	0x3e1249cf	0.14285968
150	0x3dd1ac5a	0.102379516
151	0xbd6a8968	-0.057259947
152	0x3e2465bb	0.16054432
153	0xbd1267c9	-0.03574351
154	0x3dcb9ff7	0.0994262
155	0x3dbbbd54	0.09166971
156	0xbd052c2c	-0.03251283
157	0x3d959bd9	0.07305116
158	0xbc91427b	-0.017731896
159	0xbd7609b7	-0.06006786
160	0x3cee9730	0.029124826
161	0x3dee23f5	0.11627952
162	0x3da8d612	0.08243956
163	0x3d8b61d8	0.068057716
164	0xbdf6209b	-0.12017938
165	0xbde50238	-0.11182064
166	0x3d3507d0	0.044196904
167	0xbdad8f46	-0.08474593
168	0x3d741838	0.05959341
169	0xbdb27d4d	-0.087153055
170	0xbd39a801	-0.045326237
171	0x3e6f616f	0.23377012
172	0xbd3ac2b7	-0.04559585
173	0x3b17f39f	0.002318598
174	0x3c0cfe1d	0.008605507
175	0xbc9a5496	-0.018839162
176	0x3dc6065c	0.09669182
177	0xbdb524c1	-0.08844901
178	0xbb9db722	-0.004813091
179	0x3db11802	0.08647157
180	0x3e32404f	0.17407344
181	0xbcba9a36	-0.022778612
182	0x3d2dd2b1	0.04243726
183	0x3e0cd885	0.1375447
184	0xbd19a2c4	-0.03750874
185	0x3d249d72	0.040189214
186	0x3df247d1	0.11830104
187	0x3cf39316	0.029733222
188	0x3d11f31d	0.03563224
189	0xbd00add9	-0.031415794
190	0x3e2221c2	0.1583319
191	0xbca3c482	-0.019991163
192	0x3ce663e8	0.02812381
193	0x3e0bd56e	0.13655636
194	0x3e31c55d	0.17360444
195	0xbdc81242	-0.097691074
196	0xbca730a9	-0.020408945
197	0xbd90604e	-0.07049619
198	0xbde8bc0c	-0.11363992
199	0x3dcc01d6	0.09961288
