LSTM_for_PDE/codes/experimentalCodes/models/LSTM_NS2d_tg.pth (torch, 161373 bytes, 14 tensors)

rnn.weight_ih_l0 f4 [200, 3]
00000000: edf3 843d da72 4c3e ec59 c03d dff8 f13d
00000010: bb40 8f3c db24 afbc 1c1a d43c d1a0 d5bc
00000020: 836b ce3d 6ac8 2f3c 9ee0 bbbd b747 143d
00000030: 9411 013e 9bc6 8ebb 5ddf 51be bc98 273f
00000040: 3062 87bc 66f8 5e3d 0883 9bbe ad6e 73be
00000050: fdc4 36bc 2cd3 2cbe 03fc 1e3e 7d7a cd3d
00000060: d3e9 c33c 594b 563e 7823 b5ba fdac 16be
00000070: 81c9 22be 4ce2 803d be59 483e b644 b63d
00000080: 99d5 8abe 90f4 9b3c 30b5 36be a57a c03d
00000090: bf65 913e 8aad 0cbe f584 e7bc 2712 d6bc
000000a0: e940 123f 0bef aabc bad0 77be 3134 61bd
000000b0: 228f ac3d 1431 063e c768 aa3d 6f0a 3ebd
000000c0: 61ad d9bd 9159 d33c 084e 993d 52e1 33be
000000d0: 9fc1 bebe ddb6 993d 6ebd da3d 190e 3a3d
000000e0: 2510 623e 3d83 52be 59e4 44be 94d6 87be
000000f0: b1d5 64bc 9e3b 6f3e f267 04bc e7be b23d
00000100: 0e25 f1bd ec58 723e da45 32be c03b 853d
00000110: b367 2ebb 3564 883d 6d0d 4b3e 735d 05be
00000120: b35c a2bd e81d 233e da5c 24bc e3a3 0abd
00000130: cc62 023e 5e49 65bc 5293 fabd 9e24 99bd
00000140: 023f 363d 5f80 bebd c479 a0bd 18d7 0b3e
00000150: 9c88 babe 83bd 9bbe 435e 973d 0aed b23c
00000160: d285 af3d f284 fa3d 4469 b8bd 0f69 0cbe
00000170: a82d 3bba bfc9 0a3e a121 e03d 8e42 38bd
00000180: b324 e5be b3d9 fb3d a922 4b3d e0ea 31be
00000190: ff5e a13e 04f2 12be 10e1 243e c75c 76bf
000001a0: ab4d 543c c95a 2dbe b553 393c 1aab 0dbe
000001b0: c683 8f3d 216f 993e 84bf 0abd a4de 85bd
000001c0: ff89 413e 853c 023e 3409 05be 073a debd
000001d0: 748e 003c 8b5d 053e 9e7b 3abe 81e1 a43d
000001e0: 72bb de3d 4fbc 743e 2605 fd3c df38 b33e
000001f0: 3b33 2bbf 3335 86bd 754a 9f3d eeda 14be
00000200: 245d 1f3d 735f 4cbe 251a b83e 1337 cabd
00000210: 6103 62be 80b7 edbd ef74 56bd 9d01 eebd
00000220: 35f6 21bc a8a8 cf3a 372c 223f 2e77 70be
00000230: 5f73 49bd 60e7 243e d75e 073e 7b0e 53be
00000240: f5ad 16be 4c38 5e3e 50fb 8e3d 92db a8be
00000250: 1ecf 21bf 0176 fabd f853 fcbd e0e8 f63c
00000260: a47b 88bd dc37 ac3d d578 dcbd becd 9b3d
00000270: 1848 86bd b468 8b3d bf8b 93bd ea03 993d
00000280: df26 0abe 4f60 8cbd a76a ebbd 6a85 ba3d
00000290: 20d3 693c dcca d1bd 6615 f13d 7435 9b3d
000002a0: a6c3 5ebd 30af 3cbd be82 ed3d ca56 cdbd
000002b0: 1693 e63d 4c87 013d 99bd 0b3e 801c 9f3a
000002c0: 7a6d 4fbd 04f8 5d3d 6618 54bd 0012 3f3d
000002d0: 6862 b63d 10f1 493d 1887 7b3d 100c 643c
000002e0: 368a 47bd 7aba 903d 3cfc 38bd 4234 adbd
000002f0: 0c83 2e3d 3a8f bf3d 4026 c23c aac5 b73d
00000300: 9886 e63c 84c0 2dbd 4084 ca3c a0b6 b73b
00000310: 1e5a 7fbd f4d9 293d e897 ce3d 6e7f 57bd
00000320: 9e4b ee3d da76 9d3d 0090 d23c 0683 a5bd
00000330: 2288 e8bd 125a e3bd a4c7 3d3d f030 8a3c
00000340: ea3d 26bd 82ef f73d 663b 77bd 4014 f6bd
00000350: e036 123d 865d b53d e0ac d0bd f2b6 b73d
00000360: 8378 083e 30b4 533c 70ba 053c 6660 6cbd
00000370: 18aa ff3c 20ab 9f3b c8dd 9cbd 9635 2abd
00000380: 2599 0c3e e81b 803c 063d f13d 5eda df3d
00000390: 18cd b43d 5cd9 663d 36c1 eabd fc8a 503d
000003a0: fa46 aa3d b84d ddbc f8bb e0bd 18da 7abd
000003b0: 90b8 07bc afde 073e 406a c7bc 2e50 f4bd
000003c0: 14c4 08bd 302b bc3c 188b b23d 777a d6bd
000003d0: 96cf 11bd 82c9 babd a804 833c 7e0f f1bd
000003e0: 80d2 77bb c88e bc3d 1059 16bd 7a68 ea3d
000003f0: 60b3 3b3c 2203 f83d 14ff 9c3d 4060 893c
0.06491838 0.19965687 0.09392151 0.118150465 0.01748692 -0.021379879 0.025891356 -0.02607766
0.100791 0.010728935 -0.09173702 0.036201205 0.12604362 -0.0043571717 -0.20495363 0.6546743
-0.016526312 0.05443611 -0.30373406 -0.23772688 -0.011155364 -0.1687743 0.15525822 0.100331284
0.023915207 0.2092718 -0.0013819775 -0.14714427 -0.1589718 0.06293163 0.19565484 0.08899824
-0.27116087 0.019037515 -0.17842555 0.093983926 0.2839794 -0.13738075 -0.028261641 -0.026131703
0.57130295 -0.020865938 -0.24200717 -0.054981414 0.08425738 0.1310466 0.08320766 -0.04639667
-0.106287725 0.025799545 0.074855864 -0.17566422 -0.37257096 0.075055815 0.10680662 0.0454236
0.22076471 -0.20557876 -0.19227733 -0.26530898 -0.013966964 0.23362586 -0.008081423 0.08727818
-0.11774646 0.23666734 -0.17409459 0.06505537 -0.0026612103 0.06659738 0.1982934 -0.1302393
-0.07927837 0.15929377 -0.010031903 -0.0338477 0.12733 -0.013994543 -0.1223513 -0.07477687
0.044493683 -0.093018286 -0.07835725 0.1365627 -0.3643235 -0.30418023 0.07391026 0.021841545
0.08570446 0.122323886 -0.09004453 -0.13711952 -0.0007140287 0.13553523 0.10943914 -0.044985346
-0.44754562 0.12297382 0.0495936 -0.17374754 0.3151779 -0.14350134 0.1610148 -0.96235317
0.012957971 -0.16929163 0.011311461 -0.13834801 0.07007556 0.29967597 -0.03387405 -0.06536606
0.18900298 0.12718399 -0.12991792 -0.108509116 0.0078464635 0.13023965 -0.18211219 0.08050824
0.10875596 0.23899959 0.030886244 0.35004327 -0.66875046 -0.06553116 0.077778734 -0.1453664
0.038907185 -0.19958286 0.35957447 -0.09873786 -0.22071601 -0.116072655 -0.05235761 -0.116214015
-0.0098853605 0.001584311 0.63348716 -0.23482963 -0.049182292 0.16103888 0.13219772 -0.20610993
-0.14714797 0.21701163 0.06981528 -0.3298002 -0.6320666 -0.12229539 -0.12320703 0.03014034
-0.066642076 0.08409092 -0.107652344 0.076076016 -0.065567195 0.0680708 -0.07204389 0.0747145
-0.1349139 -0.06854307 -0.11494952 0.09107478 0.0142715275 -0.102437705 0.117716596 0.07578555
-0.054385804 -0.04606551 0.11597203 -0.10026319 0.11258523 0.03162317 0.13646545 0.0012139231
-0.050641514 0.054191604 -0.05178108 0.046648026 0.08905488 0.04930216 0.061408132 0.013918892
-0.048715793 0.070668176 -0.045162424 -0.08457233 0.042605445 0.0935349 0.02369988 0.08973248
0.028140351 -0.042419925 0.024721265 0.0056064874 -0.0623418 0.041467622 0.100875676 -0.05261176
0.116355166 0.07688685 0.02570343 -0.08081631 -0.1135409 -0.11101164 0.04633297 0.016869038
-0.04058639 0.12106229 -0.06035938 -0.12015581 0.035696864 0.08855729 -0.10189223 0.08970441
0.13327222 0.012921378 0.008162126 -0.05770912 0.031209037 0.0048726946 -0.07659489 -0.04155501
0.13730295 0.015638307 0.117792174 0.10930322 0.08828181 0.056359634 -0.11462633 0.050913796
0.08314319 -0.027014598 -0.10973352 -0.061243147 -0.008283749 0.13268541 -0.024342656 -0.119293556
-0.03339012 0.022969812 0.08717936 -0.10472577 -0.03559836 -0.09120466 0.015993431 -0.11770533
-0.0037814677 0.09206921 -0.03670603 0.114457086 0.011456341 0.121099725 0.0766584 0.016769528

rnn.weight_hh_l0 f4 [200, 50]
00000000: b1f4 033e 9963 03be b0bd 33bc 5210 d23d
00000010: 44f5 913d 701d e4bc 50ec 6a3d 7079 8b3c
00000020: 0027 2ebb c86f 983d 207d 89bd 5816 85bd
00000030: acf0 f7bc f80b d03d e875 13bd d818 f63c
00000040: 216f efbd c78b 0a3e 68de afbc de67 e63d
00000050: b805 f53c 58d0 b33c f210 3abd b655 82bd
00000060: 1827 dd3d 9ec3 b33d a4f9 23bd ca22 0ebe
00000070: 1f0e bcbd d57b 8dbd 9094 183c 524d be3d
00000080: a088 93bd 8035 60bb 2c6b bfbc b082 30bc
00000090: 9c85 603d 88fd 27bd 9759 f8bd 3953 87bd
000000a0: 9c8b e4bc 8057 dc3c 80d8 67bb 5e4f fe3d
000000b0: d034 87bc 20f6 ab3b 9cb3 e0bd 7a67 97bd
000000c0: 9a1d 963d fcf3 653d b8da debd a8d5 acbc
000000d0: a6b0 c5bd a0f7 783d 40f5 82bb 0e9e d63d
000000e0: a8e8 163d 19ed 93bd d71f 95bd 04b2 02be
000000f0: a11d 00be e322 f8bd 48d7 9c3c 9429 9bbc
00000100: a0df 9f3d f6a7 92bd 908a 0cbe 2d17 033e
00000110: 1828 e53c 6f32 e4bd b40e 423d 7042 e23c
00000120: 2cb3 213d 1ffb 02be 5512 07be 5c19 62bd
00000130: 1027 f33c 96d8 fabd ff6f 06be e58c 9dbd
00000140: e47f 6f3d 9a59 c3bd 76a4 903d e406 ca3d
00000150: 109b 01bd 1eb3 7ebd fa97 953d 50db 413d
00000160: e156 0d3e 0000 0c37 409b 823b e20d 0ebe
00000170: 7d95 0e3e 30bf 913d f874 b23c 385b cf3d
00000180: 8630 fabd 4443 c8bc b036 5bbc 8e4d 21bd
00000190: e46b 4bbd 04c6 263d d434 e2bc 2455 473d
000001a0: 3408 123d 9808 693d 4c2f c6bd e07f 8abd
000001b0: c444 9ebc 8aa6 1cbd e076 9b3c 32c4 b8bd
000001c0: 5657 e83d a4b5 d73d 9a89 dabd 2894 cd3d
000001d0: bebb 77bd ebb2 073e e447 773d 744c 65bd
000001e0: 6025 62bc 609c aa3b 6372 aabd ebdb 02be
000001f0: 3245 fc3d 62cc f93d b0df d63d c0bf 7cbb
00000200: 3e40 c4bd 7fc8 88bd a0e6 70bc 6004 b73c
00000210: b8e5 aa3d 7a92 c6bd f28a 69bd c08d e5bb
00000220: 82c0 d0bd 82e1 fc3d 6f26 93bd 988a a8bc
00000230: a4e5 823d 90a7 3b3d c408 7fbd f651 e3bd
00000240: 18c4 a23c 6c3b 2f3d 6888 31bd 9488 693d
00000250: 5ff9 063e ab6b 88bd 9006 e13c f295 febd
00000260: 196e 96bd 0aed a33d 38bc c8bd 220a 09bd
00000270: 4c50 d63d 4eb9 22bd cc79 dcbc dcda adbc
00000280: e11e 023e dff1 ffbd ca82 d33d e4ac 6c3d
00000290: 4480 f0bd 3e5b 01bd a647 ef3d af9d 0cbe
000002a0: 0124 0b3e 3fc8 093e 4074 653b eb17 043e
000002b0: a716 0e3e 40be 083b 9834 d7bd 782d 0f3d
000002c0: eec3 d33d 3ef9 e7bd e060 ec3b 70c6 47bd
000002d0: e2f3 ac3d a821 f23c a806 b03d 2633 08be
000002e0: 9a1b e43d 8a2c f6bd a679 d8bd d852 0bbe
000002f0: 302a d4bc 38f7 783d 1f13 033e 66f7 ff3d
00000300: cacd ba3d c012 283c 60d4 8dbb 7ce9 0cbe
00000310: 6837 ff3c bad4 fc3d 00ba 8439 83d9 0cbe
00000320: a264 d63d dcef d6bd 0431 2f3d e096 8fbc
00000330: d4c4 ffbd dd85 afbd f213 803d a0a7 08be
00000340: f0bd 46bc 6089 943b a0c3 f9bb 602a f1bb
00000350: 10d2 49bc 7828 9dbd 1ed3 f03d f226 c43d
00000360: 7068 2b3c 4c79 943d 5539 d4bd 0839 be3d
00000370: ba41 a33d e00b ec3b c4c8 813d b22d f0bd
00000380: 8f4a 94bd b6f4 9abd a07b e63b e0b9 ae3b
00000390: 561a 57bd c0fc 4e3c 4500 b2bd d42a 613d
000003a0: 9c53 20bd c7d1 0abe 40e6 4b3b cd46 0e3e
000003b0: f8b2 413d 10a9 573d 5243 f2bd 3889 8e3d
000003c0: 8ccf 343d 409f e2bd e716 acbd 4c89 813d
000003d0: f6fd ce3d 84ea 1fbd b28f a73d fb53 8abd
000003e0: 8a18 cdbd 20da ce3b 7c36 f2bc 1532 033e
000003f0: 94e9 c73d e887 bd3c ab27 cebd 8b4e 9fbd
0.12886311 -0.12830962 -0.010970518 0.10257019 0.07126859 -0.027846068 0.05735427 0.01702568
-0.0026573539 0.074431956 -0.06713319 -0.06498402 -0.030266128 0.10158533 -0.036001116 0.030041143
-0.11691118 0.13529883 -0.021468356 0.1125028 0.029909953 0.021949932 -0.045426317 -0.06364004
0.10798472 0.087775454 -0.040032998 -0.13880458 -0.09182381 -0.06908385 0.009312764 0.092920914
-0.072037935 -0.0034211576 -0.023366533 -0.010773346 0.05481492 -0.04101327 -0.12126463 -0.0660767
-0.027898602 0.026897192 -0.0035376847 0.12417482 -0.016504675 0.0052478462 -0.10971758 -0.073927835
0.07329865 0.056140885 -0.10881561 -0.021097973 -0.09652834 0.06078303 -0.0039965212 0.10479365
0.036842972 -0.07222957 -0.072814636 -0.1276322 -0.12511303 -0.12116029 0.019145623 -0.018940724
0.07806325 -0.07160942 -0.13724732 0.1280181 0.02797322 -0.11142432 0.047377303 0.02761957
0.039477512 -0.12791108 -0.13190587 -0.055199966 0.029681712 -0.12248342 -0.1312866 -0.07692889
0.058471575 -0.095385745 0.070626184 0.098645955 -0.03164202 -0.06218254 0.07304378 0.047328293
0.13802673 8.34465e-06 0.0039857924 -0.13872483 0.13924213 0.07116544 0.02178429 0.101248205
-0.12216286 -0.024446137 -0.013379738 -0.039380603 -0.04966344 0.040716186 -0.027613081 0.04866518
0.035652354 0.05689296 -0.0967699 -0.067626715 -0.0193199 -0.03824476 0.018977582 -0.09021796
0.11344783 0.10532692 -0.10670777 0.10038024 -0.06048178 0.13251846 0.060371295 -0.055981115
-0.013802856 0.0052066296 -0.08322599 -0.12779205 0.123178855 0.12197186 0.10491884 -0.003856644
-0.09582566 -0.066788666 -0.014703423 0.022340953 0.083445966 -0.09695907 -0.057017274 -0.0070054233
-0.10192968 0.123477 -0.07185065 -0.0205739 0.06391457 0.045814097 -0.06226422 -0.11099617
0.019868895 0.04278128 -0.043342978 0.057015017 0.13181065 -0.06661161 0.02746895 -0.124309435
-0.07345218 0.08004196 -0.09801525 -0.03345693 0.10464534 -0.0397275 -0.026913546 -0.021222524
0.12707092 -0.12497305 0.103276804 0.05778207 -0.11743215 -0.031581156 0.11683588 -0.13732027
0.13587953 0.13455294 0.0035011917 0.12899749 0.13875829 0.002086535 -0.10508078 0.03495547
0.10340105 -0.11326836 0.007213697 -0.04877323 0.084449545 0.029557064 0.085950196 -0.13300762
0.11138077 -0.12020214 -0.105700776 -0.13605821 -0.025899023 0.06078264 0.12800263 0.124983594
0.091212824 0.010258377 -0.0043282956 -0.13760942 0.03115435 0.12345262 0.00025315583 -0.13754849
0.10468413 -0.10494968 0.042771354 -0.017527997 -0.12488714 -0.08570454 0.06253804 -0.13345194
-0.012130246 0.004532978 -0.0076221973 -0.007359788 -0.012318149 -0.076737344 0.117590174 0.09577741
0.010461912 0.07249698 -0.10362498 0.092882216 0.07971521 0.007203564 0.06337121 -0.11727466
-0.072407834 -0.07566206 0.00703378 0.0053322166 -0.05251535 0.0126335025 -0.08691458 0.054972485
-0.039142236 -0.13556586 0.0031112581 0.13894196 0.04728982 0.052651465 -0.118292466 0.06959766
0.044143245 -0.11065531 -0.08402806 0.063250154 0.10107033 -0.03904201 0.081817046 -0.06754299
-0.10014446 0.0063126236 -0.029566996 0.12812074 0.09761348 0.023136094 -0.1006616 -0.07778653

rnn.bias_ih_l0 f4 [200]
00000000: 1841 68bb edb9 383e dd6d bd3d 3ff2 3cbd
00000010: dbec 25bc e240 a33e de0a 2f3e 888f aa3e
00000020: 2f54 243e 7976 313e 1bf1 0b3d 625d c33d
00000030: aab3 68bd 702a d63d abe9 b53d 9cf2 18be
00000040: b668 2e3e 332c 163c 7ce8 16bd 7cfd bbbd
00000050: f7f0 a43a d512 443e 1141 3fbe 9a73 ae3e
00000060: 21f8 87bb 77df 9c3d 6f51 f53d 1630 5b3e
00000070: ff8a f0bd e0af 9d3d 3574 1f3e 7beb 46bd
00000080: 42f6 e2bc 175d 833d 30dd a23d 603c c1bd
00000090: eb7c d6bd 182c 2d3e b901 713d 3fc7 413e
000000a0: 8d63 96be 7817 96be 33fb 723e f05c 673e
000000b0: e51c 55bd 7bc8 b3bd ac29 87be 33cd d73d
000000c0: 1974 03bd 6028 3bbe 7082 dd3c 965a e7bd
000000d0: 1bbb 103e 146e bd3d 5e81 f53d 6009 d3bb
000000e0: ccdd d4bd 801e 9c3d 0055 fcbb 14cc 78bd
000000f0: 2e84 fd3d 80c7 c23c 59b2 90bd 2a8f ba3d
00000100: 30bb 18bc 3ad1 fe3d f008 3f3c 15a0 073e
00000110: e4ce 6d3d 5402 ecbd 40c4 d2bb a8aa dd3c
00000120: ca55 ae3d 7119 0c3e 44f3 73bd a2f7 0ebe
00000130: 00c0 193a c825 6d3d 480a b53d 2c6b 103d
00000140: 3af2 c73d 446b 21bd 67a9 0f3e d83b aabd
00000150: dbab 013e 6020 cebd c990 ffbd 844b eabd
00000160: b60a 8e3d e8a5 ce3d 1ce5 313d 0565 82bd
00000170: b8bb 8dbd 18f5 e23c a020 f7bb 3ac4 ac3d
00000180: b4c9 be3d 8c77 08bd c5e4 04be 4aee b23d
00000190: b919 2ebc fdbf e23d 893c 8ebd ef7f b93a
000001a0: 381e bc3d 0bb7 41be ddcc 3abe bca1 903e
000001b0: 4dd8 f1bc a73e c9bc 8a65 64be b971 bf3d
000001c0: 58e4 403e 5052 d0be abe1 54be ae61 9bbb
000001d0: 934f 1c3e f806 533d f652 073e e16e 29be
000001e0: 24ad 05be faf1 0f3e 851f 9fbd 2f6f 143e
000001f0: dd70 87bd 65c3 613d 4819 f03c 83e3 423e
00000200: 739f 50bd d26f 623e e90a 16bd 1d45 7a3c
00000210: fc51 e3bd ea47 9cbd cc86 e9bc c418 dc39
00000220: 34fb 8ebd 3c12 6fbe a4a1 493e 6381 10be
00000230: 434c 013f 4439 4fbe d789 85be 499d a1be
00000240: 815c 40be c0a9 06be 20c0 78bd fd0c 723c
00000250: 32a6 afbd 3088 5cbe 1f90 b33d 73cb 2a3e
00000260: 6151 3d3d ef6a e93d 6372 1f3d 6ac8 d4ba
00000270: 6d6b b93e 2fe7 a33d 0d68 ca3d e4c3 823e
00000280: 4a0a fc3c 547b 903b 495f 7abd d15a 96bd
00000290: ead2 a43e 23d1 fdbd d9c7 cb3e 9514 073e
000002a0: 93b5 9a3d e039 153e ce61 a9bd eddb 113e
000002b0: b9f6 d23d 8a95 6e3e e32b 7c3d fb92 573e
000002c0: e018 35be 96ee 4dbe f961 573d 96c2 463d
000002d0: 8748 013c 241f 8e3b 9705 0cbc 7312 6bbd
000002e0: 5555 b2bd df9e 9bbc 807a 4b3e 863d e5bd
000002f0: 18e8 743e 5919 c93d 72fd 113e 8248 e73c
00000300: aef0 f43d f4b7 b23e 1925 c03d 3e98 7d3d
00000310: 6d11 d53d 4b5a 843e 2337 a5bc e141 0cbb
-0.003543919 0.18039675 0.092494704 -0.04612946 -0.0101272715 0.3188544 0.17093989 0.3331263
0.16047738 0.1733035 0.034165483 0.09539296 -0.056811966 0.10457313 0.08882459 -0.14936298
0.17032132 0.009165811 -0.036842808 -0.09179208 0.001258402 0.19147809 -0.18677165 0.34072572
-0.0041494523 0.0765981 0.11978423 0.21405062 -0.117452614 0.07699561 0.15571673 -0.048564415
-0.027705316 0.0641424 0.079523444 -0.09435344 -0.10473045 0.16911352 0.058839533 0.18923663
-0.29372826 -0.2931478 0.23728637 0.22594047 -0.05202951 -0.08778473 -0.2639898 0.105371855
-0.03209314 -0.1827712 0.027039737 -0.11296575 0.14133875 0.09249511 0.119875655 -0.0064403266
-0.10393867 0.07623005 -0.0077005625 -0.0607415 0.12378727 0.02377677 -0.07065267 0.09109338
-0.009321973 0.124422505 0.011659846 0.1324466 0.058058634 -0.115238816 -0.006432086 0.027058914
0.08512457 0.1368158 -0.059558168 -0.13961652 0.0005865097 0.05789736 0.088398516 0.035258457
0.09762998 -0.039408937 0.14029466 -0.083121955 0.12663214 -0.10064769 -0.124787875 -0.11440185
0.06935637 0.10090238 0.043431386 -0.06366924 -0.0692057 0.02770476 -0.007541731 0.08435865
0.093158156 -0.033317134 -0.12977894 0.08736856 -0.01062625 0.11071775 -0.0694514 0.0014152507
0.09185451 -0.18917482 -0.18242212 0.28248394 -0.029522086 -0.024566008 -0.22304359 0.09347863
0.18837106 -0.406878 -0.2078921 -0.004741869 0.1526473 0.051520318 0.13215241 -0.16546203
-0.13054329 0.1405715 -0.07769684 0.14495538 -0.06613324 0.055117983 0.02930893 0.19032101
-0.050933313 0.22112969 -0.0366315 0.015275267 -0.11099622 -0.07630904 -0.028506659 0.00041980122
-0.06981507 -0.233468 0.19690567 -0.14111857 0.5050699 -0.20236689 -0.26081726 -0.31565312
-0.18785287 -0.13150692 -0.0607301 0.014773604 -0.08576621 -0.21536326 0.08767723 0.16679172
0.046220187 0.11397349 0.038927447 -0.0016234044 0.36214772 0.08003079 0.09883127 0.25540078
0.030766625 0.004409233 -0.061126027 -0.073415406 0.32192165 -0.12393405 0.3980091 0.13191445
0.07554164 0.14572859 -0.08270608 0.14244051 0.10300965 0.23299232 0.06156529 0.21052162
-0.1768527 -0.20110545 0.05258367 0.048525415 0.007890827 0.0043372083 -0.008546255 -0.05739064
-0.08707682 -0.018996654 0.19870949 -0.11193375 0.23916662 0.09819288 0.14256838 0.028232817
0.119599685 0.3490597 0.09382076 0.061912768 0.10403714 0.25850138 -0.020167893 -0.0021401572

rnn.bias_hh_l0 f4 [200]
00000000: 93e2 013e 0830 f53d 1b56 b93d 56ca 963c
00000010: b02b 6ebe b69c 413e 62be ba3d 83d9 5c3e
00000020: f41b fd3d 0886 3c3e 030d 813d 66f2 953e
00000030: 0e98 db3d 9c9c 853e 116e 29be 4682 25be
00000040: 9275 883d 3367 393e 6eb1 cb3c 6a84 c5bd
00000050: aa81 a2bd 78db df3d e747 89bd e71d 2d3e
00000060: 7e5e df3d fc93 973d f136 bc3d fb4f 863e
00000070: 00b2 6bbd 0dca 03be 2818 063e 170d a6bd
00000080: 12d5 963d 89a9 b73a e663 823e 8588 c73d
00000090: b0ff e2bd 9b5c 323e fd33 203e 8aee 1e3e
000000a0: eb1d 9cbe 1330 05be d7c5 df3c 920d 683e
000000b0: 3bb9 d3bd 455a 84bd 9ecb 97be e936 9b3e
000000c0: 6880 0d3e 1c93 87be 2076 b6bd 3a13 06bd
000000d0: 7181 0dbe 784b ca3d 80a8 ad3b 3019 4e3c
000000e0: 5dbb 86bd 42d8 f53d 8545 0e3e 3057 35bc
000000f0: 1edd dc3d 9299 d63d 30b3 9f3c 441e 9fbc
00000100: 4017 943b d471 80bd 8c01 b6bd f0b8 2dbc
00000110: 48da 163d 78dd d0bc 3e49 71bd 3aa1 e8bd
00000120: d210 f1bd 486c b0bd ecd1 efbd 8688 dabd
00000130: d6ee f63d 44d1 e1bc fa45 a5bd e47a 303d
00000140: 89e2 c7bd 6c4c e3bc 1a80 b4bd d27b febd
00000150: 8a2f 933d 54cb 0abe 749b b2bd a169 03be
00000160: fce2 e1bc 50ff 843c dbb0 06be 78ea 253d
00000170: 565c 38bd 1ae5 b13d 7c56 953d 1096 20bd
00000180: 7a7f 47bd 8e39 ae3d 4041 3abb d6e7 983d
00000190: a8fb 58bd 84e2 f83d deaf b8bd 7b0b acbc
000001a0: 4539 c23d 2b02 f3bd 7bb9 aebd 845a c63e
000001b0: 328c 843b 0f81 83bd 03b0 efb9 db80 fbbd
000001c0: 08d0 933d 56f8 b1be fa3c cdbe 1488 a9bb
000001d0: 9ed1 b23d c2c5 3a3d c087 dabc d4ef 963b
000001e0: 8fc2 27be 5351 383e 03bd 063e e5c3 b03d
000001f0: cd48 3fbe 26bb b1bd d4e7 dabb 5d85 593e
00000200: 465c 56bd 97c8 603d 85e8 62bd 6028 34be
00000210: 4ad1 ccbb 93cf a1bd a568 7c3c 6404 73bc
00000220: 89b8 50be e35b 8bbd 0baf 783e c689 1dbd
00000230: d4a1 8f3e cfdc 2bbe d17e e1bd 48c0 52be
00000240: f36d 90be 1f0b 81bc 252b 9dbd e019 0f3e
00000250: 8e6e 1ebe b327 14be 35f6 0d3e fa5d 393e
00000260: e2ec fe39 5761 213e 8c80 64bc 8fb3 ec3d
00000270: 71a3 ac3e 0310 ea3c d4cb 223e 91b4 4d3e
00000280: c636 413e 670a 833e 1960 a83d a1e3 65bd
00000290: 1872 6c3e f016 4e3c 7ff0 bd3e 54f2 f5bb
000002a0: 0041 f4bd 9b70 1c3e b9c2 843d bf74 fbbc
000002b0: d05f b73d 43a7 0b3e 38dd 11bb 39ba e13c
000002c0: 48ea 70be d8d2 f3bd f23e 0dbd 4906 a03c
000002d0: 20e2 a43d 0267 4d3d 8bda ab3c b385 103c
000002e0: 9012 f93d 0d98 483e f9aa 5d3e 2c7a 91bd
000002f0: 6396 943e acc4 d0bd 9bcc 9e3e 200d f23b
00000300: cd87 d63d 19fa b73e 36a6 413e 344d b83b
00000310: 2c60 323e 9c4c 673e ab96 fabd 70ba 0a3e
0.12684087 0.11972052 0.090496264 0.018407028 -0.23258853 0.18907437 0.09118344 0.21567349
0.12358847 0.18410504 0.0630131 0.29286498 0.107223615 0.26096046 -0.16545893 -0.16162977
0.0666305 0.18105774 0.024864879 -0.096443966 -0.07934888 0.10930532 -0.067031674 0.16905938
0.10906695 0.07401273 0.09190167 0.26232895 -0.0575428 -0.12870045 0.13095152 -0.081079654
0.07364859 0.0014012317 0.2546684 0.09742836 -0.11083925 0.17418139 0.15644832 0.15520683
-0.30491576 -0.1300662 0.027316017 0.22661427 -0.10338064 -0.0646253 -0.29647535 0.3031533
0.13818514 -0.26479423 -0.08909249 -0.03273318 -0.13818909 0.09877676 0.005299628 0.012579247
-0.065787055 0.120041385 0.13893707 -0.01106815 0.10784362 0.1047851 0.019494623 -0.019423611
0.004519373 -0.06271711 -0.08887014 -0.010603175 0.036829263 -0.02549623 -0.05890774 -0.113588765
-0.11770786 -0.08614403 -0.11709961 -0.10670571 0.12057273 -0.027565606 -0.080699876 0.043085948
-0.09760005 -0.027746402 -0.08813496 -0.124259606 0.07186802 -0.13554126 -0.087210566 -0.12833263
-0.027574055 0.016235024 -0.13153403 0.04050681 -0.045009933 0.08686276 0.07291886 -0.03920561
-0.048705555 0.085070714 -0.002842024 0.07466094 -0.052974373 0.121525794 -0.09017919 -0.021001568
0.094835795 -0.11865648 -0.08531471 0.38740933 0.004045033 -0.064211 -0.0004571677 -0.122804366
0.07217413 -0.34759778 -0.40085584 -0.0051736925 0.087313876 0.045598753 -0.026676059 0.0046062265
-0.16382812 0.17999773 0.1315804 0.08631114 -0.18680115 -0.08678274 -0.006680468 0.2124228
-0.052334093 0.054878797 -0.05539753 -0.17593527 -0.006250535 -0.0790092 0.015405809 -0.01483259
-0.20382895 -0.068046354 0.24285524 -0.03846147 0.28053153 -0.1678345 -0.110105164 -0.20581162
-0.28208885 -0.015752373 -0.07674245 0.13974714 -0.15471861 -0.14468269 0.13863452 0.18102255
0.00048623147 0.15759788 -0.013946664 0.115576856 0.33718446 0.028572088 0.15898067 0.20088412
0.1886855 0.25593874 0.08221454 -0.056125287 0.23090398 0.012578711 0.37097546 -0.0075056944
-0.1192646 0.1527733 0.06482453 -0.030695317 0.08953822 0.13638024 -0.00222571 0.027554618
-0.23526871 -0.1190545 -0.034483857 0.019534247 0.080509424 0.050147064 0.020978233 0.008820939
0.12161744 0.19589253 0.21647252 -0.071033806 0.29020986 -0.10193762 0.31015477 0.0073868185
0.10475121 0.35932997 0.1891106 0.0056244377 0.17419499 0.22587818 -0.12235769 0.13547683

rnn.weight_ih_l1 f4 [200, 50]
00000000: 7c97 b9bd db4b deba 4bbd bd3d abb3 4fbb
00000010: 4e7e 3abd e97d 59bc 2d03 d5bd db2d 5439
00000020: cf90 32be a5ca 8bbd 41b6 523d 95f8 ffbc
00000030: 958c 9e3c abe6 eb3e 109e d13b 3bcb c8bc
00000040: f0f9 80be c062 693d fc52 c0bc 6e4c 283d
00000050: c240 853e be95 6e3d 26bf fa3d f7dd ddbb
00000060: c8ad c93c 0fa4 7cbe 1620 54be 5ddd 08bd
00000070: c8ea 19be b7e3 523e b9af d4bd b3a3 66be
00000080: 6b08 273d c69e 1e3c 7111 41bd 7815 933c
00000090: 75b8 d03d 6c12 febd dcdf 893d adda 253d
000000a0: f35d 36be 61ca 2d3e 63a4 153e 2722 90bd
000000b0: 03ff 8fbe 9575 51be 827b 943d e8da 8fbd
000000c0: 98d7 47bd 620b f03c feb5 9bbd cd02 cebc
000000d0: cae6 e4bc 92bb 17be 02ab 53bd e2b8 b13d
000000e0: b7db 73bd 77e5 5e3d 924e 29be 3f88 a83c
000000f0: b3d9 77bc 10b8 3c3e a7b0 b7bd 35fe 5b3e
00000100: 8d79 483e 00c0 a5bd f732 97be 3934 993d
00000110: 5af9 f7bd 3b34 743c 8231 85bc eb93 663d
00000120: c0ad 4c3d 0724 93be 18cb f93d 7971 86bd
00000130: 9233 603b b990 08bd 8bb9 cb3b d6d8 b33e
00000140: e842 1c3c 9a1d cd3d cc41 f73e 8b70 65bd
00000150: 8d24 9a3d 6e5a 203c 7efc bdbc b38f 32b9
00000160: bd36 b1bb 62dc a73d 4133 463c 851f a6bd
00000170: 8fe9 c3bd e161 adbd bfc1 e93d bd3b 29be
00000180: 7f64 393e 908b 07be fd6b 39be 89bd 45bd
00000190: 4b04 8dbd ba42 52be fc17 6dbd 3904 8d3e
000001a0: b360 c2bd 1c6a 85be 92cf 473e 0755 19bc
000001b0: 7787 14be 8d3d 09be 6cc8 633d 95a7 2d3e
000001c0: 977b 2e3e 596d 063e a684 cc3d c718 e6bc
000001d0: 224a a1bc 5f7d 58be 8bac ed3c dc92 1a3e
000001e0: 3d1e db3d 9f61 69be 31ee 60be bc67 c0bd
000001f0: 3e26 373d 9d96 c9bb f3bf 153e 4a41 1cbe
00000200: d6ad 03be 130f ceba 89ae f93c 9dd8 6cbe
00000210: 89b6 283e 7ec6 d93d aba2 9bbd 2576 eebc
00000220: 47a3 4d3e bd2e 8ebd bdb3 203d f633 783d
00000230: 068a 063e 77f1 17bd 7777 833e 87a0 ba3d
00000240: 1b18 01be 501c 1fbd 42da f03d 8d95 8ebd
00000250: 22cb 88bd 8fd2 003e c1a9 543e 6f71 fa3c
00000260: 65cc 52bd 78b7 a23a b37d cf3d 76fc 043d
00000270: e1ff c3bd cf43 ee3c 980e 2cbb 7d1c 62be
00000280: 7c75 093c 8640 ecbd 36f0 433d edf5 853d
00000290: ffad 48bd cb93 6f3e ec77 f5bd 435c f3bd
000002a0: 13fd 3b3d a737 3f3e 82f2 fdbd 5a66 32bd
000002b0: c36f be3d 2f2d 813d 5507 59bd 06e9 e4bd
000002c0: e01e 9c3d 4bcc 093e d82a b33d 71f4 9a3d
000002d0: 0bd8 0abe 4afa 39bd 6fe4 a23d 3b23 03be
000002e0: b3ad a1bd c4a4 833d db83 263e 1534 37bd
000002f0: b930 9cbc a277 a53d 3118 5a3d 864c 30be
00000300: 80f2 0a3e a125 a4bd af45 a4bd acca f93d
00000310: 5604 b03e 8a57 95bd 19dc 8b3e 9426 e33d
00000320: 11e1 95bd fb95 9dbe 9488 413e f251 37be
00000330: a26c c1be 2ce8 a9be f641 b93d c996 b43e
00000340: 349d eb3d efc2 6f3e 0a06 ed3d 99e3 cf3e
00000350: b30d 83bc 6dc3 34be 73d3 6b3e f0ef 523e
00000360: bf2d 4fbe bf68 9a3e 0871 8a3e f177 263d
00000370: 7368 b6bd 14b5 b6be c8f6 2b3e 8061 84be
00000380: 74d2 58bd 426b 4a3e 6e5f 9cbe 90c0 b7be
00000390: 85be cbbe e5f0 d0bd 2346 783e 3bab 0e3d
000003a0: 9823 9ebd dbf1 6dbd 1be1 073e 423a 553b
000003b0: 76f6 823e 4b26 c43b 5b0e b63d bb55 66bd
000003c0: ae26 803d 1bd9 2bbd b31b c83c 711b ec3d
000003d0: d0a4 f43d 95cc 6cbd 6a9f 6dbe 3e24 d9be
000003e0: f23b 57be 3379 963c 3f4b 0ebe c9be 82be
000003f0: 1320 db3d ef23 fe3c 65c1 1f3e 2487 24be
-0.090620965 -0.0016959863 0.092646204 -0.0031692784 -0.04553061 -0.013274648 -0.10400996 0.00020234978
-0.17438053 -0.06825761 0.051443342 -0.031246463 0.019354144 0.46074423 0.0063970163 -0.02451097
-0.25190687 0.05697894 -0.02347707 0.041088514 0.2602597 0.058248274 0.1224349 -0.006770845
0.024618998 -0.24671958 -0.20715365 -0.033414233 -0.15030968 0.20594679 -0.10385079 -0.22523384
0.040779512 0.009681409 -0.047135774 0.017954573 0.101914324 -0.124058574 0.06732151 0.04049175
-0.17809276 0.16971733 0.1461349 -0.07037764 -0.28124246 -0.2045501 0.0725012 -0.07024175
-0.04878959 0.029302303 -0.07603072 -0.02514782 -0.02794208 -0.14817646 -0.051676758 0.08677842
-0.05953571 0.054418053 -0.16533878 0.02057278 -0.015127587 0.1842959 -0.08969241 0.21483691
0.19577618 -0.08093262 -0.2953107 0.07480664 -0.12108107 0.014905031 -0.016258959 0.05629341
0.04997039 -0.28738424 0.1219694 -0.06564612 0.0034210426 -0.033341143 0.006217187 0.3512637
0.009537436 0.10015412 0.48292387 -0.056015532 0.07526503 0.009787185 -0.023191687 -0.00017028935
-0.0054081366 0.081963316 0.012097181 -0.081114806 -0.09566032 -0.084659345 0.11413907 -0.16526695
0.18104742 -0.13236833 -0.181076 -0.048276458 -0.068855844 -0.20533267 -0.0578842 0.27542284
-0.094911 -0.26057518 0.19512776 -0.009358651 -0.145048 -0.13402386 0.05561106 0.16958459
0.17039333 0.1312765 0.09986238 -0.028087987 -0.01968867 -0.21141575 0.029012939 0.15095085
0.10699127 -0.22791146 -0.21965863 -0.09394786 0.044714205 -0.0061519877 0.14624004 -0.15259281
-0.12859282 -0.0015721045 0.030478733 -0.23129506 0.16475882 0.106335625 -0.07599386 -0.02910907
0.20081817 -0.06942508 0.03923391 0.06059643 0.1313859 -0.037095513 0.25677082 0.091126494
-0.12606852 -0.03884536 0.117603794 -0.06962118 -0.066793695 0.12580322 0.20767881 0.030571667
-0.051464457 0.0012414297 0.10131397 0.032467328 -0.095702894 0.029085068 -0.0026253816 -0.2208118
0.008389827 -0.11535744 0.047836505 0.06541047 -0.04899406 0.23396222 -0.11985764 -0.11882832
0.045895647 0.18673573 -0.1239977 -0.04355464 0.092986606 0.06307446 -0.052985508 -0.11177258
0.076230764 0.13456838 0.08748406 0.07566155 -0.13558976 -0.04540471 0.079537265 -0.12806408
-0.078944586 0.06427911 0.16261236 -0.044727404 -0.019066202 0.08079459 0.053245727 -0.17216691
0.13569069 -0.0801499 -0.080211036 0.1219686 0.34378308 -0.072920874 0.2731636 0.110913426
-0.07318319 -0.3077849 0.18899757 -0.17902353 -0.37778193 -0.33184946 0.09045784 0.3527129
0.115045935 0.23414205 0.115734175 0.4060333 -0.015997743 -0.17652674 0.2302988 0.20599341
-0.20232294 0.3015804 0.2703936 0.04064173 -0.08906641 -0.35685027 0.16793358 -0.25855637
-0.05293508 0.19767478 -0.30541557 -0.358891 -0.39793792 -0.10202197 0.24245505 0.034831267
-0.07721633 -0.05809198 0.13269465 0.0032535945 0.2557866 0.00598601 0.08889457 -0.056234103
0.062573776 -0.041955095 0.02442727 0.115286715 0.11945498 -0.057812292 -0.23205343 -0.42410463
-0.21018961 0.01836834 -0.13895892 -0.25536183 0.10699477 0.031022994 0.15601118 -0.16067177

rnn.weight_hh_l1 f4 [200, 50]
00000000: d482 b73d 7fa3 f4bd 5c34 b9bc 30e2 11bc
00000010: 81eb 013e 0812 9f3d 77ff 0f3e dcd3 363d
00000020: c64d 0abe 30b2 a63d eefd df3d 40ba eebc
00000030: 3eb2 be3d 234f 80bd 4adc dabd 747c 0f3d
00000040: 5ca8 3dbd 405f 9f3d a645 4dbd c6e1 51bd
00000050: 485b 833c 5fd9 fabd e80a b73d 95c5 d0bd
00000060: 5238 d0bd e325 cabd c0c7 9c3c bcf3 1abd
00000070: 6ef9 cc3d a686 1ebd 00e7 eaba b836 bdbc
00000080: 06cd eb3d e86f 883d 8a8e c1bd 8458 cabd
00000090: 0042 833d ffb5 9dbd c45d bdbd 4441 b0bd
000000a0: 9cac 6c3d fcf4 08be da9b eb3d 7f6e 003e
000000b0: 88d9 803c 849e f0bc 745e d43d 325e 98bd
000000c0: f455 093d 30b5 3c3c af44 00be a0fb 2f3c
000000d0: a947 a8bd e86a 8d3d 2c21 a03d 3684 ff3d
000000e0: 5ce6 d63d c0ff 4b3d 0099 24ba 702b 11bc
000000f0: 7cf7 0b3d 002d 95bc ec1f 65bd 4361 01be
00000100: eabb 8a3d 58e9 ba3c a6eb c73d e8f0 a33c
00000110: 82bc 27bd 94eb c83d 7ef3 e3bd 0e72 3bbd
00000120: e052 91bc ea89 d4bd b02c 263c c05a d7bd
00000130: f003 77bc f02c 793d 1059 793d c0ce 8cbd
00000140: 3f79 083e a03a d93c 2452 603d ed0b 033e
00000150: 6ae0 863d fc7e 4bbd 5c88 59bd e078 e1bc
00000160: 3091 93bc b0aa 5d3c f206 9c3d 9b66 d2bd
00000170: e85f a6bc d21e e4bd dc46 bb3d 1b88 9ebd
00000180: 34e7 c33d 183a d73c d912 0cbe b304 053e
00000190: cc69 dabc c04b a9bc 58ae a4bd 0c56 973d
000001a0: e549 0f3e 44ae b6bd 453f ecbd 6c13 67bd
000001b0: 609d b2bc 44a8 8abc 4bec febd 9a4e 9d3d
000001c0: b2ee c43d 5f93 0cbe daa1 e7bd e01d 183c
000001d0: 2fd4 033e b058 42bc 98ed a93d 60cd 963d
000001e0: b068 bf3d 6e3d 0fbd 685f aebc eb11 d6bd
000001f0: 0221 f4bd ee53 d63d 3815 9bbc 0c7c 2c3d
00000200: 549e c73d a088 e33b 65bc 8abd de96 d4bd
00000210: 601d 933b 17c7 a8bd db98 febd 2c74 88bc
00000220: 2834 863c 78e0 733d 1cd3 c93d ca54 01bd
00000230: 2b6f 0abe 28d4 d93d a00e 12bc 4cb0 8b3d
00000240: 38fe 963c b8e5 433d 48eb ae3d 80ac 2e3d
00000250: e91b 033e c21e d13d 1e86 9cbd 302d 213c
00000260: b056 b13d f052 2e3d d758 0e3e 5f04 91bd
00000270: 5a9c a43d a658 d53d d992 99bd 5795 04be
00000280: dcb5 acbd e8e1 f6bd 9f0a d1bd 8f30 003e
00000290: 9750 f1bd ba3b e73d aa28 8a3d 9ebd e73d
000002a0: 307e 66bd 260f fc3d 983e f2bd 1a2e a93d
000002b0: 4882 f33c 3fea 85bd 99b9 eebd 00c9 5dbd
000002c0: ca8e c4bd ec7c 93bd 46ca aebd 680b 683d
000002d0: a0b0 bdbc 00b6 d63d 1e96 f0bd f82a acbd
000002e0: fca4 ba3d 24b4 adbc 204d 95bb 8cee 443d
000002f0: e9fb d4bd 202b 093c 3ca4 a93d a430 59bd
00000300: 915f 81bd 00a9 be3c aef7 8dbd 99a1 c5bd
00000310: acf2 c43d 8a9b 4cbd 848c 2ebd 5087 7e3c
00000320: 4828 3a3d 10ad 213d de17 02be 4af0 ba3d
00000330: 804e 983a 60ba 183d 71e0 fbbd 848e d73d
00000340: 40c0 1fbd 1c61 5a3d d60f 63bd c8e2 ecbc
00000350: 1b93 053e 0c00 1d3d fae7 abbd f8c7 bb3d
00000360: 8036 b9ba c416 a9bd a47d 303d ea59 f43d
00000370: 46f1 a2bd 8269 15bd 3016 3e3c a1a1 063e
00000380: 706f 813c 40fc abbc 4b86 fdbd 1f20 0bbe
00000390: 1eb7 e8bd bcf3 b4bd 4486 fdbd a817 6b3d
000003a0: 1451 993d 008b a4ba 2b03 86bd be02 c43d
000003b0: 8caa 34bd 00ac 003c 7814 923c 4d68 003e
000003c0: f0d3 56bd e581 dabd c056 a43d 0071 fdbb
000003d0: 286e cfbd 3a1b b5bd 3aec b03d 4007 c23d
000003e0: 8eeb 00bd 78b0 b8bd 7281 843d 3e7e f93d
000003f0: 583b f13c b473 f4bd 140d 013d 2c7e edbc
0.089605 -0.11945247 -0.022607975 -0.008904025 0.12687494 0.07767111 0.14062296 0.04463564
-0.1350623 0.08139455 0.10937105 -0.029141545 0.09311341 -0.06265094 -0.10686548 0.035030797
-0.046303138 0.07781839 -0.05011525 -0.051240705 0.016034737 -0.122484915 0.08937627 -0.10193936
-0.10166992 -0.098705076 0.019138217 -0.0378301 0.100085124 -0.03870263 -0.0017921627 -0.023097381
0.115137145 0.066619694 -0.09451015 -0.09880164 0.06409073 -0.077007286 -0.092464 -0.086061984
0.0577818 -0.13374704 0.11504336 0.12542151 0.015728727 -0.029372461 0.10369578 -0.07439841
0.033529237 0.011517808 -0.125262 0.010741144 -0.08216793 0.069051564 0.07818827 0.12476389
0.10493156 0.04980445 -0.00062789023 -0.008860454 0.034171566 -0.018209934 -0.055938646 -0.12634759
0.06774123 0.022816345 0.09761743 0.020012334 -0.04095126 0.09810558 -0.11130427 -0.045763068
-0.017739713 -0.103778675 0.01014249 -0.10515356 -0.015076622 0.06083387 0.060875952 -0.06875372
0.13327502 0.026517212 0.054765835 0.12797518 0.06585772 -0.04968165 -0.053108558 -0.027523458
-0.018013567 0.013529465 0.07618512 -0.10273477 -0.020309404 -0.11138691 0.09144375 -0.07740804
0.09565583 0.026272818 -0.13679065 0.12990074 -0.026661776 -0.020666003 -0.08041066 0.07389459
0.13993032 -0.08919957 -0.11535505 -0.056415007 -0.021803558 -0.016925938 -0.12447413 0.07681008
0.0961584 -0.13728093 -0.113101676 0.0092844665 0.1287391 -0.011861965 0.082972705 0.07363391
0.093461394 -0.034970693 -0.021285728 -0.10452636 -0.11920358 0.10465227 -0.018931016 0.042110488
0.097469956 0.006943777 -0.06774215 -0.10380338 0.0044895858 -0.082410984 -0.124314986 -0.016656958
0.016382292 0.059540242 0.09854719 -0.031575 -0.1351897 0.10636169 -0.00891462 0.06820735
0.018431768 0.0478265 0.0854097 0.042644978 0.12803616 0.10210945 -0.07642768 0.009837434
0.086591125 0.042559564 0.13901077 -0.07080912 0.08037634 0.10417299 -0.07498712 -0.12947594
-0.084331244 -0.12054807 -0.10207104 0.12518524 -0.117829494 0.11290689 0.06746037 0.113154635
-0.056272686 0.12307577 -0.11828345 0.08260746 0.029725209 -0.065388195 -0.11656494 -0.054146767
-0.09597547 -0.07201561 -0.08534674 0.056651503 -0.02315551 0.104839325 -0.117473826 -0.08406633
0.091134995 -0.021204062 -0.004556313 0.04807906 -0.103996105 0.008372098 0.08283278 -0.053024903
-0.06317056 0.023273945 -0.06932007 -0.09649963 0.096165985 -0.04995302 -0.042614475 0.015535191
0.04544857 0.039471686 -0.12704417 0.09127863 0.0011620075 0.037287116 -0.12298668 0.105252296
-0.039001703 0.053315267 -0.055435024 -0.028916731 0.13044398 0.038330123 -0.083938554 0.091690004
-0.0014130622 -0.08256295 0.04308857 0.11931212 -0.079561755 -0.036477573 0.01160197 0.13147594
0.015800208 -0.020994306 -0.1237913 -0.13586472 -0.11363052 -0.08835551 -0.12379125 0.057395607
0.074861676 -0.0012553632 -0.06543573 0.095708355 -0.04410796 0.007853508 0.017832026 0.12539788
-0.052448213 -0.10669307 0.08024359 -0.007734418 -0.101284325 -0.08843084 0.08638807 0.09474039
-0.031474642 -0.09018034 0.06470002 0.12182282 0.029447243 -0.11936131 0.031506613 -0.028990828

rnn.bias_ih_l1 f4 [200]
00000000: 4bf5 183e 0f8d 053e f762 a1bd 2140 923d
00000010: bdbd 86bc 1825 00be f18c 8ebb 72f3 ec3d
00000020: ddb3 983d 3da5 463e 6981 d33d e810 f23a
00000030: d1cd 013e f5bf 423e 6a6b 733d 5e02 e23d
00000040: 08ac bd3c c38a c5bc 556d 7d3d 817c 3e3e
00000050: 1577 783d 8583 b93d 4b79 45bd aa94 9b3d
00000060: 2316 f3bd 0d14 963d 1cef a73c 12fc 803c
00000070: 25ba 573e e47a 38bc b709 573e 6904 0b3d
00000080: b22e 43bc 7e3f 02be 45bd 983e a829 383e
00000090: 5840 273e 5bee 603c 9d0e 1a3e bdec 6abc
000000a0: 677f 9abd 9f81 9abd a2f8 b8bd fd8a bfbc
000000b0: 3c10 8a3c 4073 abbd 5ea0 4bbd 6a53 ac3e
000000c0: a773 0fbb 7a54 b1bd 1c0e 93bd 4b3e 073e
000000d0: 1cf9 433d e0aa 073c 4c7f 193d 4b0c 073e
000000e0: df05 0ebe 2621 c1bd 7051 6d3c 801e cc3b
000000f0: 283e a13d 0945 073e d4ec b03d 3486 973d
00000100: 0039 09ba e4dc 453d 6644 bc3d 54da 60bd
00000110: 00ad cc3d bed0 cbbd aa54 05bd 7015 f93c
00000120: 7814 30bd 10aa 8b3d 4ab6 cd3d 186d f0bd
00000130: 4161 8ebd 1c4a 893d 1a86 fabd 0c74 bebd
00000140: 7480 ebbc 784d 7c3d 1211 b23d e8fb 743d
00000150: 08fe 6abd be1d 873d 309b f03c c9c6 0fbe
00000160: 35c3 023e 205e 0b3c 94f0 813d 06eb 0ebe
00000170: d464 d4bd 9c8a c83d f88d 86bc 47a4 0d3e
00000180: 541d adbd b814 a23d b085 12bc d01b 7abd
00000190: aab5 19bd 58dc a03c a8b4 efbd e64e 463d
000001a0: f738 b2bd 5f3c a13c 19e4 93bd 81f6 dd3d
000001b0: 0b74 853b 7bc2 ef3d 7931 be3b 89b0 503d
000001c0: e37c b1bd 9b32 4a3d 09fc 4bba aad2 3dbd
000001d0: de39 a43d f2d6 ed3c 208a 0d3d bc30 cbbd
000001e0: 8906 153e 898d d53d 31df 26bd 1e7c bebd
000001f0: 96a6 7d3d 5f7b 033e f214 7cbc 538d f6bd
00000200: 5def e93d b874 493a d03c 64bd 424f ee3d
00000210: f941 813d 370b 953c 9932 a43b 00a7 473d
00000220: c228 debd bc85 fabd f4c9 0dbd a1f5 233d
00000230: 6289 803c b6fa 183d b7b3 c23d 9ef0 49bd
00000240: 41cc c83d 88e0 c63d 7d3d 5d3c c7f1 25be
00000250: 471d 8d3b c91e 2f3b 872b b5bd 76e8 6abd
00000260: 068f 48bd c810 6e3d f371 bb3d e81f 003e
00000270: 6e34 95bd e8bb 443e 910f 3e3e 4d94 983e
00000280: 87a9 3d3e ff52 96bd acd5 66bd 38bb 7c3e
00000290: 7b4d a43d b895 c13d 6316 e03d b2bf d4bd
000002a0: ff6f d73d 3e72 04bd 9de4 f4bb b623 013e
000002b0: c2e9 c83d 220d 24bd a7aa 0c3e 3c5b cabd
000002c0: d53f ea3d ec07 50bd 19be 333e c00c 263e
000002d0: 7676 0a3e de50 d7bd 2913 7a3d fa91 973d
000002e0: 0206 803e 9620 893d b7a2 073e 6322 173e
000002f0: 96df 163e 946a 5d3e 4ebf 243e 7b36 103e
00000300: c617 35bd 0f4e 463e b243 813d b49c 33bd
00000310: 43d0 9d3d ad90 8b3e 6bfe ac3c 8aa9 8b3d
0.14937322 0.13042091 -0.07880204 0.07141138 -0.016447896 -0.1251415 -0.0043502976 0.11569871
0.07456181 0.19398971 0.103274174 0.0018468173 0.12676169 0.19018538 0.05942861 0.11035608
0.02315332 -0.024114018 0.061871845 0.18602182 0.06066044 0.090582885 -0.048211377 0.07596715
-0.118694566 0.07328043 0.020499758 0.015745196 0.21067102 -0.011259768 0.209998 0.033939753
-0.0119129885 -0.12719533 0.298319 0.1798464 0.16333139 0.013728703 0.15044637 -0.014338669
-0.07543831 -0.075442545 -0.09031798 -0.023381704 0.016853444 -0.083715916 -0.049713485 0.3365739
-0.0021889003 -0.08658691 -0.071804255 0.13207357 0.04784499 0.008280486 0.037474915 0.13188283
-0.13869427 -0.09430151 0.014484748 0.006229222 0.078731835 0.13209929 0.086389214 0.07398644
-0.0005234629 0.04830636 0.091927335 -0.054895714 0.09993935 -0.09951924 -0.032551445 0.03040573
-0.04298827 0.06819546 0.100445345 -0.11739558 -0.069521435 0.06703588 -0.12232609 -0.09299478
-0.028747775 0.061597317 0.08694662 0.05981055 -0.05737117 0.0659747 0.029370874 -0.14040674
0.12769778 0.008506328 0.06344715 -0.13956842 -0.10370794 0.09792063 -0.016425118 0.13832198
-0.084528595 0.07914108 -0.008943006 -0.06106168 -0.037526764 0.019636318 -0.11704379 0.048415087
-0.087022714 0.019682107 -0.072212406 0.108380325 0.0040726713 0.11707016 0.0058042374 0.050949607
-0.086663984 0.049364667 -0.00077813916 -0.046343483 0.0801885 0.029033158 0.034555554 -0.09921405
0.14553274 0.10427386 -0.040740196 -0.09301017 0.061926447 0.12840031 -0.015385853 -0.12038674
0.11422608 0.0007684934 -0.055722058 0.11636211 0.063114114 0.018193824 0.0050109145 0.048743248
-0.10847618 -0.12232539 -0.034616426 0.04002917 0.01569051 0.03734847 0.09506934 -0.049301736
0.09804583 0.09710795 0.0135034295 -0.16205512 0.0043064686 0.002672123 -0.08846193 -0.0573506
-0.048964523 0.058121473 0.091525935 0.12512171 -0.07285391 0.19212306 0.18560626 0.29800645
0.18521701 -0.07340049 -0.056356117 0.24680793 0.08022591 0.09452385 0.1094177 -0.103881255
0.105194084 -0.032335512 -0.007473542 0.12611279 0.09810211 -0.040051587 0.13736974 -0.09880683
0.11437956 -0.050788805 0.17552985 0.16215801 0.13521752 -0.10513471 0.06105343 0.0740089
0.25004584 0.066956684 0.13245665 0.14759211 0.14733729 0.21622688 0.16088602 0.14083283
-0.044212125 0.19365714 0.0631174 -0.043850616 0.077057384 0.27258816 0.02111741 0.068194464

rnn.bias_hh_l1 f4 [200]
00000000: 65b6 e8bd 0f46 ce3d 6847 6fbd 328a a1bd
00000010: 0c8b 6bbd dc84 c63d f376 433d 920b 213e
00000020: 3861 ac3d 30b9 3c3e cf59 f43d 350a 34bb
00000030: 0870 2f3e 9087 093e 7b34 8bbd 2b23 113d
00000040: 3ef1 e53d ad4f cc3d c63f e93d 047b debb
00000050: 1c79 bdbc 9999 37bd 0846 f83d c59e 08be
00000060: 9aad 253d d308 e5bd 928d 7f3d 24e8 4dbd
00000070: 1fef 283e 0e37 a1bc 98f3 3e3e 866c ffbd
00000080: 5ad3 b13d b381 ffbd 44a2 603e 9c45 983d
00000090: b5df 87bc 96d4 ef3d d296 01bd 0894 6a3d
000000a0: 78e4 85bd cfe5 593d c5b3 6d3d 14dd c13d
000000b0: 9deb 653e 6ea5 85bc 4fec 1f3d 65e1 983e
000000c0: 47f1 043e 5041 99bd 383a 8fbd bc7e c03d
000000d0: c35b 05be 8cf6 4c3d 7494 70bd f56b e4bd
000000e0: 4856 c4bd 9eb6 d33d 947b c03d 18c2 0a3d
000000f0: 5814 a03c 04d0 ccbd 66d4 09bd b0e6 8c3d
00000100: 601c d8bb bcec 153d 51f3 8bbd 80fd 7ebb
00000110: 10fa 473c 0cb5 993d a00b ed3c 9ca6 06be
00000120: 3432 0abe ee5c 03be fa67 aa3d ce22 903d
00000130: f652 11bd b737 003e 5e50 bd3d 1804 023d
00000140: fc92 cb3d 8aaa e8bd 6b79 0d3e cd6f cfbd
00000150: 0452 19bd d84d 883c c071 73bc b066 a4bd
00000160: ef89 10be bc14 bdbd ae0f 80bd 0477 113d
00000170: e019 06bc 8264 74bd f200 03bd d872 c83c
00000180: b138 003e 6f7f 9ebd 964a bbbd d5b1 e0bd
00000190: 3808 cdbd 11ce d23d 366a 03be 9c88 d8bd
000001a0: 2663 473d 95d4 f63d 270c 25bc 60e7 bfb8
000001b0: 245e 833c 2693 e9bd b22d 00ba 29b2 a9bd
000001c0: edfb ad3d c401 dd3d 5eba f73d cb2d 34bd
000001d0: 8a60 933d ab08 ee3d a1f1 b83b b19f 873d
000001e0: 83fa 903c a870 e4bc 1208 2e3c 30d4 ba3d
000001f0: 986c 05bd f6c4 933d f033 083c bd9a d8bc
00000200: b4d0 123e c123 e23d 9b16 963d df58 bc3d
00000210: 4017 f33d 430b e3bd c572 8dbc 21d8 d13c
00000220: dc1b 0f3d 50cc bdbd a390 14be 60d3 96bd
00000230: 8714 65bd 26c2 febd 7e63 87bd 7413 5f3d
00000240: 8589 3ebd 9689 903d 921f a13d f1d2 9d3d
00000250: 40ba bbbd f93b e4bc ab69 25bd 3d25 f1bd
00000260: 44cd 163e b025 adbd 51f8 ea3d 16fb 963d
00000270: 5aa7 cebd 2586 5b3e d44c e43d 23df bc3e
00000280: c5d0 96bd ec12 fd3b 8fed 4a3d 431c 123e
00000290: 8ada 49bc 91c3 083d 8d37 e73d 9ec5 223e
000002a0: cc69 433c a6fa 9f3d 82c9 213e 1975 f8bc
000002b0: 7813 3f3e 97f4 11bd 5b51 c2bb 15d0 1fbd
000002c0: 9853 1a3d 4699 9c3c 7ef7 993d c759 01bc
000002d0: 2002 d93d 13cb 04be 0792 193e 59c5 8d39
000002e0: 2654 c13e b9e6 943e c688 413e b677 3c3e
000002f0: 9ff8 b6bd 8bb9 a23d 3c5c 14bd 4429 293e
00000300: 412a db3c 1441 323e 29e8 0a3e 940b 3b3d
00000310: a28b 2dbd 060e 9a3e 1413 533d 28c4 a8bd
-0.11362914 0.10071956 -0.058417708 -0.07887687 -0.057505652 0.0969331 0.04772086 0.1572707
0.084169805 0.18430018 0.11931192 -0.0027471904 0.1713258 0.13430619 -0.06797119 0.03543393
0.11227654 0.099761344 0.11389117 -0.006789567 -0.023129039 -0.044824217 0.121227324 -0.13341816
0.040448762 -0.11183324 0.06239087 -0.050270215 0.16497467 -0.019679572 0.18647611 -0.12471871
0.0868289 -0.1247591 0.219369 0.07435152 -0.016586164 0.117104694 -0.031637974 0.05727008
-0.065377176 0.05319768 0.05803277 0.094659954 0.2245316 -0.016314235 0.03904372 0.29859462
0.12982665 -0.074831605 -0.06993526 0.09399173 -0.13023286 0.050039813 -0.058735326 -0.11153404
-0.09586769 0.10337566 0.09398571 0.03387651 0.01954095 -0.10000613 -0.033649825 0.06879938
-0.0065951794 0.03660272 -0.06833518 -0.0038908422 0.012205616 0.07505235 0.028936207 -0.13149494
-0.13495713 -0.12828419 0.08320613 0.070378885 -0.03547951 0.12521254 0.092438444 0.031742185
0.099401444 -0.11360653 0.13815849 -0.10128746 -0.03743173 0.016638681 -0.014858663 -0.080273986
-0.14115117 -0.092324704 -0.06252991 0.035513893 -0.00818488 -0.059666164 -0.031983323 0.024468824
0.12521626 -0.0773915 -0.091450855 -0.10971419 -0.10011333 0.1029321 -0.12833485 -0.10572931
0.04867854 0.120522656 -0.010073698 -9.150687e-05 0.0160361 -0.114050195 -0.00048896216 -0.082859345
0.08495317 0.107913524 0.120960936 -0.043988984 0.07196148 0.11622747 0.005644039 0.066222556
0.017697578 -0.02788575 0.010622041 0.09122503 -0.032574266 0.07215302 0.008313164 -0.026440972
0.14337426 0.11041976 0.073285304 0.09196638 0.11869669 -0.110861324 -0.01726664 0.025615754
0.03493868 -0.09267485 -0.145083 -0.07364535 -0.05592778 -0.124393746 -0.066107735 0.05446191
-0.046517868 0.070574924 0.0786735 0.077062495 -0.09166384 -0.027860628 -0.040383976 -0.11774681
0.1472674 -0.08454454 0.11473144 0.073721096 -0.100905135 0.21437891 0.11147466 0.3688899
-0.073640384 0.007723203 0.04954296 0.14268593 -0.01232017 0.03338963 0.11289892 0.15895697
0.011927079 0.07811479 0.15799525 -0.030329274 0.1865977 -0.03563365 -0.0059301085 -0.039016802
0.037677377 0.019116055 0.075179085 -0.00789494 0.105961084 -0.12968092 0.14997111 0.0002704065
0.37759513 0.29082277 0.18899831 0.18405041 -0.089341395 0.07945546 -0.036220774 0.16519648
0.026753547 0.17407638 0.13565125 0.04566534 -0.042369492 0.30088824 0.051531866 -0.08240539
