LSTM_for_PDE/codes/experimentalCodes/models/LSTM_NS2d.pth (torch, 140963 bytes, 12 tensors)

rnn.weight_ih_l0 f4 [200, 3]
000000 46 45 0b 3d e5 9b 4e be 2f 7a 7a 3d 58 0f b5 be
       0.03400161 -0.20176657 0.06115168 -0.3536327
000010 fa e7 2a bd 21 73 83 3d d9 d7 5e 3e ac 27 50 3e
       -0.041725136 0.064184435 0.21762027 0.20327634
000020 ed ce c7 3e e6 49 10 3e 3b 80 18 3d 68 f4 71 bd
       0.3902506 0.1409069 0.037231665 -0.059070975
000030 3b e7 32 be e9 0f 54 3c 72 d0 7a 3e d4 78 3e 3e
       -0.1747102 0.012943246 0.24493578 0.1860078
000040 be 0d 9b bd 12 2e d5 be 05 22 3b 3d a7 92 3c bd
       -0.075709805 -0.4163671 0.04568674 -0.046038296
000050 7d 1c 1b 3e ab 3f a8 3d 17 fa 7e bd da 4e 6e be
       0.15147586 0.08215269 -0.062250223 -0.23272267
000060 f8 c9 00 3c 5a d5 ed 3d e6 87 43 be 95 84 70 3e
       0.007860653 0.11612959 -0.1909481 0.23488076
000070 87 56 59 bd a5 ef b3 be a4 19 28 bc e5 62 84 bc
       -0.053061035 -0.35143772 -0.010260019 -0.016160438
000080 ed 61 0b 3e 2d 9f 2e 3e 37 20 c2 3e ec 27 5f bd
       0.13611574 0.17052908 0.37915203 -0.05448143
000090 58 cc 74 3e 51 91 4e 3d 94 10 9b be 38 87 88 bb
       0.23906076 0.050431553 -0.30286086 -0.00416651
0000a0 5c dd 83 3c 00 8e 2d 3e 3f 0a 9a bd 27 4c 87 3d
       0.016096763 0.169487 -0.075214855 0.06606322
0000b0 3a 51 fc 3d 5c d9 3f be e9 d4 e1 bd 49 e5 d7 bd
       0.1232018 -0.1873526 -0.110269375 -0.105417795
0000c0 9c c1 f3 3d ff 70 d0 3d 9a 3e 43 be ea 70 d0 bd
       0.119021624 0.10177802 -0.1906685 -0.10177787
0000d0 2c c3 b4 3d 81 42 51 3e 90 4b 0f 3c 38 25 f9 3d
       0.088262886 0.20435525 0.008746043 0.12165302
0000e0 a3 67 08 bd 27 bf a0 3e 85 8a 1d bd f6 2d e1 3d
       -0.03330196 0.31395838 -0.03846218 0.109950945
0000f0 ac 6f 1b be 7b 2b 96 bd aa a2 af 3d 3b 45 a7 3e
       -0.15179318 -0.07332512 0.085759476 0.32670006
000100 b3 fa 1b be 27 3f a2 3e 5c d0 0e 3e da 3e 65 be
       -0.15232353 0.31688806 0.1394667 -0.22387257
000110 0f 24 c6 3b 71 d7 98 3e f6 f9 7a 3e 4e f6 b2 3e
       0.006046779 0.2985187 0.24509415 0.3495354
000120 65 08 08 3f 56 c5 b1 3d a9 4a d8 be 6d c8 11 be
       0.5313781 0.08680217 -0.4224446 -0.14236613
000130 5d 99 ae bd 86 6a 21 be c7 b3 e3 3c 53 a1 04 3e
       -0.085253455 -0.15763292 0.027795685 0.12952165
000140 c7 ed 36 3e 09 c3 82 3e ad 2d 32 3d 65 31 87 be
       0.17864142 0.25539425 0.04350059 -0.26404873
000150 8d 7c 97 3e c1 60 38 3e 2d 83 27 3f 0a db f9 bd
       0.29587212 0.18005659 0.65434533 -0.121999815
000160 3c 7c 08 3e a7 ce 46 3e 10 4c 92 3e 4b d1 40 be
       0.13328642 0.19414769 0.28573656 -0.18829839
000170 05 8f c0 3e c9 e7 16 3e 32 b4 a6 3c df 62 f9 be
       0.37609115 0.14736857 0.020349596 -0.48708245
000180 0e 30 f2 3d 5d d9 9a 3d b6 63 73 3e 8a 27 a2 3d
       0.11825572 0.0756099 0.23768505 0.07917698
000190 d0 e7 66 bd 02 de e9 3d c0 4f 1e be 65 7a 31 3e
       -0.056373417 0.11419298 -0.1546011 0.17331846
0001a0 24 31 83 3d 41 34 20 3e 50 3c 09 3d 41 01 b8 3e
       0.06405857 0.15644933 0.033504784 0.35938457
0001b0 a1 df 05 3e 56 d4 7b 3d 5e b2 aa 3e 9d b6 ca bd
       0.13073589 0.061481796 0.33339208 -0.09898112
0001c0 d4 1c bb 3d e2 ff 19 3f 4f 48 8c 3d 47 de 32 3d
       0.09136358 0.6015607 0.06849729 0.04366901
0001d0 1e 9f 4b 3e 60 a0 4c 3e 78 19 29 3e f7 bd 17 bd
       0.19884917 0.19983053 0.16513622 -0.0370464
0001e0 6d 8a c0 3e 2a 2e ad 3d f3 13 ab be 09 19 d1 3c
       0.3760561 0.08456071 -0.33413658 0.025524633
0001f0 31 a5 3f 3e 3b cb 26 3e da fc 20 be 8d 70 14 be
       0.1871536 0.16288464 -0.15721455 -0.1449606
000200 46 85 b5 3e 71 91 1e 3e 22 29 6f 3d c6 25 b1 be
       0.35453242 0.15485169 0.058388837 -0.3459913
000210 23 f2 52 be 32 4d 08 bd 68 82 29 be cc 3b 85 3c
       -0.2060018 -0.033276744 -0.16553652 0.016263865
000220 5e 9f 09 be ec 61 d0 3e 07 63 89 3e 4e 30 9e 3e
       -0.134397 0.40699708 0.26833364 0.3089623
000230 47 8b be 3e 7e 22 33 3e 2c 17 4b bd c9 5d 11 3e
       0.37215635 0.17493626 -0.049582645 0.14195932
000240 27 53 12 bd 79 74 e2 3d 4f a9 93 3e 9f e0 d4 3e
       -0.03572383 0.11057372 0.2884011 0.41577622
000250 80 50 ab be 78 e7 fb bd e8 3c da bd 1a d4 f8 3d
       -0.33459854 -0.123000085 -0.10656148 0.1214983
000260 71 ec df bd 16 6f 79 bd 03 76 01 3e 40 2e 75 3b
       -0.109337695 -0.060896955 0.12642674 0.00374116
000270 56 2c 49 bd 9e 1d 98 bd 60 42 85 3c da 2b ef 3d
       -0.049114548 -0.07427524 0.016267002 0.11678286
000280 b8 29 fc 3c e7 cc 08 3e 5d 61 02 be 72 88 ff 3d
       0.030781612 0.13359414 -0.12732454 0.12477197
000290 98 b1 92 bd e2 a0 0d be 42 7c 00 be 94 32 c6 3d
       -0.071627796 -0.13830903 -0.125474 0.09677616
0002a0 08 ac f5 bc 50 fa b2 bd 5e f1 e2 3d e0 83 db 3d
       -0.029989257 -0.087391496 0.110811934 0.107185125
0002b0 60 51 31 3c 6f 5c 0e 3e d0 ec cd bd f1 2b 10 be
       0.010822624 0.13902448 -0.10054934 -0.14079262
0002c0 2a 84 ee 3d 62 9b c5 bd 0c f1 8b bd 7e fb e8 3d
       0.11646302 -0.096487775 -0.068330854 0.11376093
0002d0 3e 19 8e 3d a1 ec be bd dc 4c dd 3d 9a 6f 37 bd
       0.06938408 -0.09322477 0.108056754 -0.044784166
0002e0 3b b5 01 be 0e f3 eb 3d 1d c3 fe bd 50 f3 c5 bc
       -0.1266679 0.115209684 -0.12439559 -0.024163872
0002f0 ce 78 46 bd 20 e3 99 bb f7 e6 0f be b6 f9 ca 3d
       -0.048455052 -0.004696265 -0.1405295 0.0991091
000300 1a 73 c9 bd 74 87 29 3d 22 6c da 3d e4 ed b3 3d
       -0.09836407 0.041388944 0.10665156 0.087856084
000310 9c 8e 86 bd 36 a0 bc bd 60 68 f2 3b 6a af 2e bd
       -0.06570169 -0.09210245 0.0073976964 -0.042647757
000320 88 b4 f2 bd 41 d8 0d 3e da 86 fc bd 6a ec ca 3d
       -0.1185084 0.13852026 -0.123304084 0.09908374
000330 d6 a2 d2 bd c4 1a a2 bd bc 75 ce bd c0 f4 07 bb
       -0.10284965 -0.079152614 -0.1008105 -0.0020745248
000340 10 a9 d2 3c 54 00 be bc 7f 5d 99 bd ba bf f9 3d
       0.02571538 -0.023193516 -0.07488536 0.12194772
000350 0a 12 8d bd a0 8f 91 3b 8a 34 b9 bd 30 c4 50 bc
       -0.06888206 0.0044421703 -0.09043224 -0.012742087
000360 60 23 65 bc c1 2a 8e bd d0 e3 80 bd a6 71 d6 3d
       -0.013985485 -0.069417484 -0.06293452 0.104708955
000370 30 18 a8 3c 32 c5 04 be 6c 4a b7 bd b2 e4 da bd
       0.020519346 -0.12965849 -0.08949742 -0.106881514
000380 69 dd 0b be 70 3d 18 3c 00 d7 d5 bc 01 37 01 3e
       -0.1365868 0.009291992 -0.026103497 0.12618639
000390 3a bf bd bd da 30 fc bd c4 f1 c7 3d 54 9d f7 bc
       -0.09264989 -0.12314005 0.0976291 -0.030226387
0003a0 94 cf 7a bd 20 26 d1 bc bb 13 0b 3e d4 75 1f 3d
       -0.06123312 -0.025530875 0.13581745 0.03893073
0003b0 5e 3b 94 3d ea c3 ab bd c0 e6 1f bc 6c 8c 09 3d
       0.07237886 -0.08386977 -0.009759605 0.033581182
0003c0 b0 27 e1 bd 68 ff b3 3c c0 9e 80 3d 18 c6 6e 3d
       -0.10993898 0.021972373 0.06280279 0.058294386
0003d0 ce ae 71 bd 30 4b ae bc 0c b7 70 bd a8 b0 f5 3c
       -0.059004597 -0.021276087 -0.058768317 0.029991463
0003e0 f9 60 ec bd c2 62 db 3d 38 7d 8f 3c 3c 03 e2 bd
       -0.115419336 0.10712196 0.017515764 -0.11035773
0003f0 8c 98 17 3d 67 70 00 3e 2c 8b 69 3d ec 96 74 3d
       0.037010714 0.12542878 0.05701749 0.059714243

rnn.weight_hh_l0 f4 [200, 50]
000000 16 cc a8 bd ec 37 a2 bc 99 31 8a bd 18 2c a4 3c
       -0.08242051 -0.019802056 -0.06747741 0.020040557
000010 be f8 0b bd c6 7f f9 bd c4 f1 a4 3d 6e 8c 58 bd
       -0.034172766 -0.12182574 0.08053926 -0.0528683
000020 24 cd 27 3d 10 48 46 3c 38 2e c0 bd 86 0a 7a bd
       0.04096712 0.012102142 -0.093838155 -0.061045192
000030 8e b4 e5 3d e0 6e 99 3b f4 da 72 bd f4 67 34 bd
       0.11216079 0.004682407 -0.05929084 -0.04404445
000040 3c 55 cb bd 34 7b 48 3d 7e 5e 54 bd 40 bb 27 bc
       -0.099283665 0.04894562 -0.051847927 -0.010237515
000050 32 fe bb bd 80 e1 df bb de d7 d9 3d 28 05 fc 3c
       -0.09179343 -0.0068323016 0.106368765 0.030764177
000060 e4 64 f3 bd be 0e f7 3d 40 96 64 3c 34 56 b9 bc
       -0.11884478 0.12063359 0.013951838 -0.022624113
000070 2e 2c a9 3d 1a 73 e5 3d 4e 17 aa 3d 22 db 8b 3d
       0.0826038 0.112035945 0.08305226 0.06828906
000080 16 b1 b8 bd c3 c0 89 bd f0 04 ae 3c 54 a2 a1 bc
       -0.090181515 -0.067262195 0.021242589 -0.019730724
000090 a8 29 85 3d 54 c6 07 bd b8 cd 21 3d df 2d 0d 3e
       0.06502086 -0.033148125 0.03950283 0.1378703
0000a0 38 a5 d5 3d 07 75 8b bd 26 dc c2 bd d8 ad 97 3c
       0.104319036 -0.068094306 -0.09514646 0.018515512
0000b0 4a ef 94 bd bb 90 ea bd b8 98 7e bd 71 e0 0e 3e
       -0.07272203 -0.114533864 -0.062157363 0.13952805
0000c0 23 03 00 3e ba 07 fe 3d 84 fa 22 bd b3 e2 05 3e
       0.12501197 0.124038175 -0.03978969 0.1307476
0000d0 e4 a1 81 3d 44 e1 4d bd 7c 4c 53 3d 6c 37 17 3d
       0.06329706 -0.05026366 0.051586613 0.03691809
0000e0 24 5b 11 3d b4 59 a6 3d 00 a3 2e bb 58 6d 8a 3c
       0.03548731 0.08122578 -0.0026647449 0.016897842
0000f0 91 d5 01 be e6 9d c8 3d c0 0b 99 bb 40 03 d3 3d
       -0.12679125 0.09795742 -0.00467059 0.10303354
000100 78 39 de 3d 08 f4 7b 3d 72 55 d2 3d c0 bb ab 3b
       0.10850805 0.061512023 0.10270204 0.0052408874
000110 70 79 90 bc 26 1b a7 3d ec 73 8b 3d 2c fd 13 bd
       -0.01763603 0.08159475 0.0680922 -0.036130115
000120 50 46 0a 3d 10 35 57 3d 1e e9 0f be 00 49 de bb
       0.03375846 0.05254084 -0.14053771 -0.0067836046
000130 10 20 b6 bd db 8e 07 3e a0 6d 58 bc 84 ba 47 3d
       -0.08892834 0.13238089 -0.01320973 0.04876186
000140 f4 06 71 bd ba 7b 1a bd 8c db 26 3d 80 d4 6f 3c
       -0.05884452 -0.03771565 0.04073672 0.014638066
000150 89 49 e8 bd a2 3d f3 3d d2 b6 b8 3d ef e9 fc bd
       -0.11342151 0.1187699 0.09019245 -0.12349307
000160 b4 88 3e 3d 90 31 a1 3c c0 0c 52 3b 5c 4a bc bd
       0.04651709 0.019676954 0.0032051057 -0.091938704
000170 82 71 c5 bd 1e d3 4a bd 7c e9 9e 3d a6 b4 e1 bd
       -0.096407905 -0.049517743 0.07759377 -0.11020784
000180 23 ee 0a 3e 00 19 ad 3c a1 0a 08 be 10 d8 f4 3c
       0.13567404 0.021130085 -0.13285305 0.029888183
000190 30 b0 12 bc de b3 06 bd 51 b1 96 bd 7a 75 c0 3d
       -0.008953139 -0.03288638 -0.07358039 0.09397407
0001a0 d0 fd 11 bd ce 72 ef 3d d8 4f ee 3c cc 40 30 3d
       -0.035642445 0.11691819 0.029090807 0.043030545
0001b0 12 e7 9c 3d 80 32 39 bb 90 a2 61 bc e2 21 e3 3d
       0.07661261 -0.002825886 -0.013771668 0.11090447
0001c0 07 f2 0d 3e 60 7e 16 bd e9 e1 a5 bd 08 1b e0 3c
       0.13861857 -0.036741614 -0.080997296 0.02735664
0001d0 6a c8 8b bd 78 d6 c7 bc 14 ce 36 3d 81 cf 95 bd
       -0.06825335 -0.024394259 0.044630125 -0.07314969
0001e0 b0 7d d6 3c 70 e6 d8 3d 04 37 d4 bc 70 6c 5a bc
       0.02618298 0.105908275 -0.02590514 -0.013331518
0001f0 d6 05 f3 3d 40 81 06 3c 34 26 52 3d dc d1 d0 bd
       0.118663475 0.008209527 0.051305965 -0.101962775
000200 54 a9 95 bd 0b cf 00 3e ac d6 a3 3d e0 e4 98 3d
       -0.073076874 0.1257898 0.0799993 0.074655294
000210 44 4b 6d bd 33 3b 0d be 3f 7c cf bd 21 99 b1 bd
       -0.057933107 -0.13792114 -0.1013112 -0.08671785
000220 da 0a ef 3d 62 2e 9a 3d aa 47 5e bd 3f c0 eb bd
       0.11671992 0.07528378 -0.054267563 -0.115112774
000230 80 89 80 3b e0 ef 7d bc 20 45 d2 3d 00 7c 2d 3b
       0.0039226413 -0.015499085 0.10267091 0.0026471615
000240 bd ba 07 be 06 b5 85 3d 7c 7d cc bc e2 80 df 3d
       -0.13254829 0.06528668 -0.02496218 0.10913254
000250 a4 35 d8 bc 00 84 cf 3b ac 21 9c 3d b0 46 05 3c
       -0.026392765 0.0063328743 0.0762361 0.008134529
000260 80 4e bc bb 12 05 fb bd 60 d1 8f 3d 4c 4e 31 bd
       -0.0057466626 -0.122568265 0.07022357 -0.04328756
000270 82 a6 0e be 60 0d 15 bd c6 3a 04 bd d0 3f c7 3d
       -0.13930705 -0.03638971 -0.032282613 0.09728968
000280 bc 51 80 3d 10 da 5a bc f2 a4 b1 bd 54 ab 2e 3d
       0.062655896 -0.013357654 -0.08674039 0.04264386
000290 4c 37 3b 3d 10 8f fd 3c 45 f5 0d 3e f4 05 11 3d
       0.045707032 0.030952007 0.13863094 0.035406068
0002a0 80 5a 8d 3c 22 ee ca 3d e1 6d 9e bd cc 41 e5 bd
       0.017255068 0.099087015 -0.077358015 -0.111941904
0002b0 16 b9 e3 3d 80 d1 b5 bb 6c e5 16 bd b0 25 91 bc
       0.11119287 -0.005548656 -0.036839887 -0.017718166
0002c0 e8 61 36 bd e0 12 8d 3c f3 cb 06 3e 63 3a d1 bd
       -0.044526964 0.017220914 0.13163738 -0.102162145
0002d0 28 8a 84 bd 7b 62 ef bd 0e 6e ae 3d 1a 94 ac 3d
       -0.06471664 -0.116887055 0.08517085 0.08426686
0002e0 9a 4c db 3d 8b a7 95 bd 2a 53 fa bd f8 99 05 3d
       0.1070797 -0.07307347 -0.122228935 0.03261754
0002f0 8c ad 41 3d e3 7d 86 bd a8 71 96 3c 8f ee 08 3e
       0.047284648 -0.0656698 0.018364742 0.13372253
000300 70 4e 50 bc 6d 9e 86 bd fb 33 83 bd e5 b7 88 bd
       -0.012714013 -0.06573186 -0.06406399 -0.066757
000310 76 1a b4 3d ca 4f 4e bd 32 e9 fd 3d 14 d0 23 3d
       0.087941095 -0.05036906 0.12397994 0.03999336
000320 11 8a ff bd 10 d7 ad 3c e6 a1 e8 3d c8 31 6a 3d
       -0.12477506 0.021220714 0.11359005 0.05717638
000330 70 4b ab bc 96 13 46 bd 70 38 97 bc 00 fd 4a bb
       -0.020909995 -0.048358522 -0.018459529 -0.0030973554
000340 30 9d f2 bc 3f a2 8c bd 55 0d 0d be d0 27 56 bc
       -0.029615968 -0.068668835 -0.13774617 -0.0130710155
000350 a8 d2 b5 3c 00 3d 6e ba c8 16 30 bd 8a c2 c0 bd
       0.022195175 -0.0009088069 -0.042990476 -0.094121054
000360 38 5d e0 bd 4b e2 0d 3e 19 55 9a bd 86 31 dc bd
       -0.1095528 0.13855855 -0.07535762 -0.10751633
000370 71 32 d0 bd ec 95 04 be 7c 3d 89 bd c5 da 08 3e
       -0.10165871 -0.12947816 -0.0670118 0.13364704
000380 a8 c9 e6 bd 3f 21 c9 bd 10 cd c7 bc e4 aa 00 3d
       -0.112689316 -0.09820794 -0.024389774 0.031412974
000390 d4 5e cb bc b3 42 ee bd d3 c0 f3 bd e8 2f b1 3c
       -0.024825491 -0.116338156 -0.11902013 0.021629289
0003a0 e4 c8 92 3d a0 eb e4 bd fc 48 c7 bc da 64 ec 3d
       0.07167223 -0.111777544 -0.024326794 0.115426734
0003b0 68 6f 81 3c da 55 41 bd 30 73 51 bc 54 0d 9a bd
       0.015800193 -0.047201015 -0.0127838105 -0.075220734
0003c0 fc c3 46 3d b8 9f 89 3d ae 3a e3 3d 64 5d 37 3d
       0.04852675 0.06719917 0.11095177 0.0447668
0003d0 7a 80 f6 bd d7 67 08 3e 34 8c 53 3d d6 be 06 be
       -0.12036224 0.13320862 0.05164738 -0.13158736
0003e0 44 d3 a6 bc 94 c2 23 bd 58 47 69 3d 91 82 0d 3e
       -0.020364411 -0.039980486 0.056952804 0.13819338
0003f0 f0 42 ba 3c 50 9c 77 3c dc b8 42 3d 65 95 8b bd
       0.022736996 0.015112951 0.047539577 -0.06815604

rnn.bias_ih_l0 f4 [200]
000000 a6 b6 5e 3e 68 f3 80 bd b8 c7 94 3e b5 7e 1d 3d
       0.21749362 -0.06296426 0.29058623 0.038450915
000010 f6 3b 77 3e 89 38 16 3e f6 86 9a 3e 0d 88 09 3e
       0.24143967 0.14670004 0.30181092 0.13430806
000020 04 bc 07 3e 3d a9 9f 3d 4f 07 7c bc 0c 92 81 bd
       0.13255316 0.077959515 -0.015382602 -0.06326684
000030 39 2b 1a 3c 4e e4 0d 3d 44 98 0f 3e f9 38 5d 3e
       0.009409719 0.034641556 0.14022928 0.21603765
000040 65 d7 0d bd 10 1f 5a 3e 46 49 5f 3e 14 5c 18 3d
       -0.034629244 0.21300912 0.21805295 0.037197188
000050 5b da 62 3c 9a db d4 3e df a0 ef 3d 3e f5 8d 3e
       0.013846005 0.41573793 0.117006056 0.27726167
000060 11 65 b4 bd f5 01 59 3e 20 75 45 3e 7f be cb 3c
       -0.088083394 0.21192153 0.19282961 0.024871109
000070 50 8d 69 3e 65 40 b1 3d a5 d8 83 3e 0a 71 ed bc
       0.22807813 0.086548604 0.25751224 -0.028984565
000080 0e b1 f3 3d 1b fa 68 bd fa 27 9b 3e 17 3b 0c 3e
       0.11899005 -0.056879144 0.30303937 0.13694416
000090 87 9c 71 3e 81 ad 4e 3e 84 1d 93 3e 4b ef 6e 3e
       0.23594867 0.20183374 0.28733456 0.2333347
0000a0 74 d9 97 3c d3 2c 96 3c 68 4e 8c 3d 63 1e 6b 3e
       0.018536307 0.01833192 0.06850892 0.2296081
0000b0 87 3d 36 3e e0 80 88 3e e1 bf d9 3e ac 86 12 3e
       0.17796908 0.26660824 0.42529204 0.14309186
0000c0 a3 8c d2 3d de bf b9 3c ab fc 00 be 30 ad 46 bc
       0.102807306 0.022674497 -0.12596385 -0.012126252
0000d0 58 05 83 bc 24 45 9c 3d 4c 11 f8 bd 9e f4 01 be
       -0.015993759 0.07630375 -0.12112674 -0.1269097
0000e0 f8 c8 be bc d4 8a 54 3d 04 6e 14 3d 26 3f 9f bd
       -0.023289189 0.05189021 0.03623773 -0.077757165
0000f0 10 1b fd bd 89 3b b0 bd ed fd df bd 18 ed d0 bd
       -0.123586774 -0.086051054 -0.109371044 -0.10201472
000100 e8 21 0e 3d 47 70 09 3e 38 79 c3 3c c5 2d 08 be
       0.034700304 0.13421737 0.023861513 -0.1329871
000110 4e ba a2 3d ca 30 a0 3d 36 8f fd 3d fc e8 ed bd
       0.07945691 0.07821806 0.12380831 -0.11616704
000120 b8 06 cf bc 28 be 94 bc d0 ef 7d 3d 9c e3 c1 3d
       -0.025271758 -0.01815708 0.06199628 0.09467241
000130 78 8e b2 bd 16 2e ee 3d 80 d8 93 3c c0 a3 34 3d
       -0.0871858 0.11629884 0.018047571 0.044101477
000140 2e b3 e6 3d ea c9 a1 bd e0 a1 43 bc 31 5b 08 be
       0.112646446 -0.0789984 -0.0119404495 -0.13316037
000150 04 cd e5 bd a2 bb f2 3d 44 16 3a 3d b8 45 20 3d
       -0.11220744 0.11852194 0.04543139 0.03912899
000160 bc 0c 7c 3d a2 94 e9 3d 6d 91 82 bd 90 e8 0b be
       0.061535582 0.114053026 -0.06375394 -0.13662934
000170 99 f9 07 3e fb af 8e bd 1d 0a 0f 3e f3 6b 96 bd
       0.13278808 -0.06967159 0.13968702 -0.073448084
000180 1c fc 34 3d d2 74 06 be f4 e3 98 bd a3 af ad bd
       0.044185743 -0.13130501 -0.074653536 -0.08480766
000190 1b 7e 04 be e1 01 c0 bc 36 31 8b 3e 0f a0 05 3e
       -0.1293873 -0.023438396 0.27185982 0.13049339
0001a0 90 75 b7 bc 50 a1 06 be 0a d5 e4 3c 7f fb a2 bd
       -0.022394925 -0.13147473 0.027933616 -0.07958125
0001b0 38 28 8e 3d ce a3 0f 3e bf 92 13 3e 51 af 00 3e
       0.06941265 0.1402733 0.14411448 0.12566878
0001c0 02 7c b3 3d b8 40 76 bb 76 99 62 3d fe dd bd bd
       0.08763887 -0.0037575196 0.055322133 -0.09270857
0001d0 93 3a 3a bd c8 82 2b 3c 8b 10 d8 3d e2 96 f5 bc
       -0.045466017 0.010468192 0.1055003 -0.029979173
0001e0 2c bf 35 3e ad 36 86 3d ba 50 07 3e 12 21 59 3d
       0.17748708 0.06553397 0.13214388 0.053010054
0001f0 d9 e1 0e be ca e3 69 3d 67 e7 de bd e6 a4 fa 3d
       -0.13953342 0.057102002 -0.1088398 0.12238483
000200 28 14 5e 3e fd c4 8b bd 3d 7a 95 bd d8 1c 23 3e
       0.21687376 -0.06824682 -0.07298706 0.15928972
000210 c9 f3 7b 3d 37 bb c4 3d f2 9a f9 3c 32 c2 e7 bd
       0.06151179 0.09606021 0.030469391 -0.11316337
000220 5c f9 1d bc ce e1 0a 3e 7f e8 e9 3d 0e 64 98 bd
       -0.009641971 0.135627 0.11421298 -0.07440959
000230 10 17 f7 bb 66 5d a7 3d eb 80 15 be 5a 7d 21 3e
       -0.007540591 0.08172111 -0.1459996 0.15770474
000240 b5 07 19 3d a9 fd d1 bd f1 13 04 be 12 f5 bc 3d
       0.037360866 -0.1025346 -0.12898232 0.09226431
000250 39 44 b1 bb b9 a8 d6 bd c4 48 e1 3d 22 d7 0e 3e
       -0.005409744 -0.104814 0.11000207 0.13949254
000260 ed 3d e5 3d 22 68 49 bc 29 0a a5 3d 67 02 0c 3d
       0.11193452 -0.012292894 0.080585785 0.03418198
000270 e4 7d 3c 3e 27 a1 9a 3c fa f2 c7 3d 63 01 31 3e
       0.18407398 0.018875672 0.09763141 0.17285685
000280 f1 e3 cb bd 5f f8 3c bc 18 9e 9d 3b 95 36 2f 3e
       -0.09955586 -0.011533826 0.004810106 0.17110665
000290 e2 08 87 3c 88 15 3c 3e ec fc 0e 3c 88 a1 87 3e
       0.016483728 0.18367589 0.008727293 0.26490426
0002a0 65 ef 69 3d c6 43 cc 3d c5 bc 1b 3e 98 f0 5d 3e
       0.05711307 0.09973864 0.15208729 0.2167381
0002b0 3d 25 15 3d a5 74 d7 3d 97 07 a3 3d ff de b8 3d
       0.036412466 0.10520295 0.07960432 0.09026908
0002c0 9c 36 9f 3d d4 f4 86 3e 33 42 d7 3e 45 f7 f2 3d
       0.07774088 0.26358664 0.42042693 0.11863569
0002d0 ea c5 9d 3d 42 d6 b9 3d 9e 45 81 bb 60 37 fc 3c
       0.07703765 0.090740696 -0.0039450666 0.030788124
0002e0 08 62 5f 3e 33 11 b6 3d 28 74 49 3e ec 1d 08 3e
       0.2181474 0.08889999 0.19673216 0.13292664
0002f0 00 94 73 3d 8a b5 32 3d 90 fd 47 3e c5 b3 18 bd
       0.059467316 0.04363016 0.1953032 -0.037280817
000300 2d 18 05 3e 34 57 05 3d fb ce 28 3e 89 0e 1a 3e
       0.12997504 0.032553867 0.16485207 0.15044607
000310 01 f6 11 3e 5f 69 c1 3d 27 86 18 3d 0a b9 79 3e
       0.14254 0.09443926 0.037237313 0.24386993

rnn.bias_hh_l0 f4 [200]
000000 37 5e 05 3e d8 11 13 3e 89 3a c7 3e 4a 89 40 bd
       0.13024221 0.14362276 0.38911846 -0.04700593
000010 c5 27 a4 3d 97 72 ea 3d 4f ea 1e 3e 42 bb 87 3d
       0.08015398 0.114476375 0.15519069 0.066275135
000020 ba 0c a7 3d b5 75 30 3d 94 d1 39 3e d3 47 03 3e
       0.08156724 0.043081004 0.18146354 0.12820368
000030 f2 a6 fd 3d a8 1d 62 3e fe 62 8b bd 26 24 67 3e
       0.12385358 0.22081625 -0.06805991 0.22572383
000040 3a 6f eb 3d 07 d4 46 3e 20 a8 6c 3e f6 8b 41 3e
       0.11495824 0.1941682 0.2311101 0.18901047
000050 d5 1b b7 3c df b7 76 3e 95 de eb bb ef 5c 29 3e
       0.022352139 0.24093579 -0.0071981647 0.16539358
000060 9a 54 0e 3c e0 bb 8c 3e 04 5a e7 3c e4 39 7a 3e
       0.008687163 0.27487087 0.028241165 0.24436146
000070 79 be aa 3e 3e ca 14 bd 42 0a 34 3e 52 2b 7d bd
       0.33348444 -0.036325686 0.17582038 -0.06180889
000080 02 27 f5 3d 1f a3 80 3b 77 11 96 3e 49 fc 2d 3e
       0.11970331 0.0039256955 0.293102 0.1699077
000090 5b 17 c9 3d b3 8f f8 3d c5 79 7f 3e 44 77 45 3d
       0.09818908 0.121367835 0.24948795 0.048209444
0000a0 1c 2d 98 3c 78 ec 39 3e 48 e1 81 3d c3 26 a6 3d
       0.018576197 0.18156612 0.06341797 0.08112862
0000b0 7e 61 57 3e 94 46 75 3e 32 53 38 3e 44 8d 4a 3c
       0.21033284 0.23952705 0.18000486 0.012362782
0000c0 ee 37 5e 3c 32 89 a1 3d e8 a7 a5 3c 07 0c f0 bd
       0.013563139 0.07887496 0.020221666 -0.11721044
0000d0 62 99 fe bd 20 c3 87 3d f0 3a 92 bc 40 fb d1 3d
       -0.12431599 0.06629014 -0.01785037 0.10253
0000e0 00 26 81 bd e0 bf 9c 3c f8 77 a6 3d c6 14 a6 3d
       -0.06306076 0.019134462 0.08128351 0.08109431
0000f0 d0 3a 2e 3d 8a 1d b6 bd 80 19 c2 3c ea 84 6b bd
       0.042536557 -0.08892353 0.0236938 -0.057499804
000100 d0 57 69 bc 38 3f b5 3d 44 a8 d6 3d 78 11 22 3d
       -0.014242128 0.08849949 0.10481313 0.03956744
000110 60 c4 2b bc 44 b4 2f 3d 8b bd ec bd d4 79 29 3d
       -0.010483831 0.042896524 -0.1155959 0.04137595
000120 74 4d af bd 14 6a 3b 3d 57 a6 06 3e bd 07 d4 bd
       -0.08559695 0.04575546 0.13149391 -0.103530385
000130 a2 6d bc bd af 8e 00 3e a0 78 a4 bd d8 8c 1f 3d
       -0.09200598 0.1255443 -0.0803082 0.03895268
000140 c0 17 0e 3d 8a 9f df 3d b1 50 01 be f6 5d a6 bd
       0.03469062 0.109191015 -0.12628438 -0.081233904
000150 ab 97 01 3e 35 7d b3 bd 25 95 07 3e 7c e5 f9 bd
       0.12655513 -0.08764116 0.13240488 -0.12201974
000160 ce 7e 03 be 7d c2 0b 3e 28 06 fc 3c a0 be 64 3d
       -0.12841341 0.1364841 0.030764654 0.055845857
000170 1c 44 fb bd 4e 45 c1 bd aa f2 8b 3d 86 25 e4 3d
       -0.1226885 -0.09437047 0.06833394 0.111399695
000180 94 47 02 bd a8 59 0a bd c0 05 13 bc 00 ab f6 3b
       -0.031806543 -0.03377691 -0.008973539 0.007527709
000190 92 c5 83 bc bc 33 43 bd 6f cf 15 3e e0 7f 71 bd
       -0.01608542 -0.04765676 0.14629911 -0.05895984
0001a0 8a 00 43 bc d1 fd 2c bd 9b c9 cd bb 00 d3 0b be
       -0.011901984 -0.042234246 -0.0062801368 -0.13654709
0001b0 e5 d0 1a be d5 88 8c bd 8f 00 2b 3d 3f 08 0b be
       -0.1511875 -0.06862036 0.04174858 -0.13577364
0001c0 76 60 7c 3c 33 31 45 bd d4 13 1b be 00 88 f4 bc
       0.015403857 -0.048142623 -0.15144283 -0.029850006
0001d0 4b 3e 49 bd b9 09 0d bd 61 f3 13 3e 94 b2 50 3d
       -0.049131673 -0.0344331 0.1444831 0.050951555
0001e0 b3 7d cd 3d dc d8 7a 3a b5 98 df 3d b7 93 36 3e
       0.10033741 0.0009569058 0.109177984 0.17829786
0001f0 09 e6 6d bd ab 00 86 3d 88 32 96 bd c9 68 9f bd
       -0.058080707 0.06543096 -0.07333857 -0.07783658
000200 38 26 1e 3c 02 40 8f 3d cb 9f 20 be 37 12 6e bd
       0.009652667 0.069946304 -0.15685956 -0.05812284
000210 8f df 05 bd 63 e2 c3 bd 57 47 16 be 37 1d 4c ba
       -0.032683905 -0.09564664 -0.14675651 -0.0007786336
000220 8f 18 af bd fa 43 f4 3c e6 9c 80 bd 21 9e c2 3d
       -0.08549606 0.02981757 -0.06279926 0.09502817
000230 04 34 38 be 20 a1 5d bd 00 a3 95 3c 36 c0 aa 3d
       -0.17988592 -0.05410874 0.018266201 0.083374426
000240 72 90 ad 3d 60 6a 41 bd e7 2e 80 3d 3f d0 cd bd
       0.084748164 -0.047220588 0.06258946 -0.100494854
000250 58 e5 9c bd d8 fa 22 3c 47 0c b8 bb 8a 38 50 3e
       -0.07660931 0.009947501 -0.005616698 0.20334068
000260 0f d4 d7 3d 0d ca 28 3e 2e 60 22 3e 22 a7 7f bd
       0.10538494 0.16483326 0.15857002 -0.06241525
000270 fe 42 b6 3d 9d a2 2d 3e 27 3b 8d 3b 98 ec 85 bd
       0.088994965 0.16956563 0.00431003 -0.06539267
000280 84 5e 7b bd 84 90 a2 3c 60 35 5e 3e 50 16 41 bd
       -0.061369434 0.019844301 0.21700048 -0.04714042
000290 d4 80 63 bd d7 fa a2 3d 3f 58 1c 3d 98 6f 42 3e
       -0.055542782 0.07958 0.038170096 0.18987882
0002a0 2e 13 a9 3d 60 20 55 3d e9 b5 64 3c d5 0c 5b 3e
       0.08255611 0.05203283 0.013959386 0.21391614
0002b0 36 6f 6c 3c 42 61 de 3c 73 f5 0a 3e de bc 53 3e
       0.014430812 0.027145986 0.13570194 0.20677516
0002c0 8c 6a d2 3d db 4c da 3d 7f ab d5 3e 31 23 6f bd
       0.102742285 0.1065919 0.41732404 -0.05838317
0002d0 ea 30 4c 3e 33 f7 38 3d a1 cb 35 3e 2a 39 c2 3d
       0.19940534 0.045157623 0.1775346 0.094835594
0002e0 15 d4 a0 3e e3 cf 04 3e e2 a5 30 3e d3 da 42 3e
       0.31411806 0.12969927 0.1725078 0.19028787
0002f0 1f b8 3b 3e 39 2b 42 3e 40 4b 4e 3d 03 f3 31 3e
       0.18331955 0.189618 0.050364733 0.17377858
000300 67 c8 e8 3d f7 72 7c 3c f6 6c 90 3e 69 88 38 3d
       0.11366349 0.015408269 0.2820813 0.045051966
000310 22 5d a4 3d 58 fd 0c 3e 8f c8 5e 3e 42 cc f8 3d
       0.08025576 0.13768518 0.21756195 0.12148334

rnn.weight_ih_l1 f4 [200, 50]
000000 7d 65 3f 3e 67 21 1d be d0 e9 32 3e 9e cb 18 be
       0.18691058 -0.15344773 0.17472005 -0.14921424
000010 c8 d0 74 be 3f 13 9a 3e ab f7 d2 be 43 79 9b be
       -0.23907769 0.3009281 -0.4120458 -0.30365953
000020 bd 7e c8 bd 76 71 8c 3d f2 a9 6a 3d a3 5d d6 3e
       -0.097897984 0.068575785 0.05729098 0.41868314
000030 7a 17 66 be ef 21 87 3d ca 51 ac 3c 61 da 55 3e
       -0.22469893 0.06598269 0.021035094 0.20884086
000040 86 b0 b0 be 94 73 e6 3d fc 4d 02 3e c0 5a 65 be
       -0.34509677 0.112525135 0.12725061 -0.223979
000050 0c 7e 20 be b6 36 c5 be 71 d2 49 3e 3d 5f 4b 3e
       -0.15673083 -0.38518304 0.19709183 0.1986055
000060 21 3a 9c bd 9a 58 cb be 60 47 fa bd 76 8d 9d bd
       -0.07628275 -0.39716035 -0.12220645 -0.07692997
000070 8a fd 1e 3e 87 32 c9 3c 2d 75 d0 3e 40 fd f9 bc
       0.15526405 0.024560226 0.40714398 -0.030516267
000080 c3 c6 17 bd 71 bb 4e 3e f4 5c b9 3e e9 b9 22 be
       -0.03705479 0.2018869 0.3620373 -0.15891232
000090 1f c0 9d 3e fa 32 c3 bd f4 5a 4a be 43 55 cb 3d
       0.3081064 -0.095312074 -0.19761258 0.09928372
0000a0 2d 67 1e bd dd 0e aa 3e 35 be b2 3d f8 92 5b 3e
       -0.038672615 0.33214465 0.08727685 0.21442783
0000b0 ba b2 fe 3d 56 58 9f 3e d7 08 f0 3e 22 75 40 be
       0.12436433 0.31122082 0.46881744 -0.18794683
0000c0 1c dd 67 3c 4b 48 73 be f3 8a bd 3d bd dd 02 be
       0.014151838 -0.23758046 0.09255018 -0.12779899
0000d0 4f e2 06 be 1b e8 8b 3d 5f 9e 21 3e 33 be 9e be
       -0.13172267 0.0683138 0.1578307 -0.31004485
0000e0 58 3a 54 be 20 62 f2 3d a2 52 3b 3d 89 96 8b 3e
       -0.20725381 0.11835122 0.0457331 0.27263287
0000f0 96 34 1d 3d f3 95 11 be df 6e 88 3e bc 72 53 be
       0.038380228 -0.14217357 0.26647088 -0.20649236
000100 cb cb 03 be 12 c7 01 3d 34 fa a7 3d 18 ef c5 bd
       -0.1287071 0.03168399 0.08202019 -0.09664744
000110 33 cb 1d bd aa 7a 08 be 04 0f 64 3e 93 d1 5f bb
       -0.038523864 -0.13328043 0.22271353 -0.0034152016
000120 1b 1c 26 3d 88 ba 3d be d2 67 65 3e 26 d8 17 3d
       0.040554147 -0.18528187 0.22402886 0.03707137
000130 ed 5f bb 3d f0 6e f6 3e 78 9f 2b be 06 d6 f5 bd
       0.09149156 0.48131514 -0.16760051 -0.12003712
000140 17 fc 1f bc 34 31 15 be 31 5a b1 bd 16 df 89 bc
       -0.009764693 -0.14569551 -0.08659781 -0.016830008
000150 41 77 0d 3e b7 5e 46 3c 18 48 12 3e 73 db 40 bd
       0.13815023 0.012107543 0.14285314 -0.047084283
000160 7b 3b 8b 3d 38 6b bf bd 39 a1 7f 3e f7 e9 26 3e
       0.067984544 -0.09346622 0.24963845 0.16300188
000170 24 ca ac bd b5 c6 8a 3e 4e b0 e7 bc 8b 6e 00 3c
       -0.08436993 0.27104726 -0.02828231 0.0078388555
000180 01 14 e7 bc a1 7d de 3d 4f 30 93 3d d7 94 33 3e
       -0.02820778 0.108638056 0.071869485 0.17537247
000190 85 41 65 bd 5d e9 a3 3e 77 3d 19 be 16 3a 87 3d
       -0.055970687 0.3201398 -0.14964853 0.06602876
0001a0 4e 2e 47 3e c3 a3 da be 04 b6 07 3e 0e a0 bc bd
       0.19451258 -0.42703065 0.13253027 -0.092102155
0001b0 2b 89 a9 3d 32 32 9a 3e 34 48 8a ba 38 be c7 bd
       0.08278116 0.3011642 -0.0010550083 -0.09753078
0001c0 70 35 8f 3e be 7c 03 be 44 c7 2f be 14 85 1a be
       0.27970457 -0.12840554 -0.17165858 -0.15089828
0001d0 be b2 30 3e 11 cb 75 bd 06 2b 24 be 78 fe a7 3d
       0.17255685 -0.060008112 -0.16032037 0.08202833
0001e0 6a 8e bd 3e fe df 01 be 28 7d ca bd f9 89 05 be
       0.37022716 -0.12683102 -0.09887153 -0.13040914
0001f0 a3 5f 8b 3e 13 14 18 3e 82 bb 4f 3e 0b b2 df 3e
       0.27221403 0.14851408 0.20286372 0.43690524
000200 9f 34 19 be 35 a9 5c 3d 54 b3 3a 3e 7e 9a cd bd
       -0.1496148 0.053872306 0.18232471 -0.10039233
000210 e5 90 2c 3e dc fa 5f be df 5d 20 be 54 64 bd 3d
       0.16852148 -0.21873039 -0.15660809 0.09247652
000220 6f 7e 46 3d 20 42 a1 3c 61 3b 0b 3e 55 80 1f be
       0.04846042 0.019684851 0.1359687 -0.15576299
000230 5f 96 6a 3e 06 5d 32 bd e8 85 8e be 0d df 5d 3e
       0.22908925 -0.043545745 -0.27836537 0.21667118
000240 8a df 7d be 53 2f 3c bc a8 61 64 3c 71 d4 11 bd
       -0.24792305 -0.011485892 0.013939299 -0.03560299
000250 d7 32 63 bc 53 56 10 3e 74 70 2f 3b 85 e8 6c be
       -0.013867102 0.1409543 0.0026769908 -0.23135574
000260 fc 3b 69 3d fe 12 ec bb 16 f6 86 bc 97 dc c0 3d
       0.05694197 -0.0072044125 -0.016474765 0.09417074
000270 61 82 7f bd 52 db 74 3d 71 04 04 be 1f 3b c0 3b
       -0.0623802 0.059779473 -0.1289232 0.005866423
000280 50 40 21 3d 90 e3 f3 3c 70 4e 17 be e2 9e f0 bd
       0.039367974 0.029771596 -0.14776015 -0.117490545
000290 eb 60 d6 bd be 84 8b 3e 6c cd b0 bd 3f 9b 16 3e
       -0.104677044 0.27249712 -0.08632931 0.14707659
0002a0 7c ad e0 bc a1 d9 87 3c c5 ec 61 bd 37 13 a4 bd
       -0.027426474 0.016583266 -0.05515744 -0.080114774
0002b0 73 a2 95 3d 7e 06 63 3d 39 86 9b be f0 62 71 be
       0.07306375 0.055426113 -0.3037584 -0.23572898
0002c0 99 65 00 be 55 57 8a 3b 7c 27 e9 bd ca e7 7d 3d
       -0.12538756 0.0042218366 -0.11384484 0.06198863
0002d0 93 33 d5 3d 30 14 a6 3d 90 bb 8e bd f6 36 91 3d
       0.104102276 0.08109319 -0.069693685 0.07090561
0002e0 40 1d 3d 3e 37 69 11 3d 94 28 53 3e dd ae c1 be
       0.18468189 0.03550073 0.20620948 -0.37828723
0002f0 5f 1c 96 3d e9 90 99 3d 6f 3d 8b be 60 73 ef 3d
       0.0732963 0.074983425 -0.27195308 0.11691928
000300 42 70 f8 3d 7f f2 e0 3d 04 50 a6 3a b9 64 52 3e
       0.121307865 0.109837525 0.0012688641 0.20546235
000310 bd 03 f5 38 56 93 99 3d dd 30 b1 3b de c0 cd bd
       0.00011683207 0.07498805 0.0054074363 -0.10046552
000320 5b 76 aa bd 11 e6 44 3d 35 2d 84 be d4 c0 ca bd
       -0.08323356 0.04807097 -0.2581574 -0.0990006
000330 a5 1b aa 3d e6 75 52 bd 93 4f e0 bd a9 75 19 b9
       0.08306054 -0.051381968 -0.109526776 -0.00014635049
000340 f7 19 cb 3d 67 1d 2e bc f9 e3 17 3e 7f 68 69 be
       0.09917062 -0.010627127 0.14833058 -0.22793768
000350 b8 75 0f bd cb 4c bf bd 31 dd c4 3e bb ab 1a 3d
       -0.035024375 -0.09340819 0.38450006 0.03776143
000360 93 81 c3 bd 49 10 34 3d 8d b2 37 bb d0 7f 5d 3d
       -0.09546199 0.043960843 -0.0028030009 0.05407697
000370 ce e5 9b 3d f5 67 2c 3e 41 73 b6 bd 6f 61 79 be
       0.07612191 0.16836531 -0.08908702 -0.24353574
000380 12 b5 bc 3d e1 11 57 bd f2 73 ab 3e 23 0d 92 bc
       0.09214224 -0.052507285 0.33486897 -0.01782853
000390 33 12 bb be 63 17 95 be 02 65 19 be 5f e2 12 3d
       -0.36537322 -0.29119405 -0.14979938 0.035860416
0003a0 88 03 50 be 9b f8 58 3e f8 88 16 be 68 d3 d0 3d
       -0.20313847 0.21188585 -0.14700687 0.101965725
0003b0 28 63 a0 be 8d fb d2 3d 59 ea 55 3e bc 68 11 3d
       -0.3132565 0.10301886 0.20890178 0.035500273
0003c0 e9 4e d8 bd 05 e1 a2 3d 23 60 35 3e 04 87 45 3d
       -0.10561926 0.07953075 0.17712454 0.048224464
0003d0 d8 07 8b 39 fb df 96 3b aa 79 ad be 25 2e 81 3e
       0.0002651799 0.0046043373 -0.33881885 0.25230518
0003e0 05 03 e7 bd d4 12 09 3e 30 11 1a be f9 40 47 3e
       -0.11279873 0.13386089 -0.15045619 0.19458379
0003f0 b0 15 0d 3d 9e 47 f3 3d c9 9b 30 bb cf 0e 5a be
       0.03444451 0.11878894 -0.0026948324 -0.21294712

rnn.weight_hh_l1 f4 [200, 50]
000000 11 e5 fa bd a3 c3 0c 3e a0 d1 67 3c e0 55 e3 3b
       -0.12250722 0.13746504 0.0141491 0.0069377273
000010 b5 f2 03 3e ce 5f d6 3d 28 b3 9a 3c c0 cc ad 3d
       0.12885554 0.10467492 0.018884256 0.084863186
000020 60 2d 5b 3c 6c e9 dd bc 80 35 ce bd 2c c3 a0 3d
       0.013377517 -0.027088843 -0.10068798 0.07849726
000030 dd 4e 0f 3e ec 4a 7e bd 8a 75 ac 3d fe db 24 bd
       0.13994928 -0.06208317 0.08420856 -0.040248863
000040 ba 57 38 bd a9 6e 0d 3e b4 8b 0b be 74 23 98 3d
       -0.045005538 0.13811745 -0.13627511 0.07428637
000050 cc 25 c5 3d b8 16 95 3d fe 36 27 bd 8a 09 6d bd
       0.0962635 0.07279724 -0.04082393 -0.057870425
000060 de 08 cd 3d e2 23 ee 3d 70 22 6e bd fe 08 7d bd
       0.10011457 0.11627938 -0.05813831 -0.061776154
000070 aa 6e ee bd 54 ee 02 bd 76 8f ea 3d 00 6f 7d 3d
       -0.11642201 -0.03196557 0.11453144 0.061873436
000080 40 b8 cc 3d 14 32 bc 3d 54 e1 b1 bd 92 40 d7 3d
       0.099960804 0.09189239 -0.08685556 0.10510363
000090 f0 9f bd bc dc 3c be bd 10 61 0a be 9e 3f ed 3d
       -0.023147553 -0.09288952 -0.13513589 0.115844
0000a0 86 29 cf 3d 9b 77 0d be a0 5b 55 bc 4e 66 91 bd
       0.10115342 -0.13815157 -0.013022333 -0.07099591
0000b0 50 2e 56 3d 8c 22 64 3d f4 8a 78 bd c2 36 cf bd
       0.05229026 0.05569701 -0.06067939 -0.10117866
0000c0 e2 8a c3 3d 74 b1 bf bc 88 4d 2a 3d 65 74 fe bd
       0.09547974 -0.023400046 0.041577846 -0.12424544
0000d0 8c 9f 92 3d 8c cd 98 3d 9c d3 d2 bd 3a 00 87 bd
       0.071593374 0.0746108 -0.102942675 -0.0659184
0000e0 ae 50 fb 3d 40 21 8b 3b 90 6b 71 3d e2 ea ef 3d
       0.12271248 0.004245907 0.05894047 0.11714722
0000f0 5e 23 dc 3d dd 90 e9 bd 72 ad a5 3d 80 c1 5f bd
       0.10748933 -0.114045836 0.08089723 -0.054627895
000100 66 6f f7 3d 0f 26 b9 bd c9 13 04 3e e4 c1 a8 bd
       0.120817944 -0.09040462 0.12898172 -0.08240107
000110 2b 97 0e 3e b2 8e 83 3d 86 35 13 bd 6b 8e 85 bd
       0.13924854 0.06423701 -0.035939716 -0.06521305
000120 52 c2 eb 3d 9c bc f6 bc c4 ad 5d 3d 13 dd c6 bd
       0.11511673 -0.030119233 0.054120794 -0.09710135
000130 74 95 76 3d 04 7d 51 3d 69 9f 0e be f8 ef dc 3c
       0.060201123 0.051144615 -0.13927998 0.026969895
000140 08 f6 ca 3c 10 f3 ea bd 24 9c b4 bd 2e d9 e7 3d
       0.02477552 -0.11472142 -0.08818844 0.113207206
000150 3d ea 8e bd 7e 14 84 3d 20 cc c8 bb ea 6a e6 bd
       -0.06978271 0.06449221 -0.006127849 -0.11250861
000160 58 e0 54 3d 8c ad 34 3d b6 6d b6 3d 7c 5c f1 bc
       0.051971763 0.04411082 0.089076445 -0.029463045
000170 e0 2a 8d 3c dc 26 96 3d 94 99 c8 bd 1e 09 04 bd
       0.017232358 0.073316306 -0.09794918 -0.032235257
000180 16 d3 0d be 08 71 24 3d 7a 2c 0d be 56 af d0 3d
       -0.13850054 0.040146858 -0.13786498 0.10189693
000190 25 93 9d bd a8 13 39 3d 2a 2c 1b bd d2 03 f2 3d
       -0.07694081 0.04518476 -0.037883915 0.11817135
0001a0 ed b4 b3 bd 3e 1c b8 bd f4 26 df bc da 8c 0c be
       -0.08774743 -0.08989762 -0.027240254 -0.13725606
0001b0 18 15 b9 3d 6c b6 d9 bd 8e 99 5b bd 9c d0 95 3d
       0.090372264 -0.10630497 -0.053613238 0.0731518
0001c0 f4 dc cd bd 72 fe df bd 47 67 9d bd 66 50 cc bd
       -0.10051909 -0.109372035 -0.07685714 -0.09976272
0001d0 84 93 10 3d 32 b6 b7 bd 40 26 c6 3b 2d 1e f9 bd
       0.035296932 -0.08970298 0.00604704 -0.12163959
0001e0 e4 b5 a1 bc b8 b3 c5 3d 01 c8 0c 3e 13 de 98 bd
       -0.019740053 0.09653419 0.1374817 -0.07464232
0001f0 c0 7a 40 3d f2 58 f5 3d 53 19 10 3e bc 29 3b 3d
       0.046992064 0.119798556 0.1407216 0.045694098
000200 a4 73 b2 3d 00 a6 4e bd 90 8d 9a 3c 36 7d 07 be
       0.08713463 -0.05045128 0.01886633 -0.13231358
000210 5a 5c cc bd c4 a9 e3 bc 7a 29 89 3d 02 c3 90 3d
       -0.09978552 -0.027790911 0.06697364 0.07068445
000220 4a d0 f4 3d 90 e6 35 3c 10 d7 34 3c f8 6c d9 bc
       0.119537905 0.011102334 0.011037603 -0.026541218
000230 00 f2 c7 bb c7 cc 03 3e cc d5 9a 3d 34 4c a5 bc
       -0.0061018467 0.12871085 0.0756031 -0.020177938
000240 4a 94 ec 3d ba ca a5 3d da 47 90 3d 9a 20 47 bd
       0.115517214 0.08095308 0.070449546 -0.048615076
000250 28 26 4e 3d f6 da 6f bd 62 fc 02 be f0 28 04 3d
       0.050329357 -0.058558427 -0.12791589 0.032265604
000260 d2 1b 90 3d c8 cb 76 bd d8 70 ad 3d e4 34 56 bd
       0.07036556 -0.060252935 0.08468789 -0.052296534
000270 b8 43 a4 3d c0 a4 64 3c 08 2a 96 3d d2 a5 6c bd
       0.08020729 0.013955295 0.073322356 -0.057775326
000280 70 7b 25 3d 2e 4e a1 bd e8 c4 dc 3c ee 8e 5b bd
       0.040400922 -0.0787624 0.026949361 -0.053603105
000290 52 94 df 3d 76 b2 82 3d 6a 75 aa 3d da d7 e9 3d
       0.10916962 0.06381695 0.08323176 0.114181235
0002a0 8c b1 cf 3d 5c d7 a1 3d 8a ee a8 3d 98 0d 8b bd
       0.10141286 0.07902405 0.08248623 -0.06789702
0002b0 88 1e 47 bd 3e bc c4 bd 0c a3 90 bc 5a 30 dd bd
       -0.0486131 -0.09606217 -0.017655872 -0.10800238
0002c0 aa 7a 77 bd e0 51 a7 3c b2 3f 31 bd 8c 93 c7 3d
       -0.060419716 0.020424783 -0.043273635 0.09744939
0002d0 4d 72 e7 bd c8 03 0f 3d 63 b4 0b 3e 30 5c 7e bc
       -0.11301098 0.034915715 0.13643031 -0.015524909
0002e0 ac af 04 be 08 66 91 bd 42 5e eb 3d 9c 57 0f 3d
       -0.12957639 -0.07099539 0.114925876 0.03499566
0002f0 9e f0 0c bd ca 40 39 bd 8c 49 c7 bc e8 00 a6 bd
       -0.034409158 -0.045227803 -0.024327062 -0.081056416
000300 a8 41 79 bd 5c 0f 94 3d bc 8c 7a 3d 3a 7d f2 3d
       -0.06085363 0.07229492 0.06116937 0.11840291
000310 06 b1 23 bd 2a f0 34 bd 5e a5 cc bd 72 a0 eb bd
       -0.039963745 -0.04417435 -0.09992479 -0.11505212
000320 7e db fe bd b6 68 fa bd 40 14 2f 3d 68 0d 1c 3d
       -0.124442086 -0.12227003 0.04274392 0.038098723
000330 1b e1 f1 bd c8 a9 56 3d cc e8 de bc ec f6 d9 bd
       -0.118105136 0.05240801 -0.027210616 -0.106428
000340 66 9c 88 bd 03 c6 fe bd c0 d9 76 bd 5f 37 08 3e
       -0.06670456 -0.124401115 -0.060266256 0.13302372
000350 7d c3 b9 bd 9c 83 a6 bd d3 0d 82 bd 2a cf ba 3d
       -0.090704896 -0.08130571 -0.06350293 0.09121545
000360 dc 19 4a 3d ae 60 b7 bd da e3 81 3d 4a 82 d5 bd
       0.049341068 -0.08953987 0.06342287 -0.10425241
000370 28 88 8b bd b8 af 39 3d 00 1c b2 bd 2b 81 d2 bd
       -0.06813079 0.045333594 -0.08696747 -0.10278543
000380 f2 8f 39 bd f6 c6 18 bd 94 8c 3c 3d ea 66 69 bd
       -0.045303293 -0.03729912 0.046032503 -0.056982912
000390 7b 32 0e 3e 62 7b 19 bd 78 eb e6 bc 5e 56 f7 bd
       0.13886444 -0.037471183 -0.028188452 -0.1207702
0003a0 b8 1b fc bc 40 88 3a bc 24 16 b2 bc d6 2c bc 3d
       -0.030774936 -0.011385024 -0.021739073 0.09188239
0003b0 d8 df cb 3d 30 7a dd bc 7e e3 a3 3d 3c 76 83 3d
       0.09954804 -0.027035803 0.08002375 0.06419036
0003c0 c4 9e b7 bc 9e e5 88 3d 74 87 d3 bd a2 df b9 3d
       -0.022414573 0.06684421 -0.1032857 0.09075858
0003d0 d2 e8 dd 3d a5 cc 02 be b3 1f 0a 3e f0 23 62 bc
       0.108354226 -0.12773378 0.13488655 -0.0138025135
0003e0 82 ce 46 bd 96 78 b1 3d 7c 57 25 bd 16 b8 a6 bd
       -0.048536785 0.08665578 -0.040366635 -0.0814058
0003f0 a4 1f db 3d 80 73 bc bd 64 59 85 3d 9c 6c ea bc
       0.10699394 -0.092017174 0.065111905 -0.028616242

rnn.bias_ih_l1 f4 [200]
000000 f1 d6 dd bc 81 2e 9c 3d a3 5f e9 3d 55 1a 72 bd
       -0.027080031 0.076260574 0.113951944 -0.059107143
000010 1f 48 c2 3d 46 05 d8 bc 6f 28 87 bd 32 34 32 3e
       0.09486412 -0.026369702 -0.06599509 0.17402723
000020 db 51 8c bd 45 a4 c9 bc f3 10 80 bc 10 3c 41 3b
       -0.0685155 -0.024614463 -0.015633082 0.0029485263
000030 b5 8b a9 3d dd 52 35 3e e1 da 83 3c d5 b0 5d bd
       0.082786 0.17707391 0.01609558 -0.05412372
000040 09 c2 bf bc 55 0f a6 bd 01 9b 1e 3e 4f 61 b2 3d
       -0.023407953 -0.08108393 0.15488817 0.087099664
000050 03 f4 ee bb 6c 8d aa bc 86 ab 2d bc 21 9d c5 3c
       -0.007292272 -0.020819388 -0.010599976 0.024122776
000060 6b c2 04 3e 3c ac 08 3d 16 a5 a0 3d 54 3d 32 bb
       0.1296479 0.03336738 0.07843988 -0.00271972
000070 f6 32 01 3e 93 c1 dc bd 4c 41 1e bd 8b 5f 1c bd
       0.12617096 -0.10779109 -0.03863649 -0.038177054
000080 d9 d5 38 3e 12 b3 53 3e 94 5c 83 bd 99 0f 1d 3e
       0.18050326 0.20673779 -0.06414142 0.15337981
000090 9c 6c c4 3d c7 5b 14 3d e3 da 2f 3e 6c 9b cb bd
       0.09591028 0.03622034 0.17173342 -0.09941754
0000a0 7a b7 12 3e eb c6 29 3e e9 f9 c9 3b 1c 89 f4 3c
       0.14327803 0.16579787 0.006163825 0.029850535
0000b0 50 51 09 3e aa 89 51 3d 58 5b e5 3d 70 33 96 3c
       0.13409925 0.051156677 0.11199063 0.018335074
0000c0 ad 07 67 3d 33 77 ce 3d 20 fb 45 bc f0 5f 55 bc
       0.056403805 0.10081329 -0.012083799 -0.013023362
0000d0 e6 a9 bd 3d f6 a9 f9 bd 58 4e b6 3c 50 47 92 3c
       0.09260921 -0.121906206 0.022254154 0.01785627
0000e0 25 29 0a 3e d6 9f ac 3d 70 68 1d 3c 64 64 a0 bc
       0.13492258 0.08428924 0.009607419 -0.01957912
0000f0 68 0d b2 bc b0 5e 32 bc 42 2c a4 3d 3e db 35 bd
       -0.021734908 -0.010886833 0.08016254 -0.04439854
000100 a8 e9 c8 3d 8a 2c c3 bd 26 dc cd 3d 60 cb 15 3c
       0.098101914 -0.095299795 0.100517556 0.009142727
000110 f0 64 82 3d fa 2c e0 3d 2a 3f b9 bd 00 3d 74 3b
       0.063669086 0.109460786 -0.09045251 0.0037267804
000120 6c 77 1b 3d e7 c4 04 3e 62 35 ed 3d 40 66 c4 bb
       0.037955686 0.12965737 0.115824476 -0.0059936345
000130 f8 c5 a5 bd b0 56 51 3d 3a ed ef 3d e7 cd e0 bd
       -0.080944 0.051108062 0.11715169 -0.10976773
000140 f8 67 37 3d 40 7b 03 3b 1e bc b1 3d fd 6c 10 3e
       0.044776887 0.0020062476 0.08678459 0.14104076
000150 9b 9c 10 be 80 58 90 bd 70 4e 0b bc b0 8d ed bd
       -0.1412224 -0.0704813 -0.008502588 -0.1159929
000160 41 59 04 be 80 5f 00 bb 20 98 ca 3c f7 37 07 3e
       -0.12924673 -0.0019588172 0.024730742 0.13204943
000170 0e 39 fa bd 78 2d 9b 3c b0 27 58 3c 07 41 10 3e
       -0.122179136 0.01894258 0.013193056 0.14087306
000180 00 f4 65 bd 86 f3 23 bd ac ea fa bc dc d9 10 3d
       -0.0561409 -0.040027164 -0.030629478 0.035364017
000190 b8 84 94 3d 36 93 b0 bd 81 8d f9 3d b7 11 50 bc
       0.072518766 -0.08621828 0.12185193 -0.012699536
0001a0 ea d0 f3 bd 56 51 51 bd 28 d9 72 bd d9 95 fb bb
       -0.119050816 -0.05110296 -0.059289128 -0.0076777753
0001b0 82 03 f5 bc a9 c1 45 bd ed 36 07 3e 5f 35 cb ba
       -0.0299089 -0.04828039 0.13204546 -0.0015503577
0001c0 fc b8 2f 3d 5a 63 42 3d 1a f6 ae 3d eb 49 81 bd
       0.042901024 0.04745803 0.08543034 -0.06312927
0001d0 b0 35 8a 3b 97 77 21 bd e3 58 f9 3d e4 12 d2 3d
       0.004217826 -0.03942069 0.12175157 0.10257509
0001e0 75 14 9b bd 11 83 f1 3d 5b 95 cb bd 7c 7e 03 be
       -0.07572261 0.11792577 -0.09940597 -0.12841219
0001f0 ec a1 2b 3d f5 77 94 bd 12 2c ba bd a2 04 86 3d
       0.041902468 -0.072494425 -0.09090437 0.065438524
000200 53 c8 1a bd fa 23 6f bd 32 95 eb bc 22 a0 05 bd
       -0.0377887 -0.05838392 -0.028757665 -0.032623418
000210 58 1b a8 3c 4b f8 8f bd 94 98 80 bd c3 a9 e1 bc
       0.020520851 -0.0702978 -0.06279102 -0.027546769
000220 6d 48 f1 3d d8 0c f9 bd d4 4f bf 3c 5d 43 42 bd
       0.11781392 -0.12160653 0.023353495 -0.047427524
000230 93 61 ac bd 64 f2 8c 3d 70 da e3 3d 51 e7 55 bc
       -0.08417048 0.0688217 0.11125648 -0.013055638
000240 2a 9b 2e bd 62 41 c8 3d 0e c0 5b ba 61 48 9b 3d
       -0.042628445 0.09778096 -0.00083828054 0.075821646
000250 74 52 a7 3d e1 3e dd 3d 05 d1 e1 3d 51 75 a5 3c
       0.081700236 0.10803009 0.110261954 0.020197542
000260 db 5f ab 3d 53 a9 0b bd bb a8 38 bc 50 5c fb 3d
       0.08367892 -0.034097027 -0.011270697 0.122734666
000270 f0 51 e8 3c 0b 00 11 3e d2 36 0b be bc 03 95 3d
       0.028359383 0.14160173 -0.13595131 0.07276103
000280 fd e2 e7 3d ef e1 13 3d fe b5 42 3c 70 59 0c bd
       0.113225915 0.03610414 0.011884211 -0.03426498
000290 44 4f 79 3e 5c b5 ac bd d5 5b cb bb 7a fd f0 bc
       0.24346644 -0.08433029 -0.0062060156 -0.029417742
0002a0 87 3d 4b 3d 01 48 26 3d 41 be 00 3d 39 1b 1c 3e
       0.049619224 0.040596012 0.03143144 0.1524476
0002b0 d1 05 bc 3d f6 c0 82 bd be e6 0e 3e dd c4 72 3e
       0.09180797 -0.06384461 0.13955209 0.2370791
0002c0 b9 bd ae bc 0c ba 16 3e bd bc 3f bd 87 c1 7b 3c
       -0.021330701 0.14719409 -0.046810854 0.015365965
0002d0 5e e7 89 3d 5d 85 a6 3d 1e 4c bc 3c 70 9d 28 3e
       0.06733583 0.08130906 0.022985514 0.16466308
0002e0 90 77 4a bd 6b fc 6b bd 38 dc 8f 3c d0 db ae bd
       -0.04943043 -0.05761377 0.017561063 -0.0853802
0002f0 00 f4 bf bd 2f f6 3e bd fa a5 d2 bc c5 b2 4b 3c
       -0.09372711 -0.046621498 -0.02571391 0.012432759
000300 d8 69 f2 3c 87 ab 48 bc 16 36 1c 3c 8d 16 3b 3d
       0.029591486 -0.012247927 0.0095343795 0.045675803
000310 74 e9 fe 3d 63 98 ad 3b 16 9b a1 bd 7f 72 66 3c
       0.124468714 0.005297707 -0.078909084 0.014065384

rnn.bias_hh_l1 f4 [200]
000000 b2 58 eb 3d 90 4a 1d 3d 56 a9 3c 3d 72 12 6e 3b
       0.11491527 0.038401186 0.04605993 0.0036326912
000010 97 3d ac bd ac 29 14 bb d4 ac 03 3d a5 4e 94 3d
       -0.08410185 -0.0022607846 0.032147244 0.07241563
000020 c3 ff 03 be 6e 7e 08 be 18 29 7e 3c 87 51 f1 3d
       -0.12890534 -0.13329479 0.015512727 0.11783128
000030 1f 7d 12 3c 52 8a 9b bd ec e8 86 3e c4 05 55 3d
       0.008940964 -0.07594742 0.2634958 0.05200745
000040 12 49 ad bd 90 21 7d bc 49 f9 1e 3e e8 7d f4 3d
       -0.08461203 -0.015449896 0.15524782 0.11938077
000050 7a b9 1a 3b 8b 9a 74 bd a5 fb 90 3d fc b0 4a 3e
       0.0023609088 -0.059717696 0.070792474 0.19794077
000060 9d a2 ff 3d 7f 8c 71 3e 06 96 17 bd 92 5d 6e 3d
       0.12482188 0.23588751 -0.037008308 0.058194704
000070 1d 61 0c 3d b6 85 b2 3d 0f af 08 bc f0 44 53 bc
       0.034272302 0.087169096 -0.0083425185 -0.012894854
000080 00 93 21 3e 04 39 8a 3e 50 3f 7a 3d de 42 d4 3d
       0.15778732 0.26996624 0.061095536 0.103643164
000090 1c 9a 32 bd 4a c9 de 3d d8 e4 0e 3e d2 69 0e 3e
       -0.043604 0.108782366 0.13954484 0.13907555
0000a0 09 a9 8b bd 70 56 ff 3d 22 a9 09 3e eb 4b fb bd
       -0.0681935 0.124676585 0.13443425 -0.122703396
0000b0 c0 e7 06 3e 52 da cf bd 7f 84 d0 3d 31 cf 43 3d
       0.13174343 -0.10149063 0.101815216 0.047805015
0000c0 4f 41 dd 3d e3 c7 2b 3e 30 66 97 3c 60 42 9b bc
       0.10803472 0.1677547 0.018481344 -0.018952549
0000d0 0b a3 8a bd 4a 75 fc 3d f4 4c f6 bd e8 be 83 3d
       -0.06769379 0.123270586 -0.120263964 0.06432897
0000e0 80 7b cd ba 9d 91 00 3e 44 53 c1 3d 4a 59 fa 3d
       -0.0015677065 0.12555547 0.0943971 0.12224062
0000f0 74 1e 59 3d 9c a4 96 3d e8 6b be bc 34 19 01 be
       0.053007558 0.073556155 -0.023244813 -0.1260727
000100 e0 66 1a bc d4 9f 01 be 2a 19 9f 3d cc 67 30 3d
       -0.009423941 -0.12658626 0.077684715 0.04306774
000110 6c d7 e5 bc 10 a2 47 3c eb 0d 0a 3e 58 2d e0 3c
       -0.028056823 0.012184635 0.13481872 0.027365372
000120 d0 b3 f5 3c c2 f4 96 3d fa e5 01 be 0b 9e 0c 3e
       0.029992968 0.073709026 -0.12685385 0.13732164
000130 5a 98 52 bd be c8 fd bd 62 97 b0 3d f0 70 ae bc
       -0.051414825 -0.12391804 0.08622624 -0.021294087
000140 46 ec a0 bd 8a 55 a9 bd 1a 48 ee 3d f2 d6 df bd
       -0.078575656 -0.082682684 0.11634846 -0.109296694
000150 fc 04 28 3d 9c 2b d1 3d 34 c3 58 3d f7 41 cd bd
       0.04102038 0.10213396 0.052920535 -0.100223474
000160 ab f1 0b be 29 e0 0b be 90 c4 b6 3d 40 4c df bd
       -0.13666408 -0.13659729 0.0892421 -0.109032154
000170 9a da f9 3d 08 f4 7c 3d a1 88 0a be de ee 00 be
       0.12199898 0.061756164 -0.13528682 -0.1259112
000180 51 d1 0d be c0 c9 95 bd 14 4a 00 3d 60 21 0e 3c
       -0.13849379 -0.073138714 0.031320646 0.008674949
000190 42 21 a9 bd 82 2b a5 3c 3c 4c e8 3b 27 08 a2 3d
       -0.082582965 0.020162348 0.007089166 0.07911711
0001a0 30 da 1f 3d ea 51 ee bd 41 ce 29 3b f3 60 b9 3d
       0.03902644 -0.116367176 0.002591029 0.09051695
0001b0 99 58 a0 3d d4 3d dc bd 01 72 b7 bd 0d 46 c7 3d
       0.07829399 -0.1075398 -0.089572914 0.09730158
0001c0 79 12 9d 3d a1 7b fe 3d de 28 a7 bd 39 d9 4f bd
       0.07669539 0.12425924 -0.08162092 -0.05074427
0001d0 bb ee 5a 3d d1 5c 6d bd ce a9 e7 bd a8 93 47 bd
       0.053450327 -0.057949845 -0.113116845 -0.0487248
0001e0 ad b6 65 3d 03 46 4a 3d 02 fa 9c bd 50 f3 fa 3d
       0.056082416 0.049383175 -0.07664873 0.122534394
0001f0 8d 45 8a bb 5c e2 87 3d 1c b0 cc 3c d7 61 de bc
       -0.004219717 0.066349715 0.02498632 -0.027146263
000200 e7 9f bf bd b4 86 e4 bd aa 86 11 3e 9d bf 08 3e
       -0.09356671 -0.11158505 0.14211527 0.13354345
000210 c5 67 76 bd d2 ce 06 be 99 7d b0 bd c1 ae c1 bc
       -0.060157556 -0.13164833 -0.08617706 -0.0236429
000220 56 b2 6e 3d 5c 8d eb bc 58 a9 cf 3d 12 17 10 bd
       0.058275543 -0.028753929 0.10139722 -0.03517825
000230 5c 36 dc bc 7f 93 60 bd e9 08 01 be b8 91 e7 bd
       -0.02688139 -0.054828163 -0.12601055 -0.113070905
000240 30 4c 41 bc 4f e2 ed 3d 0c 2f c0 3c c9 69 14 be
       -0.01179795 0.116154306 0.023459934 -0.14493479
000250 e4 b4 9d 3d 22 15 09 be 5a da 65 3e 8a 88 82 3d
       0.07700518 -0.13386968 0.22446576 0.06373699
000260 50 f6 c0 bd 31 ef 64 3d 35 62 d6 bc 2e cf be bd
       -0.094219804 0.055892173 -0.026169876 -0.0931686
000270 55 68 2d 3d 48 19 86 3e fa 19 fe 3d 58 60 ee bd
       0.042335827 0.26191163 0.124072984 -0.1163947
000280 a6 e1 1b 3a 0e 16 33 3c 6e 35 99 3d 2b ea 16 bd
       0.0005946405 0.010930551 0.07480894 -0.036844414
000290 f4 8e 80 3e bb c6 14 3d 22 92 6a 3c 18 11 03 3e
       0.25109065 0.036322337 0.014317067 0.1279949
0002a0 17 86 0b 3c 6e a9 f4 3d bc 82 38 3e 00 03 09 3d
       0.008515856 0.11946379 0.18018621 0.033450127
0002b0 9b 7d 2c 3e 9f dd e6 3d 3d 48 b7 3d d8 b6 15 3c
       0.1684479 0.112727396 0.08949325 0.009137832
0002c0 29 44 ba 3c b1 b7 55 3d 07 21 60 bd a3 33 c4 bd
       0.02273758 0.052177135 -0.054718997 -0.095801614
0002d0 cb 61 0b 3e f4 63 b8 3d 94 05 17 3e db bb d8 3b
       0.13611524 0.090034395 0.14748222 0.006614191
0002e0 98 39 e4 3c db cb 3c bd 54 48 fc 3c 53 64 09 3e
       0.027859494 -0.04609285 0.030796207 0.13417177
0002f0 f5 cd 11 3e c8 18 fb 3d 10 08 2f bb 90 7c 52 bc
       0.14238723 0.12260586 -0.0026707686 -0.012847081
000300 b3 28 4d 3d 6d 53 21 3c ad 54 91 3d 69 47 c2 3d
       0.050087642 0.00984655 0.07096229 0.09486277
000310 ca f2 56 3b 07 59 f3 3c 5c fe 0f 3e c9 8d 3c bd
       0.0032798522 0.029705537 0.14061874 -0.046033654
