NTK/models/pinn_model2d.pth (torch, 733139 bytes, 8 tensors)

l1.weight f4 [300, 3]
000000 22 f5 6d bd 10 e0 c1 3c 47 a9 aa bd d4 bf 9e bc
       -0.058095105 0.023666412 -0.08333068 -0.01937858
000010 ef 87 10 be c3 be ef bd 50 57 9f bd 8c 41 15 3d
       -0.14114355 -0.11706307 -0.077803254 0.036439463
000020 53 61 91 3d 24 7a 1e be 6f c9 ba 3d f2 68 a9 3b
       0.07098641 -0.1547628 0.09120452 0.005169981
000030 e0 e4 62 bd c8 f5 02 3e 79 9f 0b bd 93 6b a5 3d
       -0.055394053 0.1278907 -0.03408763 0.08077159
000040 8a e4 15 3d f0 f7 0b 3e a5 fc a8 3d 06 52 8a 3d
       0.036594905 0.136688 0.08251313 0.06753926
000050 86 b1 53 bd fe 26 9a bd 1d 16 c3 3c 58 13 dc bd
       -0.05168297 -0.075269684 0.023814255 -0.10745877
000060 2d fe 93 3c ec a8 b7 3c c7 76 08 be 05 a6 bd bc
       0.018065536 0.022419415 -0.1332656 -0.023150453
000070 17 c8 28 bd b6 18 75 3c e0 7e e4 bd d0 a4 66 3d
       -0.041206446 0.014959505 -0.11157012 0.05630952
000080 31 6e f0 3d 2a ac dc 3d aa fe be 3c 7b a6 98 bd
       0.11739767 0.10775025 0.023314793 -0.07453629
000090 27 bd bc bd e9 6b b8 3d a6 f5 e2 3d 91 80 84 3c
       -0.092157654 0.09004957 0.1108201 0.016174586
0000a0 32 a7 11 3c bb 06 ca 3d 75 3f 94 bd 5a 56 3f 3d
       0.00888996 0.09864565 -0.07238666 0.04671321
0000b0 cd 86 f3 3d af 8e 80 bd e9 4d eb 3d 60 8e 9a 3c
       0.118909456 -0.06277215 0.114894696 0.018866718
0000c0 28 d0 96 3d 14 d3 56 bd ae bd df 3d 33 20 d1 bc
       0.073639214 -0.052447394 0.109248504 -0.02552805
0000d0 71 58 d0 3d 95 43 fe 3d 65 43 e6 3d 57 06 22 3e
       0.10173119 0.12415234 0.11243323 0.15822731
0000e0 4b 7e d7 3d 1a 8a 0f 3e b4 0c 34 3e 4f e5 08 3e
       0.10522135 0.14017525 0.17582971 0.13368724
0000f0 76 38 a7 3b f1 18 31 3e 61 8f f8 3d 55 bd 94 3d
       0.005103166 0.1729467 0.12136722 0.07262675
000100 16 03 e9 3d e2 dd c0 bd 4c 3c 91 bc 9a 9d cf 3d
       0.11377542 -0.09417321 -0.017728947 0.10137482
000110 33 38 a4 3d a7 9d d9 3d f6 32 11 be 83 db 67 3d
       0.08018532 0.10625773 -0.14179596 0.056605827
000120 65 61 a1 bd 6e 91 98 bd 67 0a 63 bb 3e 03 d4 bc
       -0.07879905 -0.074496135 -0.0034643651 -0.025880452
000130 20 0c d6 bd 32 3b d6 bb 6a c9 99 3d 7f 00 2b 3d
       -0.104515314 -0.0065378183 0.0750912 0.04174852
000140 80 1f 27 bc 4b 47 09 3e 6b b3 48 3d da 5f 58 ba
       -0.010200381 0.13406102 0.04899923 -0.0008254029
000150 14 3d a3 bd 58 64 16 3e e9 a7 d4 3d 7f f8 28 3d
       -0.07970634 0.14686716 0.10383589 0.04125261
000160 3a d0 c4 3d 66 ae ba 3d e7 9a 77 bc a0 5e 0b 3e
       0.096100286 0.09115295 -0.015112615 0.13610315
000170 84 80 22 bd 08 f4 a9 3c 74 e6 34 bd 0c 05 a8 3d
       -0.039673343 0.020746246 -0.04416509 0.082040876
000180 f3 ab 98 3c e0 3e 8d bd b8 b5 1d bc cf 8d ce bd
       0.01863668 -0.06896758 -0.009625845 -0.100856416
000190 de 21 d3 3c 18 00 1c 3e f4 41 01 3c 36 27 dd bb
       0.025772985 0.15234411 0.00788926 -0.006749059
0001a0 68 f6 fc bd 13 be 9e bd b5 07 67 3c b5 83 d4 bd
       -0.12351686 -0.077510975 0.014100959 -0.103766836
0001b0 9c ed 3d bd 6c 7d 5c bd c0 28 77 bd 5a bb cb bd
       -0.04636918 -0.05383055 -0.060341597 -0.09947844
0001c0 c6 f8 3a 3b 9c d2 9d 3d 2f ee ea bd bd dc 08 3d
       0.0028529628 0.07706186 -0.11471211 0.033413637
0001d0 1e 20 9f bd 8e ea e6 bd 34 e7 3b bb c5 a3 12 3d
       -0.07769798 -0.112752065 -0.0028671743 0.035800714
0001e0 8f 26 10 bd 54 9c af bc 82 b4 d5 bd aa 59 5a 3d
       -0.035193022 -0.021436848 -0.1043482 0.053308167
0001f0 4e ff 12 3e ac ea af 3d 68 9e 20 bd e6 4c 36 3e
       0.14355204 0.08589682 -0.039213568 0.17802772
000200 8e 3a 23 3e cd 7c 5c bd cd 32 14 3e 66 1d 7e 3d
       0.15940306 -0.053829957 0.14472504 0.062039755
000210 b4 1f 0c 3e 7a d4 ec bc 07 d7 0c be 1b e0 2f 3c
       0.13683969 -0.02890991 -0.13753901 0.010734583
000220 35 39 03 be 2e 6a 85 3c 3a d6 0c 3e 5a 24 a2 bd
       -0.12814792 0.016285982 0.13753596 -0.0791709
000230 11 1b 11 bd 57 38 06 39 ab 1a f0 bd 05 0f 7f 3d
       -0.035426203 0.00012800224 -0.117238365 0.062270183
000240 63 4d 12 be e5 e1 05 3e 06 e7 6f bd ed f9 af bd
       -0.14287333 0.13074453 -0.05856993 -0.085925914
000250 f3 c0 20 bd b5 82 ab 3d 96 a5 f7 3d 0c 33 39 be
       -0.03924651 0.0837454 0.1209213 -0.18085879
000260 65 17 05 be 29 ec c5 bd 93 ca 13 3e 3b f2 de 3d
       -0.12997206 -0.096641846 0.14432745 0.108860455
000270 f8 43 5a bd 49 62 9a bd 53 9e f4 bd 01 42 03 3e
       -0.053287476 -0.07538278 -0.119442604 0.12818147
000280 ab e9 9e bd 4e f5 29 be d8 76 b4 3d d5 7c d4 3d
       -0.077594124 -0.16597483 0.0881173 0.10375372
000290 20 04 76 bc 4c 25 69 3d a1 7e 84 3d dd 18 a0 bc
       -0.015015632 0.056920335 0.06469465 -0.019543106
0002a0 a5 1c ca bb 14 3e 13 bd 7b be e1 3b 90 5e b0 3d
       -0.0061679655 -0.035947874 0.006889162 0.08611786
0002b0 0d 6f 83 bd 7e 5a 15 be bf a8 18 bb 67 82 d1 3d
       -0.06417666 -0.14585301 -0.002329394 0.102299504
0002c0 17 fb e7 3d 5b bd a2 bd cb 4d c2 bd d2 2b 97 3d
       0.113271885 -0.07946273 -0.09487494 0.07381405
0002d0 d7 a9 ad bd 12 b5 e6 3d 08 cd 91 3d eb 29 3e 3d
       -0.0847966 0.11265005 0.07119185 0.046426695
0002e0 4c f0 36 3c e5 09 02 3e a3 82 f1 3d 33 cf 33 3e
       0.01116569 0.12699087 0.11792495 0.17559509
0002f0 87 7c c0 3d 5c 8a 0d bb 19 60 b8 3d 28 0d 24 3e
       0.09398752 -0.0021597361 0.09002704 0.16020644
000300 3b 9c d6 bd f0 d4 b6 bd f7 2d cc bd 15 6d 9e bc
       -0.10479017 -0.08927333 -0.099697046 -0.019339124
000310 d1 03 09 bb ae db 7d bb 97 cb cb 3d d0 b3 80 3d
       -0.0020906816 -0.0038735676 0.09950941 0.062842965
000320 1a 36 07 be d7 a5 ef bd da 30 f8 bc ec f2 22 be
       -0.13204232 -0.11701553 -0.030296732 -0.1591298
000330 20 e0 01 3e e1 e6 55 bd 81 40 c6 bd fd d9 d8 3c
       0.12683153 -0.052222136 -0.09680272 0.026471132
000340 46 87 aa 3d db 98 21 3d 45 b5 0c bd 17 37 04 3e
       0.083265826 0.039452415 -0.03435256 0.1291164
000350 01 7c f7 3d a4 de f1 3c 3a 5a a1 bd ce 85 32 3c
       0.12084199 0.029525109 -0.078785375 0.010896159
000360 26 b9 d8 bd 93 fe a7 bc b7 ad d0 bd ea b2 28 3c
       -0.10582189 -0.020507133 -0.101893835 0.010296563
000370 a6 3c 08 3e d2 0b 90 3d 4d c9 9e bc 98 28 cd bd
       0.13304386 0.070335045 -0.019383097 -0.10017508
000380 22 58 21 be 48 ed 93 3d f1 1c 75 3d ff 25 de 3d
       -0.15756276 0.07222992 0.059842054 0.10847091
000390 84 1a 6f 3d 56 b8 dd bd 25 4c e2 bc 3e b9 3f bd
       0.058374897 -0.10826175 -0.0276242 -0.04680752
0003a0 60 3c be bd 0b 9b bb 3c 13 eb 56 3d 12 b0 12 bc
       -0.09288859 0.022901079 0.052470278 -0.008953111
0003b0 50 43 ab bd 84 d9 0d bd bd c2 9f 3c 15 5e 00 3e
       -0.08362448 -0.034631267 0.019502038 0.1253589
0003c0 fb 7b b2 3d cb 2e 42 3d 5d 84 86 bd 51 3e 75 bd
       0.08715054 0.047407907 -0.06568215 -0.059873883
0003d0 1f 4e 6b 3d ed 71 45 bd 86 01 00 3d a7 99 5f 3d
       0.05744755 -0.04820435 0.031251453 0.054589894
0003e0 3e d8 c7 bd 70 6c a2 bc 70 96 46 bd 7c 5e 87 bd
       -0.09758042 -0.019827098 -0.048483312 -0.06609818
0003f0 0a 7e 0e 3d 95 b0 92 3d cd be fe 3d 5b b6 e5 3c
       0.03478817 0.071625866 0.12438736 0.028041055

l1.bias f4 [300]
000000 69 16 88 bd 04 a5 87 3a 89 6c e6 bd 2e a4 16 be
       -0.066448994 0.0010348861 -0.1125117 -0.14711067
000010 95 d2 c9 bc 68 a3 39 3d 97 f6 75 3d 8f e6 0c 3d
       -0.024636546 0.045321852 0.06004962 0.034399565
000020 f2 e2 19 bd 3c 9c 72 3d 2d a2 78 bd 72 1e 4e 3d
       -0.037569948 0.059231028 -0.060701538 0.050322004
000030 6b b5 82 bd bc 43 ac 3d 36 5b 44 bc 4d f8 67 bb
       -0.06382259 0.08411357 -0.011984637 -0.0035395802
000040 ee b4 22 3e 08 c7 8c bd da 1b 3b be 7f cb ad 3b
       0.15889332 -0.068739 -0.18272343 0.0053037996
000050 23 31 51 bd 5b bb 6b 3d 49 14 a3 3c ad 35 5f bd
       -0.05107225 0.057551723 0.019907134 -0.05449455
000060 db b1 98 bd 37 76 7c bc 4e 3a 18 bd a6 80 4c 3e
       -0.07455798 -0.015409044 -0.03716498 0.1997095
000070 54 3c 49 bd 7a 3c 45 bd 7a ea 90 bc cf 42 4d 3d
       -0.0491298 -0.048153378 -0.017689932 0.05011254
000080 8c a9 08 3c 3b 7f 93 3d e6 4e ea 3b 36 a8 08 bd
       0.008341204 0.07202002 0.0071505187 -0.033363543
000090 57 c3 0f 3d 37 a4 04 be 93 65 9e bc 34 06 d7 bd
       0.0350984 -0.12953268 -0.019335544 -0.1049923
0000a0 cb 83 9a be d9 7c d9 3c b6 34 f2 bc d0 cd 12 be
       -0.30178675 0.02654879 -0.02956615 -0.14336324
0000b0 b0 af 1e 3e 3b 1d 50 3d e3 fa ad 3d 4d c8 8a 3d
       0.15496707 0.050809126 0.084951185 0.067764856
0000c0 dc 51 83 be 3d 4c 29 be 87 cd 81 3d 9e 0f 51 3d
       -0.2564839 -0.16532989 0.06338029 0.051040284
0000d0 21 78 a1 3d 40 f6 26 bd ab 4b 0c 3d 42 fb 0c 3d
       0.07884241 -0.040762186 0.03425185 0.034419306
0000e0 9d fd fe 3c 00 4f 66 3d dc fd 66 bd 7e 89 65 be
       0.031126792 0.056227684 -0.056394443 -0.2241573
0000f0 c1 67 c8 bd d8 54 17 3e 9c bb 40 3c a2 6d 57 3b
       -0.097854145 0.14778459 0.01176348 0.0032871743
000100 ef ef 08 3c 14 33 4e bd c7 78 96 3d 18 e9 4e 3d
       0.008357986 -0.05034168 0.07347255 0.050515264
000110 de 7a 43 3e 4c 19 5e 3b ab 49 bb bd 80 45 d7 3d
       0.19089839 0.003388959 -0.091449104 0.10511303
000120 64 61 c0 3d 5c 2e b8 3c 9f 8e 81 3c ad 66 8c 3d
       0.09393576 0.022483043 0.015815077 0.06855521
000130 81 c5 be 3c 53 6d f3 bd 35 53 52 bc ab 2b 45 be
       0.023287537 -0.11886086 -0.012837221 -0.1925494
000140 bd 28 28 3e b6 df 98 bd a5 ea f4 bb 92 e0 e9 bb
       0.1642179 -0.074645445 -0.007474261 -0.0071373666
000150 8e d4 81 bb 6e 17 81 bc de ec 72 bb f6 fd 27 bd
       -0.003962106 -0.015758242 -0.0037067453 -0.04101368
000160 24 ed b0 3c 8f f3 0d be 2d 4c 2f 3e 97 05 8a 3d
       0.021597452 -0.13862441 0.17118903 0.067393474
000170 fc 12 99 bd b2 35 7f 3d cd 8b bc 3c f8 b1 9c 3d
       -0.07474324 0.062307067 0.023015881 0.07651132
000180 65 75 2b 3b 5e 49 b4 bb 27 9d d4 bd 26 39 8e bd
       0.0026162502 -0.00550191 -0.10381537 -0.06944494
000190 b9 59 a9 3c df 34 f9 3c 0b b3 ec bd 9f 21 5d bc
       0.020672666 0.030420719 -0.11557587 -0.013496785
0001a0 f9 1c d1 3e 95 16 1e 3d e8 60 1b be 73 8c 66 bd
       0.40842417 0.038595755 -0.15173686 -0.056286287
0001b0 29 bb 87 bc cf 14 62 bc e6 54 37 3e 2f ff 21 bd
       -0.016568737 -0.0137989065 0.1790348 -0.039550003
0001c0 76 d9 3b 3c d2 14 2d be 23 62 17 3e 75 fb 65 3e
       0.011465421 -0.16902474 0.1478353 0.22459204
0001d0 b8 0b a8 3d 8e 45 b3 3d ea f7 1b 3d bf e6 2c 3d
       0.0820536 0.08753501 0.038078226 0.042212244
0001e0 27 41 04 3c 5f 7e 68 bd ac a1 26 3c a2 04 6e 3c
       0.008072174 -0.056761142 0.0101703815 0.014527472
0001f0 0b 31 ba bd f9 68 d8 bb 17 06 05 bd 37 1b 98 3c
       -0.090913855 -0.0066043106 -0.03247651 0.018567665
000200 b9 31 fb bc ca 01 76 3e dd 53 09 bb 7c c1 f5 bb
       -0.030663358 0.2402412 -0.0020954527 -0.007499872
000210 43 64 5e bc 73 d1 cf bb 0f be 3a 3c 7d e4 0c bd
       -0.013573709 -0.006342107 0.011397853 -0.03439759
000220 fa 01 27 bd 6a d9 0f 3e b9 81 e7 3d 8c d6 14 bb
       -0.04077337 0.1404778 0.113040395 -0.0022710888
000230 d8 fd 5b bc 75 d7 9b 3b 1d d4 1b 3c a7 4d 25 3d
       -0.01342722 0.004755909 0.009511021 0.04035726
000240 da 2a 43 bc 0e 01 85 bc 3c 8e b4 3a 17 89 91 be
       -0.011912072 -0.016235854 0.0013775299 -0.28424904
000250 6e 36 07 be bd 0f a4 bd be b4 fa bd 2b 08 bf 3c
       -0.13204357 -0.08010814 -0.12241505 0.023319324
000260 62 cd 83 bd db 79 d1 bb 93 e4 b4 ba b3 69 03 be
       -0.06435658 -0.0063927 -0.001380103 -0.1283329
000270 c8 51 b3 3d e7 4b f0 3c e7 c4 32 3b 99 47 a5 3a
       0.08755833 0.029333068 0.0027278007 0.0012609839
000280 f0 cd 2e bd 8c 35 28 3e 30 9a ec 3d 16 9a 11 3d
       -0.042676866 0.16426677 0.115528464 0.03554734
000290 95 04 3b bd 8e 5b 8d bd a6 36 00 3c ee 86 06 bd
       -0.045658667 -0.06902228 0.007825529 -0.032843523
0002a0 9f 1e 6b be 52 3f 6d 3c 6d 96 9b be 03 cc b7 3c
       -0.229609 0.014480429 -0.30388203 0.022436148
0002b0 e2 de 42 be 71 fd 91 bd ad 55 71 bd 34 33 45 3d
       -0.19030336 -0.07128418 -0.058919597 0.048144534
0002c0 2e 6c b1 bd 46 2d 11 3b ca 72 10 bc 4c 83 16 bc
       -0.08663212 0.002215223 -0.00881643 -0.009186577
0002d0 2a 8d 8a bd 92 a5 34 3d e3 ca a6 bd f8 99 30 bd
       -0.06765206 0.044103213 -0.08144166 -0.043115586
0002e0 d9 7b a9 3c ac 99 5e bd 46 f4 16 3d e6 c5 28 3d
       0.020688938 -0.05434577 0.03685405 0.041204356
0002f0 ae b1 84 3d 72 05 0f bd 3c 56 bc 3c 6d ed c9 3b
       0.06479202 -0.034917302 0.022990339 0.0061623366
000300 1e b0 53 bd dd ee ed 3d bf 3b c2 3b 31 27 0c 3b
       -0.05168163 0.11617825 0.0059275324 0.0021385665
000310 d8 20 a5 bd ac 03 4b bd 8c 86 9c 3d 7d ab 3d bb
       -0.08062905 -0.04956405 0.0764285 -0.0028941326
000320 fd 9c 6a bd 66 66 00 3e 8d 42 93 bc 0a 7a 92 3c
       -0.057278622 0.12539062 -0.01797607 0.017880458
000330 78 1b 2f bc 79 a3 2a 3d b1 87 14 be 6d 4e b1 3d
       -0.010687701 0.041659806 -0.14504887 0.08657537
000340 8c 80 e3 bd b7 bf 34 bd d2 51 81 bd 70 2c 1d be
       -0.11108503 -0.044128146 -0.06314434 -0.15348983
000350 95 7c 20 3d a3 a3 9b bc aa 2a cf bd f9 e0 87 be
       0.03918131 -0.018998927 -0.101155594 -0.26538828
000360 04 19 cc bd 4e 4c 13 3d 00 1d 5f bd 72 a2 07 3d
       -0.09965709 0.03596144 -0.054471016 0.033113904
000370 66 23 45 bd 1b 0d a3 bc 65 54 22 3d 69 10 62 bb
       -0.04812946 -0.01990371 0.039631266 -0.0034494644
000380 2a 3f 72 bb 06 ba 55 bd 91 9a 5f 3c 8b 9f 12 bc
       -0.0036963918 -0.05217936 0.013647691 -0.008949171
000390 7b 4f 17 bd 10 0c 91 3d 12 9b 3a 3d 4d c5 f6 3c
       -0.036941033 0.07082379 0.045558043 0.030123377
0003a0 0b 1a 90 bc 5c 13 0a bd 23 0f 48 3d 81 ea ec bd
       -0.017590543 -0.03370987 0.04884256 -0.115681656
0003b0 fb f9 6b 3d 8e f0 8e bd 57 2b 8f 3d 11 71 73 3c
       0.057611447 -0.06979476 0.06990688 0.0148585
0003c0 4e 68 3f 3c 32 dd 98 bd 39 1f 8d 3d bf c1 92 bd
       0.011682583 -0.07464065 0.06890721 -0.071658604
0003d0 28 1f 13 3d 86 f8 fa bc 0a cd 18 3d 18 3f bf bd
       0.035918385 -0.030636083 0.037304915 -0.09338206
0003e0 3b 66 1c 3d 3e 89 60 be 75 df ce 3d 79 0a aa be
       0.038183432 -0.21927354 0.10101215 -0.33211115
0003f0 48 06 27 3d 54 68 c6 bd e7 e1 aa bc 90 59 a7 bd
       0.040777475 -0.09687868 -0.020859672 -0.081713796

l2.weight f4 [300, 300]
000000 95 f5 a7 3c 5d cd fa 3d c4 79 ec 3d 91 1d 48 3d
       0.020502845 0.12246201 0.115466624 0.04885632
000010 53 d5 c5 3d ab f6 22 bb 69 75 a5 bd cf f2 ad 3d
       0.09659829 -0.0024866264 -0.08079035 0.08493578
000020 b0 27 bd bd 16 f1 bb bc 6f bb da 3d 69 fd 00 3c
       -0.092360854 -0.022942107 0.10680281 0.007872918
000030 8b 61 ea 3d 4f 4f b3 bd 0d 05 9f bd 54 df c0 3d
       0.11444386 -0.08755361 -0.07764635 0.094175965
000040 63 9f 92 bd 00 5a 9b bd 59 7b 27 ba f5 49 e1 3c
       -0.07159307 -0.075855255 -0.00063889247 0.027501086
000050 09 15 0f be 26 ea 0a bd 98 95 66 3d ff 96 24 bd
       -0.13972868 -0.033914708 0.056295007 -0.040183064
000060 48 1f 27 bd 0a 77 66 bd 52 a7 de bc 34 35 d4 bd
       -0.040801316 -0.05626587 -0.027179394 -0.1036171
000070 76 4a 34 bd a2 c8 2a bd d6 71 9a bd e5 d8 61 bc
       -0.044016324 -0.041695245 -0.07541244 -0.013784622
000080 17 9f ab 3d 44 e7 5c bd b1 da 86 3d 74 09 b0 bb
       0.08379953 -0.05393149 0.06584681 -0.0053722207
000090 41 44 ac bc b1 fb 40 bc 46 13 e5 3d 55 f2 5f bd
       -0.02102864 -0.011778758 0.11185317 -0.054674465
0000a0 80 73 dc bd 9e 95 60 bd 0c 9d 9b 3c 00 ae 04 3c
       -0.107642174 -0.054830186 0.018995784 0.008098125
0000b0 cf 41 a3 b8 b9 f3 da bc 98 63 a2 3c bb fd 99 bd
       -7.7847035e-05 -0.026727544 0.01982288 -0.07519098
0000c0 26 b4 81 bd 5b 41 1b bd 7b 65 6c 3d ed 7d d8 3c
       -0.06333189 -0.037904125 0.057713967 0.026427234
0000d0 d6 a7 74 bd e1 07 80 3d ee b1 a2 bd 87 f8 c1 bc
       -0.059730373 0.06251503 -0.07944094 -0.023678077
0000e0 30 ca 83 bd 2d 5f ee 3c 38 18 1b bd 04 46 18 bd
       -0.064350486 0.029098118 -0.037864894 -0.037176147
0000f0 3e fd dd 3d d5 6c 2e 3d b1 9e 7f bc 2b c6 d8 3c
       0.10839318 0.04258426 -0.0156018 0.026461681
000100 aa 3b aa 3d 54 bf f8 3d 3b c7 7e bd ba a5 9d bd
       0.08312161 0.12145868 -0.06220172 -0.076976255
000110 95 f2 01 bb a9 36 08 be 7a 7b 71 3d 76 b7 8a bd
       -0.0019828428 -0.13302101 0.058955647 -0.06773274
000120 a7 15 b4 3d e2 5e 2b bd eb f3 76 bb 31 75 8c bd
       0.08793192 -0.041838534 -0.0037682008 -0.0685829
000130 a8 31 25 bd ee 33 62 bc 1a 20 cd bc 7e f6 83 3c
       -0.04033056 -0.013806326 -0.025039721 0.016108748
000140 e8 a3 ba bd a8 ab 8c bd 08 6f f9 3b 9a ba ad 3d
       -0.09113294 -0.06868678 0.007612113 0.08482857
000150 f9 f7 d8 3c 04 9b 02 bd 40 a3 a2 3d 98 1f b1 bc
       0.02648543 -0.031886116 0.07941294 -0.02162151
000160 ab 52 3a 3d 4b 28 29 3d 06 2e 47 3d 45 ac bf bd
       0.045488995 0.041298192 0.048627876 -0.0935903
000170 91 f0 23 3d 4b 63 bb bc bc b1 44 bc f9 38 b7 bd
       0.040024344 -0.022874495 -0.012005266 -0.089464135
000180 97 a0 dd bd ee 38 8f bd 6a 80 9f 3d 19 d0 79 3d
       -0.10821646 -0.0699328 0.07788165 0.060989473
000190 be 43 99 bd 1d 43 3f 3d e6 9e e9 3c 85 68 ae 3d
       -0.07483624 0.046694864 0.028518151 0.08516029
0001a0 57 00 be bc a8 6f a0 bd b8 03 4c bd b9 0a 05 3e
       -0.023193521 -0.07833797 -0.049808234 0.12992372
0001b0 1d e6 3d bd 4d b1 99 3c b4 d1 97 3b 4e a8 bc bc
       -0.04636203 0.018761301 0.004633153 -0.023029473
0001c0 ee d0 79 3d 2b b4 c3 3d 2c 75 b6 bd 55 a3 e3 3c
       0.060990267 0.09555849 -0.089090675 0.027787844
0001d0 9d ce 82 bb 52 12 36 3d 40 a4 c6 3d a7 42 12 3d
       -0.0039919154 0.044451065 0.09699297 0.035708096
0001e0 c9 40 8d 3b bb ce 18 bd b6 06 46 3d d9 a1 88 bd
       0.0043107015 -0.03730653 0.048346244 -0.06671495
0001f0 30 ef ee 3d 90 28 03 3e 1a 2f 11 3d 9b dc 33 3d
       0.11666715 0.12808442 0.03544531 0.043911558
000200 be 99 8a 3c c7 60 d6 3c 65 bd 87 3c 74 d2 ce bd
       0.016919013 0.026169194 0.016569803 -0.100987345
000210 08 58 6a 3d 44 a2 8c bd 9e 37 1d 3d d9 7c b6 bc
       0.05721286 -0.06866887 0.03838312 -0.022276329
000220 42 fa bf 3d 11 f4 19 bd f9 95 df 3c 43 ce 95 3d
       0.09373905 -0.037586275 0.027293192 0.07314732
000230 42 2d d4 bc 45 35 03 be b0 c8 6b bd 89 74 07 bd
       -0.025900487 -0.1281329 -0.057564437 -0.03307012
000240 f1 cd aa 3b 76 9d c8 3c 66 27 7f 3c a3 2e 37 bd
       0.0052125384 0.024489146 0.015573358 -0.04472221
000250 04 32 72 3d f7 13 aa 3d 2c ac e2 3d 2a f6 0f bd
       0.05912973 0.08304589 0.110679954 -0.03514687
000260 4e ab cd 3c d0 75 23 bd af c5 9b bd be 3d 53 3d
       0.025106099 -0.039907277 -0.076060645 0.051572554
000270 8a 01 80 bd d8 0e 50 bd 78 5e b1 bd 57 60 aa 3b
       -0.062502936 -0.050795406 -0.086605966 0.005199473
000280 09 79 dc bb dc 85 e5 bd 32 bf f1 bd 80 03 0e bc
       -0.0067282957 -0.11207172 -0.11804046 -0.008667827
000290 f0 dc 8b 3d a4 f8 e8 3c aa d0 a5 bd 7b 91 ed 3d
       0.0682925 0.028438874 -0.0809644 0.11600014
0002a0 4e a4 8a 3d 99 59 e6 bd 86 57 5a bc 80 9b 87 bd
       0.0676962 -0.11247558 -0.013326531 -0.06621456
0002b0 36 b2 b2 3d 64 0b 0d 3d 34 58 96 bc 3f d7 db bd
       0.08725397 0.03443469 -0.018352605 -0.10734414
0002c0 3c 83 fe bc 45 43 cf 3c 4d 22 64 bd bb 1b 3b bd
       -0.031068437 0.025300631 -0.055696774 -0.045680743
0002d0 c4 8f 23 bd a1 0c 40 3c 61 22 c4 3a b5 23 cf 3d
       -0.039932027 0.011721761 0.0014963859 0.101142325
0002e0 ad a3 c5 bc 86 87 c0 bc df ae ab bd ca aa b8 bc
       -0.024125898 -0.023502123 -0.083829634 -0.022542376
0002f0 f0 2a b7 bd 21 a5 8d bd 50 3d b4 bd 54 7b 83 3c
       -0.089437366 -0.069162615 -0.08800757 0.016050018
000300 1b 6b 8c 3d 20 a0 f2 bb 49 a0 bd bc 4c 93 50 3d
       0.06856366 -0.0074043423 -0.023147719 0.050921723
000310 30 25 90 3d 22 ef 38 3d dc af d2 bd 26 e4 8e bd
       0.07038343 0.04514993 -0.10287449 -0.069771096
000320 6f 89 05 bd 1f 1c 06 3d 7b cc e3 3c 7a e9 bf 3b
       -0.03260177 0.032741662 0.027807465 0.00585669
000330 be c9 dc b9 a1 78 32 bd 07 4b a6 bc 39 c1 05 3e
       -0.0004211198 -0.043572072 -0.020299448 0.1306199
000340 dd eb 4b 3d 6d 64 87 3d 4d 9e be 3d 41 da 07 3d
       0.049785484 0.066109516 0.09307537 0.033167128
000350 6f 6e a0 bd 10 b7 a7 3d 25 7f 9f bd 17 29 ab bd
       -0.078335635 0.08189213 -0.07787923 -0.08357447
000360 72 d4 fe bb 22 fb 64 bd 68 b5 ed bc 77 e3 d4 bd
       -0.0077767903 -0.05590356 -0.029017165 -0.10394948
000370 ee 18 29 bd 98 7f 12 3d 65 c9 34 3d 17 69 f4 bc
       -0.04128354 0.035766214 0.044137377 -0.029835267
000380 21 0a 1a bd 73 7a 24 3d 35 c0 ca bb a3 2d df bc
       -0.037607316 0.04015584 -0.0061874636 -0.027243441
000390 67 5e 50 bd bc dd 97 bd 6a f5 49 3c 1a c2 d9 3d
       -0.05087128 -0.07415339 0.012326578 0.10632725
0003a0 d3 79 ed 3d f1 13 92 3d f8 85 6c bd 7b 7d a5 3c
       0.11595502 0.0713271 -0.05774495 0.020201435
0003b0 d2 20 7e 3d f5 1e 2e bd ca 42 83 3d fd 7a a8 bc
       0.06204302 -0.04250999 0.064092234 -0.020566458
0003c0 c4 66 98 3d e1 a6 5a 3d 1d 8e 61 3d 70 69 c5 bd
       0.07441476 0.053381804 0.05506717 -0.09639251
0003d0 91 9c 96 bd da 3f 8f 3d c7 b7 82 bb e0 b8 03 3e
       -0.073540814 0.069946006 -0.003989193 0.12863493
0003e0 57 f5 0c be 64 ae 0e 3b 70 67 27 bc e1 d7 94 bc
       -0.13765465 0.0021771425 -0.0102175325 -0.018169345
0003f0 73 d0 b1 3c 08 ad cc bc 39 86 85 3d a0 b8 d1 3d
       0.021705842 -0.024984851 0.065197416 0.102402925

l2.bias f4 [300]
000000 00 97 ed 3a e5 79 46 3c 98 be 6a 3d 00 db 82 ba
       0.0018126667 0.012114023 0.05731067 -0.000998348
000010 2b b6 02 bc d0 f7 ef 3c f1 2c d9 3c e5 a1 b1 bc
       -0.007978003 0.02929297 0.026510688 -0.021683643
000020 1c a0 fe 3c bc 44 c1 3d d2 3c bd bc 5f 86 cb bb
       0.031082205 0.09436938 -0.02310029 -0.0062110866
000030 26 e0 82 3e 67 61 0a bc 58 e8 6f 3b 6d 42 b8 bb
       0.25561637 -0.008446074 0.0036606994 -0.005623153
000040 cf 89 30 bc b6 37 09 be 12 c9 c1 bc 68 c3 f0 bb
       -0.010775044 -0.13400158 -0.023655448 -0.007347513
000050 ad 63 cd 3b aa dd 80 bd f3 a3 a0 bb 02 96 7e bb
       0.006267986 -0.06292279 -0.004902357 -0.0038846736
000060 9d a3 30 3c 97 19 4c 38 73 c0 0c 3c 82 0c 25 3b
       0.010781196 4.8661223e-05 0.008590805 0.0025184457
000070 d4 ed 70 3b 23 91 81 b9 71 6a 42 3b 58 1d 83 3c
       0.003676285 -0.00024712933 0.0029665495 0.016005203
000080 94 79 b5 bc e2 b4 1c 3c f2 85 da 3d b3 0e ad bb
       -0.0221527 0.00956461 0.10670079 -0.0052812933
000090 e2 84 7b 3b 34 68 fb bc 4c e3 b3 ba 73 47 95 3c
       0.0038378765 -0.030689336 -0.0013724356 0.018222546
0000a0 9b 60 0b 3d 9c 15 6c bc 48 1c 32 bc 00 1a a1 3d
       0.034027677 -0.014409449 -0.010871001 0.07866287
0000b0 f4 0a 9d 3c 7e 26 98 bc 4e 58 86 bb 3e 02 8a 3d
       0.019170262 -0.018573042 -0.004099882 0.06738709
0000c0 47 16 3d 3b 55 60 c1 bc 84 6c bf bc a3 6f 7c bc
       0.002885239 -0.023605505 -0.023367174 -0.015407476
0000d0 03 9f 45 bc f4 1f 90 3c bd f9 3a bd e3 4e 52 3c
       -0.012061837 0.017593361 -0.045648325 0.012836191
0000e0 a5 bd be 3b 8f 58 8f 39 ea 64 6e 3b ba 30 5a 3c
       0.0058209472 0.00027341067 0.0036376067 0.013317281
0000f0 c5 81 e9 bb 71 99 83 bd be 7d 3a bd cf a8 59 bd
       -0.0071260654 -0.06425751 -0.045530073 -0.053139504
000100 ff cc 24 3c 26 c6 c3 bc 0e 29 04 3d 16 24 39 3c
       0.0100586405 -0.023898195 0.032265715 0.011300107
000110 ff 65 8a bc dc 25 89 bc cc 78 8d 3d ba b2 11 bc
       -0.016894339 -0.016741686 0.06907806 -0.008892709
000120 87 96 34 3b 52 84 ad bb 21 31 5a bc 41 46 b1 bc
       0.0027555542 -0.005295315 -0.013317377 -0.021639945
000130 1f 57 42 3e 9c 14 32 bc 4a 1d 66 3c b6 b7 fa 3b
       0.18978547 -0.0108691715 0.014045069 0.0076512946
000140 c4 0e b3 bb 4a 8e 06 bc 0a 82 64 bc 37 b4 26 3b
       -0.0054644067 -0.008212635 -0.013947019 0.0025437006
000150 29 5e 83 3d f6 db 01 3b 06 c9 57 bc 7e 57 a0 3c
       0.06414444 0.0019814945 -0.013170486 0.01957297
000160 df 2f 91 bb ea 0c fd bb f9 2b 0a bb 80 60 10 3b
       -0.0044307555 -0.0077224867 -0.0021083339 0.0022030175
000170 69 4f 95 bb fa d6 7d bb 98 c4 d5 bb 1a ee 6a be
       -0.0045565856 -0.0038732872 -0.00652368 -0.22942391
000180 b2 bb 6f bc c3 3b a8 bb a4 d5 90 3b e5 0d 3e 3c
       -0.014632152 -0.0051340773 0.004419999 0.011599992
000190 38 16 46 3c a2 4d c0 3c 09 8a b1 ba 21 73 ba bc
       0.012090258 0.023474518 -0.0013545166 -0.022759976
0001a0 82 23 40 ba 71 5b e8 3c 15 45 97 3c 75 61 c4 3d
       -0.000732951 0.028363915 0.018465558 0.09588901
0001b0 5e 4f 2b bc c0 16 de bc 51 2b 12 bc 2b e9 11 3b
       -0.010455934 -0.027110457 -0.00892146 0.0022264223
0001c0 1f 50 0b bb 58 f0 0a bb f6 59 6b 3b f9 41 0d bc
       -0.0021257473 -0.0021200385 0.0035911775 -0.008621686
0001d0 8a e0 0f bd e8 76 3f 3d 68 b9 cd bd a5 da 0e 3c
       -0.035126247 0.046744257 -0.10045129 0.008719121
0001e0 c5 98 ba bc 2d 6b 4e 3b fa 49 78 3c 4b 3b 13 bb
       -0.022777924 0.0031496987 0.015154356 -0.0022465761
0001f0 b8 c9 f2 3a 5b 91 6f 3d 98 34 62 be 2a 08 83 bc
       0.0018523252 0.05848823 -0.22090375 -0.015995104
000200 85 2f cd bc 2e 2f 95 3a e8 82 5c 3d 3c 59 55 bd
       -0.025047073 0.0011381858 0.05383578 -0.052087054
000210 e6 15 87 bc be 98 9f bd 2a d5 c0 3b 84 14 3a 3c
       -0.016489934 -0.07792805 0.005884786 0.01135743
000220 77 32 74 3d fe 35 2c bb 71 5b 12 3d 36 c5 74 bc
       0.05961844 -0.00262773 0.035731737 -0.014939597
000230 8b 8f 52 3d fa 80 8b 3c 3f 55 40 3c 93 55 28 bc
       0.051406424 0.017029274 0.011739074 -0.010274309
000240 1c b2 e2 3c b6 25 56 bb de 23 35 3c 17 4a 98 bc
       0.02767282 -0.0032676286 0.011055915 -0.018590016
000250 f8 9e 9a 3c 75 f6 4a bb 90 cc bc 3b bc 74 fb bc
       0.01887463 -0.0030969654 0.0057616904 -0.030695312
000260 6f 49 4b 3a 88 23 d0 bd 74 fb 0a 3d 25 f0 b5 3b
       0.0007754778 -0.10163027 0.03393121 0.005552309
000270 a6 a0 fc bb 6c eb b8 3c 92 f1 05 bc 66 b0 0a bc
       -0.0077095805 0.022573195 -0.008175271 -0.008464908
000280 41 a2 0b bd 85 ab 8a ba 5d 2f 38 be 1f 18 15 bd
       -0.034090284 -0.0010579681 -0.17986818 -0.036399957
000290 0a 81 8d bb ca 0e b3 3a f0 0e 11 ba 56 45 c9 ba
       -0.004318361 0.0013661024 -0.0005533537 -0.0015355747
0002a0 5f 22 ea bb 62 8e 31 3b 51 66 4b 3c 97 87 2f bc
       -0.0071452106 0.0027092923 0.012414531 -0.0107134795
0002b0 c8 26 b6 bb 91 2b 9a bd 89 93 be 3b a2 97 6e 3c
       -0.0055588223 -0.07527841 0.0058159274 0.014562519
0002c0 31 c5 b0 bb e6 25 8d 3c b9 a8 8a 3b 78 d9 d0 bb
       -0.005394601 0.017229985 0.004231539 -0.0063735805
0002d0 e7 85 83 bb dc bb 5e bd d0 82 d4 3b 09 26 40 3b
       -0.004013765 -0.054378375 0.0064853206 0.0029319546
0002e0 2a 94 3f bd 28 5c 91 bc 59 89 11 bb 27 6f cd bd
       -0.04677216 -0.017744139 -0.002220711 -0.10030966
0002f0 e1 24 7a 3a 9e 3f 01 ba c3 cf bb bb d7 0f 6f bb
       0.00095422385 -0.0004930439 -0.0057315542 -0.0036477947
000300 45 d8 98 bb 7f 5e c0 bb e3 1b 41 3c e2 aa a2 bc
       -0.004664453 -0.00587064 0.011786434 -0.019856874
000310 2e e7 f6 bc 42 56 0c 3c c4 e1 57 bb c0 56 52 b8
       -0.030139532 0.008565487 -0.0032940963 -5.0148694e-05
000320 64 23 1c bc 4b 82 66 3c af f3 58 3b 5d 5d 88 bc
       -0.009529922 0.01406915 0.003310423 -0.016646082
000330 4d cd 88 3c 5d 7a 15 3b 60 04 50 bc c2 0f 30 3b
       0.016699458 0.002280853 -0.012696356 0.002686486
000340 9a bb 50 bc 40 8b ec 3c 8b ed 27 3c 9b 46 27 3e
       -0.01274004 0.028874993 0.010249506 0.16335528
000350 5f f5 20 3c 02 fd 1a bc 93 3d 57 bc 56 4d 69 bc
       0.009824126 -0.009459736 -0.013137239 -0.01423963
000360 1b 16 1c 3a 28 8a c6 bc 47 7c 14 bc e2 c1 1d 3c
       0.00059542217 -0.0242358 -0.009062833 0.009628745
000370 6d bd 63 39 e8 77 4a 3d 66 c9 18 bb 42 c0 26 3c
       0.00021718974 0.049430758 -0.0023313402 0.010177674
000380 13 b4 3f bc ac 22 1c be 85 e0 25 b9 b7 62 97 3a
       -0.011700648 -0.15247601 -0.00015819266 0.0011549805
000390 40 26 63 3c f2 90 b1 bb 18 ec cc ba a2 84 c6 3b
       0.0138641 -0.00541889 -0.0015634326 0.0060582915
0003a0 d0 51 c5 bd e7 06 ba 3c f4 d4 a3 bd 4c 7d 5b 3c
       -0.09634745 0.02270837 -0.07999602 0.013396572
0003b0 c2 cc 87 bb 8b b9 2a 3e 55 23 f8 3c 71 55 3c 3b
       -0.004144282 0.16672342 0.030290285 0.002873745
0003c0 0c 81 86 bd 75 51 83 bc 88 69 e9 3b 35 90 c7 bc
       -0.065675825 -0.016030053 0.007123176 -0.024360755
0003d0 54 4c 50 bb c3 12 08 bb 3d b3 9a 3b 47 fa ea 3c
       -0.0031783776 -0.0020763136 0.004721074 0.028683795
0003e0 73 5e 53 3b 13 12 94 37 c1 da 01 3c f8 0d 8d bd
       0.003225234 1.7651391e-05 0.00792569 -0.0688743
0003f0 3e bc 8e 3b 9a 44 17 bd e4 db 04 3e 5b f0 a3 3d
       0.0043559363 -0.036930658 0.12974507 0.080048285

l3.weight f4 [300, 300]
000000 0a 2f 96 bd 9b 8d 77 3c ad 1c 19 bc 17 49 ab 3d
       -0.07333191 0.015109445 -0.009345216 0.0836355
000010 dc 94 68 bd 4f cd 7c bd 32 ff 9f 3c 7a c2 4c 3d
       -0.05678259 -0.061719235 0.019530866 0.049990155
000020 51 a9 38 3c 7f 54 0a 3d 5e 18 40 3d a6 4b c0 bd
       0.011270837 0.033771988 0.04689824 -0.09389429
000030 52 ba 93 bb 3b 5f bf bd 3e 51 b4 bd 12 92 99 3c
       -0.004508295 -0.09344336 -0.08804558 0.01874641
000040 3c 71 a1 bd b9 a4 b3 bc 06 3d 6d 3c 84 d4 aa bd
       -0.07882926 -0.021929132 0.014479881 -0.083413154
000050 9c c7 b8 3d cf df 96 bd 8d 15 99 3b 9f 68 8e 3d
       0.090224475 -0.07366907 0.0046717585 0.06953549
000060 32 18 90 bd a4 2d 7f bd 68 45 6d 3d cd 87 94 3d
       -0.07035865 -0.062299386 0.05792752 0.072524644
000070 82 10 a7 bc e5 5f 2c 3d b9 05 0d 3d 6c 0e 9f bd
       -0.020393614 0.04208364 0.034429286 -0.07766423
000080 8d 38 c4 bd 30 87 c7 3d 97 46 ee bb 1e a3 80 bd
       -0.09581099 0.09742582 -0.0072715986 -0.06281112
000090 e7 71 59 bd ce f6 6e bc 83 97 a2 bb 2f 21 a6 3d
       -0.05308714 -0.01458521 -0.0049619093 0.08111798
0000a0 e3 1e 51 bc 42 1f 9d bd a1 8f b7 3d b6 83 d0 3d
       -0.012763712 -0.076719776 0.08962942 0.10181372
0000b0 64 a1 4f 3b 16 c3 96 3c 61 6b 5d 3d ea 29 ca bb
       0.003168189 0.018403571 0.054057483 -0.0061695473
0000c0 63 17 d6 bd 5b e0 6b 3d 21 cc 4f bd 95 3b 77 bd
       -0.104536794 0.05758701 -0.050731782 -0.060359556
0000d0 73 ce 8d 3d 5c 41 38 bc e3 10 c6 bc d2 ba 8c bd
       0.06924143 -0.011246052 -0.024177974 -0.06871571
0000e0 16 51 97 bd 12 31 9d 3d ab 3b 25 3d b2 52 64 bc
       -0.07388513 0.07675375 0.040340107 -0.013935732
0000f0 83 e9 74 3d 0f 79 48 3d 73 be 8f bd e8 2b 88 3d
       0.059793007 0.048943575 -0.07018747 0.066489995
000100 3e d9 bc 3d 4a 0d 3f bd 1d a7 7a 3d d6 aa 81 3d
       0.09221123 -0.046643533 0.061194528 0.063314125
000110 c5 cd 36 3d 06 bc b1 3d 3a 7d 86 bd 1d a2 3a bd
       0.04462983 0.08678441 -0.06566854 -0.04556476
000120 64 0d 76 3d 04 12 39 bc 2e 69 f0 bc c2 8d 10 3d
       0.060071364 -0.011295799 -0.029347029 0.03529144
000130 28 8c 73 bd 0b a4 b5 bd 23 52 7e 3d 24 29 b0 3d
       -0.059459835 -0.08869179 0.06209005 0.08601597
000140 06 99 ff bd b3 65 03 bd 92 98 07 3d 7f 59 7e bd
       -0.12480359 -0.03207941 0.033104487 -0.06209707
000150 88 07 59 3c 6f 21 1f 3c 88 f4 a9 bb 29 08 eb 3d
       0.0132464245 0.009712561 -0.005186621 0.11476166
000160 4a 82 0b 3d bc e9 86 3c c8 d6 f7 3c 3b d8 9a bb
       0.0340598 0.016468875 0.030253783 -0.0047254837
000170 16 b7 ac bd af 78 63 bd 60 e6 2c 3d f4 b6 86 3d
       -0.08433358 -0.055535015 0.04221189 0.06577864
000180 bf dc 88 3d 2a 04 5d bc da 3d 96 bd 13 a0 7b bd
       0.06682729 -0.013489762 -0.07336016 -0.061431956
000190 88 2b 47 3d da 71 7c bd 69 12 98 bd 17 97 62 bd
       0.0486255 -0.061632015 -0.074253865 -0.05531987
0001a0 de 7b bb bd c4 e6 b3 bd 64 dc 38 bd d8 cb ab bd
       -0.09154485 -0.087842494 -0.045132056 -0.083884895
0001b0 f8 c0 a6 bd 10 96 17 3c 1c fa b5 3d d4 0f 1b bd
       -0.081422746 0.009252086 0.08885595 -0.03785689
0001c0 25 ba 27 bd ad 55 3a bd e5 a2 ab 3d fd 2b d0 3c
       -0.040949006 -0.045491863 0.08380679 0.0254116
0001d0 0e 01 54 bd 97 4e b4 3d 89 96 79 3c f0 85 59 3c
       -0.05175882 0.08804052 0.015233644 0.013276562
0001e0 b8 f2 0c 3d 28 8b 71 bc e3 68 98 bd 20 03 bc bd
       0.034411162 -0.01474265 -0.074418806 -0.091802835
0001f0 19 48 91 3d 3e 1a 9d bd af a7 60 3d 79 b6 a7 bc
       0.0709383 -0.07671021 0.054847416 -0.020472752
000200 d1 d1 01 bd da ba 97 bd 13 0c 45 bd 23 c4 0e bc
       -0.031694237 -0.07408686 -0.048107218 -0.008713755
000210 2a 5f 90 bb 23 80 64 bc 61 71 78 bd ff f1 9d bd
       -0.0044058757 -0.013946566 -0.060655 -0.07712173
000220 44 f4 b8 3d d7 e7 bf bd cb ad 01 3d b2 a8 40 3d
       0.09030965 -0.09370392 0.031659883 0.04703588
000230 89 a6 be bd 79 1f 83 bc 63 fd 52 3d e4 80 03 bd
       -0.09309108 -0.016006218 0.05151118 -0.03210534
000240 60 46 1b 3d a9 f9 a5 bd f6 2f b3 bc c6 7e 88 3d
       0.03790891 -0.081042595 -0.021873455 0.06664805
000250 cb bb 9d 3c 16 e3 9b 3d 5f 42 9c bd 2e 13 5f 3d
       0.019254586 0.076116726 -0.07629847 0.05446165
000260 be a9 8e bc db 56 5f 3d 52 c9 2e bc ef 09 18 3c
       -0.017414924 0.05452619 -0.010668116 0.009279712
000270 35 31 56 3d 77 cc d6 3d 1c 08 ba bd e6 fb 26 bd
       0.05229302 0.10488217 -0.09083578 -0.040767573
000280 fd d4 93 3d f2 46 b0 bd 0c db 1c bd 03 63 72 bd
       0.07218359 -0.08607282 -0.038294837 -0.059176456
000290 d4 80 28 bd 87 49 64 bd fb b4 58 3d f7 95 95 bd
       -0.041138485 -0.055734184 0.05290697 -0.07303994
0002a0 10 dd 11 bc d8 28 a3 bd 5e 5b cd bd 04 f1 a4 bb
       -0.008902803 -0.07966775 -0.100271925 -0.005033614
0002b0 81 54 5a 3c df 70 b2 3d 0e 35 04 bc 72 36 a4 bc
       0.013325811 0.08712935 -0.00806929 -0.020045493
0002c0 f1 4f b5 3d e4 81 31 bd ce cc e8 bc 63 db b7 3d
       0.08853138 -0.043336764 -0.028417971 0.089773916
0002d0 2b 12 c1 bd dd 1e 9f bd 15 1f 80 3d bd 05 9f 3d
       -0.094272934 -0.077695586 0.062559284 0.07764766
0002e0 8d 22 ae bd d8 e9 d1 bc ee 65 0a 3d 86 68 ac bd
       -0.08502684 -0.0256242 0.033788614 -0.08418374
0002f0 ba a1 41 3d 4a 5c 88 3d 2b f2 ba bd 26 92 19 3d
       0.047273375 0.06658228 -0.09128221 0.037492894
000300 3a fb b6 bd 99 20 d3 bc 62 82 c2 3c a7 18 9f 3c
       -0.089346364 -0.02577238 0.023743812 0.019420935
000310 fc 85 ac bd 33 7a 27 3d 98 d3 59 3d 0b ff b6 3d
       -0.08423993 0.040888023 0.053180307 0.08935364
000320 5d 4b ed 3c dc 8f da 3c d3 a0 48 3b 14 b5 3a 3c
       0.0289666 0.026679926 0.0030613437 0.011395711
000330 9e d3 dc bc d5 c5 4c 3d 1b 2a 7c bb da 8c 80 3d
       -0.026956376 0.049993355 -0.0038477245 0.06276865
000340 33 02 6b bd 97 f0 79 3b 0d 98 8c bd 63 4a f4 bc
       -0.057375144 0.0038137787 -0.06864939 -0.029820627
000350 f6 79 9b bc de fe 03 3d d0 d3 a2 3d 7b be ba bd
       -0.018979054 0.032225482 0.07950556 -0.091183625
000360 fc 97 4b bd 67 13 ad 3d 85 48 4a bd 02 ca d5 bc
       -0.04970549 0.08450966 -0.049385566 -0.026097301
000370 2b 31 3a 3d a5 e2 98 3d dc 93 97 bd 48 a7 41 3d
       0.045457046 0.07465104 -0.07401249 0.047278672
000380 5f b5 89 3d 1f 7e 08 3d ee d8 f2 3c bc 88 2d 3d
       0.06724047 0.033323403 0.029644456 0.04236673
000390 cd 78 84 bb d7 56 95 3d 58 99 9d bd 9f 18 78 3d
       -0.004042721 0.07291954 -0.076952636 0.060570356
0003a0 2f 23 a9 bd 89 d2 a5 3d d2 aa e5 bc 9a 45 d0 3d
       -0.08258664 0.08096797 -0.028035555 0.101695254
0003b0 e5 c2 75 bd c5 87 7d 3d f6 4a 79 3d d2 d6 65 3d
       -0.06000032 0.061897058 0.060862504 0.05611307
0003c0 29 f7 33 bd e6 8c 36 bd 53 8d a0 3d ea 3e dc 3d
       -0.043936882 -0.044567965 0.078394555 0.107541874
0003d0 bd 65 1d 3d 23 19 d0 3c b6 c0 bf 3d ff fa 96 3d
       0.038427103 0.025402611 0.093629286 0.073720925
0003e0 af 8d 37 bd 24 4d c5 bd 78 9f a2 bd a6 8d 53 3d
       -0.044812854 -0.09633854 -0.079405725 0.05164876
0003f0 54 5c 17 bd b3 34 c6 ba 70 19 48 bd 6e 0a 4a bc
       -0.036953285 -0.0015121907 -0.048852384 -0.012331588

l3.bias f4 [300]
000000 91 3b 34 3b a6 23 17 bc 26 17 62 3d 08 4f e6 3c
       0.0027501325 -0.009224808 0.055197857 0.028113857
000010 bd 61 d3 3b da be 97 39 84 46 ee ba 7e 84 36 3b
       0.0064508603 0.0002894316 -0.0018178974 0.0027849968
000020 46 cd d4 3a e1 e3 10 bc 5d a2 40 3c a1 6a b3 bb
       0.0016235493 -0.008843393 0.01175746 -0.0054753576
000030 52 87 8f bc 48 b0 f8 3b 86 ff a8 bb 52 75 8e bc
       -0.01752058 0.0075893737 -0.005157414 -0.017389927
000040 dc ad 67 3d 4c dd ea 3b 82 ec 99 3d 51 f0 51 3c
       0.05656229 0.007167494 0.075158134 0.012813644
000050 ed 35 14 3c 82 e1 c6 3a ec 8c 1b bb 7d b1 ce bc
       0.00904606 0.0015173408 -0.002373512 -0.025231117
000060 25 48 b5 bb 00 3c 3d ba dc b3 9c 3c aa 5b 68 3b
       -0.005532282 -0.00072187185 0.019128732 0.0035455027
000070 ad 12 df bb bd cd 52 bc ba 73 aa 3b d7 f2 8a 3c
       -0.0068076462 -0.012866435 0.005201784 0.016961498
000080 5c fb 22 bd 47 6c a5 bc a9 ac f5 bc 0b 82 47 3d
       -0.039790496 -0.020193232 -0.029989557 0.048708003
000090 3c 7e 37 bc fb c9 d4 3a 42 8a af bb 70 9d b6 39
       -0.01119953 0.0016234511 -0.005357058 0.00034831045
0000a0 43 7a a9 3b fc 64 a5 3a ef 3a 72 bc d5 83 ab 39
       0.0051720454 0.0012618597 -0.014784559 0.00032713884
0000b0 63 69 36 bb 95 12 98 ba 14 02 d3 b9 1a ea 63 bc
       -0.0027833811 -0.0011602218 -0.00040246604 -0.013910795
0000c0 8f bd ab 3c 16 ac f7 3b 18 39 8f 3b b9 b7 b4 3a
       0.020964412 0.007558356 0.00437082 0.0013787664
0000d0 d9 20 30 3c 70 f5 30 bc 4e 7e 55 3b d6 37 b0 3b
       0.010750019 -0.010800704 0.0032576504 0.00537775
0000e0 00 fd c0 bc 7c 62 78 3b 8d ba 5a bc 7d 86 a1 bc
       -0.02355814 0.0037900498 -0.013350141 -0.01971745
0000f0 a8 23 e5 3b b4 03 25 3c bd 0f 01 3d 39 90 8c bc
       0.006992776 0.010071684 0.03150915 -0.017158614
000100 cc 7c bd 3c c3 02 44 3c 3d 22 9d bc 4d 42 38 bc
       0.023130797 0.011963549 -0.019181365 -0.011246276
000110 49 5b 65 3c 43 9a 25 bc 39 af 99 3c 9b c1 83 bc
       0.013998815 -0.01010758 0.01876031 -0.01608353
000120 3b d3 bf bb 7f b8 16 bb b1 f9 2d be fa d9 0b 3d
       -0.005854038 -0.0022998152 -0.16989781 0.034143426
000130 9f 6a 57 bd ab 6e 82 3b bc 7a e9 3b e7 b3 70 3b
       -0.052591916 0.003980478 0.007125227 0.0036728324
000140 db fd ad 3c be 86 e0 bb ae da 4d bc a5 5f 06 bc
       0.021239212 -0.006852 -0.012564344 -0.008201514
000150 07 79 ef 3d 5a 38 21 3b 96 56 90 bb 15 87 a4 3b
       0.11693006 0.0024600239 -0.004404853 0.005020986
000160 09 f2 d5 3a 52 a8 1b 3c e6 bb 4c bc 3d 00 f6 3c
       0.0016322742 0.00950058 -0.01249597 0.03002941
000170 8a 1a 95 3d c0 4e 44 3c 14 77 21 3b ec 9e 34 bc
       0.072804525 0.011981666 0.0024637626 -0.011024218
000180 18 2a b2 bb 3a da 9d bc e7 82 e7 bc 82 2f 5b 39
       -0.005437147 -0.019269098 -0.028260661 0.00020903166
000190 78 e1 90 3b 33 2c 66 3b b2 94 79 bb 56 0a e2 bb
       0.004421409 0.003512156 -0.0038083014 -0.006898205
0001a0 fb d2 1e 3d 71 79 f3 bb 99 51 c4 3b 88 cf 46 3c
       0.038775425 -0.0074302484 0.0059911725 0.01213444
0001b0 fb 3f 13 bb 93 93 7b bc c4 8b 8f bc 9b d5 b9 3b
       -0.0022468555 -0.015355009 -0.0175227 0.0056712157
0001c0 7b 13 8b 3b e2 21 18 bc 5d c2 12 3c 45 f2 40 3c
       0.0042442656 -0.009285422 0.008957473 0.011776512
0001d0 79 06 b6 bc fa 59 09 3c 39 9a 07 3c bc ff c7 ba
       -0.022219883 0.0083832685 0.008276516 -0.001525871
0001e0 30 97 f4 3a a3 07 d0 3c 9e 5f 57 3c f1 21 17 36
       0.001866078 0.025394266 0.0131453555 2.252051e-06
0001f0 25 9a 0d 3b 8e 95 5c bb 31 87 6e bc 9a 2c 93 3b
       0.002160677 -0.0033658477 -0.014558599 0.004491401
000200 7a 89 02 bc 5a 7e b8 3a 1a ca e0 3c 44 95 5a 3b
       -0.007967347 0.0014075742 0.02744012 0.003335313
000210 d6 b7 87 ba ac 97 ad bb 0e 8a 58 bb 49 dd 62 3b
       -0.001035447 -0.0052976217 -0.0033041271 0.003461676
000220 7d 4d d2 bb 00 b8 2c bb 3f 1c 03 bd de 75 2f 3d
       -0.0064179287 -0.002635479 -0.03200936 0.042837016
000230 97 0e 1d bd ac c1 85 bb 02 18 ca 3c d6 07 42 3c
       -0.038343992 -0.0040819254 0.024669651 0.011842689
000240 6c 96 cb ba 33 da d2 39 ed da a5 3a 33 55 b2 3c
       -0.00155325 0.00040216892 0.0012653746 0.021769142
000250 1f 45 92 3b 4c a0 51 bc 73 77 4f bb aa 69 16 3b
       0.0044638063 -0.012794565 -0.003165689 0.0022951164
000260 f7 08 9c 3b 1e cd 1d bc ac 25 97 bb 09 56 80 bb
       0.004761811 -0.009631423 -0.004612645 -0.003916506
000270 d3 5b 27 3b 28 df db 3b 94 16 36 bc c7 f7 0c bc
       0.002553691 0.006709952 -0.0111137815 -0.008603997
000280 7c 14 74 bc 81 6e 72 bb db 2f 3f bc 29 16 df 39
       -0.014897462 -0.0036992135 -0.0116691245 0.00042550385
000290 63 60 79 3a 8f 5d e6 3b fe d8 c3 3b e6 bb 56 bb
       0.0009512959 0.007030196 0.005976795 -0.0032765805
0002a0 4a 63 51 3c 41 69 b4 3b 08 3b f1 3b 70 99 0b bc
       0.01278002 0.0055057113 0.0073617734 -0.008520469
0002b0 3e ac b6 39 68 74 bd bb fd c0 7d 3c e8 03 8e bb
       0.00034842076 -0.005781699 0.0154879065 -0.0043339618
0002c0 e9 4b 1e bc 45 19 f7 bc 74 df 37 39 f1 5b 38 bc
       -0.009661653 -0.030163417 0.00017535483 -0.011252389
0002d0 4e a1 03 3d b3 4e 4e bc cd 62 08 3b a5 c2 56 bb
       0.032136254 -0.012592006 0.0020810843 -0.0032769826
0002e0 a6 f0 84 39 c7 83 12 bb 34 00 34 3b 2b ca 16 3c
       0.000253563 -0.0022356377 0.0027465941 0.009203474
0002f0 ca df d0 3b f1 49 5a bc ca a9 af 3a 35 23 cc bb
       0.006374334 -0.013323293 0.0013402042 -0.006229783
000300 0f 4c 4a bc 57 99 7e bb d9 71 bb b9 c4 6f b3 3c
       -0.012347235 -0.0038848722 -0.00035752243 0.02190388
000310 b0 f9 6e 3a 4e da 98 3d 9a 94 c6 bc 12 0f d8 39
       0.0009116186 0.07463513 -0.02424078 0.0004120996
000320 16 e0 17 bb 0b 62 82 bd 39 7f 6b bd 40 16 a9 bb
       -0.0023174337 -0.063663565 -0.057494376 -0.005160123
000330 73 24 07 3a 60 66 a5 3b 32 5f 53 3c d0 52 5a b9
       0.00051552727 0.0050476044 0.012901114 -0.0002082095
000340 3f 14 e9 bb 82 59 68 3b 68 fd 8b bb 71 03 91 3a
       -0.007113009 0.0035453741 -0.0042721517 0.0011063648
000350 4d 65 9e bb 7f 7c 01 bc b4 bb 5c 3d a6 42 82 3b
       -0.0048338533 -0.007903217 0.053889945 0.0039752303
000360 ec ce c1 ba 9f 94 bf 3a 95 5b c9 bc a4 cb c1 3b
       -0.0014786399 0.0014616436 -0.024579803 0.0059141684
000370 66 9c ba ba 86 08 1e ba 32 8d 1c 3d 7c ad 17 bc
       -0.0014237284 -0.0006028492 0.03822059 -0.0092576705
000380 44 35 02 3c 15 72 31 3a e2 2a 3f bc 53 f7 43 bb
       0.00794727 0.00067690137 -0.011667939 -0.0029902055
000390 e7 6f 22 3a 9f ee 41 ba 66 0e 45 bd a5 98 f5 ba
       0.00061964843 -0.0007397923 -0.048109435 -0.0018737508
0003a0 42 b0 7c bc 3c 15 ba 3c 9c eb 82 3a 62 c0 cf bb
       -0.0154228825 0.022715203 0.000998843 -0.0063400725
0003b0 f6 e1 c7 bb 69 d8 01 bd e1 72 d7 3a 48 e0 13 bd
       -0.0060999347 -0.031700525 0.0016437435 -0.036102563
0003c0 58 57 18 3c 76 1c ac 39 e9 7c 40 3d be 3c 81 b9
       0.009298168 0.00032827602 0.046994124 -0.00024650054
0003d0 83 f1 81 bb bb 29 a7 3c a2 b9 04 bb 2a eb 09 3c
       -0.003965558 0.02040564 -0.0020252247 0.008417884
0003e0 47 54 9a bc fc 98 b9 ba 51 32 b7 39 2e 28 a9 39
       -0.018839015 -0.0014159973 0.0003494197 0.00032264128
0003f0 d6 34 b4 3b 15 b6 61 bb 1e 0e 8c 3a 74 78 80 bc
       0.0054994626 -0.0034440805 0.001068536 -0.015682437

l4.weight f4 [2, 300]
000000 85 0c 40 bc f2 6f 53 3d 5d 3b 7b bd d2 0c 65 3d
       -0.011721735 0.05162043 -0.06133591 0.05592043
000010 63 26 0c bd 12 d8 5e bd d5 d6 45 39 65 f7 79 39
       -0.034216296 -0.05440528 0.00018867415 0.00023838652
000020 35 66 45 bc 9d 5e f0 bc a4 71 c9 bd a7 36 c1 bc
       -0.012048294 -0.02934199 -0.09836128 -0.02358563
000030 87 3b 73 3d 2d 2c e7 3d d3 32 9e bb f7 95 97 37
       0.05938294 0.11287723 -0.004827836 1.8070436e-05
000040 93 dd a1 bd 4c 94 dd 3c 6e 99 b0 3d 37 16 a7 bd
       -0.0790359 0.027048253 0.086230144 -0.08158534
000050 ea ed 91 bd 85 bc 3f bd b4 ac 9a 3c 9b 8d d7 bc
       -0.07125457 -0.046810646 0.01888118 -0.02631264
000060 09 d3 9d bc 22 ec 87 3c 09 78 ca bd ae 99 8e bd
       -0.019265668 0.01659209 -0.09886176 -0.06962906
000070 f0 11 5b 3d b2 0e 9e bd 4b 4f fa bb 5f 0d 21 3d
       0.053483903 -0.07717647 -0.007638847 0.039319392
000080 ab 11 ca 3d fe 76 3d 3b 1d 5c 97 bd b3 a6 ab 3d
       0.09866651 0.0028910036 -0.07390616 0.08381405
000090 0e 6a 89 3b b8 f8 1c bb 36 4e b1 bd 97 8f fd b8
       0.004193551 -0.002395196 -0.08657496 -0.00012090726
0000a0 f6 a8 23 3d 18 f1 87 b7 ff 31 a6 bd 0f 94 cc bc
       0.039956056 -1.6205522e-05 -0.08115005 -0.024972944
0000b0 ed a6 08 3b a4 f3 90 bc 61 42 11 38 ee a7 0b bd
       0.0020851449 -0.017694302 3.4632514e-05 -0.034095697
0000c0 af 83 ef 39 d6 73 7f 3b ac a3 a9 3c 82 04 1c 3d
       0.00045683744 0.0038978956 0.020707928 0.038090236
0000d0 73 6e 0d bd 7f 79 8e bd af 69 a2 39 fb 51 61 3c
       -0.03452916 -0.06956767 0.00030977788 0.013752456
0000e0 b8 66 93 3d ed c3 36 3d ab 99 73 bd c4 27 c0 bd
       0.071973264 0.044620443 -0.05947272 -0.09382585
0000f0 d2 0c ab 3d a3 83 01 3a 59 fd 84 bd a4 71 3b b8
       0.08352055 0.0004940575 -0.06493635 -4.469011e-05
000100 36 90 ca bd 3d 08 d1 3c c8 62 6b 3d 15 35 e9 bc
       -0.09890787 0.025516624 0.057467252 -0.028467694
000110 37 29 32 bd 6f ee cb bc a1 50 16 b9 ad 3e b1 3d
       -0.043496337 -0.024893967 -0.00014335151 0.086545326
000120 eb ce 80 3d 12 0c ac bc 28 3d 22 be 47 0b 6e 3e
       0.062894665 -0.02100185 -0.15843642 0.2324649
000130 35 50 20 3e 19 18 80 bd c8 c6 85 bc f7 c0 d1 3c
       0.15655597 -0.06254596 -0.016330138 0.025604708
000140 8a f6 e9 3d ba e2 c8 39 0f a1 66 3d bd 03 3b 3d
       0.11423977 0.00038315897 0.05630594 0.045657862
000150 0c 79 c5 3d 94 01 0c bd d0 ac 3e 3c e7 4a 27 3d
       0.096422285 -0.034181193 0.011637881 0.040842917
000160 62 fd 3a 3d 7b a5 a3 bb e6 23 2b 3d 7f df da 3d
       0.0456518 -0.004994092 0.041782282 0.1068716
000170 f1 39 08 be 95 ca f6 3c 69 b8 ac bd c5 a0 b4 ba
       -0.13303353 0.030125896 -0.08433611 -0.0013780823
000180 bd 4f b0 3d 23 37 d5 bd 3b e3 9b 3d e4 56 b4 3a
       0.08608959 -0.10410907 0.076117 0.0013758806
000190 6a 2e 12 3d 75 ce 4f 3d 2d 3d 8f 3a 6d 36 82 3d
       0.035688795 0.050734002 0.0010928266 0.06358037
0001a0 80 50 d0 bd 63 a4 8f bd 4c 40 e4 b8 90 74 50 bd
       -0.10171604 -0.07013776 -0.000108838634 -0.050892413
0001b0 1b 6f 5c 3c 35 2c ae 3c b4 11 4d bd a7 1d ed 3c
       0.013454224 0.021261314 -0.05006571 0.028944803
0001c0 f0 f1 33 bd 7f e6 dc 3c 20 87 51 bd 3a 52 6c 3d
       -0.0439319 0.026965378 -0.051154256 0.057695605
0001d0 a1 cd 0d bd 4e c2 85 3c f5 a5 fb 3d 37 78 1c bd
       -0.03461993 0.016328003 0.12287513 -0.038200583
0001e0 d2 ca 74 3d 13 c0 6c bd 59 28 0e 3d 87 13 d6 3c
       0.059763737 -0.057800364 0.034706447 0.026132358
0001f0 32 76 4c 3d a2 46 0a bb 0b 24 dc 39 d7 72 1f bd
       0.049917407 -0.002109923 0.00041988524 -0.03892788
000200 f7 cd 91 3a a2 b5 9d 3c 4a 65 c6 3d cb 5e 39 3d
       0.0011124004 0.019251648 0.09687288 0.045256417
000210 73 23 6f 3c 5b f1 95 bd e8 c8 4b b9 04 37 03 bd
       0.014595854 -0.073214255 -0.00019434432 -0.03203489
000220 06 15 87 3d 9c c6 9b 38 ed e3 68 3e 48 42 ba 3c
       0.06595807 7.42797e-05 0.22743197 0.022736683
000230 67 4e bd 3d f0 f4 1b 3d 3c 0a a3 3d 46 78 e0 3d
       0.0924347 0.038075387 0.079609364 0.1096044
000240 c9 11 2d b9 77 e5 25 bd 2c 5d b4 38 f3 d4 8f 3d
       -0.00016505191 -0.040502038 8.6004235e-05 0.07023039
000250 8c 78 b8 bc ee a4 d0 bd 5f 44 14 bd 8e d0 eb bc
       -0.022518419 -0.10187708 -0.036198016 -0.02878597
000260 ab c1 d5 3c c6 d8 c4 38 a6 dc 22 3c c9 0e d1 3c
       0.026093325 9.3863855e-05 0.009940302 0.025519745
000270 3f 25 6c bc 89 24 b5 3c 44 f7 51 ba 5d 12 91 3d
       -0.014413177 0.022112148 -0.0008009563 0.07083581
000280 49 d0 b6 3d 46 e0 1d 3d d8 ea 23 3d ee 22 de bd
       0.08926446 0.038543962 0.040018886 -0.10846506
000290 3f f2 e3 bc 13 b9 6f bd b9 57 27 bd a8 ab 2a 3d
       -0.027825473 -0.05852611 -0.040855143 0.04166761
0002a0 65 80 68 bc 08 5b 05 3d 23 44 48 bd 5c 5c 23 bd
       -0.014190768 0.032557517 -0.048893105 -0.039883003
0002b0 a5 2e 05 39 19 1b b9 bd 90 62 b9 bd d3 81 52 39
       0.00012701245 -0.090383716 -0.090520024 0.00020075524
0002c0 fa b7 1e 3d 74 7e 82 bd 13 0f 49 bd d3 ee 44 bd
       0.038749672 -0.06371775 -0.04908664 -0.048079323
0002d0 49 fe 73 bd 45 83 91 bd d1 0e 82 3b c3 a2 44 bc
       -0.059568677 -0.07105116 0.0039690514 -0.012001696
0002e0 8d ff a9 3c c5 0f 00 bd b6 59 00 3c 15 12 3c bd
       0.020751739 -0.03126504 0.007833889 -0.045915682
0002f0 f3 35 6e 39 4f b9 24 3c 55 3f d1 bc 69 47 04 b9
       0.00022717546 0.010053947 -0.025542894 -0.00012615103
000300 32 e3 e2 bc 35 f2 2d 3c 28 e2 14 3d 7a e2 94 bd
       -0.027696226 0.010616829 0.036348492 -0.072697595
000310 61 fe e0 bc 37 d4 d3 bd a2 45 d4 3d b2 6f 11 3d
       -0.027465047 -0.10343211 0.10364844 0.03550691
000320 a6 13 a1 3d 52 a4 e4 3d 14 a6 c6 bd 2b 3c ed bb
       0.07865076 0.11164154 -0.09699646 -0.0072398386
000330 bd 7c 4e ba 6a 45 6f 3d 17 b5 66 bd e6 d5 47 3d
       -0.0007876864 0.058415808 -0.056325044 0.048787974
000340 45 cc e2 3c f4 48 ac 39 16 39 ba 39 0f d4 82 bd
       0.027685294 0.0003286075 0.00035519217 -0.06388103
000350 1a b2 bc 3a f5 1e c3 b9 54 b7 9f bd f6 a4 82 bb
       0.001439634 -0.00037216363 -0.07798639 -0.00398695
000360 a3 3c 6b b8 33 92 35 3b 13 34 96 bd 6e bf 99 bb
       -5.608484e-05 0.002770555 -0.07334151 -0.0046920097
000370 a8 46 be bc d7 09 b4 3c 39 d8 92 3d 02 06 8e bb
       -0.02322705 0.021977348 0.071701474 -0.0043342123
000380 84 e0 99 3c 2d af a8 bb 1f c9 84 b9 62 58 2f 3c
       0.018783815 -0.0051478357 -0.0002532685 0.010702224
000390 d6 bf f1 bc 3f 39 20 3a ca 7c 3c 3d 57 81 a3 bd
       -0.02951042 0.0006112046 0.046017446 -0.07983654
0003a0 2d 2b b5 3c 83 07 bd 3d b3 d1 35 3d 89 fb b4 3d
       0.022115314 0.09229948 0.044389438 0.08837039
0003b0 1c f8 52 3d bf ae e1 bd 13 ac 08 3d 4c 42 65 bd
       0.051506147 -0.11019658 0.033367228 -0.05597143
0003c0 32 1b 3d 3d d9 55 8a 38 ab 68 91 bc ff 38 01 bb
       0.046168514 6.596343e-05 -0.017750105 -0.001971781
0003d0 44 f7 88 3b 54 63 d5 bd e2 98 02 39 66 a7 10 bd
       0.004179867 -0.10419336 0.0001245472 -0.035315894
0003e0 cc f1 a1 bb 8e a4 aa 3c 8d 45 f4 b7 38 4b cb 38
       -0.0049421545 0.020830419 -2.9119454e-05 9.693805e-05
0003f0 f5 dd 68 bd b5 a4 f2 bc 52 1f 5c 3d f6 04 b9 ba
       -0.0568523 -0.029619554 0.053740807 -0.0014115858

l4.bias f4 [2]
000000 b4 b6 6b 3a d0 12 55 3a
       0.00089917635 0.00081281085
