LSTM_for_PDE/codes/models/LSTM_NS2d.pth (torch, 130213 bytes, 10 tensors)

rnn.weight_ih_l0 f4 [200, 3]
0	0x3e1c289a	0.15249863
1	0x3e58ec24	0.2118383
2	0x3e59a191	0.21253039
3	0xbb944b25	-0.0045255595
4	0x3e3b969f	0.18319176
5	0xbd0a457f	-0.033757683
6	0x3dc9acaa	0.09847386
7	0xbe545925	-0.20737131
8	0x3d8e79d9	0.06956834
9	0xbd9f17b4	-0.07768193
10	0x3e29e108	0.16589749
11	0xbce73a68	-0.028226092
12	0xbe34a3e6	-0.17640647
13	0x3e23dc57	0.16002022
14	0xbe51c7a4	-0.20486313
15	0xbe0af983	-0.13571744
16	0x39cb4359	0.00038769355
17	0x3e106693	0.14101629
18	0xbd02153c	-0.031758532
19	0x3ae9c3ba	0.001783482
20	0xbe83b90a	-0.2572711
21	0x3dab403a	0.083618596
22	0xbe491e1c	-0.19640392
23	0x3e86d9ff	0.26338193
24	0xbdbe3a23	-0.092884324
25	0x3e8c1c06	0.2736513
26	0xbd966e3b	-0.073452435
27	0xbe2a9162	-0.16657022
28	0x3e523e1d	0.20531507
29	0x3e83a51b	0.25711903
30	0xbc7e992c	-0.015539449
31	0xbe7f1029	-0.24908508
32	0x3e63a794	0.22231895
33	0x3c723bce	0.014784766
34	0xbdcdef3c	-0.10055396
35	0xbe8d3226	-0.27577323
36	0xbdfb4602	-0.12269212
37	0x3ea1e24f	0.31617972
38	0xbe0852fb	-0.13312905
39	0x3db3412d	0.08752666
40	0xbe690319	-0.22755088
41	0xbdcfb32d	-0.10141597
42	0x3c635c70	0.013877019
43	0x3e316d06	0.17326745
44	0x3d5b0e89	0.05348066
45	0x3e2066dd	0.15664239
46	0x3e987502	0.2977677
47	0xbe847577	-0.2587087
48	0xbde27e25	-0.110592164
49	0xbddf6b74	-0.10909167
50	0x3e4f2a44	0.20230967
51	0xbe6d1a5a	-0.23154584
52	0x3e93a961	0.28840163
53	0x3d361f78	0.044463605
54	0x3e04a8e9	0.12955059
55	0xbe8e77bf	-0.27825734
56	0xbe26b909	-0.16281523
57	0xbd4d91b9	-0.0501878
58	0xbe6d80e2	-0.23193696
59	0x3e079660	0.13240957
60	0x3b1683ba	0.0022966699
61	0x3e607a16	0.21921572
62	0xbddbf78a	-0.10740574
63	0xbdf07ed5	-0.11742941
64	0xbe019cf3	-0.12657528
65	0xbe0695eb	-0.13143127
66	0x3cf60fa7	0.03003676
67	0x3bafdba1	0.005366758
68	0xbd75f6d4	-0.060049847
69	0x3daea3e2	0.08527352
70	0xbd924a1c	-0.071430415
71	0xbe7f2292	-0.24915531
72	0x3d9b5924	0.075853616
73	0xbe3b8ff3	-0.18316631
74	0xbe5e9775	-0.21737464
75	0x3be475df	0.006972059
76	0x3c22c4b7	0.009934596
77	0xbe9948af	-0.29938266
78	0xbd67574f	-0.05647975
79	0xbe23e012	-0.16003445
80	0x3e5d7f24	0.21630532
81	0x3dd8703e	0.105682835
82	0xbe427542	-0.18990043
83	0xbc866850	-0.016407162
84	0x3dc83065	0.097748555
85	0x3d0695ee	0.032857828
86	0x3cb33305	0.021874914
87	0xbdbb2c14	-0.091392666
88	0x3e94c855	0.2905909
89	0x3c090ad7	0.008364401
90	0x3d40500c	0.04695134
91	0xbe39a0dc	-0.18127769
92	0xbe92ba73	-0.28657874
93	0x3c04ea10	0.0081124455
94	0xbd8060dd	-0.06268475
95	0xbbe495c9	-0.0069758636
96	0x3d51492a	0.051095165
97	0xbd8200d0	-0.06347811
98	0xbe02290e	-0.12710974
99	0x3da7466b	0.08167728
100	0x3e2fdece	0.17174837
101	0x3bd9d6bb	0.0066479123
102	0x3d4bd305	0.04976179
103	0xbe0b7d3e	-0.13621995
104	0xbe2dc213	-0.16968565
105	0x3dacffbc	0.08447215
106	0x3b38012e	0.0028076875
107	0xbded8cfb	-0.115991555
108	0xbcf54e13	-0.029944455
109	0x3e0afc48	0.135728
110	0x3e1316c0	0.14364147
111	0xbd9d3e4d	-0.076778986
112	0x3c4bdd24	0.012442861
113	0x3c479ba9	0.012183108
114	0x3e2bc32a	0.16773668
115	0xbe841867	-0.25799868
116	0xbe471365	-0.19440992
117	0x3e08825f	0.13330983
118	0xbd748695	-0.05969866
119	0x3d5ca955	0.053872425
120	0x3d076fc0	0.033065557
121	0x3da7b444	0.0818868
122	0x3ccbee57	0.024893923
123	0xbdf607c8	-0.12013203
124	0x3e1b62d1	0.15174414
125	0xbca38aea	-0.0199637
126	0x3d3eb51f	0.04655945
127	0x3d4ac8f0	0.049508035
128	0xbe786b6c	-0.24259728
129	0xbd42fd8f	-0.047605094
130	0x3d61c673	0.055120897
131	0x3da8666f	0.08222663
132	0xbd63dabb	-0.05562852
133	0xbe023740	-0.12716389
134	0xbe249dc8	-0.16075814
135	0xbd657acf	-0.056025323
136	0xbe7b8c8a	-0.2456533
137	0x3e91bd7e	0.28464884
138	0x3d87e746	0.06635909
139	0x3e211adf	0.15732907
140	0x3c464efa	0.01210379
141	0x3dcad8fc	0.09904668
142	0x3dba5b84	0.090994865
143	0xbcfe2f1b	-0.031028321
144	0xbdcda2d9	-0.10040826
145	0xbe42193d	-0.1895494
146	0xbd7e5d64	-0.062100783
147	0xbd448db7	-0.047986712
148	0xbdd23a7d	-0.10265062
149	0x3cb59170	0.022164077
150	0xbd1ba66c	-0.03800051
151	0x3c10efb0	0.008846208
152	0x3e0f5b97	0.13999783
153	0x3d0e34a8	0.034718186
154	0xbd9c598b	-0.076342665
155	0xbb97a1c0	-0.0046274364
156	0x3ceb96b0	0.028758377
157	0x3c900bb0	0.017583698
158	0x3daea776	0.085280344
159	0xbdd645d8	-0.104625404
160	0x3c95a808	0.0182686
161	0xbd85b49e	-0.065285906
162	0x3d462718	0.048377126
163	0xbce0b2e4	-0.027429052
164	0x3d0c7638	0.03429243
165	0xbd983f5b	-0.07433959
166	0x3d3db808	0.046318084
167	0xbda9b5dd	-0.08286641
168	0xbc679860	-0.01413545
169	0xbdea48ec	-0.1143969
170	0xbdb6ebce	-0.08931695
171	0x3ceabed8	0.028655455
172	0xbd464bda	-0.04841218
173	0x3e0cc3f5	0.13746627
174	0xbe0bbdf3	-0.13646679
175	0x3e0e5bcd	0.13902207
176	0x3c102840	0.008798659
177	0xbce678d8	-0.028133795
178	0xbd9ed788	-0.07755953
179	0xbe108c92	-0.14116123
180	0x3deef9d6	0.11668746
181	0xbd5ef13e	-0.054429285
182	0x3cb65648	0.022257939
183	0x3d259178	0.040421933
184	0xbdeb928b	-0.1150256
185	0xbc4cf120	-0.012508661
186	0xbaf0d600	-0.0018374324
187	0x3de59df2	0.11211766
188	0x3e06e877	0.13174616
189	0x3d598f38	0.0531151
190	0xbd92d87c	-0.07170197
191	0xbcfa8524	-0.030581065
192	0xbd53c8f4	-0.051705316
193	0x3e00a179	0.12561597
194	0xbdf9cd1b	-0.12197324
195	0x3b8c9820	0.0042905957
196	0xbe048502	-0.12941363
197	0xbc4f8370	-0.0126656145
198	0xbc9ea79c	-0.019367032
199	0x3dfe016a	0.124026135
200	0x3db734f0	0.08945644
201	0x3dd9924c	0.10623607
202	0x3d9e69b8	0.07735008
203	0x3ddf5026	0.10903959
204	0xbd4c3510	-0.04985529
205	0xbd6dd052	-0.058059998
206	0x3de90b56	0.11379115
207	0xbd898e16	-0.06716554
208	0xbca40920	-0.020023882
209	0x3e03aa7f	0.12858008
210	0xbb64aa80	-0.0034891665
211	0x3db9b542	0.09067775
212	0xbdc4c296	-0.09607427
213	0x3d199840	0.037498713
214	0x3e0f1b2f	0.13975213
215	0x3daab1f2	0.083347216
216	0xbdcf378d	-0.10118017
217	0xbcdbc030	-0.02682504
218	0xbd07b920	-0.033135533
219	0xba207500	-0.000612095
220	0xbd2e1ade	-0.04250609
221	0xbdb6886c	-0.08912739
222	0xbdeb5383	-0.11490538
223	0xbb8874e0	-0.004164323
224	0xbe09d122	-0.13458684
225	0x3d2b1144	0.041764513
226	0xbc89523c	-0.016762845
227	0xbdbb5578	-0.09147161
228	0x3db829cc	0.08992347
229	0xbd0b739e	-0.034045808
230	0xbc04eac0	-0.008112609
231	0x3da06b72	0.078329936
232	0x3de6a6b6	0.11262266
233	0xbd53f926	-0.05175128
234	0xbdce6f26	-0.10079794
235	0xbcde2c6c	-0.027120791
236	0xbe0c3d32	-0.13695219
237	0x3cc85b18	0.0244575
238	0x3ca347a8	0.01993163
239	0x3c28f920	0.010313302
240	0xbac69480	-0.0015150458
241	0x3d99f43c	0.07517287
242	0xbd194898	-0.037422746
243	0xbdd2a121	-0.10284639
244	0xbd1b0988	-0.037850887
245	0x3db12e96	0.08651464
246	0x3de3625a	0.111027434
247	0x3d47f940	0.048821688
248	0xbdc0b18a	-0.09408863
249	0xbdf052ab	-0.11734518
250	0x3e08057f	0.13283347
251	0x3cd07a48	0.025448933
252	0xbc9ef8c0	-0.019405723
253	0x3c3f9ed0	0.011695579
254	0xbc980948	-0.018559113
255	0xbdd38454	-0.10327974

rnn.weight_hh_l0 f4 [200, 50]
0	0x3b4c1540	0.0031140596
1	0x3d35a94c	0.044350907
2	0x3e0fff35	0.14062198
3	0xbda2c2d1	-0.079473145
4	0x3d53490c	0.051583335
5	0x3cdaae40	0.026694417
6	0x3daa58ae	0.083176956
7	0x3e091d21	0.13390018
8	0x3d21b900	0.03948307
9	0xbd332ae4	-0.043742076
10	0xbd820aa0	-0.06349683
11	0xbd9c4f5e	-0.076323256
12	0xbd11ff9a	-0.03564415
13	0x3ccd5fa8	0.025070027
14	0x3db711d6	0.08938949
15	0xbd8bade3	-0.06820276
16	0x3d88bf66	0.06677131
17	0xbe0706a7	-0.13186131
18	0x3d116b4c	0.035502717
19	0x3ddf446a	0.10901721
20	0x3d9d5d04	0.07683757
21	0xbde34c6c	-0.11098561
22	0xbcf6cc08	-0.030126587
23	0xbe08f660	-0.13375235
24	0x3db16882	0.086625114
25	0xbcb74e30	-0.02237615
26	0x3c80a7b0	0.01570496
27	0xbd8d5221	-0.069004305
28	0xbd349570	-0.044087827
29	0x3e067441	0.13130285
30	0xbdfd77f3	-0.12376394
31	0xbd86d774	-0.06584063
32	0xbc94cab8	-0.01816307
33	0xbca5c740	-0.020236611
34	0xbdfbcb0b	-0.12294587
35	0x3c6bb9a0	0.014387518
36	0x3e0b8acd	0.13627167
37	0xbdf3a006	-0.118957564
38	0xbcb7359c	-0.02236443
39	0x3d4da7cc	0.05020885
40	0xbd93617a	-0.071963266
41	0x3da9be06	0.08288197
42	0xbaf66200	-0.0018797517
43	0x3d9100b0	0.07080209
44	0x3d0c2674	0.03421636
45	0x3d9c5f34	0.07635346
46	0x3d4fd948	0.050744325
47	0x3d75476c	0.059882566
48	0x3e074b87	0.13212405
49	0xbd9ba2b4	-0.075993925
50	0xbdf4d6bc	-0.1195502
51	0xbceae44c	-0.028673314
52	0x3dea8b9a	0.11452408
53	0xbc8a097c	-0.016850226
54	0xbce89650	-0.028391987
55	0x3deb85de	0.115001425
56	0xbd4d35a6	-0.05009999
57	0xbdb38a18	-0.08766574
58	0xbbd9c320	-0.006645575
59	0x3cb777a0	0.022395909
60	0x3d75a5f8	0.059972733
61	0xbe0193be	-0.12654015
62	0x3db29d3e	0.08721398
63	0xbe0d4149	-0.13794436
64	0xbda6d8a1	-0.081467874
65	0x3dbb7e50	0.091549516
66	0xbd38cd5e	-0.04511773
67	0xbe08d75d	-0.13363405
68	0x3d4e4e44	0.05036761
69	0xbde72064	-0.11285475
70	0xbd8629f0	-0.06550968
71	0xbd0db4bc	-0.03459619
72	0x3d9d8fe6	0.07693462
73	0xbcf53b6c	-0.029935561
74	0x3d80af58	0.06283444
75	0x3dbf0d5e	0.093287215
76	0x3cbbf2c0	0.0229429
77	0xbd53562c	-0.05159585
78	0x3e1079f7	0.14109026
79	0xbd811a4c	-0.06303844
80	0xbc80d348	-0.015725747
81	0x3e0f4935	0.1399277
82	0x3d37b8c4	0.04485394
83	0xbcf45c1c	-0.029829077
84	0x3d84d320	0.064855814
85	0x3d63d5d0	0.05562383
86	0xbd94110b	-0.07229813
87	0xbe0f48f9	-0.1399268
88	0xbd4bb26c	-0.049730703
89	0x3da2a758	0.079420745
90	0x3dbe1d54	0.09282938
91	0x3da4eea6	0.08053331
92	0xbd911b71	-0.07085312
93	0xbe094309	-0.13404478
94	0xbb4ee080	-0.0031566918
95	0xbca8ce58	-0.020606205
96	0xbc4f09a0	-0.012636572
97	0x3dd64724	0.10462788
98	0xbd969b04	-0.07353786
99	0x3d821e18	0.06353396
100	0xbdaa784c	-0.08323726
101	0x3dfcc576	0.1234235
102	0x3e02185f	0.1270461
103	0xbd4b5818	-0.04964456
104	0x3d69ddfc	0.057096466
105	0xbcf38d1c	-0.029730372
106	0xbdf9096c	-0.1216
107	0x3e0fc34d	0.14039345
108	0xbb1ef300	-0.0024253726
109	0x3b23bf80	0.002498597
110	0xbcc747bc	-0.024326198
111	0xbd20bcc6	-0.03924253
112	0x3cbd3830	0.023098081
113	0x3e08db33	0.13364868
114	0xbd88a361	-0.06671787
115	0xbd8b5659	-0.06803579
116	0xbdb9e0a8	-0.09076053
117	0xbdf31188	-0.11868578
118	0x3e08b9bf	0.13352107
119	0x3deff556	0.11716716
120	0xbdb41ae0	-0.087941885
121	0x3d3cd8e0	0.046105266
122	0x3dfdfda6	0.12401895
123	0xbd3194ec	-0.043354914
124	0xbd82db3d	-0.06389473
125	0xbce21410	-0.027597457
126	0x3e016cd9	0.12639178
127	0xbd6bdf94	-0.057586268
128	0xbaceff80	-0.0015792698
129	0xbc76f670	-0.015073404
130	0xbe1016de	-0.14071223
131	0x3c56d1f0	0.013111576
132	0xbdaca5ea	-0.08430083
133	0x3cfd2a50	0.030903965
134	0x3dfbceaa	0.122952774
135	0x3d7877b0	0.060661018
136	0x3dea381a	0.11436482
137	0x3d35989c	0.044334993
138	0xbe0d1a9e	-0.13779685
139	0x3d649498	0.055805773
140	0xbc863b50	-0.016385704
141	0xbd837813	-0.06419387
142	0xbd31c5f6	-0.04340168
143	0x3dab14e4	0.08353594
144	0x3d3c9898	0.046043962
145	0xbdf1de9a	-0.11810036
146	0xbd8eac9f	-0.069665186
147	0x3d3e7288	0.046495944
148	0x3e00f0fb	0.12591927
149	0xbd37c004	-0.044860855
150	0x3d6bb9cc	0.057550237
151	0x3d2b0458	0.04175219
152	0xbc891224	-0.016732283
153	0x3dc126b8	0.09431213
154	0x3e051287	0.12995349
155	0x3dea2f16	0.11434762
156	0xbb43d8c0	-0.0029883832
157	0x3dd5ab20	0.1043303
158	0xbdb2af67	-0.087248616
159	0x3d9c41c0	0.07629728
160	0xbd4e1cbc	-0.050320372
161	0x3dad7f62	0.08471562
162	0xbd0c5a60	-0.034265876
163	0xbdd33de7	-0.10314541
164	0x3da0e100	0.07855415
165	0xba83ac00	-0.0010045767
166	0x3ce48218	0.027894065
167	0x3d8c2040	0.06842089
168	0x3ceefe58	0.029174015
169	0xbd906105	-0.07049755
170	0xbe07eee1	-0.13274719
171	0x3dcdfcca	0.10057981
172	0x3b8c9ae0	0.0042909235
173	0x3e0523cf	0.13001941
174	0x3d5c0f9c	0.053725824
175	0x3d5dd580	0.054158688
176	0xbdac0592	-0.083995
177	0x3dcf0f90	0.1011039
178	0xbda94d58	-0.08266705
179	0xbdf6fbb2	-0.12059726
180	0x3dfc4dc6	0.123195216
181	0x3dfe134e	0.12406026
182	0x3c8f8790	0.017520696
183	0x3b14ca40	0.0022703558
184	0x3d648a48	0.055795938
185	0x3d7380ec	0.05944912
186	0xbcdcab30	-0.026937097
187	0xbdef2372	-0.116766825
188	0xbe10463b	-0.14089291
189	0x3dfc1482	0.12308599
190	0x3e04641d	0.12928815
191	0x3c9ee298	0.019395158
192	0xbddbce0f	-0.10732662
193	0x3d6e6394	0.058200434
194	0xbd671d72	-0.056424566
195	0xbcc53858	-0.024074718
196	0x3dd29188	0.10281664
197	0xbd5d46a6	-0.054022454
198	0xbe10cc8f	-0.14140533
199	0x3d67e7f8	0.056617707
200	0xbddfe706	-0.10932736
201	0x3dc0cfb8	0.09414619
202	0x3d80378c	0.06260595
203	0xbd5214b4	-0.051289275
204	0xbd509f84	-0.050933376
205	0x3dd1d530	0.102457404
206	0x3dbed68c	0.09318265
207	0x3d84b6b0	0.064801574
208	0x3da37866	0.079819486
209	0xbdabe88d	-0.08393965
210	0x3d9b4328	0.075811684
211	0xbd97679c	-0.07392809
212	0xbd8f801e	-0.07006858
213	0x3dbd0490	0.09229386
214	0x3d1f1094	0.03883417
215	0xbc2b4970	-0.010454521
216	0xbd518270	-0.051149786
217	0xbdc2924d	-0.09500561
218	0x3d9e537e	0.077307686
219	0xbdf96c98	-0.12178916
220	0xbdf7983c	-0.12089583
221	0x3e04c611	0.12966181
222	0xbe07417f	-0.13208579
223	0x3d2e3e00	0.042539597
224	0x3dc3bb7e	0.09557246
225	0x3d5d32f4	0.05400367
226	0xbca9390c	-0.020657085
227	0x3db294a4	0.08719757
228	0x3daf6938	0.08564991
229	0xbd2d6a32	-0.042337604
230	0xbdd219ea	-0.10258849
231	0x3d201c58	0.03908953
232	0xbd12b6f4	-0.03581901
233	0x3de5d496	0.11222188
234	0x3d91d740	0.07121134
235	0x3d29a164	0.04141368
236	0xbdfb5de9	-0.12273771
237	0x3e0096b9	0.12557496
238	0xbd54bf30	-0.051940143
239	0x3d46a858	0.04850039
240	0xbcf519d4	-0.029919542
241	0xbe0d76fe	-0.13814923
242	0xbe0c3b24	-0.13694435
243	0x3d594c94	0.053051546
244	0x3cf1f3e8	0.029535249
245	0xbdc4f5e5	-0.09617213
246	0x3da7defa	0.08196826
247	0x3d23332c	0.039843723
248	0x3dc41d10	0.09575856
249	0xbcdb248c	-0.026750825
250	0x3e03c885	0.12869461
251	0x3e056155	0.1302541
252	0x3d9ed4ac	0.07755408
253	0x3e0c9081	0.13726999
254	0xbc9b2490	-0.018938333
255	0xbe0bcfa5	-0.13653429

rnn.bias_ih_l0 f4 [200]
0	0x3e6079d2	0.21921471
1	0xbd37f23f	-0.04490876
2	0xbe0baef5	-0.1364096
3	0xbb482db8	-0.0030544829
4	0x3e02160f	0.12703727
5	0x3da7a437	0.08185618
6	0x3c0ecad6	0.008715352
7	0x3e88fffd	0.26757804
8	0x3e3d0c6b	0.18461768
9	0x3da4b188	0.08041674
10	0x3eb14fdb	0.34631237
11	0x3e6a2b3a	0.22868052
12	0x3e0a61ef	0.13513921
13	0x3d9b8630	0.075939536
14	0x3df9a841	0.12190295
15	0x3e5600d4	0.20898753
16	0x3e4049c2	0.18778136
17	0x3d8103cd	0.06299553
18	0x3d453544	0.0481465
19	0xbb783e1c	-0.0037878817
20	0x3d264597	0.04059371
21	0xbb93a6b3	-0.004505956
22	0x3e14769e	0.14498374
23	0x3d43d269	0.047808085
24	0x3da329ed	0.07966981
25	0xbd61adb4	-0.055097297
26	0x3d156c07	0.036479976
27	0x3bff8e38	0.007798936
28	0x3e64b840	0.22335911
29	0x3d1031f7	0.0352039
30	0x3dc78b8a	0.09743412
31	0x3e43cab2	0.19120291
32	0x3ddec8f9	0.10878176
33	0x3d649741	0.05580831
34	0xbbbe1f38	-0.0058020614
35	0xbd895f59	-0.06707639
36	0x3bb766c8	0.0055969693
37	0x3df6cdb7	0.12050956
38	0x3daa5e0c	0.08318719
39	0x3cb008f6	0.021488648
40	0x3d848fb2	0.0647272
41	0x3dad4e7e	0.08462237
42	0xbddced1b	-0.10787412
43	0x3db8bb6c	0.09020123
44	0x3c816677	0.01579593
45	0x3e2babdb	0.16764776
46	0x3da92d99	0.0826065
47	0x3e29e2f1	0.16590478
48	0x3e96260b	0.293259
49	0x3dc6c2ae	0.09705101
50	0xbd027064	-0.031845465
51	0x3d6ed128	0.058304936
52	0x3d9dd02e	0.07705723
53	0x3dc1f444	0.09470418
54	0x3e043c5f	0.12913655
55	0x3caf73c0	0.021417499
56	0x3d591ae8	0.053004175
57	0x3bc890c0	0.006120771
58	0xbcffa910	-0.031208545
59	0x3c6c90c0	0.014438808
60	0xbce4980c	-0.027904533
61	0x3dc22f92	0.094817296
62	0xbc6ceeb0	-0.014461204
63	0x3d964828	0.073379815
64	0xbe0be270	-0.13660598
65	0xbc29b6a0	-0.010358483
66	0x3db3639e	0.08759235
67	0x3e002b2b	0.12516467
68	0xbcb394cc	-0.021921538
69	0xba6c8400	-0.0009022355
70	0xbdaa92ee	-0.08328806
71	0x3ba1f1e0	0.004942164
72	0x3d8d2f9c	0.068938464
73	0xbe0e1e9c	-0.13878864
74	0x3dd5e0ea	0.104432896
75	0xbe07c598	-0.1325897
76	0xbdd00ed4	-0.10159078
77	0x3dff2436	0.124580786
78	0x3d8d275c	0.06892273
79	0x3d91c684	0.07117942
80	0xbdf0d3f4	-0.11759177
81	0x3df101be	0.117679104
82	0xbe0b7790	-0.13619828
83	0xbc557260	-0.013027757
84	0x3dda431c	0.10657331
85	0xbd84c90e	-0.06483661
86	0xbda28108	-0.07934767
87	0xbde01a9e	-0.10942577
88	0x3c965c60	0.018354595
89	0x3d965312	0.07340063
90	0x3b583cc0	0.0032995194
91	0xbcf953ac	-0.030435406
92	0xbdf576a3	-0.11985519
93	0xbd8e5e0b	-0.06951531
94	0x3db03112	0.086031094
95	0x3b99b640	0.0046909153
96	0xbc261100	-0.010135889
97	0x3c905848	0.01762022
98	0x3c929430	0.017892927
99	0xbdd67a57	-0.10472553
100	0xbc8566b1	-0.016284319
101	0x3e249501	0.16072465
102	0xbdab5f11	-0.08367742
103	0xbe156333	-0.14588623
104	0xbdf86030	-0.12127721
105	0xbd00ecdf	-0.031475898
106	0xbe2bc3a6	-0.16773853
107	0xbd7409e4	-0.059579745
108	0xbd34abdf	-0.04410922
109	0xbd1bdf07	-0.038054492
110	0xbc082095	-0.008308549
111	0x3d27ba37	0.040949073
112	0x3d278373	0.040896844
113	0x3e30cf0d	0.17266484
114	0xbe041086	-0.12896928
115	0x3da8c148	0.082399905
116	0x3d82c092	0.06384386
117	0xbd4077a5	-0.046989102
118	0x3e1a7005	0.15081795
119	0xbd4cc50f	-0.049992617
120	0x3dfc2406	0.123115584
121	0xbda6303b	-0.08114668
122	0x3d9047d5	0.07044951
123	0x3db65028	0.08902007
124	0x3d9a1536	0.07523577
125	0x3de4eeb2	0.1117834
126	0x3c383683	0.011243465
127	0x3de031f6	0.10947029
128	0x3dd12989	0.10213
129	0x3e3171ba	0.1732854
130	0xbe31554b	-0.17317693
131	0xbd96093b	-0.07325979
132	0x3d030580	0.031987667
133	0x3e13fd79	0.14452161
134	0x3d70918f	0.058732565
135	0x3e07042c	0.13185185
136	0xbe2c588e	-0.16830656
137	0x3d87cf60	0.066313505
138	0xbd890c55	-0.06691805
139	0x3c2e50bf	0.010639369
140	0x3e08b1c5	0.13349064
141	0x3dad0066	0.084473416
142	0xbdee51ee	-0.116367206
143	0x3d8abb83	0.06774046
144	0xbc2b71f0	-0.010464177
145	0xbd85903d	-0.06521652
146	0xbe1ece70	-0.15508437
147	0x3c9e4a51	0.019322546
148	0x3d3155e7	0.043294813
149	0x3d7a17ea	0.061057962
150	0x3e9c37e1	0.30511382
151	0x3da6c0cc	0.08142242
152	0xbda72ce2	-0.081628576
153	0xbd97213a	-0.07379384
154	0x3e1d2cf0	0.15349174
155	0x3d996f4c	0.07491931
156	0x3e3c29f4	0.18375379
157	0x3e97d47d	0.29654303
158	0x3da1bf28	0.07897788
159	0x3dfa3ac9	0.12218244
160	0x3e70b351	0.23505904
161	0x3ca75232	0.020424936
162	0xbc475c64	-0.012168024
163	0x3d9d7f68	0.076903164
164	0x3e209fbc	0.15685934
165	0x3e372ce1	0.17888214
166	0x3ea08eaf	0.3135886
167	0x3e7a6d48	0.2445575
168	0x3e06e251	0.1317227
169	0xbd4b4d01	-0.049633984
170	0x3e6f8217	0.23389469
171	0x3e092ae4	0.13395268
172	0xbbe641b7	-0.007026877
173	0xbd224d51	-0.039624516
174	0x3d2658e8	0.04061213
175	0xbdcd6895	-0.10029713
176	0x3e34a143	0.17639641
177	0xbd2b0a48	-0.04175785
178	0x3e3a9f40	0.18224812
179	0x3dbd903a	0.09256025
180	0x3e2c8796	0.16848597
181	0x3e153c7f	0.14573859
182	0x3e6cfefe	0.23144147
183	0x3e414e49	0.1887752
184	0xbcadfd13	-0.02123884
185	0x3c6d6893	0.0144902645
186	0xbdd739c6	-0.10509066
187	0x3dbffeb6	0.09374754
188	0x3dc61847	0.09672599
189	0x3dc987a5	0.09840325
190	0x3e63266b	0.22182624
191	0x3d07f77c	0.033195004
192	0xbd6a4eb1	-0.057203952
193	0x3e06e1bf	0.13172053
194	0x3e5653f9	0.2093047
195	0x3cbf4853	0.023349917
196	0x3dea1a2f	0.114307754
197	0x3e29e18c	0.16589946
198	0x3e4ee01e	0.20202681
199	0x3d173825	0.036918778

rnn.bias_hh_l0 f4 [200]
0	0x3e3b41a6	0.18286762
1	0x3cfeea52	0.031117592
2	0x3d24fe7e	0.040281765
3	0x3e1e0fae	0.15435669
4	0x3cf4a39f	0.029863177
5	0x3e5b2581	0.21401025
6	0x3d7a4afc	0.061106667
7	0x3e353def	0.17699407
8	0x3df974e3	0.121804975
9	0xbd51751f	-0.051137086
10	0x3e81544c	0.25259626
11	0x3dd97c6d	0.106194355
12	0x3d8a2ad5	0.06746451
13	0xbd5d1d43	-0.053982984
14	0x3e16318b	0.14667337
15	0x3d065bb8	0.032802314
16	0x3e353dae	0.1769931
17	0x3dd6e108	0.1049214
18	0x3d484bd4	0.04890044
19	0x3e2bba1e	0.16770217
20	0x3e5907ea	0.21194425
21	0xbd4a9d06	-0.049466155
22	0xbd17bbfa	-0.037044503
23	0x3b60b9d9	0.0034290461
24	0x3dfa9618	0.12235659
25	0xbda9b683	-0.082867645
26	0x3e41e088	0.18933308
27	0xbd9faddf	-0.07796835
28	0x3e65a99c	0.22427982
29	0xbc29fdd1	-0.010375456
30	0x3e5be82b	0.21475284
31	0xbd2953a4	-0.04133953
32	0x3e0e295c	0.13882965
33	0x3e539afe	0.20664594
34	0x3d187882	0.0372243
35	0x3ce32bf2	0.027730916
36	0xbca34b46	-0.019933354
37	0x3da8de6e	0.0824555
38	0xbc8e514c	-0.01737275
39	0x3dab14d1	0.0835358
40	0x3e1d628f	0.15369628
41	0x3e1d3996	0.15353999
42	0xbd79a5f8	-0.060949296
43	0x3d9e9f22	0.07745196
44	0x3e1bad34	0.1520279
45	0x3dce40d9	0.100709625
46	0x3e093079	0.13397397
47	0xbd744708	-0.059638053
48	0x3e17b6e4	0.14815861
49	0x3b00c72f	0.0019649973
50	0xbd200c56	-0.039074264
51	0x3da337be	0.07969616
52	0x3dc5f02a	0.09664948
53	0x3d6d60e8	0.057953745
54	0xbd6e10de	-0.058121555
55	0xbdcf1507	-0.101114325
56	0xbddc3046	-0.10751395
57	0x3dfdba8e	0.12389098
58	0x3d9de752	0.077101365
59	0xbd82cbba	-0.06386514
60	0xbd279716	-0.04091557
61	0x3d104c1c	0.035228834
62	0x3da5d45a	0.080971435
63	0xbc46e610	-0.012139812
64	0xbdbf1547	-0.0933023
65	0xbcc579dc	-0.024105959
66	0x3d735ddc	0.059415683
67	0x3d4b044c	0.049564645
68	0x3c070cb0	0.008242771
69	0xbde2d417	-0.11075609
70	0x3ddcbafe	0.107778534
71	0xbe06086d	-0.13089152
72	0x3e0f0a07	0.13968669
73	0x3e089127	0.13336621
74	0xbd1f1964	-0.038842574
75	0xbe0a59bb	-0.13510792
76	0x3dcad9fc	0.099048585
77	0xbab02400	-0.0013438463
78	0x3d89648e	0.067086324
79	0xbe0081f2	-0.1254957
80	0xbdf22cb0	-0.1182493
81	0xbd953f5c	-0.072874755
82	0x3d7f1f4c	0.062285706
83	0x3da7f036	0.082001135
84	0xbdaf6bf2	-0.08565511
85	0xbda4f72b	-0.08054956
86	0xbda257b8	-0.07926887
87	0xbd414630	-0.047186077
88	0x3ddc054a	0.10743196
89	0xbcbaec6c	-0.022817813
90	0x3db90430	0.09034002
91	0x3d1e3cc0	0.038632154
92	0x3cfd2198	0.030899808
93	0x3d61269c	0.05496846
94	0x3d2c2d88	0.04203561
95	0xbd3616be	-0.044455282
96	0xbe0353eb	-0.12824981
97	0x3dec3306	0.115331694
98	0x3e06f6c5	0.13180073
99	0xbe102906	-0.14078149
100	0xbd4b4e5d	-0.04963528
101	0x3e364c80	0.1780262
102	0x3cfa19ea	0.030529935
103	0xbdfe6deb	-0.12423309
104	0xbe2eeadc	-0.17081779
105	0xbd997d82	-0.07494642
106	0x3d890fec	0.0669249
107	0xbc99ee36	-0.018790346
108	0x3e201f15	0.15636857
109	0xbd99f27e	-0.07516955
110	0xbddc35d9	-0.10752458
111	0x3df1efd2	0.1181332
112	0x3e1fe3c6	0.15614232
113	0x3e1bf651	0.15230681
114	0x3cc0d588	0.02353932
115	0x3daad2a2	0.08340956
116	0x3d348b5f	0.044078227
117	0x3d94fb05	0.07274441
118	0x3deffe66	0.117184445
119	0x3d7b5238	0.061357707
120	0x3e12c38c	0.14332408
121	0xbdb0e4fc	-0.08637425
122	0x3e22ad52	0.15886429
123	0x3dd02313	0.1016294
124	0x3e3353c2	0.1751242
125	0x3dfe9cf2	0.12432279
126	0xbd8f92cd	-0.07010422
127	0x3e3627e7	0.17788659
128	0x3d17c8cf	0.03705674
129	0xbc1b703b	-0.009487207
130	0xbd33ab77	-0.043864693
131	0xbd193cf1	-0.037411634
132	0x3dfefe05	0.12450794
133	0xbd35567d	-0.044271935
134	0x3e08614d	0.13318367
135	0x3e194361	0.1496711
136	0x3c4b4492	0.012406485
137	0x3e2b52e2	0.16730836
138	0xbd814cb7	-0.0631346
139	0x3dcc639c	0.099799365
140	0x3d247ba8	0.04015699
141	0x3d9c3ca4	0.07628754
142	0xbd7834d7	-0.060597267
143	0x3d5fd1b9	0.054643366
144	0x3e2fae51	0.1715634
145	0x3d1f5dd8	0.038907856
146	0xbd9aa02d	-0.07550082
147	0x3ddb0d0c	0.10695848
148	0xbe25c217	-0.1618732
149	0x3e39d384	0.18147093
150	0x3e3ccfef	0.18438695
151	0x3e1245db	0.1428446
152	0xbdbf1230	-0.09329641
153	0xbd8a5402	-0.067543045
154	0x3e477b31	0.19480588
155	0x3e66c56e	0.22536251
156	0x3e3236fb	0.17403786
157	0x3e62319f	0.22089241
158	0x3e68d8f5	0.22739013
159	0x3e0f2a54	0.1398099
160	0x3e9998bb	0.29999337
161	0x3d979651	0.074017175
162	0x3ce0c26f	0.027436463
163	0x3de48003	0.11157229
164	0x3e056aae	0.13028976
165	0x3decc3f8	0.115608156
166	0x3e26f4e5	0.16304357
167	0x3e97b5b9	0.2963083
168	0x3e093b90	0.13401628
169	0xbd8d0513	-0.068857335
170	0x3e4058ce	0.18783876
171	0x3d312687	0.043249633
172	0x3e365536	0.17805943
173	0x3de42645	0.11140112
174	0x3e54ba98	0.20774305
175	0x3e27e910	0.163975
176	0x3de43323	0.11142566
177	0x3c063900	0.008192301
178	0x3dd99b32	0.10625304
179	0x3e09e3d6	0.13465819
180	0x3ce3be54	0.027800716
181	0x3e274bc4	0.16337496
182	0x3e671cfc	0.2256965
183	0x3dfc271a	0.123121455
184	0x3e07b770	0.1325357
185	0xbd71ecf7	-0.059063878
186	0x3e001f84	0.12512022
187	0x3ca0e202	0.019639019
188	0x3dc27b72	0.094962016
189	0x3d99eac7	0.07515483
190	0x3d7b5b68	0.06136647
191	0x3e38462c	0.17995518
192	0xbd02af05	-0.031905193
193	0x3d28c967	0.041207697
194	0x3d036fa4	0.03208889
195	0x3d2de166	0.042451285
196	0x3d8c08d9	0.06837625
197	0x3e0e8ad6	0.13920149
198	0x3d2d2f7e	0.04228162
199	0x3df98f48	0.12185532

rnn.weight_ih_l1 f4 [200, 50]
0	0xbd25827c	-0.040407643
1	0x3d84ba0b	0.064807974
2	0xbd153a4b	-0.036432546
3	0xbccca5ff	-0.024981497
4	0xbe25a1c1	-0.16174985
5	0xbcd27d2d	-0.025694454
6	0xbd0f04da	-0.034916736
7	0x3c8a0273	0.016846871
8	0x3e959b9c	0.29220283
9	0xbe109956	-0.14120993
10	0xbe3ffde4	-0.18749195
11	0xbce019c2	-0.027356032
12	0x3d2e2eaa	0.04252497
13	0x3d89e14a	0.067324236
14	0xbd0bcbdd	-0.034129966
15	0x3e330a12	0.1748431
16	0x3e814275	0.25246015
17	0x3e8018dc	0.25018966
18	0x3e24ac55	0.16081364
19	0xbd8d0198	-0.068850696
20	0xbcd1a1c7	-0.025589837
21	0x3c9dd243	0.0192653
22	0x3e36c91a	0.17850152
23	0x3b132574	0.0022452744
24	0x3bd9660a	0.0066344785
25	0xbb3223be	-0.0027181949
26	0x3d60e87e	0.05490922
27	0x3d93f02f	0.07223546
28	0xbd0f4f31	-0.034987632
29	0x3d984f07	0.07436948
30	0xbe3a3792	-0.18185261
31	0xbdb23b96	-0.08702771
32	0x3e91a148	0.2844336
33	0x3db04683	0.08607199
34	0xbdd0789f	-0.10179257
35	0x3d839c42	0.06426288
36	0xbdd6b753	-0.10484185
37	0xbd0c4e16	-0.034254156
38	0xbdc286be	-0.09498356
39	0xbd9af876	-0.075669214
40	0x3c96575b	0.018352201
41	0xbc20c7ec	-0.00981329
42	0x3d94ae26	0.07259779
43	0x3e3625ab	0.17787807
44	0xbc7deeaf	-0.015498801
45	0x3e13b788	0.1442548
46	0xbe4d1cf3	-0.20030575
47	0x3ca9501b	0.02066808
48	0xbdf8f2a5	-0.12155656
49	0x3de98f57	0.11404293
50	0x3d7c4476	0.061588727
51	0xbdbcfa12	-0.092273846
52	0x3c2d1673	0.010564434
53	0x3dce2809	0.1006623
54	0x3db7cc44	0.089745075
55	0x3db84065	0.08996657
56	0xbbe6f840	-0.0070486367
57	0x3e0ba120	0.13635683
58	0xbe226c59	-0.15861644
59	0xbd3ac0fd	-0.045594204
60	0xbe48ce78	-0.19610012
61	0x3d0ef509	0.034901652
62	0x3d34656b	0.044042032
63	0x3de21d2f	0.110407226
64	0xbd6567e7	-0.056007292
65	0x3c71cb76	0.0147579815
66	0x3d93e1a5	0.07220773
67	0xbd41f6a0	-0.04735434
68	0x3d9d5cca	0.07683714
69	0xbe2ce3ad	-0.16883726
70	0x3d8113a6	0.06302576
71	0x3d8a60a1	0.06756712
72	0xbd8b25d8	-0.067943275
73	0xbe21f60c	-0.15816516
74	0x3cd0cc7c	0.02548813
75	0x3dafeae4	0.08589724
76	0x3c803c2d	0.015653694
77	0xbd4b9e70	-0.049711645
78	0xbd5c798e	-0.05382686
79	0xbe1fa1a7	-0.15589009
80	0xbd8e3f39	-0.069456525
81	0xbdf248ae	-0.11830269
82	0xbccfd34d	-0.02536931
83	0xbd081302	-0.033221252
84	0x3dec0fe4	0.115264684
85	0xbdce316e	-0.10068022
86	0x3dff49a5	0.124652185
87	0xbbab487c	-0.0052271467
88	0xbd5297a4	-0.051414147
89	0xbcd1da3c	-0.025616758
90	0xbd8a20e5	-0.067445554
91	0xbc88c0e2	-0.016693536
92	0x3dd5f723	0.10447528
93	0x3d881d55	0.0664622
94	0xbc848e3d	-0.016181106
95	0x3de7a9ed	0.11311708
96	0x3d486852	0.048927613
97	0x3d5bf445	0.05369975
98	0xbd2999fe	-0.041406624
99	0xbca357a9	-0.01993926
100	0x3e075058	0.13214242
101	0xbcbf26a4	-0.023333855
102	0xbdc6d6b6	-0.097089216
103	0xbd8f1d4b	-0.06988009
104	0xbe80ddd8	-0.25169253
105	0xbceffbe9	-0.029294925
106	0xbe0fa382	-0.14027217
107	0xbe530964	-0.20609051
108	0x3e8a1cd1	0.2697511
109	0xbe875628	-0.2643292
110	0xbd6b0669	-0.05737916
111	0x3e467ade	0.19382808
112	0x3cf1a060	0.029495418
113	0xbd43c03d	-0.047790755
114	0xbea35a1c	-0.31904685
115	0x3e7a538a	0.2444593
116	0x3e22ce7e	0.15899083
117	0x3ded678b	0.11592015
118	0xbd8b7897	-0.0681011
119	0xbdb4d492	-0.08829607
120	0x3d51f5db	0.051259857
121	0x3b8fbab4	0.0043862704
122	0x3b9a76f8	0.004713889
123	0x3e384015	0.17993195
124	0x3dff7992	0.124743596
125	0x3e02b4d3	0.12764291
126	0xbe4bd1bc	-0.19904226
127	0xbd7629a3	-0.0600983
128	0x3e2d109b	0.16900866
129	0x3e61e069	0.22058262
130	0xbe5b640c	-0.21424884
131	0xbc813389	-0.015771644
132	0x3e9e8fb5	0.30969015
133	0x3e209af9	0.15684117
134	0xbd394440	-0.045231104
135	0x3de514de	0.11185621
136	0xbe81e9f6	-0.2537381
137	0x3e1862ad	0.14881392
138	0xbe383bb7	-0.1799153
139	0x3d33054d	0.043706227
140	0x3e80a7ee	0.2512812
141	0x3dfeead6	0.12447135
142	0x3cbbd33f	0.022927878
143	0x3db260b7	0.08709853
144	0xbd866abc	-0.06563327
145	0x3da6719e	0.081271395
146	0xbe81d6e6	-0.25359267
147	0x3e1a6089	0.15075888
148	0xbe4b458a	-0.19850746
149	0x3e05b6ed	0.13058062
150	0xbda9e25b	-0.08295127
151	0xbc6f908f	-0.014621868
152	0x3e0db2aa	0.13837686
153	0xbdd1f996	-0.10252683
154	0xbddde828	-0.10835296
155	0x3c80f663	0.015742486
156	0x3df3821a	0.11890049
157	0xbbba2661	-0.0056808447
158	0xbe33f670	-0.17574477
159	0x3e1caa36	0.15299305
160	0xbd390911	-0.045174662
161	0x3db83df0	0.08996189
162	0xbc18746f	-0.009305104
163	0xbd4259e0	-0.047448993
164	0x3d221aab	0.039576214
165	0xbcf95d5f	-0.03044003
166	0xbca6d339	-0.02036439
167	0xbdc69ee4	-0.09698275
168	0xbde36a47	-0.11104255
169	0x3d4d98f3	0.050194692
170	0xbe2a50f4	-0.16632444
171	0x3d90a96c	0.07063565
172	0x3bc080e9	0.0058747423
173	0xbd6df855	-0.058098156
174	0xbc664461	-0.014054389
175	0xbdaac3cd	-0.08338127
176	0xbe0ed91a	-0.13950005
177	0xbdacf41b	-0.08444997
178	0xbdbb5bdd	-0.09148381
179	0x3c829ef0	0.015944928
180	0x3de874ca	0.11350401
181	0xbc2b3bcc	-0.010451268
182	0x3d913403	0.070899986
183	0xbd911fb7	-0.07086127
184	0xbd8dc01e	-0.06921409
185	0x3c821abf	0.015881894
186	0xbd42e6e9	-0.047583494
187	0x3ce8aeff	0.028403757
188	0xbd399e5f	-0.04531705
189	0x3d9f6264	0.077824384
190	0xbe203173	-0.15643863
191	0xbd9e31af	-0.0772432
192	0x3df8807d	0.12133882
193	0xbdf6b1ee	-0.12045656
194	0xbd52ca32	-0.05146236
195	0xbc83f890	-0.016109735
196	0xbc0d8721	-0.008638174
197	0xbdb0c692	-0.08631624
198	0xbd841e70	-0.06451118
199	0xbcb2755f	-0.021784483
200	0x3d349f99	0.044097517
201	0x3d30c17e	0.04315328
202	0x3db699c6	0.08916049
203	0xbdb3931e	-0.08768295
204	0xbd3611e5	-0.04445066
205	0xbcef744e	-0.029230263
206	0xbe2b7aaf	-0.16746019
207	0xbe01bd1f	-0.126698
208	0x3e5c87f2	0.21536234
209	0x3aba58be	0.0014217121
210	0x3e9a3fbd	0.30126753
211	0x3e0f1287	0.13971911
212	0xbd23b0a9	-0.039963398
213	0x3c5abb3e	0.013350306
214	0xbe49fa1e	-0.19724318
215	0xbc465c2e	-0.012106938
216	0x3e2edeb6	0.17077145
217	0x3e7b64cc	0.2455017
218	0x3e543fe4	0.20727497
219	0xbda74d74	-0.0816907
220	0x3e05cc96	0.13066325
221	0xbd9849cb	-0.0743595
222	0xbd7caf0a	-0.061690368
223	0xb9494e20	-0.00019197958
224	0x3d080d80	0.033216
225	0xbc89bd32	-0.016813848
226	0xbce6d14b	-0.02817597
227	0xbce512e1	-0.027963104
228	0x3e6e17ff	0.23251341
229	0x3c974a13	0.018467939
230	0xbe1c51f4	-0.15265638
231	0xbcdebaf8	-0.027188763
232	0xbcad04da	-0.021120477
233	0x3d9c6079	0.07635588
234	0x3d0397b3	0.032127094
235	0xbd8a8c85	-0.06765083
236	0xbb82737c	-0.003981052
237	0xbd26cebf	-0.040724512
238	0xbd99ce29	-0.07510025
239	0x3dd155d8	0.102214515
240	0x3c3a7aa6	0.011381781
241	0x3b99ab6c	0.0046896245
242	0xbdef4767	-0.11683541
243	0x3e75a0fe	0.23987195
244	0xbce04eb3	-0.027381277
245	0xbd3ed9d0	-0.04659444
246	0xbe20456e	-0.15651485
247	0x3c8fec12	0.017568622
248	0x3cdab928	0.026699618
249	0x3d5eaa4b	0.054361623
250	0xbe5be11e	-0.21472594
251	0x3e3b82d5	0.18311627
252	0x3dfc3028	0.123138726
253	0x3dcd1748	0.10014206
254	0x3de90ed3	0.113797806
255	0x3dd9b156	0.10629527

rnn.weight_hh_l1 f4 [200, 50]
0	0xbdf03e40	-0.11730623
1	0xbbdc33e0	-0.006720051
2	0xbe1016ab	-0.14071147
3	0x3d5ef8b8	0.054436415
4	0x3d10ac34	0.035320476
5	0xbd71def6	-0.059050523
6	0x3c976c10	0.018484145
7	0x3dd65656	0.10465686
8	0xbe042386	-0.12904176
9	0x3cff2b88	0.031148687
10	0x3df3142a	0.1186908
11	0x3e04fab1	0.12986256
12	0xbd0d445c	-0.03448902
13	0xbe00a6df	-0.12563656
14	0xbcd714ac	-0.026254974
15	0x3d50522c	0.050859615
16	0xbe07b7a6	-0.1325365
17	0xbdd10128	-0.10205299
18	0x3d674fac	0.056472465
19	0xbdc3e1ea	-0.09564574
20	0x3e0b5b1f	0.13608979
21	0xbdbea5c9	-0.09308965
22	0xbc3fbfa0	-0.011703402
23	0x3cf03118	0.029320285
24	0xbda615cb	-0.081096254
25	0xbe0236f5	-0.12716277
26	0x3d16fd7c	0.036862835
27	0xbe05d168	-0.13068163
28	0xbcbc2114	-0.022964992
29	0xbd08e3f8	-0.033420533
30	0x3e0cb1e7	0.1373974
31	0xbdf1a3e8	-0.11798841
32	0x3d8c36a4	0.06846359
33	0xbe0008bd	-0.12503333
34	0xbdfde118	-0.12396449
35	0xbe0c1b5e	-0.13682315
36	0xbe090fb9	-0.13384904
37	0xbd9dfc7f	-0.077141754
38	0x3d11c4f0	0.035588205
39	0xbc4ac4d0	-0.012376025
40	0x3d31fc08	0.043453246
41	0x3cce2e98	0.025168702
42	0x3df278ea	0.11839469
43	0x3e0e3bf9	0.13890065
44	0x3df62f9e	0.12020801
45	0x3cd05ad0	0.025433928
46	0x3dd180b4	0.10229626
47	0xbd52eb94	-0.051494196
48	0xbe043393	-0.12910299
49	0xbd472de6	-0.048627757
50	0x3ddf68b6	0.10908644
51	0x3c8734b0	0.016504616
52	0xbd92e370	-0.071722865
53	0xbd40633e	-0.046969645
54	0x3b74b600	0.0037339926
55	0x39d85600	0.00041262805
56	0x3de4b8ba	0.11168046
57	0x3d376a08	0.044778854
58	0xbdf67873	-0.120346926
59	0x3d5351d4	0.05159171
60	0x3cedaef0	0.02901408
61	0xbdf88621	-0.12134958
62	0x3c7100a0	0.014709622
63	0x3d6d1918	0.05788526
64	0x3db2a520	0.08722901
65	0xbd85e56b	-0.06537899
66	0xbd9e2f9e	-0.07723926
67	0xbdb765b6	-0.08954947
68	0xbda11ca6	-0.078667924
69	0x3d647d0c	0.055783316
70	0xbd1b7058	-0.037948936
71	0x3d88ffa6	0.06689386
72	0x3e03b23f	0.12860964
73	0xbd82341b	-0.063575946
74	0xbde653d8	-0.11246461
75	0xbe0f5269	-0.1399628
76	0x3dd03646	0.10166602
77	0xbd09bac0	-0.033625364
78	0x3c6e1110	0.014530435
79	0xbc2e0fe0	-0.010623902
80	0x3d995324	0.07486561
81	0x3e032b45	0.12809475
82	0x3dedab82	0.11604978
83	0xbdf430b0	-0.11923349
84	0xbd0efa7c	-0.03490685
85	0xbd0aa72c	-0.033850834
86	0xbd915a2c	-0.07097277
87	0x3da50296	0.08057134
88	0x3dcf93c2	0.101356044
89	0xbda98085	-0.08276466
90	0xbceecd50	-0.029150635
91	0x3de170fe	0.1100788
92	0xbcf1b2c8	-0.029504195
93	0xbd1b8696	-0.037970148
94	0x3c8dc7e8	0.017307237
95	0x3cd6ccf8	0.026220784
96	0x3df67d1e	0.12035583
97	0xbd1dc296	-0.03851565
98	0xbe0c164b	-0.13680379
99	0xbc5af0e0	-0.013363093
100	0xbb6378c0	-0.0034709424
101	0xbd7b6a82	-0.06138087
102	0x3b87fe00	0.004150152
103	0x3e0fd425	0.1404577
104	0xbde21503	-0.11039164
105	0x3daf9054	0.0857245
106	0xbd5eab3e	-0.054362528
107	0xbcfcb550	-0.030848175
108	0xbd6d6aa0	-0.057963014
109	0xbd905255	-0.070469536
110	0xbd328c12	-0.043590613
111	0x3c9f7458	0.019464657
112	0x3d81c572	0.06336488
113	0x3e0a35e7	0.13497125
114	0xbd7fc104	-0.062439933
115	0x3d9da668	0.07697755
116	0x3d725ca8	0.059170395
117	0x3db1b976	0.08677952
118	0x3d24becc	0.04022102
119	0xbb117f00	-0.0022200942
120	0x3d8e851a	0.06958981
121	0xbd5e50fa	-0.054276444
122	0xbd896aa0	-0.0670979
123	0xbd756008	-0.059906036
124	0x3dfd0c92	0.12355913
125	0xbdd14083	-0.10217383
126	0x3d8bd858	0.06828374
127	0xbd45ba78	-0.048273534
128	0x3d87727c	0.06613633
129	0xbd36ee14	-0.044660643
130	0xbdc0da37	-0.09416621
131	0x3d1b86c8	0.037970334
132	0xbdca4334	-0.09876099
133	0x3dc3a720	0.09553361
134	0xbd24283a	-0.040077426
135	0xbe08293a	-0.13296977
136	0x3d330ea8	0.04371515
137	0x3de8ef76	0.113737985
138	0xbbeae200	-0.0071680546
139	0x3db85f56	0.09002559
140	0x3c128de0	0.008944958
141	0xbd0a88c4	-0.033821836
142	0xbd80058b	-0.06251057
143	0x3dd60d64	0.10451773
144	0xbb926f20	-0.0044688135
145	0xbd934f6c	-0.07192883
146	0x3dd15182	0.102206245
147	0x3cdeb2b0	0.027184814
148	0xbccb3114	-0.024803676
149	0x3d7897f8	0.060691804
150	0xbdf8b8a2	-0.12144591
151	0xbddeff8b	-0.10888585
152	0xbe0e1932	-0.13876799
153	0xbccd0428	-0.025026396
154	0xbdadb3b0	-0.08481538
155	0xbdf69288	-0.12039667
156	0xbdb722cc	-0.08942184
157	0xbc1a1de0	-0.009406537
158	0xbdfd34fe	-0.12363623
159	0xbde1af62	-0.1101978
160	0x3e094fa9	0.13409294
161	0xbdedbea1	-0.11608625
162	0xbde14a32	-0.1100048
163	0xbd720074	-0.059082463
164	0xbd3c8e22	-0.046033986
165	0x3d00f160	0.031480193
166	0x3d9ed752	0.07755913
167	0xbd6dacc6	-0.058026098
168	0xbcd3472c	-0.025790773
169	0x3e0c4a15	0.13700135
170	0xbbed9880	-0.0072508454
171	0xbdac8850	-0.08424437
172	0x3d004974	0.03132005
173	0xbcdbf59c	-0.026850514
174	0x3d56a9ac	0.052407905
175	0xbd817de0	-0.06322837
176	0x3d443e90	0.047911227
177	0xbd3a9a1e	-0.045557134
178	0xbb0f9580	-0.0021909177
179	0x3c09ba50	0.008406237
180	0x3de6936e	0.11258589
181	0xbe0ac702	-0.13552478
182	0xbdf03942	-0.11729671
183	0x3d748d3c	0.059705004
184	0xbe0b72de	-0.13618037
185	0xbda8be3a	-0.08239408
186	0x3d13e538	0.036107272
187	0xbb5cb940	-0.0033679754
188	0x3dbb4260	0.091435194
189	0xbe01fc83	-0.12693982
190	0xbd014020	-0.031555295
191	0x3c88bed0	0.016692549
192	0xbd67d202	-0.056596763
193	0x3d9d0ef8	0.07668871
194	0x3d9c042e	0.07617985
195	0x3dc27228	0.0949443
196	0x3daa8b50	0.08327353
197	0x3dc58db6	0.0964617
198	0xbd9b1031	-0.07571448
199	0xbc305860	-0.010763258
200	0x3dde5e70	0.10857856
201	0xbe0a6204	-0.13513952
202	0xbd516bb0	-0.05112809
203	0xbdfbfdf0	-0.12304294
204	0x3d9e377a	0.07725425
205	0xbc47a260	-0.012184709
206	0xbd682f66	-0.056685828
207	0x3dd12194	0.10211483
208	0x3d9295c8	0.07157475
209	0x3d880140	0.066408634
210	0x3cd541a0	0.026032269
211	0xbd510b78	-0.051036328
212	0x3ccf9208	0.025338188
213	0xbd93a7cf	-0.07209741
214	0x3e06c14b	0.13159673
215	0xbdda5e2b	-0.10662492
216	0x3dc84384	0.097785026
217	0x3d98c446	0.07459311
218	0x3df1db72	0.11809434
219	0x3d8a7200	0.06760025
220	0x3d32444c	0.043522164
221	0xbd2dd464	-0.04243888
222	0xbe0ad0f5	-0.13556273
223	0xbb248c40	-0.002510801
224	0xbb5a7040	-0.0033331066
225	0x3d4e87e4	0.050422564
226	0x3c82a160	0.01594609
227	0x3d6e910c	0.058243796
228	0x3bde8400	0.006790638
229	0xbd963495	-0.07334248
230	0xbd326b9a	-0.043559648
231	0xbde6d800	-0.112716675
232	0x3cd0d370	0.025491446
233	0xbda77f0e	-0.08178531
234	0x3cb45740	0.02201426
235	0x3d860404	0.06543735
236	0xbe0bc1a8	-0.13648093
237	0x3e098f23	0.13433509
238	0xbd871119	-0.06595058
239	0xbdd28692	-0.102795735
240	0x3d71127c	0.05885552
241	0xbd8d32b1	-0.06894434
242	0xbcc5003c	-0.024047963
243	0x3d3e51c8	0.04646471
244	0x3d0af8f4	0.033928826
245	0xbdbf0044	-0.093262225
246	0x3d7fbabc	0.062433943
247	0xbd7ad3b8	-0.061237067
248	0x3c186430	0.00930123
249	0xbd588b56	-0.052867256
250	0xbe0898dd	-0.13339563
251	0x3dbdef7e	0.09274195
252	0x3d705b7c	0.058680996
253	0xbd2cda06	-0.04220011
254	0xbdd95a77	-0.10612958
255	0xbdeadb27	-0.11467581

rnn.bias_ih_l1 f4 [200]
0	0xbd0cfff8	-0.0344238
1	0xbdb6b494	-0.08921161
2	0x3e191107	0.14947902
3	0x3d89563e	0.067059025
4	0x3e0f418b	0.13989846
5	0x3db7a849	0.08967645
6	0x3e09ce5d	0.13457628
7	0x3dcac937	0.0990166
8	0xbc6b2de8	-0.014354207
9	0x3d2ca273	0.04214711
10	0x3e1cc716	0.1531032
11	0x3e06a36a	0.13148275
12	0x3da4b806	0.08042912
13	0x3e258a03	0.16165929
14	0x3df23218	0.11825961
15	0xbe0b63f5	-0.1361235
16	0x3e3acd62	0.1824241
17	0xbddbd58a	-0.10734089
18	0x3d9a7e44	0.075436145
19	0x3af54ce1	0.0018714928
20	0xbd0a6179	-0.033784363
21	0xbc550ffc	-0.013004299
22	0x3e2a24bd	0.16615577
23	0x3e7bf6e0	0.24605894
24	0x3dd53d39	0.10412068
25	0xbc7e3686	-0.015515929
26	0x3e1e8760	0.15481329
27	0xbcf9328d	-0.030419612
28	0x3e0ba87f	0.13638495
29	0x3e0a3912	0.13498333
30	0xbd06b8fc	-0.03289126
31	0x3bcb1846	0.006197962
32	0x3c14c52a	0.009080211
33	0x3e75d983	0.24008755
34	0x3bd957bf	0.0066327746
35	0x3dd1cce3	0.10244157
36	0x3be034f2	0.006842249
37	0x3e43fd3d	0.19139571
38	0x3d6503ba	0.055911757
39	0x3e14a9fc	0.14517969
40	0xbd7d6162	-0.06186045
41	0x3e048c99	0.12944259
42	0x3d9b3c45	0.07579855
43	0xbdb87e81	-0.09008504
44	0x3cd42cf4	0.025900342
45	0x3e3bc06b	0.1833512
46	0x3d18fcc6	0.03735044
47	0xba1a8f32	-0.00058959716
48	0x3d2d571f	0.042319413
49	0xbd906708	-0.07050902
50	0x3db543b0	0.08850801
51	0x3d0663c4	0.032809988
52	0xbdab11a7	-0.08352976
53	0x3e00e4fd	0.12587352
54	0x3dedbd06	0.11608319
55	0xbda2c78a	-0.07948215
56	0x3d117f78	0.035521954
57	0x3db4aa90	0.08821595
58	0xbe05aaca	-0.13053432
59	0x3dfd1906	0.123582885
60	0xbe0a3d3c	-0.13499922
61	0xbd3ce340	-0.04611516
62	0xbddaad20	-0.10677552
63	0xbcb21fe0	-0.021743715
64	0xbd453aa0	-0.048151612
65	0xbc3a7900	-0.011381388
66	0xbc06be00	-0.0082240105
67	0x3e0234a3	0.12715392
68	0xbcde4014	-0.027130164
69	0xbd33c912	-0.043892927
70	0xbcee0f18	-0.029059932
71	0x3c944208	0.018097892
72	0x3d88c0ce	0.066773996
73	0x3dbdf442	0.09275104
74	0x3e04f601	0.12984468
75	0x3dddcd1a	0.10830136
76	0xbe06f41d	-0.1317906
77	0x3cf1d188	0.029518858
78	0x3d853528	0.065042794
79	0x3cb52e98	0.022116944
80	0x3e102353	0.14075975
81	0xbd8d514a	-0.0690027
82	0x3e0cb7dd	0.13742013
83	0xbdc9fcb2	-0.09862651
84	0x3d63137c	0.055438504
85	0xbe0b04f0	-0.13576102
86	0xbdb3105b	-0.08743354
87	0x3e020e5f	0.12700795
88	0xbbbae520	-0.0057035834
89	0x3d400ed8	0.046889156
90	0x3d7899fc	0.060693726
91	0x3d5f6e4c	0.054548547
92	0xbcf64ae8	-0.030065015
93	0x3d9c33f8	0.076271
94	0xbcd1e074	-0.025619723
95	0x3dc9059a	0.098155215
96	0xbdc1428f	-0.09436523
97	0xbc257460	-0.010098547
98	0xbe0f9720	-0.14022493
99	0xbda2c46d	-0.079476215
100	0xbd8011c2	-0.06253387
101	0x3d7872ad	0.06065624
102	0xbcf97005	-0.030448923
103	0xbd07f8a2	-0.0331961
104	0xbdb06683	-0.086133026
105	0xbde1cf37	-0.11025851
106	0x3c810e74	0.015753962
107	0xbe1de734	-0.15420228
108	0x3cf2febf	0.029662488
109	0x3e1f55e7	0.15560113
110	0x3ce50fda	0.02796166
111	0x3c9f83d4	0.01947204
112	0xbe165b32	-0.14683226
113	0xbda6cbc9	-0.08144338
114	0xbbedf94e	-0.0072623855
115	0x3d340754	0.0439523
116	0x3c711744	0.01471502
117	0x3c01aa46	0.0079141315
118	0xbd022663	-0.03177489
119	0x3dae7563	0.085184835
120	0xbc7f9c54	-0.015601236
121	0xbbf1d5c2	-0.0073802182
122	0x3db554fc	0.088541
123	0xbd8c7e51	-0.068600304
124	0x3dc910cb	0.09817656
125	0x3b8c9459	0.0042901454
126	0x3e183f08	0.14867795
127	0xbda6989a	-0.08134575
128	0x3e13cb0f	0.1443293
129	0x3cd2413b	0.02566587
130	0xbc969c37	-0.018385036
131	0xbb4a7bfb	-0.0030896652
132	0xbbca28d8	-0.0061694197
133	0xbd5ff844	-0.054680124
134	0x3e371e27	0.17882596
135	0xbd1f3c95	-0.038876135
136	0xbdebdefa	-0.11517139
137	0xbe0d0b67	-0.13773881
138	0xbdac7263	-0.08420255
139	0x3e0a6158	0.13513696
140	0x3dcb001a	0.09912129
141	0xbda30af8	-0.079610765
142	0x3d17ab7b	0.03702877
143	0xbd207596	-0.03917464
144	0xbe22a5fe	-0.15883633
145	0x3d2ba979	0.04190967
146	0xbc7b67db	-0.015344585
147	0xbd2b7378	-0.041858166
148	0xbdccfed8	-0.10009545
149	0xbe29874d	-0.1655552
150	0x3d735d07	0.05941489
151	0xbd839567	-0.064249806
152	0x3e02d98f	0.12778305
153	0xbdb467c3	-0.088088535
154	0x3dec6daf	0.11544358
155	0x3e2d0bef	0.16899084
156	0x3b733648	0.0037111212
157	0xbcb83697	-0.022486968
158	0x3df82a4d	0.12117443
159	0xbcf17b0b	-0.029477617
160	0x3bba1741	0.0056790416
161	0x3d31b255	0.04338296
162	0x3e359bf2	0.1773527
163	0xbda672f3	-0.081273936
164	0x3e38783b	0.18014614
165	0x3d0aa618	0.033849806
166	0x3cf0c222	0.029389445
167	0x3db22d54	0.08700052
168	0x3daaa003	0.08331301
169	0xbc6c808f	-0.014434948
170	0xbe1a4824	-0.15066582
171	0xbd2ef4f3	-0.04271407
172	0xbd38f75c	-0.045157775
173	0x3e817961	0.25287917
174	0x3e6e666f	0.23281263
175	0xbd90f401	-0.0707779
176	0xbd1c11e8	-0.038103014
177	0x3cdb7b13	0.026792085
178	0x3e41ec4c	0.18937796
179	0x3d1a5108	0.037674934
180	0xbccfb820	-0.025356352
181	0x3dc3c0bd	0.09558246
182	0xbe2893c4	-0.16462618
183	0x3e35494e	0.17703745
184	0x3ddbf190	0.10739434
185	0x3d919281	0.071080215
186	0x3e1d0491	0.15333773
187	0x3e628903	0.22122578
188	0xbd6ab7cf	-0.0573042
189	0x3d98ce0f	0.074611776
190	0x3e0ccdea	0.13750425
191	0xbc927de4	-0.017882295
192	0x3e4f6e88	0.20257008
193	0xbddd65d7	-0.1081044
194	0xbb29fca9	-0.002593795
195	0x3da21313	0.07913794
196	0x3dabaa03	0.083820365
197	0xbde01926	-0.10942297
198	0xbd7451e8	-0.059648424
199	0x3df55feb	0.119811855

rnn.bias_hh_l1 f4 [200]
0	0x3db86c6f	0.09005057
1	0x3d2c4755	0.042060215
2	0xbd4d9ec4	-0.05020024
3	0xbda07cbb	-0.078362904
4	0xbd3a762b	-0.04552285
5	0xbd8a5439	-0.067543454
6	0x3e3545cc	0.17702407
7	0xbd8d23b2	-0.06891574
8	0x3b6a5403	0.0035755641
9	0xbd6957d3	-0.05696852
10	0x3e366088	0.17810261
11	0x3d661c87	0.05617955
12	0x3e0614e0	0.130939
13	0x3e0ad99c	0.13559574
14	0xbd727e45	-0.05920245
15	0xbe073fa7	-0.13207875
16	0x3e4158d1	0.18881537
17	0xbcada2fc	-0.021195881
18	0x3e07fa02	0.13278964
19	0xbce0d39d	-0.027444655
20	0xbcbc2255	-0.02296559
21	0xbe0e1363	-0.13874583
22	0xbd9f195a	-0.07768507
23	0x3e371bc8	0.17881691
24	0x3cecfc27	0.02892883
25	0x3d5ce118	0.053925604
26	0xbd50b77b	-0.05095623
27	0xbe120ed2	-0.14263466
28	0x3c959d7c	0.018263571
29	0x3d1234d3	0.03569491
30	0x3d3bd3dd	0.045856345
31	0xbd79705d	-0.060898174
32	0x3ddf9191	0.109164365
33	0x3cd99bcf	0.026563553
34	0x3ca70705	0.02038909
35	0x3d713634	0.058889583
36	0xbdb4ef1d	-0.0883467
37	0x3e643d96	0.22289118
38	0xbbc61d3c	-0.0060459655
39	0x3e29a4f4	0.16566831
40	0x3d9b9b39	0.07597966
41	0xbb952ad0	-0.004552223
42	0x3e62ae81	0.2213688
43	0xbd0f3376	-0.034961186
44	0x3d4d4865	0.05011787
45	0x3e327bc9	0.17430033
46	0xbd246410	-0.04013449
47	0x3ccc98e0	0.02497524
48	0xbdffcdf4	-0.12490454
49	0x3e0255cd	0.12728043
50	0x3d085910	0.03328806
51	0xbdee949e	-0.1164944
52	0xbddf7ea6	-0.10912828
53	0x3d75e3b0	0.060031593
54	0xbd616600	-0.055028915
55	0x3dbaea3e	0.091267094
56	0x3de8532a	0.11343987
57	0x3da44280	0.08020496
58	0x3e09bd55	0.1345113
59	0xbe055379	-0.13020124
60	0x3e0ba43d	0.1363687
61	0x3e0e9b85	0.13926513
62	0xbe0150fe	-0.12628552
63	0xbd664a34	-0.05622311
64	0x3d4f37fc	0.0505905
65	0xbdb87880	-0.090073586
66	0x3d93c416	0.07215135
67	0x3d084f04	0.03327848
68	0xbd3aa63a	-0.045568682
69	0xbe0e28d1	-0.13882758
70	0x3debd386	0.11514954
71	0xbd850d34	-0.06496659
72	0x3dd4e2ac	0.10394797
73	0x3cb7fb48	0.022458687
74	0xbd154efe	-0.036452286
75	0xbe059895	-0.13046487
76	0xbd3991fc	-0.045305237
77	0xbdeb59c0	-0.11491728
78	0x3dd5d240	0.10440493
79	0xbe0d12cc	-0.13776702
80	0xbd9aab5e	-0.07552217
81	0x3de9f226	0.11423139
82	0x3c2ffe50	0.010741785
83	0xbd97b6d0	-0.074079156
84	0xbd50aa48	-0.050943643
85	0x3dc7a32a	0.09747918
86	0xbdc2bafc	-0.09508321
87	0xbccf538c	-0.025308393
88	0x3d56efd0	0.052474797
89	0x3cecb5b0	0.02889523
90	0xbdccc364	-0.09998205
91	0x3c1e72a0	0.009670883
92	0x3dd8e110	0.10589802
93	0xbce74cf4	-0.028234936
94	0xbd9358a8	-0.07194644
95	0x3e0351d9	0.12824191
96	0x3d004824	0.0313188
97	0xbd4ac868	-0.04950753
98	0xbe0fcea0	-0.14043665
99	0xbcdad488	-0.02671267
100	0x3d48a43b	0.048984747
101	0x3d7bc86d	0.061470438
102	0x3cb58bca	0.022161383
103	0xbd8bffff	-0.06835937
104	0xbdd4c59b	-0.10389253
105	0xbd36a0c2	-0.044586904
106	0xbdf76168	-0.12079126
107	0xbe014fae	-0.12628052
108	0x3dcbb09d	0.09945796
109	0x3e0d39b6	0.13791546
110	0x3e00c444	0.1257487
111	0x3e35e022	0.17761281
112	0xbd4a929d	-0.049456228
113	0xbde74905	-0.11293224
114	0x3e0628fa	0.13101569
115	0xbdafce94	-0.085843235
116	0x3e00ab32	0.12565306
117	0xbc7aab20	-0.015299588
118	0xbda0cef6	-0.07851975
119	0x3d988d68	0.07448846
120	0x3da382b4	0.07983914
121	0x3dc0b469	0.094094105
122	0xbd336e64	-0.04380645
123	0x3d94ca98	0.07265204
124	0xbc5e58c5	-0.013570969
125	0xbe16ac8f	-0.14714263
126	0x3d7b9a07	0.06142619
127	0xbd0b13e0	-0.0339545
128	0xbdad910c	-0.08474931
129	0xbd645430	-0.05574435
130	0xbcc48687	-0.023989929
131	0x3d369bdd	0.044582237
132	0xbcb16770	-0.021655768
133	0xbc75f687	-0.01501239
134	0x3dfceb93	0.1234962
135	0x3d5acc8b	0.053417724
136	0x3c5cd19c	0.013477709
137	0x3db53910	0.088487744
138	0x3ddbd8fe	0.10734747
139	0x3e1a8ff3	0.15093975
140	0x3dba39ad	0.09093032
141	0xbe049c0b	-0.1295015
142	0x3b722bd2	0.0036952388
143	0xbd92cc75	-0.07167903
144	0xbd47f35c	-0.04881607
145	0xbc8c7134	-0.017143823
146	0x3d2795db	0.040914398
147	0xbdc784fa	-0.0974216
148	0x3d323ef2	0.04351706
149	0xbce5e233	-0.028061962
150	0xbdb3c397	-0.0877754
151	0xbde2784b	-0.110581
152	0x3e15d5d0	0.14632344
153	0xbc53c62f	-0.012925669
154	0x3e3a4798	0.18191373
155	0x3d56b7e3	0.05242146
156	0x3e4d8aca	0.20072475
157	0x3cb29d49	0.021803515
158	0x3d7fab42	0.062419184
159	0x3deade5d	0.11468194
160	0x3d01b69c	0.03166829
161	0x3dad5cee	0.084649906
162	0xbc86c964	-0.016453452
163	0xbd220538	-0.03955576
164	0x3d31ee3e	0.043440096
165	0x3dc8e1c1	0.09808684
166	0x3d5b180f	0.05348974
167	0xbdcde08a	-0.10052593
168	0x3e1e05d6	0.15431914
169	0x3d2fc801	0.042915348
170	0xbc0cef26	-0.008601939
171	0x3dad6ad9	0.08467645
172	0x3d8fe8eb	0.070268475
173	0x3c170088	0.009216435
174	0x3e72ef3f	0.23724078
175	0x3e1deb91	0.15421893
176	0x3e0046a8	0.12526953
177	0x3d699861	0.057030085
178	0x3d3798e2	0.044823535
179	0x3e5d403b	0.21606533
180	0x3da0dc5c	0.0785453
181	0x3dc5a097	0.09649771
182	0x3ca2e664	0.01988525
183	0x3d62b0f9	0.055344556
184	0xbd9570c1	-0.07296897
185	0x3da4a53d	0.08039329
186	0xbd76e838	-0.060280055
187	0x3dd12aca	0.102132395
188	0x3d7712bf	0.060320612
189	0x3e0f2155	0.13977559
190	0x3e2e5ec6	0.1702834
191	0xb9e4fe02	-0.000436768
192	0xbcabd22a	-0.020974237
193	0x3b79fb88	0.003814431
194	0x3c6c8d09	0.014437922
195	0xbd2aa376	-0.041659795
196	0xbd2ab10d	-0.041672755
197	0xbdc8c17a	-0.09802528
198	0xbda1163e	-0.078655705
199	0xbd91d280	-0.07120228
