LSTM_for_PDE/codes/models/LSTM_NS2d_tg.pth (torch, 141017 bytes, 12 tensors)

rnn.weight_ih_l0 f4 [200, 3]
0	0x3e92303b	0.28552422
1	0x3ce833fa	0.028345097
2	0x3cc4f265	0.024041364
3	0xbe961985	-0.29316345
4	0xbd7d5594	-0.06184919
5	0x3e18a500	0.14906693
6	0xbea9fb37	-0.33199474
7	0x3da7168b	0.081585966
8	0xbe20bf2c	-0.15697926
9	0x3e31d847	0.1736766
10	0xbe474c26	-0.19462642
11	0x3de48874	0.11158839
12	0x3e406e6f	0.18792127
13	0xbd9db2ba	-0.07700105
14	0x3d516436	0.05112096
15	0xbdd5fe4d	-0.10448895
16	0x3e8503be	0.25979418
17	0x3dc91445	0.09818319
18	0x3e63af68	0.22234881
19	0xbd82c5e3	-0.063854
20	0x3e2ff93f	0.17184924
21	0xbe993a2a	-0.29927188
22	0xbe1f5fa6	-0.1556383
23	0x3de6ee7e	0.112759575
24	0xbe758e89	-0.23980154
25	0xbea3ce9d	-0.3199357
26	0xbdabff62	-0.0839832
27	0x3cdfe31e	0.027329978
28	0x3ed49d33	0.41526183
29	0x3d9b25cc	0.075755686
30	0x3e41c142	0.18921378
31	0x3ebcea58	0.3689754
32	0xbe09d67b	-0.13460724
33	0xbe2377cb	-0.15963666
34	0x3deb3bc3	0.11486008
35	0x3b484a4f	0.003056187
36	0xbdcdb21c	-0.10043737
37	0x3dd60f41	0.10452128
38	0x3e3c78cc	0.18405455
39	0x3df27e01	0.118404396
40	0xbf08bd8c	-0.53414226
41	0x3e3b484a	0.18289295
42	0x3e8bfb83	0.27340326
43	0xbe588ccf	-0.21147464
44	0x3e37ed7f	0.17961691
45	0xbe83d4b0	-0.25748205
46	0xbd850c58	-0.06496495
47	0x3e81e2a0	0.25368214
48	0x3ccbc9ef	0.024876563
49	0xbcd1617f	-0.025559185
50	0x3b366d16	0.0027836016
51	0x3e7e0a05	0.2480851
52	0xbe90094f	-0.28132102
53	0xbde5c970	-0.11220062
54	0xbea1fe83	-0.3163949
55	0x3e0c71dd	0.1371531
56	0x3d032f97	0.032027807
57	0xbc99c873	-0.01877234
58	0x3e97cf95	0.2965056
59	0x3dfeba5b	0.12437888
60	0x3e5bb36d	0.21455164
61	0xbdcd2e2e	-0.10018574
62	0x3daa88cb	0.083268724
63	0x3abe4318	0.0014515845
64	0x3e64a4c7	0.22328483
65	0x3e3756b7	0.17904173
66	0x3e505ce7	0.2034794
67	0x3e9c2d3c	0.3050326
68	0x3d7a5c86	0.061123393
69	0xbe4287da	-0.18997136
70	0xbe29e9d8	-0.1659311
71	0x3d00c53c	0.031438097
72	0xbdfb211d	-0.12262175
73	0xbe64b41a	-0.22334328
74	0x3d594344	0.053042665
75	0x3e878b92	0.2647367
76	0xbe2784e7	-0.16359292
77	0x3e316b45	0.17326076
78	0x3e7ebf0b	0.24877565
79	0xbca4e906	-0.020130645
80	0x3d6f0a6d	0.058359552
81	0xbe751b60	-0.23936224
82	0x3cabfcf5	0.020994643
83	0x3d8ba2c0	0.068181515
84	0xbe1f7b0c	-0.15574282
85	0x3eae14b0	0.34000158
86	0x3dd9a6e9	0.10627539
87	0xbd4928cf	-0.049111184
88	0xbea41b84	-0.32052243
89	0x3e01224a	0.12610736
90	0xbe258e0e	-0.16167471
91	0x3ea0d923	0.31415662
92	0x3e31f746	0.17379484
93	0xbd808a1b	-0.062763415
94	0xbee34d00	-0.44394684
95	0x3df271d3	0.118381165
96	0x3daa3b13	0.08312049
97	0xbed0faab	-0.40816244
98	0x3e5f7248	0.21820939
99	0x3e8be017	0.27319404
100	0xbeb4f4c0	-0.3534298
101	0xbe0dca9a	-0.13846818
102	0x3ebd138d	0.3692898
103	0x3e4b545e	0.19856402
104	0x3dc65ba9	0.096854515
105	0x3e2d4e4a	0.16924396
106	0x3da71b5c	0.08159515
107	0x3e7fd1db	0.24982397
108	0xbe1081f8	-0.14112079
109	0xbc8c6d1d	-0.017141873
110	0x3dbc1047	0.09182792
111	0xbdad78fb	-0.08470341
112	0x3cc1937b	0.023629894
113	0x3e0b8362	0.13624337
114	0x3df2390b	0.11827286
115	0x3dc58c32	0.09645881
116	0x3dacd0cf	0.084382646
117	0xbe1792f2	-0.14802149
118	0xbd9f7d2d	-0.07787547
119	0xbe53bd20	-0.20677614
120	0x3dfb509f	0.12271237
121	0x3eba23f7	0.36355564
122	0xbd4f6f07	-0.050642993
123	0x3eaaca2c	0.3335737
124	0x3dc7cf35	0.097563185
125	0x3d7a8d6d	0.06117003
126	0x3ec2f3d4	0.3807665
127	0xbca3bf44	-0.019988663
128	0x3d2ada80	0.041712284
129	0xbe70e31a	-0.23524132
130	0xbd982676	-0.07429211
131	0x3e3613f1	0.17781045
132	0xbec9d72b	-0.39421973
133	0x3dbbe55e	0.09174608
134	0x3e3af2bc	0.18256658
135	0x3e53e1af	0.2069156
136	0x3e6ed880	0.23324776
137	0xbcba54f1	-0.022745581
138	0x3dd24ab2	0.10268153
139	0x3b30271f	0.0026878787
140	0x3da75089	0.08169658
141	0xbe915613	-0.28385982
142	0xbec5aeb1	-0.3860984
143	0x3d78238a	0.060580768
144	0x3c81f6f5	0.015864829
145	0xbf27d295	-0.655557
146	0xbd9e7e5a	-0.077389434
147	0x3e255f2a	0.16149583
148	0x3ddd5e7d	0.10809038
149	0x3d0edc97	0.03487834
150	0x3d9ddb08	0.077077925
151	0xbe10237c	-0.14076036
152	0x3ca5e360	0.020250022
153	0xbba9e1c0	-0.005184382
154	0x3d95c7d6	0.07313506
155	0x3bca53a0	0.0061745197
156	0x3d73ed2c	0.059552357
157	0x3df89bce	0.121390924
158	0x3aad3e80	0.0013217479
159	0xbb2ae940	-0.002607897
160	0x3dcc6e10	0.0998193
161	0x3c87c568	0.016573623
162	0xbd061022	-0.03273023
163	0x3d543ac4	0.051813856
164	0x3b4747c0	0.0030407757
165	0x3db16c00	0.086631775
166	0xbd6a9c5c	-0.057278022
167	0x3e0b87b1	0.13625981
168	0xbda89a66	-0.08232574
169	0xbd02a65e	-0.03189694
170	0x3d8e26c8	0.06940991
171	0xbc808fc0	-0.015693545
172	0xbdfbead2	-0.12300648
173	0xbd91a145	-0.07110838
174	0x3e0f61e9	0.14002194
175	0x3e085821	0.13314869
176	0x3d7f6328	0.062350422
177	0xbd15777a	-0.036490895
178	0xbd3c4be0	-0.045970798
179	0x3de0e496	0.10981099
180	0x3dec1816	0.115280315
181	0xbdb2c32f	-0.087286346
182	0x3c65a210	0.0140156895
183	0xbd60e81e	-0.054908864
184	0xbe0b7c44	-0.13621622
185	0x3d0fb294	0.035082415
186	0xbd211cda	-0.039334156
187	0xbd86e469	-0.065865345
188	0x3de0fa4e	0.10985242
189	0x3dababe2	0.083823934
190	0x3dd99e2c	0.10625872
191	0x3ddcf8b8	0.10789627
192	0x3d12b7ec	0.035819933
193	0x3d9c6a52	0.076374665
194	0x3dd3ab00	0.1033535
195	0xbd221bba	-0.039577223
196	0xbe02eea5	-0.12786348
197	0x3d2bf0ac	0.04197757
198	0x3d97061c	0.07374212
199	0x3da6281c	0.08113119
200	0xbde4de72	-0.111752406
201	0xbde82e52	-0.1133696
202	0x3d48eefc	0.04905604
203	0xbe006ff9	-0.12542714
204	0x3db39038	0.08767742
205	0x3df7ac26	0.120933816
206	0x3c917670	0.01775667
207	0xbdb20234	-0.086918265
208	0xbd51417e	-0.05108785
209	0xbd70e41c	-0.058811292
210	0xb9ed1000	-0.00045216084
211	0xbce83c4c	-0.028349064
212	0x3d12a570	0.035802305
213	0x3daab7cc	0.08335838
214	0x3e075e9d	0.13219686
215	0x3b231740	0.0024885684
216	0xbd9c0624	-0.07618359
217	0xbdb2c276	-0.08728497
218	0x3db1c1a4	0.08679512
219	0x3e0998fb	0.13437264
220	0x3d6e859c	0.05823289
221	0xbcd70474	-0.02624724
222	0xbd12dec8	-0.035856992
223	0x3db76b4e	0.089560136
224	0x3d81d5c4	0.06339601
225	0x3b045800	0.0020194054
226	0xbd9d532e	-0.07681881
227	0xbdd257f2	-0.102706805
228	0xbdc214c6	-0.094766185
229	0x3ca18a58	0.019719288
230	0xbd0b6ae2	-0.03403748
231	0xbd379e4e	-0.044828705
232	0xbd2ef918	-0.042718023
233	0xbdb7793a	-0.08958669
234	0x3d90bd50	0.070673585
235	0x3e0a0d51	0.13481642
236	0xbdd027ee	-0.10163866
237	0x3e0a6e3d	0.13518615
238	0xbde71c18	-0.11284655
239	0xbcbf989c	-0.0233882
240	0xbddec0fe	-0.10876654
241	0x3d9c723a	0.076389745
242	0x3d4e83d4	0.05041869
243	0xbdc5c125	-0.0965598
244	0xbcc2e9a0	-0.023793042
245	0x3df26ebe	0.11837529
246	0xbd0dc504	-0.034611717
247	0x3cfb54f8	0.030680165
248	0xbdbaadbe	-0.0911517
249	0xbdafeed0	-0.08590472
250	0x3cd02890	0.025409967
251	0xbda92dd0	-0.08260691
252	0xbcb15fec	-0.021652184
253	0xbde9eb2e	-0.1142181
254	0xbdc9afea	-0.09848006
255	0x3c9e8f50	0.019355446

rnn.weight_hh_l0 f4 [200, 50]
0	0xbdf884a0	-0.12134671
1	0xbb439680	-0.0029844344
2	0xbd8cda6f	-0.068776004
3	0x3b013580	0.0019715726
4	0xbda652ec	-0.08121285
5	0x3cabadb8	0.020956859
6	0xbdee4fea	-0.11636336
7	0xbd848e29	-0.064724274
8	0x3c1494c0	0.009068668
9	0x3d82d62a	0.06388505
10	0xbdb69699	-0.08915443
11	0x3e0ef747	0.13961516
12	0xbdc539dc	-0.096301764
13	0x3dab2b88	0.08357912
14	0xbdce5694	-0.10075107
15	0xb90a8000	-0.0001320839
16	0xbd69c612	-0.05707366
17	0xbcd6efb0	-0.026237339
18	0x3d06559c	0.032796487
19	0xbc2fd190	-0.010731116
20	0x3c8a8600	0.0169096
21	0xbca65ea4	-0.0203088
22	0xbdae7c93	-0.085198544
23	0x3e0c9ac9	0.13730921
24	0xbe0f05d5	-0.13967068
25	0xbd35b47e	-0.044361584
26	0x3dcd3b38	0.10021061
27	0xbd0afc5c	-0.033932075
28	0xbcbdb4cc	-0.0231575
29	0x3d7aa5e0	0.061193347
30	0xbc4ec0e0	-0.012619227
31	0x3e05365d	0.13009019
32	0xbc563550	-0.013074234
33	0x3da8ed3a	0.082483724
34	0x3d5b09c4	0.05347611
35	0xbd2613c0	-0.04054618
36	0xbc520c40	-0.012820303
37	0xbd64ca10	-0.055856764
38	0xbd864379	-0.06555838
39	0x3d67acdc	0.056561336
40	0xbd986f90	-0.07443154
41	0x3e02a285	0.12757309
42	0xbe0059e1	-0.12534286
43	0xbe023a10	-0.12717462
44	0x3d04b01c	0.032394513
45	0xbdcec8bb	-0.1009688
46	0x3d85ce9a	0.06533547
47	0xbe0b954c	-0.13631171
48	0xbd8acc5b	-0.06777259
49	0x3d361828	0.04445663
50	0x3d134b4c	0.03596048
51	0xbd5fb428	-0.05461517
52	0x3c19b510	0.009381548
53	0xbd32de78	-0.043669194
54	0x3d20d238	0.03926298
55	0xbdd025a4	-0.101634294
56	0xbc966f60	-0.018363655
57	0x3da9191e	0.08256744
58	0xbe0fa230	-0.14026713
59	0xbe032f77	-0.12811075
60	0xbd8ebd6d	-0.06969724
61	0xbdbce7ba	-0.09223886
62	0x3dea6f62	0.11447026
63	0xbe09f991	-0.13474108
64	0xbd21fde4	-0.03954877
65	0xbdf25488	-0.11832529
66	0x3de098ea	0.10966666
67	0x3d26a608	0.040685683
68	0x3da50b32	0.08058776
69	0x3e0e9799	0.13925017
70	0x3cd93970	0.026516646
71	0x3c342080	0.010994077
72	0xbde01e05	-0.10943226
73	0xbc4563b0	-0.012047693
74	0x3d235864	0.039879218
75	0x3c6af6c0	0.014341056
76	0xbd9a1648	-0.07523781
77	0xbde8db43	-0.11369946
78	0xbe039df5	-0.12853225
79	0xbdebf73c	-0.115217656
80	0xbd29bee6	-0.04144182
81	0x3daaf478	0.0834741
82	0xbde9af62	-0.11410405
83	0xbe05c8d1	-0.13064887
84	0xbe1023c1	-0.14076139
85	0x3da53d5a	0.080683425
86	0xbe067272	-0.13129595
87	0x3ca48a00	0.020085335
88	0x3d36a1a8	0.04458776
89	0xbca2ce40	-0.019873738
90	0x3de2dfc2	0.11077835
91	0xbdceac42	-0.10091449
92	0xbc4f8ce0	-0.012667865
93	0x3c3a15f0	0.011357769
94	0xbb843c80	-0.0040355325
95	0x3c97ece0	0.018545568
96	0x3d30da0c	0.043176696
97	0x3e0ab6eb	0.1354634
98	0x3dc97df2	0.09838475
99	0xbcf028d8	-0.02931635
100	0xbded62d0	-0.115911126
101	0x3d628800	0.05530548
102	0xbd918b9d	-0.07106707
103	0x3cc2b140	0.02376616
104	0xbc92ad5c	-0.01790493
105	0x3e01d97b	0.12680618
106	0xbd97c7d0	-0.07411158
107	0xbd58581c	-0.052818403
108	0xbddd969a	-0.108197406
109	0xbcabcaa8	-0.020970657
110	0x3d3ec038	0.046570033
111	0xbe0f2671	-0.13979508
112	0x3e07f8d3	0.13278513
113	0x3d0a1d44	0.033719316
114	0x3df4d4f6	0.119546816
115	0xbcdd86a4	-0.02704174
116	0x3dcb7396	0.09934156
117	0x3ddc9974	0.10771456
118	0x3d84c3ec	0.06482682
119	0x3df03fb6	0.11730902
120	0xba75d000	-0.0009377003
121	0x3da3a9d4	0.079913765
122	0xbcfb99a8	-0.030712917
123	0x3db6084a	0.088883
124	0xbd60b0b8	-0.054856032
125	0xbd691b02	-0.056910522
126	0x3de47cc6	0.11156611
127	0xbd2821aa	-0.04104773
128	0x3cdb5e08	0.026778236
129	0x3e0645d1	0.1311257
130	0x3d69f07c	0.05711411
131	0x3d321ebc	0.04348634
132	0x3d4e30f8	0.05033967
133	0x3e077a3d	0.13230224
134	0xbaaa9400	-0.0013014078
135	0xbcf73e30	-0.03018102
136	0xbcc53960	-0.02407521
137	0x3d928a28	0.071552575
138	0xbcb22df0	-0.02175042
139	0xbde18e85	-0.110135116
140	0x3ca36520	0.019945681
141	0x3dfb813a	0.122805074
142	0xbda27fae	-0.07934509
143	0x3e023d49	0.12718691
144	0xbd1431ce	-0.03618031
145	0x3d8649fa	0.06557079
146	0x3dbcbe6a	0.09216006
147	0x3c0b1240	0.008488238
148	0xbdcf6dbe	-0.101283535
149	0x3d244970	0.040109098
150	0x3b2cf240	0.002638951
151	0xbbc90e00	-0.006135702
152	0x3cecde80	0.02891469
153	0xbdae5f9c	-0.0851433
154	0xbcb2ee90	-0.021842271
155	0xbe05bf95	-0.13061364
156	0xbdfdb621	-0.12388254
157	0xbd8823c9	-0.066474505
158	0xbda6d598	-0.081462085
159	0x3d8168be	0.06318806
160	0xbdb6288a	-0.08894451
161	0x3d5fa8fc	0.054604515
162	0xbc8920b4	-0.016739227
163	0x3ddc2506	0.10749249
164	0xbcc3edfc	-0.02391719
165	0xbdcb533a	-0.099279836
166	0xbdbdaa2c	-0.09260973
167	0x3e05ede3	0.13079028
168	0x3c90c4c0	0.017671943
169	0x3bf24a00	0.0073940754
170	0x3d450524	0.048100606
171	0x3d106530	0.03525275
172	0xbe0af532	-0.13570097
173	0x3d70b3a8	0.058765084
174	0xbdcd9754	-0.10038629
175	0xbd59e7f0	-0.05319971
176	0xbdccfd62	-0.100092664
177	0x3d72dcec	0.05929272
178	0x3dfb679e	0.12275623
179	0x3df476de	0.119367346
180	0xbdc172b6	-0.094457075
181	0xbdd9b252	-0.10629715
182	0x3c9313d8	0.017953798
183	0x3da916fe	0.082563385
184	0xbe05c95f	-0.13065098
185	0xbdfd7470	-0.12375724
186	0xbdaece65	-0.085354604
187	0x3e0041db	0.12525122
188	0xbcfe9254	-0.031075634
189	0x3d4797cc	0.04872875
190	0xbd9f407e	-0.07775973
191	0xbd8edb0b	-0.06975373
192	0xbcd6a598	-0.026202008
193	0x3dd5bb5c	0.104361266
194	0xbd9eb70c	-0.07749757
195	0x3d9f33d6	0.07773559
196	0xbdbeeec6	-0.09322886
197	0xbdc0a7e6	-0.09407024
198	0x3d8c2ee8	0.06844884
199	0xbcbda2e0	-0.023148954
200	0x3a3cde00	0.00072047114
201	0xbe0d0141	-0.1377001
202	0x3d991012	0.07473768
203	0xbdbe753a	-0.09299703
204	0x3cec1380	0.028817892
205	0xbcc82cd8	-0.024435446
206	0x3d1f40c0	0.03888011
207	0xbcac0348	-0.020997658
208	0xbd0c3616	-0.034231268
209	0xbdddfa9a	-0.10838814
210	0xbd85ee42	-0.06539585
211	0xbbeb84e0	-0.007187471
212	0xbd955694	-0.07291904
213	0xbdc28b68	-0.09499246
214	0x3d573a9c	0.05254613
215	0xbe02fcca	-0.12791744
216	0x3d129f4c	0.03579645
217	0x3dfc8fd2	0.12332119
218	0xbcdde14c	-0.027084969
219	0x3d4d27ec	0.0500869
220	0x3c29c970	0.010362968
221	0xbe0803ba	-0.13282672
222	0xbd31ca34	-0.043405727
223	0x3c8df1b8	0.017327175
224	0xbdeaee41	-0.114712246
225	0xbd67d098	-0.056595415
226	0x3ca22010	0.01979068
227	0x3dd716ba	0.105023816
228	0xbd2c1f30	-0.04202193
229	0xbd46fa4c	-0.048578545
230	0x3d574a4c	0.05256109
231	0xbe044a88	-0.12919056
232	0x3db39e68	0.08770448
233	0x3d2bf4f0	0.041981637
234	0x3d727bfc	0.059200272
235	0xbb099a40	-0.0020996481
236	0x3d29e3c8	0.041476995
237	0x3d50b3bc	0.050952658
238	0x3d7db2a0	0.06193793
239	0xbdaeb5ba	-0.08530755
240	0x3d96fdd6	0.07372634
241	0x3dbb77c2	0.09153701
242	0xbded93a5	-0.116004266
243	0xbd2b453c	-0.041814074
244	0xbd98391e	-0.07432769
245	0x3db086fa	0.08619495
246	0x3dac9a20	0.084278345
247	0xbda151ce	-0.07876931
248	0xbdb6a846	-0.08918814
249	0xbcde28ec	-0.027119122
250	0xbd8ce677	-0.06879895
251	0xbd92a1cf	-0.07159769
252	0xbdff0e5a	-0.12453909
253	0x38583000	5.1543117e-05
254	0x3d474f50	0.048659623
255	0xbe0aa9f6	-0.13541397

rnn.bias_ih_l0 f4 [200]
0	0x3c9b34b0	0.018946022
1	0x3dc8bd42	0.09801723
2	0xbd004ac3	-0.0313213
3	0xbdbc1af9	-0.09184832
4	0x3e1fccb2	0.15605429
5	0xbe797974	-0.24362737
6	0x3e6a060f	0.22853874
7	0x3e027dd7	0.12743317
8	0x3e96f3e1	0.2948294
9	0x3b83f53a	0.004027036
10	0x3e1e3105	0.15448387
11	0xbb51640b	-0.00319505
12	0xbcaae01c	-0.020858817
13	0xbe30308b	-0.17206018
14	0x3db0dcc9	0.086358614
15	0xbcb6bb4d	-0.022306109
16	0x3def4c24	0.116844445
17	0x3e31fbc5	0.17381199
18	0x3dde137c	0.1084356
19	0xbe444bf5	-0.191696
20	0xbe5c6e16	-0.2152637
21	0xbd0d96ab	-0.034567516
22	0x3d808e53	0.06277146
23	0x3e79c761	0.24392463
24	0x3bc04d5f	0.0058685984
25	0x3ed52841	0.41632274
26	0x3dae9290	0.08524048
27	0x3d9c1b8a	0.0762244
28	0x3e6ec2cb	0.23316495
29	0x3eddec0e	0.43344158
30	0x3eaf066a	0.3418458
31	0xbd46f85a	-0.04857669
32	0xbd868551	-0.06568397
33	0xbcfb26f7	-0.030658228
34	0x3e9cc1d1	0.3061662
35	0xbc8a6eef	-0.0168986
36	0x3de34f2a	0.11099084
37	0x3e855373	0.2604023
38	0x3dff3db9	0.124629445
39	0xbd899930	-0.06718671
40	0x3e4cdf45	0.20007046
41	0x3d3a771a	0.04552374
42	0xbe4685dd	-0.19387002
43	0xbc9ee490	-0.019396096
44	0x3e235404	0.15950018
45	0x3d8475c2	0.06467773
46	0x3e6e2524	0.23256356
47	0x3a8b2a0a	0.0010617387
48	0x3d8949b2	0.067035094
49	0x3e0218bb	0.12704746
50	0xbddfaaf7	-0.10921281
51	0x3da69b60	0.08135104
52	0x3db3db42	0.087820545
53	0x3cda08d8	0.026615545
54	0x3e01feeb	0.126949
55	0x3e04f7d1	0.1298516
56	0xbda9c60c	-0.082897276
57	0xbdf0a59c	-0.117503375
58	0xbcb598d8	-0.022167608
59	0xbb96f000	-0.004606247
60	0xbdd567d8	-0.10420197
61	0x3cf5c588	0.030001417
62	0xbe082d13	-0.13298444
63	0x3c2871e0	0.010281056
64	0x3dcfe150	0.10150397
65	0xbdca8bba	-0.09889932
66	0xba908e00	-0.0011028647
67	0x3e0f4fc3	0.1399527
68	0xbd0ffe34	-0.035154536
69	0xbe107d5f	-0.14110325
70	0x3dbd91e8	0.09256345
71	0x3de9e6e6	0.114209935
72	0x3c626e70	0.013820276
73	0x3db87ad0	0.090077996
74	0x3e058859	0.13040294
75	0x3d84f642	0.064922825
76	0x3ba009a0	0.00488396
77	0xbcbb8bbc	-0.022893779
78	0x3d7ce680	0.06174326
79	0x3d2afcf4	0.04174514
80	0x3d8ec662	0.06971432
81	0xbdc15afd	-0.09441183
82	0x3de43a6a	0.11143954
83	0x3d3af7a8	0.04564634
84	0xbc187620	-0.009305507
85	0xbd0e33d2	-0.03471739
86	0xbba6be80	-0.0050886273
87	0x3df0fb4e	0.117666826
88	0xbdea67f5	-0.114456095
89	0xbd653e66	-0.05596771
90	0x3adb2480	0.0016719252
91	0xbdf471a7	-0.1193574
92	0x3e0c6b53	0.13712816
93	0x3e01095d	0.12601228
94	0x3daa7d74	0.083247095
95	0xbddbee7a	-0.10738845
96	0xbdc9d2d8	-0.098546684
97	0x3e077953	0.13229875
98	0x3daba83c	0.083816975
99	0xbdbba2ad	-0.09161887
100	0xbe0cc67b	-0.1374759
101	0xbe845969	-0.25849465
102	0x3df189d3	0.11793866
103	0x3e82fd3a	0.25583822
104	0xbd2b815c	-0.041871414
105	0xbe4c854d	-0.19972725
106	0xbeb2bcc1	-0.34909633
107	0xbe86c070	-0.26318693
108	0x3e0e2246	0.13880262
109	0xbcfd08cd	-0.030887986
110	0xbe6e5caa	-0.23277536
111	0x3d2fb8f3	0.04290099
112	0x3d9a51d1	0.075351365
113	0x3e25a9cd	0.16178055
114	0xbe2984d9	-0.16554584
115	0x3e12f4ad	0.14351149
116	0x3d854140	0.06506586
117	0xbe17b366	-0.14814529
118	0xbdc67ec4	-0.096921474
119	0xbe2e8348	-0.17042267
120	0xbda3e0f5	-0.080018915
121	0x3e1e6be2	0.15470842
122	0xbe736cba	-0.23771945
123	0xbe20fb7d	-0.15720935
124	0xbeb13dd8	-0.34617496
125	0xbea6c8a5	-0.32574955
126	0xbe523f91	-0.20532061
127	0x3d8dd08c	0.06924543
128	0xbdd85234	-0.10562554
129	0xbe8a8940	-0.27057838
130	0xbeac8b22	-0.336999
131	0x3e8d2208	0.27565026
132	0xbee18450	-0.4404626
133	0x3e2a741c	0.16645855
134	0xbd6b2a8d	-0.057413626
135	0x3e6b74c7	0.22993766
136	0xbddc7de1	-0.10766197
137	0x3df03f12	0.1173078
138	0x3deb9276	0.115025446
139	0xbe62b310	-0.2213862
140	0x3e7a3d98	0.24437559
141	0x3d5dd9ad	0.05416267
142	0x3de33263	0.11093595
143	0xbbdd043d	-0.00674489
144	0xbded43dc	-0.11585209
145	0x3e3da985	0.18521698
146	0x3d84395a	0.064562514
147	0x3d6cd666	0.057821654
148	0x3ec850e5	0.39124218
149	0xbe0d2c5b	-0.13786452
150	0x3e49048e	0.19630644
151	0x3dd3d8b4	0.10344067
152	0x3db18680	0.08668232
153	0xbcfdcd57	-0.030981703
154	0x3d274f02	0.040846832
155	0xbe51ebbf	-0.20500086
156	0x3dd99464	0.106240064
157	0x3e8b611b	0.27222523
158	0x3e8b5ef6	0.27220887
159	0xbe1e5fb8	-0.15466201
160	0xbdc03060	-0.09384227
161	0xbcb366a8	-0.021899536
162	0xbd5323b6	-0.05154773
163	0xbe4aedd3	-0.19817285
164	0x3dbc74e2	0.09201981
165	0xbd414735	-0.04718705
166	0x3df17de9	0.117915936
167	0x3e759dc8	0.2398597
168	0x3cf709f7	0.030156119
169	0x3ba6d2e1	0.0050910567
170	0xbe720102	-0.23633197
171	0xbc8ad279	-0.016946064
172	0x3d43d4e1	0.04781044
173	0x3e861535	0.26188055
174	0x3d50cc34	0.050975993
175	0x3ea7b916	0.32758397
176	0xbe028f78	-0.12750041
177	0xbdcdb31e	-0.100439295
178	0x3e898e16	0.26866215
179	0x3e86d76d	0.26336232
180	0xbe911d98	-0.2834289
181	0x3d4b5f59	0.049651477
182	0xbc46a57f	-0.012124418
183	0x3dac9401	0.08426667
184	0x3df2d197	0.11856382
185	0xbd5c90ea	-0.05384914
186	0xbd406ab8	-0.046976775
187	0x3df38b92	0.11891855
188	0x3e3ffed1	0.18749548
189	0x3df23c58	0.11827916
190	0x3e0ea381	0.1392956
191	0x3e44226e	0.19153759
192	0xbe51f5da	-0.20503941
193	0x3e07699f	0.13223885
194	0x3d4062c9	0.04696921
195	0x3e75cb3d	0.2400331
196	0x3d113178	0.035447568
197	0x3e660e9c	0.2246651
198	0x3dffe317	0.12494486
199	0x3dcb8fd7	0.09939545

rnn.bias_hh_l0 f4 [200]
0	0xbdb7e761	-0.08979679
1	0x3e2fa6a5	0.17153414
2	0xbdedb81f	-0.11607384
3	0xbdbe86bc	-0.09303042
4	0x3d996478	0.07489866
5	0xbe5cff4d	-0.21581765
6	0x3e09841e	0.13429305
7	0x3dd04e8b	0.10171231
8	0x3e6f7c57	0.23387276
9	0xbc1ad29b	-0.009449626
10	0x3da4c4df	0.08045363
11	0x3cd9854a	0.026552815
12	0xbdaec1e3	-0.08533075
13	0xbde288ae	-0.11061226
14	0x3e0fc21e	0.14038894
15	0xbe1d5f42	-0.15368369
16	0x3cb07c21	0.021543564
17	0x3e686a3f	0.2269678
18	0x3c6eaa1d	0.014566925
19	0xbcfa16d8	-0.03052847
20	0xbda41d00	-0.08013344
21	0x3d7391ab	0.05946509
22	0xbd74a683	-0.05972911
23	0x3eb4e574	0.3533131
24	0x3e1dd751	0.15414168
25	0x3e9d65d5	0.30741754
26	0xbd7685ae	-0.06018608
27	0x3c15f999	0.009153747
28	0x3e05fe87	0.13085376
29	0x3eedfca5	0.46481815
30	0x3eab3b49	0.33443668
31	0xbe07cd6a	-0.13261953
32	0xbdb9cd36	-0.09072344
33	0xbd7a4882	-0.061104305
34	0x3e1c6646	0.15273389
35	0x3e63e066	0.2225357
36	0xbd079b4b	-0.033107083
37	0x3e1d7645	0.15377147
38	0x3d63c4bd	0.055607546
39	0xbd47e5ea	-0.048803248
40	0x3e237db0	0.15965915
41	0x3d23362b	0.03984658
42	0xbe51eb22	-0.20499852
43	0x3e026df4	0.12737256
44	0x3c775aa2	0.015097292
45	0xbba27189	-0.004957382
46	0x3e0bff6e	0.13671657
47	0xbd337897	-0.043816175
48	0xbdce6754	-0.10078302
49	0x3dfd8be5	0.123801984
50	0x3da1f5c2	0.07908203
51	0x3c764e40	0.015033305
52	0x3dac269c	0.08405802
53	0x3cf10448	0.029420987
54	0x3d2cad78	0.04215762
55	0xbd07dc56	-0.033169113
56	0xbd65b0fc	-0.05607699
57	0x3c152190	0.00910224
58	0xbdd9f6fe	-0.10642813
59	0xbc1c3590	-0.009534255
60	0xba2f9c00	-0.0006698966
61	0x3d4e3ad8	0.050349087
62	0xbe05b9c4	-0.13059145
63	0xbd8644b6	-0.06556074
64	0x3da12420	0.078682184
65	0x3d6584c4	0.05603482
66	0xbccdd878	-0.025127634
67	0xbd992a7d	-0.07478807
68	0xbdb6afca	-0.08920248
69	0x3d7c341c	0.061573133
70	0xbd10f564	-0.035390273
71	0xbdeea76d	-0.11653028
72	0xbd3ac6ac	-0.045599625
73	0xbdac3c66	-0.084099576
74	0xbd8487f5	-0.06471244
75	0x3e102093	0.14074926
76	0x3ddb5330	0.10709226
77	0x3dbd3bc0	0.09239912
78	0x3dc4b83e	0.09605454
79	0xbcab6164	-0.020920463
80	0x3d5fe2a0	0.054659486
81	0xbd9b22f4	-0.07575026
82	0x3db0719a	0.08615418
83	0x3bf9e780	0.007626474
84	0xbdda0e0b	-0.1064721
85	0x3c8289e8	0.0159349
86	0xbd6d1d44	-0.057889238
87	0xbe0149a2	-0.12625745
88	0x3e05bba1	0.13059856
89	0xbda353e6	-0.07974987
90	0x3c8da220	0.017289221
91	0xbd519f8a	-0.05117754
92	0x3dbd17f2	0.09233083
93	0x3bf8e1c0	0.007595271
94	0xbd8d780a	-0.06907661
95	0x3d8d09de	0.06886648
96	0x3e0e4d8f	0.13896774
97	0x3c56b910	0.013105646
98	0x3d96025c	0.07324669
99	0xbdd4a194	-0.10382381
100	0xbdc945ca	-0.09827764
101	0xbe8bb371	-0.2728534
102	0x3e3d224e	0.18470117
103	0x3e3c7410	0.1840365
104	0xbe575f65	-0.21032484
105	0xbdef95d5	-0.116985
106	0xbe1bacff	-0.15202712
107	0xbe279564	-0.16365582
108	0x3e8ddb76	0.27706498
109	0xbe85a92d	-0.26105633
110	0xbe939976	-0.2882802
111	0xbd730b5c	-0.059337005
112	0x3da22f77	0.079192095
113	0x3db29688	0.08720118
114	0x3add1a85	0.0016868865
115	0x3e73ee35	0.23821338
116	0xbd008074	-0.031372502
117	0xbdb056a8	-0.08610278
118	0xbdaef039	-0.085419126
119	0xbe40c5d2	-0.18825462
120	0xbe48f286	-0.19623765
121	0x3d6f8e08	0.05848506
122	0xbda8a38c	-0.08234319
123	0xbe0529f4	-0.13004285
124	0xbea80230	-0.3281417
125	0xbeb69945	-0.3566381
126	0xbdd39c7d	-0.10332582
127	0x3e4e8953	0.20169573
128	0x3c900f79	0.017585503
129	0xbdbf663f	-0.09345674
130	0xbeaf480c	-0.34234655
131	0x3d3ae0ab	0.045624416
132	0xbe602281	-0.21888162
133	0x3d6569be	0.056009047
134	0x3d4477a5	0.047965664
135	0x3e76d0f2	0.24103144
136	0x3dc9db98	0.09856337
137	0x3dc26d05	0.0949345
138	0x3dd9408e	0.10608016
139	0xbd243192	-0.040086336
140	0x3e09f762	0.13473275
141	0x3d9e1fd1	0.07720912
142	0x3de23412	0.11045088
143	0x3e27f02c	0.16400212
144	0xbe77a6d1	-0.24184729
145	0x3e2a26a2	0.166163
146	0x3d89572c	0.0670608
147	0x3cea6d28	0.028616503
148	0x3f017ee3	0.5058424
149	0xbd483aab	-0.048884075
150	0x3e7e9705	0.24862297
151	0x3ebaed5c	0.36509216
152	0x3d518587	0.051152732
153	0x3ba372ca	0.004988049
154	0xbc773d0e	-0.01509024
155	0xbe2a4a60	-0.16629934
156	0x3e460b0e	0.19340155
157	0x3e712c33	0.23552017
158	0x3e968d5b	0.2940472
159	0x3d316f93	0.043319296
160	0xbcb8b2b1	-0.022546144
161	0x3e4d115d	0.20026155
162	0x3c92e080	0.017929316
163	0xbe593646	-0.2121211
164	0x3e22a1a7	0.15881978
165	0xbe6ef600	-0.23336029
166	0x3d8d1ad5	0.068898834
167	0x3e87c93c	0.26520717
168	0x3d5a1516	0.053242765
169	0x3c0ea145	0.008705442
170	0xbe5cb4c5	-0.21553333
171	0x3d95eb19	0.07320232
172	0xbc972a32	-0.018452737
173	0x3e203789	0.15646185
174	0xbdb43579	-0.087992616
175	0x3ee6e476	0.45096177
176	0xbe39d2e0	-0.18146849
177	0x3b6e2bc5	0.0036342007
178	0x3eb8645a	0.36014062
179	0x3eb5bcb8	0.35495543
180	0xbe96a92a	-0.29425937
181	0xbd8a9252	-0.0676619
182	0xbe16e16a	-0.14734426
183	0x3d96ff00	0.07372856
184	0x3d964352	0.07337059
185	0x3d41690c	0.04721932
186	0xbc124883	-0.008928421
187	0x3dc21b2a	0.094778374
188	0x3e246730	0.16054988
189	0x3dabc819	0.08387775
190	0x3e2a1d02	0.16612628
191	0x3d6371d5	0.05552848
192	0xbebff5f0	-0.37492323
193	0x3e003d3a	0.12523356
194	0xbb91d86b	-0.004450848
195	0x3e4ef022	0.20208791
196	0x3e406306	0.18787774
197	0x3e0fa60a	0.14028183
198	0xbca55a17	-0.02018456
199	0x3de6fe02	0.11278917

rnn.weight_ih_l1 f4 [200, 50]
0	0x3ee57057	0.4481227
1	0x3d9540e2	0.07287766
2	0xbee6a26d	-0.45045796
3	0xbe86ac4e	-0.26303333
4	0x3e346923	0.17618231
5	0x3ea1f6c1	0.3163357
6	0x3ea77f0d	0.3271412
7	0x3e765024	0.24054009
8	0xbe909042	-0.2823506
9	0xbe9f0752	-0.31060272
10	0x3e3bb5b4	0.18331033
11	0x3dc5ff95	0.09667889
12	0xbe0dfa15	-0.1386493
13	0x3f00b4f8	0.50276136
14	0x3e01680e	0.1263735
15	0xbebf88e3	-0.37409124
16	0xbe933a8c	-0.28755605
17	0x3d9b23e6	0.075752065
18	0xbc8de1aa	-0.01731952
19	0xbe6d6524	-0.23183113
20	0xbddcd2df	-0.10782408
21	0x3ea6a762	0.32549578
22	0xbd81668e	-0.06318389
23	0x3dd93f5f	0.1060779
24	0x3e447937	0.19186865
25	0x3ebbc61d	0.36674586
26	0x3f12f54f	0.5740556
27	0xbd67f958	-0.056634277
28	0x3eedd474	0.4645115
29	0x3e1f61b7	0.15564619
30	0x3f038ecb	0.5138976
31	0xbef2c765	-0.4741775
32	0x3f1ea149	0.6196485
33	0x3e434015	0.19067414
34	0xbe4b73e8	-0.19868433
35	0xbef48ccd	-0.47763672
36	0x3e9b05ac	0.30277765
37	0xbdc0b25e	-0.09409021
38	0xbeb65eda	-0.3561924
39	0x3d2e24c5	0.042515535
40	0x3e1d9bc4	0.15391451
41	0xbec9fa45	-0.39448753
42	0xbe42062b	-0.18947665
43	0xbea33a21	-0.31880286
44	0x3df64ea7	0.120267205
45	0x3e2de85a	0.16983166
46	0x3e3cd33e	0.18439957
47	0xbe8fba38	-0.2807176
48	0xbe6bef04	-0.23040396
49	0x3ee950b4	0.45569384
50	0x3ebb75c0	0.36613274
51	0x3e2da0f1	0.16955926
52	0xbd4bf88c	-0.04979758
53	0x3dadafff	0.08480834
54	0xbec486f9	-0.38384226
55	0xbe2ed851	-0.17074706
56	0x3f192fe0	0.59838676
57	0xbd865e70	-0.06560981
58	0xbf049d9e	-0.51803005
59	0x3c860087	0.016357673
60	0x3ed47f98	0.41503596
61	0x3e832765	0.25615993
62	0x3ddd0f75	0.10793964
63	0xbe7a86a8	-0.2446543
64	0x3f00eda6	0.5036262
65	0xbe5d7db5	-0.21629985
66	0x3ed6dbeb	0.4196466
67	0x3b96df93	0.004604289
68	0x3e9bbc8c	0.30417287
69	0x3e381654	0.17977268
70	0xbec65569	-0.38737038
71	0x3dc140b3	0.094361685
72	0x3eb395a6	0.3507511
73	0xbe39629d	-0.18104024
74	0xbe13839e	-0.14405677
75	0x3e8a3d39	0.26999834
76	0x3f1cd0b7	0.61255974
77	0xbdab525d	-0.08365319
78	0x3e69d46c	0.22834939
79	0x3edca452	0.43094116
80	0xbe56056a	-0.20900503
81	0x3e6c72f1	0.23090722
82	0xbdf7af5c	-0.12093994
83	0xbf29c3b1	-0.66314226
84	0x3ddd8fe8	0.108184636
85	0xbf1b6e5b	-0.60715264
86	0x3e7ba3e1	0.24574234
87	0x3cb8bd89	0.022551315
88	0xbe653d72	-0.22386721
89	0x3e82c28e	0.25539058
90	0x3e411f9c	0.18859714
91	0xbe8a1154	-0.26966345
92	0xbe8156de	-0.25261587
93	0x3cfe09b6	0.03101049
94	0xbcf797fb	-0.030223837
95	0xbf29892a	-0.6622492
96	0xbe2094e5	-0.15681799
97	0xbe4086d4	-0.18801433
98	0xbe1fa763	-0.15591197
99	0x3e8c6cf4	0.27426875
100	0xbdce744d	-0.10080776
101	0x3f285303	0.65751666
102	0xbf2fd0f0	-0.6867819
103	0xbf0d448a	-0.5518271
104	0x3e8c68cb	0.274237
105	0xbecb8129	-0.3974698
106	0xbdc41497	-0.0957424
107	0x3ebfd71c	0.37468803
108	0xbe7d41ba	-0.24732104
109	0x3e8c8bde	0.2745046
110	0xbd2b1d6d	-0.04177611
111	0xbe98bb87	-0.29830572
112	0x3ee751eb	0.45179686
113	0x3e8ab4aa	0.2709096
114	0xbf04230e	-0.5161599
115	0xbec1fa5b	-0.3788632
116	0x3de03078	0.10946745
117	0x3f4bffda	0.79687274
118	0xbecbac19	-0.39779738
119	0x3bf6c7f1	0.007531159
120	0xbdef5fe9	-0.11688215
121	0xbe5f0b51	-0.2178166
122	0xbd21b094	-0.03947504
123	0x3eebd951	0.46064237
124	0xbe56359b	-0.20918886
125	0xbe15064e	-0.14553186
126	0xbe699789	-0.22811712
127	0xbf0741f1	-0.52834994
128	0xbd44b5c6	-0.048024915
129	0xbdc92a24	-0.09822491
130	0x3e97ef74	0.29674876
131	0xbf105555	-0.56380206
132	0x3f0ef83e	0.5584754
133	0x3d9561a5	0.07294015
134	0xbda4fb07	-0.08055692
135	0xbd354955	-0.044259388
136	0x3f0e2dd9	0.5553871
137	0x3f0ab9cd	0.5418976
138	0x3e86ab79	0.26302698
139	0xbd2d8e12	-0.042371817
140	0xbe4e72b2	-0.2016094
141	0x3de941dc	0.11389515
142	0xbe29c94d	-0.16580696
143	0xbf24dfc1	-0.6440392
144	0x3f376106	0.7163242
145	0xbe002dea	-0.12517515
146	0xbd31ea19	-0.043436144
147	0xbe63e301	-0.22254564
148	0x3ce150b4	0.027504303
149	0xbbda66df	-0.006665095
150	0xbd0b5ed6	-0.03402599
151	0xbe3c27e6	-0.18374595
152	0xbe925329	-0.2857907
153	0xbea12e7b	-0.31480774
154	0xbe047eea	-0.12939039
155	0x3ec939b3	0.39301834
156	0x3f235c92	0.63813126
157	0xbdee5ee1	-0.116391905
158	0x3d3896ca	0.04506568
159	0x3ec3e9b8	0.3826425
160	0xbe85b054	-0.2611109
161	0xbe8144c2	-0.2524777
162	0xbed04d4f	-0.40683982
163	0xbf37127f	-0.715126
164	0x3f1b0a0d	0.6056221
165	0xbead4f99	-0.3384979
166	0x3e1d03d2	0.15333489
167	0xbe899728	-0.26873136
168	0xbdb6d3d7	-0.08927124
169	0x3de812ae	0.11331688
170	0xbe187e32	-0.1489189
171	0xbe8612ff	-0.26186368
172	0xbe03800a	-0.12841812
173	0xbe832f68	-0.25622106
174	0x3e9b6743	0.3035222
175	0x3f14566e	0.5794438
176	0x3ef6f4f0	0.48233747
177	0xbea27d30	-0.31736135
178	0x3e64d694	0.2234748
179	0xbd486ac2	-0.048929937
180	0x3e0f5e4e	0.14000818
181	0xbe05e9ac	-0.1307742
182	0x3eb6df48	0.35717225
183	0xbf172fc1	-0.5905724
184	0xbd6b8b53	-0.057505917
185	0xbef43e6e	-0.4770388
186	0xbe0f81da	-0.14014378
187	0x3e0aab23	0.13541846
188	0x3ad0f812	0.0015943071
189	0x3d0b4587	0.034001853
190	0xbed1ca1a	-0.40974504
191	0xbe243014	-0.16033965
192	0x3e2fced9	0.1716875
193	0xbe59097f	-0.21195029
194	0x3edb6def	0.4285731
195	0xbe00f962	-0.12595132
196	0xbe941c68	-0.28927922
197	0x3dabf886	0.083970115
198	0xbedee5dd	-0.43534747
199	0x3d1fbb09	0.03899673
200	0x3e1e9461	0.1548629
201	0xbe783982	-0.24240687
202	0xbd0b5aac	-0.03402202
203	0x3eff059d	0.4980897
204	0xbe6f0378	-0.23341167
205	0xbd6d662c	-0.057958767
206	0x3d35d157	0.044389095
207	0x3e3c7969	0.1840569
208	0x3eb748f0	0.35797834
209	0xbe83e6d2	-0.2576204
210	0x3d5f1766	0.054465674
211	0xbe2ad50c	-0.16682833
212	0xbc8470ef	-0.016167132
213	0xbd8dfd0b	-0.0693303
214	0x3c667ec3	0.014068308
215	0xbe04249d	-0.12904592
216	0xbeda7b4e	-0.426722
217	0xbc5eedcd	-0.013606501
218	0xbdfd447f	-0.1236658
219	0xbc810ebe	-0.0157541
220	0xbea02b3d	-0.31282988
221	0x3e9c80a3	0.30566892
222	0x3bb6e234	0.0055811647
223	0x3cab127f	0.020882843
224	0xbcdd8629	-0.027041512
225	0x3ea925f4	0.33036768
226	0x3dcffe92	0.10155977
227	0x3df9d9f4	0.121997744
228	0xbe101773	-0.14071445
229	0xbe7b0605	-0.24514015
230	0x3e1695f6	0.14705643
231	0x3e93b5c1	0.28849605
232	0xbd95188c	-0.072800726
233	0x3e9e3c50	0.3090539
234	0x3ada5e2a	0.0016660143
235	0xbd8d29ea	-0.0689276
236	0x3e45bb63	0.19309764
237	0x3e28268e	0.16420957
238	0x3d90877f	0.07057094
239	0xbe42eb07	-0.19034968
240	0xbdfa5f9e	-0.12225269
241	0xbe2babd4	-0.16764766
242	0x3db9ed8f	0.09078514
243	0x3e58af9b	0.21160738
244	0xbdef31a4	-0.1167939
245	0x3cf22f05	0.029563436
246	0x3dbf48c0	0.09340048
247	0x3ec185b8	0.37797332
248	0xbe12de77	-0.14342676
249	0x3e6e9028	0.23297179
250	0x3c7dc452	0.015488701
251	0x3c0e7ea6	0.0086971875
252	0xbeb25c2d	-0.3483595
253	0xbe68f53b	-0.22749798
254	0x3e2f5510	0.17122293
255	0xbcdf5c97	-0.02726583

rnn.weight_hh_l1 f4 [200, 50]
0	0x3d7c1f38	0.06155321
1	0xbe104035	-0.14086993
2	0xbe0d0881	-0.13772775
3	0xbd4d9248	-0.050188333
4	0x3d728970	0.059213102
5	0x3d82558a	0.063639715
6	0xbdab2b72	-0.08357896
7	0x3d178478	0.036991566
8	0x3df3437a	0.118781045
9	0x3dd213fe	0.102577195
10	0x3d9c7a02	0.07640459
11	0xbdbc4558	-0.09192914
12	0x3dd611a4	0.104525834
13	0x3cc6eef8	0.024283871
14	0x3de7ad16	0.113123104
15	0x3df6dcca	0.12053831
16	0x3d616e10	0.055036604
17	0x3e051a1d	0.12998243
18	0xbd8eed1a	-0.06978817
19	0x3c207f10	0.009795919
20	0x3ddfba42	0.10924198
21	0x3ca344e8	0.019930318
22	0xbdd21bdb	-0.10259219
23	0xbd043734	-0.03227921
24	0xbd9cb9ba	-0.07652612
25	0xbdd1309e	-0.10214351
26	0x3b2a8fc0	0.0026025623
27	0xbc757880	-0.014982343
28	0x3d3388a4	0.043831483
29	0xbda162fa	-0.078802064
30	0x3dbc19fe	0.09184645
31	0x3db54bd6	0.08852355
32	0x3dda6b6a	0.10665019
33	0x3afc7980	0.0019262284
34	0xbdadb84c	-0.084824175
35	0x3dd042e2	0.10169007
36	0xbd298a7c	-0.041391835
37	0xbdec7614	-0.11545959
38	0x3d9b970e	0.07597171
39	0x3dc46c66	0.09590988
40	0x3d8003fc	0.0625076
41	0x3dfc8f2a	0.12331994
42	0xbd3df0ce	-0.046372227
43	0xbd2ba184	-0.04190208
44	0xbd4c5f8a	-0.0498958
45	0x3dc195d0	0.094524026
46	0xbdcb8407	-0.099372916
47	0x3d0de038	0.03463766
48	0x3dff4782	0.12464811
49	0xbdfced07	-0.12349897
50	0xbdd2d632	-0.10294761
51	0xbdf58f1a	-0.11990185
52	0x3cbf79c8	0.0233735
53	0x3cf22c00	0.029561996
54	0x3d7a5354	0.061114624
55	0xbb99b300	-0.004690528
56	0x3d0d2914	0.034463003
57	0xbd616624	-0.05502905
58	0xbd827de0	-0.06371665
59	0xbdc74e61	-0.097317465
60	0x3d1e4468	0.038639456
61	0xbe0e0b02	-0.13871387
62	0xbdaead96	-0.08529203
63	0xbd7ce500	-0.06174183
64	0x3d65a0ec	0.05606167
65	0x3db4a7ae	0.08821045
66	0xbe0c05be	-0.13674065
67	0x3dedd90e	0.116136655
68	0x3e0e5937	0.1390122
69	0x3d7a5694	0.061117724
70	0xbd89b85b	-0.06724616
71	0xbd564860	-0.052315116
72	0x3d62d53c	0.055379137
73	0xbc8c08b8	-0.017094001
74	0x3df8e986	0.12153916
75	0xbd504380	-0.050845623
76	0xbddf0cb0	-0.10891092
77	0x3db0a208	0.08624655
78	0x3d8c613c	0.068544835
79	0x3d768c48	0.060192376
80	0xbe09babe	-0.13450143
81	0xbcafe16c	-0.021469794
82	0xbcbb0234	-0.022828199
83	0xbd9183c9	-0.07105214
84	0x3dad7c52	0.08470978
85	0xbd9aa21f	-0.075504534
86	0x3c752070	0.014961347
87	0x3d36c1dc	0.044618472
88	0xbc8015e0	-0.01563543
89	0x3b9a6520	0.004711762
90	0xbd2a085e	-0.041511886
91	0x3d290d84	0.041272655
92	0x3d4e3b0c	0.05034928
93	0x3ca1c228	0.019745901
94	0x3d9e5222	0.07730509
95	0xbbcb36c0	-0.006201595
96	0x3dd16798	0.10224837
97	0x3e0dd1c5	0.13849552
98	0x3c500380	0.012696147
99	0x3e048b31	0.12943722
100	0x3d771738	0.060324878
101	0xbddb62de	-0.10712217
102	0x3dde80fa	0.10864444
103	0xbdf6b57b	-0.120463334
104	0xbd9c3b55	-0.07628504
105	0xbc7914a0	-0.015202671
106	0xbdfa735b	-0.122290336
107	0x3de161b6	0.11004965
108	0x3df198f6	0.11796753
109	0x3a6d6e00	0.0009057224
110	0x3d643f50	0.055724442
111	0x3d1d11c8	0.038347036
112	0x3d9a6c04	0.075401336
113	0x3b40f680	0.00294438
114	0xbd48c7ee	-0.049018793
115	0x3e0d10f1	0.13775994
116	0x3d04de80	0.032438755
117	0x3cbb4a88	0.022862688
118	0xbc130280	-0.008972764
119	0x3d5ac4a8	0.053410202
120	0xbc919d28	-0.017775133
121	0x3cbb90f8	0.022896275
122	0xbdb5709c	-0.08859369
123	0xbb27b980	-0.0025592744
124	0xbda8f330	-0.08249509
125	0xbdddb72a	-0.108259514
126	0x3de49dbe	0.111628994
127	0x3e058751	0.130399
128	0x3df17fb2	0.11791934
129	0xbe08b1e3	-0.13349108
130	0xbd9acda2	-0.075587526
131	0xbdc46726	-0.095899865
132	0x3deeca4e	0.1165968
133	0x3d320d58	0.043469757
134	0x3c9d9938	0.0192381
135	0xbe0518ea	-0.12997785
136	0x3db03d0a	0.08605392
137	0x3ddd6a0a	0.10811241
138	0x3e0e2635	0.13881762
139	0x3df3ed66	0.119105145
140	0x3d32af8c	0.043624446
141	0x3dd0ceda	0.10195704
142	0x3d6e1248	0.058122903
143	0xba323800	-0.0006798506
144	0x3dfd40ce	0.12365876
145	0xbdba3c31	-0.09093512
146	0xbd31bfea	-0.043395914
147	0xbc0e3640	-0.008679926
148	0xbd1cad92	-0.038251467
149	0x3d9b4214	0.07580963
150	0x3de6e5e2	0.112743154
151	0x3d686668	0.056738287
152	0xbc3f8610	-0.011689678
153	0x3d3e0a9c	0.046396837
154	0x3c279090	0.0102273375
155	0x3de54196	0.1119415
156	0xbd83c962	-0.06434895
157	0xbe00928a	-0.125559
158	0xbdcaafda	-0.09896822
159	0xbd91001a	-0.070800975
160	0xbdbe1499	-0.092812724
161	0xbbe78240	-0.0070650876
162	0x3c383800	0.01124382
163	0xbdc658da	-0.09684916
164	0x3de7d98e	0.11320792
165	0x3cce9930	0.02521953
166	0xbd617108	-0.055039436
167	0x3c56c960	0.013109535
168	0x3c8202b8	0.015870437
169	0x3dc6927a	0.09695907
170	0xbdd7353f	-0.10508203
171	0x3c117a50	0.008879259
172	0xbda00a04	-0.0781441
173	0xbcc38b2c	-0.023870073
174	0xbd27042c	-0.040775463
175	0x3d2eba10	0.04265791
176	0x3d767be8	0.06017676
177	0x3d2d7850	0.042351067
178	0x3d0c6c94	0.034283236
179	0xbd62fb28	-0.055415303
180	0xbd059260	-0.032610297
181	0x3cb0e550	0.02159372
182	0x3df5ee2a	0.12008317
183	0x3c9edc78	0.019392237
184	0xbe081805	-0.13290413
185	0xbdc9d08e	-0.09854232
186	0x3e039ca9	0.1285273
187	0x3b876480	0.0041318536
188	0x3d1a6d84	0.0377021
189	0xbe0fa464	-0.14027554
190	0x3d4559d0	0.048181355
191	0xbd9205cb	-0.07130011
192	0x3de53bd2	0.111930504
193	0xbdc20443	-0.09473469
194	0x3e05d745	0.130704
195	0xbdf4a483	-0.119454406
196	0xbd61056e	-0.05493682
197	0xbdf04ec3	-0.117337726
198	0xbe0fd20f	-0.14044975
199	0x3c8b4fb8	0.017005786
200	0xbd89a115	-0.06720177
201	0x3dae3414	0.08506027
202	0x3c260bf0	0.010134682
203	0xbb386c80	-0.0028140843
204	0xbdcaf1ac	-0.099093765
205	0xba7c1100	-0.00096155703
206	0x3de76056	0.112976715
207	0xbdfae88f	-0.12251388
208	0xbd1c72e6	-0.038195513
209	0xbd85310e	-0.06503497
210	0x3b699fc0	0.0035648197
211	0xbc7bc9d0	-0.01536794
212	0xbd329942	-0.04360319
213	0x3d49941c	0.049213514
214	0xbc9bdd30	-0.019026369
215	0x3dad1a22	0.0845225
216	0x3de61cce	0.11235963
217	0xbdea5a56	-0.114430115
218	0x3d36466c	0.044500753
219	0x3dc9f786	0.098616645
220	0x3de9ed3e	0.114222035
221	0xbd05bc22	-0.03265012
222	0x3d4195d4	0.047262028
223	0x3c7d90c0	0.015476406
224	0xbd47e4ea	-0.048802294
225	0x3c86c3a8	0.016450718
226	0xbbed3280	-0.007238686
227	0xbdcf99ac	-0.101367325
228	0xbcdb169c	-0.02674418
229	0x3e0d2449	0.13783373
230	0xbdcfa016	-0.10137956
231	0x3e0de89b	0.13858263
232	0x3df01c4a	0.11724146
233	0x3dc13bc0	0.094352245
234	0xbe0444d5	-0.12916882
235	0xbdf91a5e	-0.12163232
236	0x3d04b644	0.032400385
237	0xbe0fd415	-0.14045747
238	0xbd935404	-0.07193759
239	0x3d59e094	0.05319269
240	0x3e0b7b83	0.13621335
241	0xbdbf2d70	-0.093348384
242	0xbd54b6e6	-0.051932238
243	0xbd9f42bc	-0.077764004
244	0xbde8c3db	-0.113654815
245	0xbcd84104	-0.02639819
246	0xbd6704e0	-0.056401134
247	0x3d65570c	0.055991217
248	0x3e0b242b	0.13588016
249	0xbdc254ea	-0.09488852
250	0xbdc3b83c	-0.09556624
251	0xbdcbe77e	-0.09956263
252	0x3da21424	0.07913998
253	0xbe0c9841	-0.13729955
254	0xbdad5fd0	-0.084655404
255	0xbd9c28c1	-0.07624961

rnn.bias_ih_l1 f4 [200]
0	0x3dd8b6db	0.10581752
1	0xbc3348b3	-0.010942626
2	0x3dabedee	0.08394991
3	0x3c41c9f6	0.011827936
4	0x3e8d42f2	0.27590138
5	0x3baf033a	0.005340961
6	0x3e3ff4fa	0.18745795
7	0x3e236dd0	0.15959859
8	0xbcc0c7e0	-0.023532808
9	0x3e65fe09	0.22460188
10	0x3dbf8ea7	0.09353381
11	0x3dee3ecc	0.11633071
12	0x3d6b80af	0.05749577
13	0x3e68f103	0.22748189
14	0xbd8f29db	-0.06990405
15	0x3e444305	0.19166191
16	0x3cfee8a8	0.031116799
17	0xba6befa3	-0.0009000247
18	0x3c0c8186	0.008575803
19	0x3e76e0e1	0.24109222
20	0x3d8d14a1	0.068887
21	0x3f1cb593	0.6121456
22	0x3e34517a	0.17609206
23	0x3db85094	0.08999744
24	0x3de0bb8a	0.1097327
25	0x3dd654f1	0.1046542
26	0x3e589732	0.21151426
27	0xbdac8c53	-0.08425202
28	0x3dd115d2	0.1020924
29	0x3d0ce7a4	0.034400597
30	0xbc24645a	-0.010033691
31	0x3ced64d0	0.028978735
32	0x3d42088a	0.047371425
33	0x3e6b31ab	0.22968166
34	0x3d3735bd	0.044728983
35	0x3d4efd85	0.050534744
36	0xbe8f94fb	-0.2804335
37	0x3e15047d	0.14552493
38	0x3da1bd01	0.07897378
39	0xbb3721a5	-0.0027943638
40	0xbca2e5db	-0.019884994
41	0x3df6ddff	0.12054061
42	0x3e5c983e	0.21542451
43	0x3e118061	0.14209129
44	0xbbc009bc	-0.0058605354
45	0x3c67c51c	0.014146116
46	0x3e6df1cc	0.2323677
47	0x3e905968	0.28193212
48	0xbcb843f1	-0.022493334
49	0x3daf0917	0.085466556
50	0x3d70ed20	0.05881989
51	0xbcfb67a0	-0.03068906
52	0xbe0567c2	-0.13027862
53	0xbc6c4f60	-0.014423221
54	0xbe0cf6f4	-0.1376608
55	0x3db774ec	0.08957848
56	0x3db73d40	0.089472294
57	0xbdc42835	-0.095779814
58	0x3d98b52a	0.07456429
59	0xbd3513f2	-0.044208474
60	0xbdc78c8b	-0.09743603
61	0xbd1f3572	-0.03886933
62	0xba815800	-0.0009868145
63	0xbd5dcf34	-0.054152682
64	0x3df4fec2	0.11962654
65	0xbdeae1e1	-0.11468864
66	0x3df18f62	0.11794926
67	0x3d3980d4	0.045288876
68	0xbd01929c	-0.03163396
69	0x3cd0a998	0.025471494
70	0x3d86078c	0.06544408
71	0xbe003d64	-0.12523419
72	0xbdf7172d	-0.12064967
73	0x3ba21c80	0.004947245
74	0xbd9e960d	-0.07743464
75	0xbbf45540	-0.0074564517
76	0x3dcde83a	0.10054059
77	0xbdbde708	-0.09272581
78	0xbdafe85f	-0.08589243
79	0x3d5264a0	0.051365495
80	0x3e091c03	0.13389592
81	0xbdd9bfb6	-0.10632269
82	0xbd61143e	-0.054950945
83	0xbc6e93a0	-0.014561564
84	0x3d9c0b20	0.076193094
85	0x3ddaaaa2	0.10677077
86	0xbd92d23c	-0.07169005
87	0x3cbfa990	0.023396283
88	0x3beeb3a0	0.0072845966
89	0xbe0a1bd5	-0.1348718
90	0xbc28fb70	-0.010313854
91	0xbd81fb63	-0.06346776
92	0xbd089584	-0.033345714
93	0xbdd8450a	-0.10560043
94	0x3da565f6	0.08076088
95	0x3d1d8558	0.038457245
96	0x3d53be64	0.051695243
97	0xbe0ad9ae	-0.135596
98	0xbc2323c0	-0.009957254
99	0xbdb8a138	-0.09015125
100	0x3d5c2d8e	0.05375438
101	0x3d9d1490	0.076699376
102	0x3d0872c1	0.033312563
103	0xbd6deba2	-0.058086045
104	0x3dd92583	0.10602858
105	0xbdd5e4a6	-0.10444002
106	0x3c829f2a	0.015945036
107	0xbd7440bb	-0.059632044
108	0x3e032474	0.12806875
109	0xbd634813	-0.055488657
110	0xbcb3a417	-0.02192883
111	0x3dab13ae	0.08353363
112	0x3d84a484	0.06476691
113	0xbe1832e9	-0.1486317
114	0x3de2ce0a	0.11074455
115	0xbd0bef85	-0.03416397
116	0x3db33613	0.08750548
117	0xbc9989e4	-0.01874251
118	0x39b1ac73	0.00033888555
119	0xbcf5ea08	-0.030018821
120	0x3de0348f	0.10947525
121	0x3c6a5223	0.0143018095
122	0xbd1ed759	-0.03877959
123	0xbbfb9c77	-0.007678564
124	0x3cc2f5b4	0.023798801
125	0xbde4451f	-0.11145996
126	0x3c07e9ed	0.008295518
127	0xbc3ac844	-0.011400286
128	0xbda52ce6	-0.08065204
129	0xbc9d260e	-0.019183185
130	0xbc03ae9c	-0.008037236
131	0xbcfb77a8	-0.030696705
132	0xbe059f71	-0.13049103
133	0x3dcc667d	0.099804856
134	0xbd33129a	-0.04371891
135	0xbde9f2c6	-0.114232585
136	0x3d4ddcd9	0.050259445
137	0x3c4fcd37	0.012683204
138	0xbd576d33	-0.052594375
139	0xbcc3e26e	-0.023911681
140	0xbe22d921	-0.1590314
141	0xbde1bc42	-0.110222355
142	0x3dc6881c	0.096939296
143	0x3abff411	0.0014644881
144	0xbd703e22	-0.058653004
145	0x3d860f51	0.0654589
146	0x3dcbf79c	0.09959337
147	0xbc720e2d	-0.014773888
148	0x3dae6164	0.085146695
149	0x3d2a2b0b	0.041544955
150	0x3d1cb1ae	0.038255386
151	0x3d02c392	0.03192479
152	0x3e9130ab	0.28357443
153	0xbd50d3b7	-0.050983157
154	0x3e494412	0.19654873
155	0xbd9fb484	-0.077981025
156	0x3e64dbe9	0.22349514
157	0x3dfb5346	0.122717425
158	0xbbdfcbb2	-0.0068297023
159	0x3e6ea956	0.23306784
160	0x3dde3372	0.10849656
161	0xbd3814b6	-0.044941626
162	0x3c85ff71	0.016357156
163	0x3dbeb0cb	0.09311064
164	0xbc89898e	-0.016789224
165	0x3e7dfdfc	0.24803919
166	0x3e068832	0.13137892
167	0x3d23f845	0.04003169
168	0x3e661606	0.22469339
169	0x3e560ad5	0.2090257
170	0x3d9ac1c5	0.0755649
171	0x3eb9967a	0.36247617
172	0x3db41b29	0.08794243
173	0x3c006272	0.007835971
174	0x3e7771c3	0.2416449
175	0x3dc4f843	0.09617665
176	0x3db677c9	0.08909566
177	0x3d9391cc	0.07205543
178	0x3e64689f	0.22305535
179	0x3e3bae97	0.1832832
180	0xbd247719	-0.040152643
181	0x3d39acf6	0.045330964
182	0x3e1a8fdd	0.15093942
183	0x3dbe49d9	0.09291429
184	0x3dcb43ba	0.09925027
185	0x3e28987b	0.16464417
186	0xbe96ce92	-0.29454476
187	0x3dadf841	0.08494616
188	0x3e05bc51	0.13060118
189	0x3899a7db	7.326874e-05
190	0xbae26368	-0.0017272057
191	0x3ea9885d	0.3311185
192	0x3e2e8ff9	0.17047109
193	0x3ddecd48	0.10878998
194	0xbbf2024d	-0.007385528
195	0x3e3297bb	0.17440693
196	0x3dc0e620	0.09418893
197	0x3dfa28a3	0.12214782
198	0x3e21fbde	0.15818736
199	0x3e1f1223	0.15534262

rnn.bias_hh_l1 f4 [200]
0	0xbc4e0435	-0.012574245
1	0x3d01f36a	0.03172628
2	0x3d953d72	0.072871104
3	0x3d8a674b	0.06757983
4	0x3e03aa9f	0.12858056
5	0xbc8e1c13	-0.017347371
6	0xbc4999e5	-0.012304758
7	0xbc1c4c89	-0.009539732
8	0x3d4de911	0.050271098
9	0x3eae43bc	0.34036052
10	0x3e40f16d	0.18842097
11	0x3d60bc04	0.054866806
12	0x3e2dacac	0.169604
13	0x3cb94f7e	0.022620913
14	0x3dd49c88	0.103814185
15	0x3e964eb2	0.29356915
16	0x3d834273	0.064091586
17	0xbc3e9069	-0.01163111
18	0x3d903c85	0.07042793
19	0x3d740a64	0.05958022
20	0x3e816336	0.25271004
21	0x3ec17858	0.37787127
22	0x3df2e68b	0.11860379
23	0x3de3462e	0.1109737
24	0x3dd4f3db	0.10398074
25	0x3e521ca1	0.20518734
26	0x3e2e1fc3	0.17004304
27	0x3de62621	0.11237741
28	0x3df6f130	0.120577216
29	0x3e4469a0	0.19180918
30	0xbe3b5439	-0.18293847
31	0xbbc8307e	-0.0061092963
32	0x3d8aa3b3	0.067695044
33	0x3e28195f	0.16415928
34	0xbd233c18	-0.03985223
35	0x3cef23fb	0.029191962
36	0xbeaaeda1	-0.3338442
37	0x3e7d23db	0.24720709
38	0x3e1d1482	0.15339854
39	0xbc9f3c98	-0.019438073
40	0x3d9622f4	0.073308855
41	0xbbfff799	-0.0078114984
42	0xbca67fd0	-0.020324618
43	0x3de4eb0c	0.11177644
44	0x3ca050d7	0.019569797
45	0x3e03948d	0.12849636
46	0x3d24f3ae	0.040271454
47	0x3e4cb9e6	0.1999279
48	0x3db55551	0.088541634
49	0x3e4bb6cc	0.1989395
50	0xbd25df88	-0.04049638
51	0x3b741740	0.0037245303
52	0xbdaf21fa	-0.085514024
53	0xbd0ea336	-0.03482362
54	0x3be756c0	0.007059902
55	0xbdb40f0a	-0.08791931
56	0xbe02339b	-0.12714998
57	0x3d66a090	0.056305468
58	0x3df01ede	0.117246374
59	0x3dcf1346	0.10111098
60	0xbc75ed50	-0.015010193
61	0x3d865564	0.06559256
62	0xbd968182	-0.073489204
63	0x3de68d42	0.112574115
64	0x3c76a990	0.015055075
65	0xbe0b85bd	-0.13625236
66	0x3cab9b18	0.020947978
67	0x3d4d93bc	0.05018972
68	0xbda95902	-0.0826893
69	0x3e03bcc7	0.12864982
70	0xbd78166c	-0.06056826
71	0xbd995df0	-0.0748862
72	0xbdca8bf2	-0.09889974
73	0xbd30139a	-0.042987444
74	0x3d1bc038	0.03802511
75	0x3c1b69d0	0.009485677
76	0x3d2bf7a0	0.0419842
77	0x3cf47a60	0.02984351
78	0xbdc6f524	-0.097147256
79	0x3de370c6	0.11105494
80	0xbe02c1ff	-0.12769316
81	0x3c8af958	0.0169646
82	0xbe08004e	-0.13281366
83	0x3caa37d0	0.020778567
84	0xbdf79874	-0.12089625
85	0xbc305b00	-0.010763884
86	0xbc608330	-0.013703153
87	0xbdece2d8	-0.115667045
88	0xbe04dd86	-0.1297513
89	0xbde09a0c	-0.10966882
90	0xbe02994b	-0.12753789
91	0xbe0c3ffb	-0.13696282
92	0x3e05d015	0.13067658
93	0x3d9c3686	0.07627587
94	0xbafd9f00	-0.0019349754
95	0xbd81e917	-0.063432865
96	0xbdb6131a	-0.08890362
97	0xbcfddcd0	-0.03098908
98	0x3e0bd697	0.13656078
99	0xbd9e22c9	-0.077214785
100	0xbdf0551d	-0.11734984
101	0x3da440ff	0.080202095
102	0xbcc677ae	-0.02422699
103	0xbbbd3b39	-0.005774882
104	0xbcc2ad87	-0.023764385
105	0x3d820396	0.0634834
106	0x3de5fd67	0.11229973
107	0xbdd8ae9e	-0.105801806
108	0x3dddf4aa	0.108376816
109	0x3dc8da00	0.09807205
110	0xbdc54306	-0.09631924
111	0x3cfe703c	0.031059377
112	0x3c1dfc7a	0.009642715
113	0x3d634286	0.055483364
114	0xbd096790	-0.03354603
115	0xbcc3980b	-0.02387621
116	0x3d89935d	0.067175604
117	0x3c8d1057	0.017219706
118	0xbdde1f9a	-0.10845871
119	0x3c0fe559	0.008782708
120	0x3db7c8cf	0.08973848
121	0x3d8e2926	0.06941442
122	0xbdff6b4c	-0.12471637
123	0x3cce8086	0.02520777
124	0x3e01a605	0.12660988
125	0xbe0cc7ab	-0.13748042
126	0xbda5df01	-0.08099175
127	0xbd157a2b	-0.03649346
128	0x3db4c261	0.08826137
129	0xbda635c1	-0.081157215
130	0x3dd7432a	0.105108574
131	0x3dc38c12	0.09548201
132	0xbd924310	-0.071416974
133	0xbd893ed7	-0.06701439
134	0xbd188ff6	-0.037246667
135	0x3daa3f92	0.08312906
136	0x3e3eca13	0.18631773
137	0xbdc348f8	-0.09535402
138	0xbd2bf221	-0.04197896
139	0xbdafe768	-0.08589059
140	0x3c84164c	0.016123913
141	0x3e1be8f9	0.15225591
142	0xbdba364e	-0.09092389
143	0x3e013497	0.12617718
144	0xbe0a1089	-0.1348287
145	0xbd4e2d6f	-0.050336298
146	0x3cc15e5b	0.023604563
147	0x3c1d4b73	0.009600508
148	0x3dd40242	0.10351993
149	0xbe02bd94	-0.12767631
150	0xbcddf703	-0.027095323
151	0x3d799d37	0.060940947
152	0x3db98401	0.09058381
153	0x3d442545	0.047887105
154	0x3e078ec5	0.13238056
155	0x3cbee977	0.023304684
156	0x3d7d7da1	0.061887387
157	0x3de03aab	0.1094869
158	0x3d2d333e	0.042285196
159	0x3e80768f	0.25090453
160	0x3e6515d3	0.22371607
161	0xbcb4d821	-0.022075715
162	0xbcc93f8f	-0.02456644
163	0x3e7f28ee	0.24917957
164	0x3d0c24de	0.034214847
165	0x3e44de2b	0.19225375
166	0x3e17a0b7	0.14807402
167	0x3daa0ffb	0.08303829
168	0x3d8d4dd3	0.068996094
169	0x3e632684	0.22182661
170	0xbcb1a61a	-0.021685649
171	0x3e8f20f7	0.27954838
172	0x3e0fa5d3	0.140281
173	0xbb64361e	-0.0034822295
174	0x3e39fc2c	0.18162602
175	0x3dde2bba	0.10848184
176	0x3d5a51a5	0.05330052
177	0x3df16625	0.11787061
178	0x3dc02748	0.09382492
179	0xbd55bce4	-0.052182093
180	0xbddf5927	-0.10905676
181	0x3e52b168	0.20575488
182	0xbda7fe46	-0.08202796
183	0x3e16600d	0.14685078
184	0x3e2b1684	0.16707808
185	0x3d7428c3	0.059609186
186	0xbe9c9b82	-0.30587393
187	0x3e81f821	0.2538462
188	0x3e9edb9a	0.31026918
189	0x3ce86255	0.0283672
190	0x3e2f9d1f	0.1714978
191	0x3e86d928	0.26337552
192	0x3d7f9e46	0.0624068
193	0x3e0cf7fb	0.13766472
194	0x3e005eeb	0.12536208
195	0x3c86658f	0.016405849
196	0x3e986b6e	0.29769462
197	0x3da7058e	0.08155356
198	0x3dabe8e2	0.08394028
199	0x3e2cbbd7	0.1686853
