LSTM_for_PDE/codes/experimentalCodes/model/lstm_pinn2D.pth (torch, 129861 bytes, 9 tensors)

lstm.weight_ih_l0 f4 [200, 3]
00000000: 116d 89be 1108 6ebe 4f36 19be b497 e63d
00000010: 8a8b 873e 98ca 00be a687 803e 0f8d 3abe
00000020: 34a7 d3bd 122e 18be 8f4c c23e d0fa 11be
00000030: 3ed8 ccbe c11f 3f3e 0523 40bd 258a a83e
00000040: dbb6 31be a7a7 a23d 5c66 8b3e 9e27 e83d
00000050: 568c 6dbe aa47 b1be 2e18 59be ffde 263d
00000060: 83fd 80be 0acf e93d fc83 0f3e 01a8 753c
00000070: e61b 5fbe cee3 00be f1ab e73d d31f 833e
00000080: 1bb7 cabe 78d2 1abe b963 1f3e 925f 073e
00000090: 144f 933e 2128 5d3e 0938 9bbe 8b96 3b3d
000000a0: 2b92 663e fecf c2be e9ac 823e 2dc1 093e
000000b0: 36bf 5abe e41f 903e be6e 423e ddc3 a9bd
000000c0: c979 853e eee9 b2be 9bc7 77be a0f2 7e3e
000000d0: afb0 943c 6ecb d3bd 373c 863d cd4f 843e
000000e0: df02 91be 28df c4bd 401a 293e 0a22 74be
000000f0: 467b 173d c387 053e 157d 7ebe 9a2f 2abc
00000100: 8477 6c3e 9d1f 10be 7269 abbe 814a c43e
00000110: 7dda 953c bfa5 9b3e d82e a5be 0824 3bbe
00000120: 13ad 593e 7530 193e 42a6 aebe 4489 acbe
00000130: 6090 22be 2a7e 94bc bbca 593e 86a7 513e
00000140: 64d6 f2bd 8b01 b03e a542 f9bd 1acd fdbc
00000150: f68f 5fbe c4aa 9fbe 88b3 363d c948 683e
00000160: 85e2 df3c 68d4 39be 5808 693e 6219 99be
00000170: be6d 123d 74fa 39be 9405 0a3e f6f6 e83d
00000180: 2817 d03d ba4f 903e 58c1 05be ac8a 8cbd
00000190: ca37 21be 17d3 83bd 4ee8 6abc 9670 5ebd
000001a0: 1d1d a9be 5df0 2c3a 45e9 6abe 8d34 0cbe
000001b0: c4c5 243e 0170 3e3d bd94 8cbd fb66 2a3d
000001c0: 5793 923e 05bc bbbd 3808 9a3d eaec c13c
000001d0: 60b1 1abe 2747 883e 8167 b8be b6fd 07be
000001e0: d407 1d3d 5cff 323e 9815 6abe ac64 aabe
000001f0: c0a4 b73e 8757 1ebe 90e5 7a3e 9d09 2d3e
00000200: 3f64 79bd bde4 35be 20ee 52be 7e60 c3bd
00000210: 952d f23d 72bd 533e ff42 8fbe 3c6d 833e
00000220: 390d 773e 2d40 4ebe e672 5f3e 433f abbe
00000230: c6bd 8abd ff14 50be 087a a53d 29d2 17be
00000240: 67b8 b8be 171f a73e 2ebf a1bd 275b 583c
00000250: 485e 593e a523 80be 788e 8c3c 3fcf 89bd
00000260: 1acc 863d f443 f0bd 7d33 053e 3004 143c
00000270: 72d6 72bd b44c b03d 1839 783d 407c b8bd
00000280: c01a 0dbe dcad 4d3d 98a8 c53c 8802 52bd
00000290: 9ce1 dabd ce67 db3d 1cac 333d 42ca c73d
000002a0: 4e78 b13d 8edf 983d 1216 a73d 5645 88bd
000002b0: 268e d13d a4e5 663d 0e35 1bbd caa7 b93d
000002c0: 74f1 983d 003d 0b3d 7836 c63d 8a3b 67bd
000002d0: c0d0 a4bb c0cb d23d e2d7 33bd 282e 8c3c
000002e0: 8de0 0ebe 0899 bdbd c071 3f3b c3e1 f9bd
000002f0: 7230 71bd 2893 73bd 2f92 033e 70a8 2e3d
00000300: 30b1 ab3d 98ac c9bc ac78 f2bd 743e 0b3d
00000310: ca83 b73d efe7 0dbe c8fe e3bd f672 40bd
00000320: 1e6d a13d f279 a43d fcb3 273d e423 14bd
00000330: 175e e3bd a53e 033e a2ff c7bd f049 983c
00000340: 2420 b13d 70bd 3a3c d456 0e3d c094 2d3d
00000350: 9018 1e3c 983e 993c 8066 6b3b 9c5d 8fbd
00000360: b8ef 953d 201a be3c 30a9 27bd f418 543d
00000370: 3b2e 01be 5a4f a7bd 6202 d3bd 4094 583d
00000380: 4bdb 063e eef9 e23d 6f56 82bd 9094 a63c
00000390: b0bd 183d 1ed5 f3bd bdf8 92bd 9e9c 913d
000003a0: 4098 943c e883 d43d 39ba d1bd e04a 593d
000003b0: da19 22bd 6b7c 08be 0847 cfbc b53e f4bd
000003c0: e040 ce3d afad f8bd d205 e23d cefc f03d
000003d0: ff90 103e ed71 c0bd 3832 0f3d 2cef 713d
000003e0: 7af1 1abd 5780 043e 35a3 fbbd fa8b 913d
000003f0: ce05 07be 6277 92bd 0403 913d 966a b1bd
-0.26841024 -0.23245265 -0.14962123 0.11259404 0.26473647 -0.12577283 0.25103492 -0.18217872
-0.10334626 -0.14861324 0.37949035 -0.14255834 -0.4000873 0.18664457 -0.046908397 0.32917896
-0.1735491 0.079421334 0.27226532 0.113356814 -0.23198065 -0.34624988 -0.2120063 0.04074001
-0.25193414 0.11416443 0.14015192 0.0149936685 -0.21787986 -0.125869 0.11312092 0.25610217
-0.39592823 -0.1511935 0.15565385 0.13220051 0.2877127 0.21597339 -0.3031619 0.045797866
0.22516696 -0.3804931 0.25522545 0.13452597 -0.21362004 0.2814933 0.18987557 -0.08289311
0.26069477 -0.349441 -0.24197237 0.24897242 0.018150656 -0.103415355 0.06554454 0.25842133
-0.28322503 -0.09612876 0.1651392 -0.2384111 0.036982797 0.1304007 -0.24852403 -0.010387326
0.23092467 -0.1407456 -0.33478886 0.38338092 0.01829266 0.30399892 -0.322623 -0.18275464
0.21257429 0.14959891 -0.3411122 -0.33698475 -0.15875387 -0.018126566 0.21268742 0.20474061
-0.11857298 0.34376177 -0.121709146 -0.03098159 -0.2183226 -0.3118497 0.044604808 0.22684015
0.027329693 -0.18147433 0.22757089 -0.29902178 0.03574919 -0.18161947 0.1347869 0.11375229
0.10160667 0.28185827 -0.13062036 -0.06862387 -0.15743938 -0.064367466 -0.014337612 -0.05430659
-0.33030024 0.0006597096 -0.22940548 -0.13691922 0.16091067 0.046493534 -0.06864307 0.041602116
0.28628036 -0.09166721 0.07521099 0.02367254 -0.15106726 0.26616785 -0.36016467 -0.13280377
0.038337544 0.17480224 -0.228598 -0.33279932 0.35867882 -0.15463077 0.24501634 0.16898198
-0.060886618 -0.17763038 -0.2059865 -0.09539889 0.118251 0.20677736 -0.279808 0.25669277
0.24126138 -0.20141669 0.21821174 -0.33446702 -0.06774478 -0.2032051 0.08079916 -0.14826263
-0.36078188 0.32640907 -0.07897793 0.013205326 0.21227372 -0.25027195 0.017157778 -0.06728982
0.06581898 -0.11731711 0.13007922 0.0090342015 -0.059286542 0.0860838 0.060601324 -0.09008074
-0.13779736 0.050214633 0.024128243 -0.051271945 -0.10687563 0.107131585 0.04386531 0.097553745
0.086655244 0.07464515 0.081585065 -0.0665385 0.10232191 0.056371346 -0.037892394 0.09065206
0.074679285 0.03399372 0.09678358 -0.056453265 -0.0050297678 0.102927685 -0.043907054 0.017111853
-0.13952847 -0.09257704 0.0029212087 -0.12201264 -0.05888409 -0.05946651 0.12848733 0.042641103
0.08383405 -0.024618432 -0.118394226 0.033995107 0.08960684 -0.13858007 -0.1113258 -0.046984635
0.078821406 0.08031072 0.04094313 -0.03616704 -0.111019306 0.12816866 -0.09765555 0.018589944
0.086487085 0.0113977045 0.034750775 0.042378187 0.009649411 0.018706605 0.003591925 -0.070002764
0.07321113 0.023205817 -0.040932834 0.05178161 -0.12615292 -0.08169432 -0.10303189 0.052875757
0.13169591 0.110828266 -0.06364142 0.020334512 0.037290275 -0.11905883 -0.07176349 0.071099505
0.018139005 0.103767216 -0.10240597 0.053049922 -0.039575435 -0.13328712 -0.025302425 -0.11926023
0.10070968 -0.121425025 0.110362664 0.11766969 0.14117812 -0.093967296 0.03496 0.059065983
-0.037827946 0.12939583 -0.12286989 0.071067765 -0.13185808 -0.07151677 0.07080653 -0.08662908

lstm.weight_hh_l0 f4 [200, 50]
00000000: 2cda c8bd 4e23 8a3d fef1 bdbd c801 243d
00000010: ec8b a5bc 8db9 023e 2c58 8b3d 2a84 f83d
00000020: 0e10 e13d 5379 093e 006a 90b9 ccae 483d
00000030: 423f e33d dc03 103d a0aa 5ebc 1631 d03d
00000040: ba73 06be 3a0e b0bd ea27 eb3d 7892 8c3d
00000050: 1001 2f3d b090 eb3c f490 c93d 98b9 6c3d
00000060: d06a c63d 85f5 a9bd 8c73 743d bd46 e2bd
00000070: 4fa1 cdbd 9619 4ebd 1016 013c d06d 2f3c
00000080: 4b96 86bd a4f5 ca3d ba4e f63d 3ad7 63bd
00000090: 6480 0c3d 167b 6ebd cb68 0a3e a41f 63bd
000000a0: a49f 19bd 5042 953d 3438 b4bc 34ca 5fbd
000000b0: 5820 953c 7013 6f3c 1020 723c e4d0 153d
000000c0: c0ff 4b3c 6a67 97bd 50b1 dc3d 2054 98bc
000000d0: e802 01bd 8034 5f3c 8ecc df3d e0e9 d5bb
000000e0: 2839 d3bd 1857 94bd dc18 c03d c4c0 ddbc
000000f0: e076 e23c c26b 873d 08d9 2c3d 2bd3 8dbd
00000100: 7419 233d 0201 9b3d faec b8bd 9bc7 9abd
00000110: 90db 0d3d b018 c63c 8563 8bbd 5d4f 99bd
00000120: cc03 e9bd 106c 003c 8051 c03b 230d 0f3e
00000130: 1a4c 63bd d81d b5bc 3c81 3fbd 14fa a03d
00000140: 2238 f43d 1896 983d f9ba 003e 38ee 063d
00000150: e2c9 16bd 9420 0bbe a813 cb3d 5172 dfbd
00000160: fd51 f0bd 467f b53d c082 f83c 003e 3b3d
00000170: fc5b f5bc f0e4 b73c 9cba 143d 7cb8 cd3d
00000180: 1adc b73d 6a66 06be 7dad 01be f25a cdbd
00000190: 7af6 e8bd e845 f43c 4b89 0a3e 6ac6 a53d
000001a0: 36e5 d13d d681 833d 904a 41bc 412f 07be
000001b0: d072 81bc f0f5 fa3c 88e6 c23c 769d 68bd
000001c0: b404 233d ecd4 a73d 46ec 9f3d 5e01 4ebd
000001d0: 0f34 0ebe 98a1 b13d 4c6f 92bc befc ddbd
000001e0: 266b 9cbd daac 7bbd 80da 2d3c 66ee 72bd
000001f0: fdd4 0cbe 8437 07be 6dda 003e 088d d9bd
00000200: b82f 33bd 7096 57bc 3012 783d 8b8f 0cbe
00000210: 60cf 223c d471 7e3d 38e3 af3c c481 623d
00000220: c048 a23d 36aa c33d 8e9b d83d 00b0 7a3b
00000230: e006 42bc 42f9 c2bd 9851 213d ba45 90bd
00000240: 6adf c6bd 58b2 ae3d 6e8f 01be 6c65 3cbd
00000250: 70ba 5b3c 0632 13bd e1b6 08be 96f7 e53d
00000260: f0ee b2bd 8a70 983d a465 3bbd 3e10 e83d
00000270: 2440 2a3d 704f 453d f824 453d 1c08 853d
00000280: 566b 69bd a08f ea3c 62bc 66bd 10fa 75bc
00000290: baf8 c43d a7ab 00be 1a39 f7bd 4c92 493d
000002a0: 7885 403d 5c22 593d cb44 96bd 3688 aabd
000002b0: c258 34bd dc4b 05bd 803d ad3c 7662 90bd
000002c0: 9ce3 01be 5e16 9bbd 9860 813d bd8e e3bd
000002d0: 5f1e 0d3e a1f2 03be a69c 36bd 9c1d dabd
000002e0: 4c47 883d 5a8c d1bd 50bc cc3c 84e9 b73d
000002f0: 000f c43a 2c9f 73bd c2dc ec3d 6d12 a7bd
00000300: 835c 91bd a099 52bc bae9 e3bd 007a c53c
00000310: d8f8 713d 8a43 07be b0f6 6abc 7080 0f3d
00000320: e4b3 913d c076 993c b864 87bc 4064 f93b
00000330: cf68 083e ca96 813d 6f89 073e e3b7 08be
00000340: ccd8 fdbd 7078 5e3c 89ab 073e a65e 49bd
00000350: 2c65 98bc 7d0d 8bbd e001 2bbc da51 f93d
00000360: 123a e13d 658a 0f3e 0b09 8dbd 0a7d 07bd
00000370: 5f16 10be e27f adbd b5f9 07be 480e d23d
00000380: 53c6 e6bd 0263 55bd b2c3 f3bd 51f5 063e
00000390: be0b 7cbd f2d1 b23d e0fe 5cbd 64fa 8abd
000003a0: c06d c6bd 8ee2 e03d 9e00 72bd 0edb c43d
000003b0: e0b0 013c b839 663d 4004 f4bb 95a5 093e
000003c0: 6c10 8b3d c154 8dbd 72a7 c9bd 2ea4 b73d
000003d0: 7bc8 90bd 706d 373c 2006 903c 3f81 88bd
000003e0: 103d ba3d 17b8 95bd 821a d9bd f2d9 07be
000003f0: 809d 793c a45d 3d3d 9770 0c3e d8f7 923d
-0.09807238 0.06745015 -0.09274672 0.04004076 -0.020208322 0.12766095 0.06803927 0.12134583
0.1098939 0.13425188 -0.00027544796 0.048994824 0.1109605 0.03515993 -0.013590485 0.101656124
-0.13130084 -0.085964635 0.114822224 0.06863874 0.042725623 0.028755516 0.09842101 0.057794183
0.096883416 -0.08298782 0.059680507 -0.110486485 -0.10040533 -0.05031737 0.007878795 0.010707334
-0.06571635 0.099101335 0.12026735 -0.055625178 0.03430213 -0.058222853 0.13516538 -0.055450097
-0.03750576 0.07288039 -0.021999456 -0.054636195 0.0182039 0.014592037 0.014778152 0.036576167
0.012451112 -0.073927715 0.10776007 -0.018594801 -0.031496912 0.013623357 0.109276876 -0.006528124
-0.10313636 -0.07243174 0.093797415 -0.027069457 0.027644575 0.0661235 0.042199165 -0.06925043
0.039819196 0.075685516 -0.09029575 -0.07557603 0.03463322 0.024181694 -0.06806091 -0.074858405
-0.11377677 0.007838264 0.0058690906 0.13969855 -0.055492498 -0.022108957 -0.046754107 0.078601986
0.11924769 0.07450503 0.12571324 0.032942027 -0.036813624 -0.13586646 0.099158585 -0.10910476
-0.11734388 0.08862166 0.030335784 0.045713425 -0.029951088 0.022448033 0.036310777 0.10044953
0.08977528 -0.13125005 -0.12663837 -0.10027112 -0.11375137 0.02981849 0.13528936 0.08094485
0.10248797 0.064212486 -0.011797562 -0.1320162 -0.015801817 0.03063485 0.023791566 -0.05679079
0.039799407 0.081949085 0.078087375 -0.050294273 -0.13887046 0.086734 -0.017875336 -0.10839222
-0.076376244 -0.06144414 0.0106111765 -0.059309386 -0.13753124 -0.13204771 0.12583323 -0.10622603
-0.04374668 -0.013158426 0.06056422 -0.13726632 0.009937137 0.062120274 0.021470651 0.055299535
0.07924032 0.095539495 0.10576545 0.0038251877 -0.011842459 -0.095201984 0.039384454 -0.07044549
-0.097105816 0.0853011 -0.1265237 -0.04599516 0.013411149 -0.035936378 -0.13351013 0.11228864
-0.0873698 0.0744334 -0.04575123 0.11331223 0.041565076 0.04817146 0.04813096 0.06495687
-0.05698713 0.028632939 -0.056332 -0.015013233 0.09617753 -0.1256548 -0.12071438 0.049211785
0.047002286 0.053011283 -0.0733734 -0.083267614 -0.04402996 -0.03254305 0.02114749 -0.0705003
-0.12684482 -0.075726256 0.06317252 -0.111112095 0.13781117 -0.12885524 -0.044582985 -0.10650179
0.06654224 -0.10231848 0.024992138 0.089800864 0.0014958084 -0.05947797 0.11565544 -0.08157811
-0.07097723 -0.01285401 -0.11128564 0.024106026 0.059075207 -0.13209358 -0.014341041 0.035034597
0.071143895 0.018733382 -0.016527519 0.0076108277 0.13321231 0.06327589 0.1323602 -0.13351397
-0.12394866 0.013578519 0.13249029 -0.04916253 -0.01860293 -0.06789682 -0.010437459 0.12173815
0.10997404 0.14017637 -0.068864904 -0.03307823 -0.14071034 -0.08471657 -0.1327885 0.1025663
-0.11268296 -0.052096374 -0.1190256 0.13179518 -0.061534636 0.0873145 -0.053954005 -0.067860395
-0.09688902 0.10980712 -0.05908262 0.09612094 0.007915705 0.05620739 -0.0074467957 0.13442071
0.067902416 -0.06900931 -0.09846391 0.08966862 -0.070694886 0.0111955255 0.017581046 -0.06665277
0.09093678 -0.07310503 -0.10600759 -0.13266733 0.015235305 0.04623188 0.13714825 0.07176179

lstm.bias_ih_l0 f4 [200]
00000000: 42b8 083e 3ddc 973e 819f bb3e beb6 513e
00000010: b612 153e 0e24 363e 5622 203e a1d3 933d
00000020: e740 d73b 376b f43d fe63 2c3e 0a29 773e
00000030: c681 823d 55b3 173e 084f 723e 17ca 34bd
00000040: e90c 383e e01a a63e 5601 923e 0204 563e
00000050: a014 983e 7a7b 9d3e 6de6 7f3e bc7d 683e
00000060: bcc0 173e 8fde 713b f62e 3a3e 6dfb 9f3e
00000070: 14d4 193e a60a 743d c6d4 b03e 9437 493e
00000080: e540 8c3e a474 fd3d 3355 613e c9fc 4fbc
00000090: 8835 023e 29e9 423d 9675 253e a651 3b3e
000000a0: c335 bb3d 9e01 9b3e 7e0e 3a3e b27e 823e
000000b0: 2b3a cc3d b97f 413e e8f7 1e3e 7fd4 6a3e
000000c0: fbd2 c33d ee56 853e 52f8 bfbd 9835 9c3d
000000d0: f677 b7bd 98f0 ac3c 2cf8 a03d 8096 423b
000000e0: 9873 6ebd 8ee6 b3bd 5bc4 eebd 68d0 953d
000000f0: 6ebf e23d ff8e 0cbe dcc2 0a3d accd 53bd
00000100: 77c1 acbd 02cd 09bd b883 953c f2b6 0dbd
00000110: 788d 22bd 370e f5bd 4049 5ebc f608 883d
00000120: 807d 333c 9c3e 653d 335f 00be 763f 51bd
00000130: 8035 3f3b a1dc 013e 70cc a83d 184c 8a3d
00000140: 30ad 0d3d 498b 9fbd d175 02be 7208 b6bd
00000150: baba de3d 57af 003e 2a83 d63d beb1 fd3d
00000160: 901a 8d3d 370d 0fbe 5293 87bd a1ea 93bd
00000170: e4be dbbd 701a fb3c c4c7 43bd 8217 b9bd
00000180: 84b9 fcbd 82ef 0bbe ecdd 9abc a03c a1bb
00000190: a716 ce3d 4d93 b5bc 8710 203e a534 88bd
000001a0: 8b01 48be cbac 123e e42f 753d 8d47 e13d
000001b0: 730f 89bd 55db 47be 02cb 133e 3eb4 7bbd
000001c0: 29aa 193e 47d1 2839 d6ea d03c db65 fe3d
000001d0: 984c 04ba 6ee3 0f3e 8907 e93d dbf5 02be
000001e0: a0af cabd 4adf c83c 5995 f7bc b65c 683d
000001f0: d8bb cf3d 1271 81bd 3b85 4dbd 5cf0 c23d
00000200: d686 fe3d 456f f5bc 5f2d 433e dcf9 c1bd
00000210: db99 5cbd d088 603e 4a6e 503e 84fb 18bd
00000220: 40b2 05be e718 013c 5b45 ef3d ed9c 063e
00000230: fbef 2e3d 64b0 94bb e6cc 7fbd cb66 cfbb
00000240: 285a b5bd 07e2 31be 89c3 033e 101b e6bc
00000250: 2d5a 2ebe b221 a2bd b8f1 0a3e a2c1 a43e
00000260: 6752 863e a9e5 ef3d 45ef 893e 1be8 7c3e
00000270: 2af7 303e 0f2a 803e 5f6c 423e bdd5 0f3e
00000280: 260c 213e b4f1 2f3d e716 753e 2af7 123e
00000290: b432 9e3e 5101 69bd 49e9 c23e 2d8c 003e
000002a0: 385e c83d a98c 6d3e fa19 883e fd2b 343e
000002b0: 0b25 c03d 4332 203e aa4c 743e 8f89 5e3d
000002c0: d685 8f3e aafd 8a3e 34a6 983e 2974 4a3e
000002d0: 3c22 af3e a165 ee3d 20fe a43e 6a1b 483e
000002e0: d61d 223e dfdf fe3d 102e 733e 163e 71bc
000002f0: 2678 3dbd 4333 813e ce60 e33c 36f9 ad3e
00000300: 7b93 c53d b174 953e 3ff8 ad3e f3e4 0a3d
00000310: 19f7 833e 2697 f03d ef36 fd3d c619 a13e
0.13351539 0.29660216 0.3664513 0.20479867 0.14557919 0.17787191 0.15638098 0.072180994
0.0065690163 0.11934512 0.16835019 0.24136749 0.063724086 0.14814503 0.2366296 -0.04413804
0.17973675 0.3244238 0.28516644 0.20899966 0.29703236 0.30758268 0.24990244 0.22704214
0.14819616 0.0036906337 0.18181977 0.3124651 0.15022308 0.059580468 0.34537333 0.19650108
0.2739326 0.12375763 0.22005157 -0.012694546 0.12715733 0.04758564 0.16158137 0.18292865
0.091411136 0.3027467 0.18169591 0.25487286 0.09972032 0.18896379 0.15524256 0.22932623
0.09561726 0.26042885 -0.09373535 0.0762741 -0.089584276 0.021110818 0.07859835 0.0029691756
-0.058215708 -0.08784209 -0.116585456 0.07315141 0.110716686 -0.13726424 0.03387724 -0.051709816
-0.08435338 -0.033642776 0.018251285 -0.0345983 -0.039685696 -0.11965602 -0.013567269 0.06642334
0.0109552145 0.055967912 -0.12536316 -0.05108591 0.0029176176 0.1268182 0.08242118 0.06752795
0.034588993 -0.077902384 -0.12740256 -0.088883296 0.10875459 0.12566887 0.10474236 0.12387417
0.06889832 -0.13969885 -0.06619896 -0.07222486 -0.10729769 0.030652255 -0.047797933 -0.09037687
-0.12340072 -0.13665584 -0.018904649 -0.004920557 0.10062914 -0.022164965 0.15631305 -0.06650666
-0.19531839 0.14323728 0.059860125 0.10999975 -0.066924 -0.19517262 0.1443291 -0.06145119
0.15006317 0.0001609969 0.025502604 0.12421771 -0.0005046814 0.14051601 0.1137839 -0.12789099
-0.09896779 0.024520535 -0.030222582 0.05672904 0.1014325 -0.063203946 -0.050175887 0.09518501
0.12428062 -0.029960284 0.19060276 -0.09471485 -0.053857666 0.2192719 0.20354572 -0.03734924
-0.13056278 0.007879472 0.116831504 0.131458 0.042709332 -0.004537629 -0.062451266 -0.0063293925
-0.088550866 -0.17371379 0.1286756 -0.028089076 -0.17026587 -0.07916583 0.13568771 0.3217898
0.26234743 0.11713726 0.2694036 0.24697916 0.17281786 0.25032088 0.18986653 0.14046378
0.1572729 0.042955115 0.23934518 0.14352098 0.30898058 -0.05688602 0.38068607 0.12553473
0.09783596 0.23198189 0.2658232 0.17594905 0.093820654 0.15644173 0.2385737 0.054330405
0.28031796 0.27146655 0.29814303 0.19770874 0.34205806 0.11640478 0.32225132 0.19541708
0.15831694 0.12445044 0.2374804 -0.014724275 -0.04625716 0.25234422 0.027756121 0.33979195
0.0964727 0.2919059 0.3397846 0.03390975 0.25774458 0.11747579 0.123639934 0.31464976

lstm.bias_hh_l0 f4 [200]
00000000: cdd8 d13d 166d d93d 421e cd3e 0255 403e
00000010: 0885 a73e 74a4 0e3e c2b8 fdbc 1cc8 8a3e
00000020: bc9f 173e 3c2e ea3d fa27 a93d 9433 e03d
00000030: 06e2 943d 6f13 513e c577 8a3e 7efe 82bd
00000040: 3f9b a23d e875 683e cc37 803e 158e 0f3e
00000050: fba4 7c3e b6d9 383e 7f96 903e 9939 8c3e
00000060: fa78 873e a102 a0bb 50d9 3c3e b615 903e
00000070: 4a53 893e 5839 9f3d 04ea d33e 2dbe 823e
00000080: fec8 183e 58ad 273e 6b33 af3e 0d8e b03d
00000090: 0e09 093e 7e88 f73d fa9b 3f3d db26 963e
000000a0: d8e1 a2bb 3723 973e 2750 c63c 1316 983e
000000b0: e324 323e 5745 b73d 09a9 803e 8e30 953e
000000c0: cf40 da3d 2cbb 923e b08e 1a3c c07c 8c3c
000000d0: bc41 2f3d 0000 6736 c021 a8bd 5cce d63d
000000e0: 05db 033e 2db2 03be a6c5 d23d 3dad bbbd
000000f0: 7e06 dd3d 98a7 b93c 0092 81bb 52da a9bd
00000100: 3485 bebd 806b 8a3c 80c2 14bb dd63 033e
00000110: 8c1a 17bd bda6 b5bd 56c2 7abd 2444 81bd
00000120: 0862 02be 862b ea3d 82b5 e33d 4c74 36bd
00000130: 5a76 e73d 8640 b53d 4e9b ef3d f6d1 0dbe
00000140: 0d55 bebd da9a bcbd a84b a43c 4a42 a13d
00000150: c857 96bc 1439 443d 8a11 a73d 801c 6d3b
00000160: b61a 04bd d6ff b03d cabb c43d 58d1 9bbc
00000170: 4471 413d 24d4 d53d 002c 353b 6d86 febd
00000180: 205f f1bc 80ce 95ba da35 b13d 0044 6db9
00000190: 196d 343e 00ce 50be 809d dc3d e163 563d
000001a0: 782d a6bc e043 2d3e 437d e63d 0a67 2a3e
000001b0: b1de d3bd 9ef7 6cbe fc94 d7bd 5a9f 0abe
000001c0: aed7 533e 2c60 033e 38b5 08bd efce 073e
000001d0: 5661 d53d 49b7 da3d c3fc fe3c 5115 57be
000001e0: d4cd 053d b276 86bd 7886 cebd 156e ad3d
000001f0: d4d9 d03d 0c3f 423d d389 03bd d041 193e
00000200: d457 473d b41c e0bb d68b f03c 77ea eebd
00000210: eccb ffbd 6db9 ed3d 9295 9b3d 0ce1 b4bc
00000220: 3ba4 12be 747b 35bd afdc ce3d 1929 99bc
00000230: ab31 ce3c ed24 41be 7d38 bcbd 47c7 193e
00000240: 32fe c1bd c6c0 14be 57dc 423e 2995 83bd
00000250: d3b9 17bc ff7a 80bd c37b 973e 3ad7 683e
00000260: c489 543e 081f 2e3e 5296 fc3d 23bc fd3d
00000270: 6693 f43d b4c3 153e d69a 6a3e f1bc 153e
00000280: abea 1b3e a8be 0b3e 1a76 d33c d3e7 913e
00000290: f42a d33d 08a7 933c b525 0a3e 6bee 7b3e
000002a0: d966 3e3e c9c8 3d3e 18cb dd3d 9a40 d63d
000002b0: dffc 433e a150 3b3e dac7 08bc 7ac0 973c
000002c0: a58d 693e fc29 5d3e 059e 693e 3749 e83d
000002d0: 6a5e 933e 80ca c43c 838b 933e 0c9c a43d
000002e0: bbfa 963e 7c2f 743d 7b40 7b3d 11da b0bd
000002f0: 6e93 de3c 7061 b13e 83a5 da3d bee5 813e
00000300: 8ff1 dd3d 4e6e 843d d2e2 5f3e b1b0 f83d
00000310: 12d3 733e 667b eb3d 35e7 a53e a140 123e
0.102464296 0.106165096 0.40062147 0.18782428 0.32718682 0.13929921 -0.030971888 0.27105796
0.14807028 0.114346 0.08259578 0.10947338 0.07269673 0.2041757 0.27044502 -0.06396197
0.07939767 0.22701228 0.2504257 0.14019044 0.2467231 0.180518 0.2823982 0.27387694
0.26459485 -0.004883126 0.18442273 0.28141564 0.26821357 0.07774609 0.41389477 0.25535718
0.14920422 0.16374719 0.34218916 0.08620844 0.1338236 0.12086581 0.04677961 0.2932652
-0.0049707703 0.29519054 0.024208141 0.2970434 0.17396884 0.089487724 0.25128964 0.29138607
0.106568925 0.28658426 0.009433433 0.01714933 0.0427873 3.4421682e-06 -0.08209562 0.10488579
0.12876518 -0.12860937 0.10291605 -0.09163902 0.10792254 0.022662923 -0.003954172 -0.082935944
-0.0930275 0.016896963 -0.002269894 0.12831064 -0.03689055 -0.088696934 -0.06122049 -0.06311825
-0.12732708 0.11434083 0.11118604 -0.044544503 0.11301871 0.088501975 0.11699544 -0.13849625
-0.09293566 -0.09209223 0.020055607 0.07873972 -0.018352404 0.047905996 0.08157642 0.0036180317
-0.032252036 0.08642547 0.096061304 -0.019020721 0.04722716 0.10440853 0.0027644634 -0.124279834
-0.029464304 -0.001142934 0.086528495 -0.00022627413 0.17619742 -0.20391083 0.10772228 0.052341346
-0.020285353 0.16920424 0.112543605 0.16640869 -0.103452094 -0.23141333 -0.105264634 -0.1353735
0.20687744 0.12829655 -0.03337595 0.13262533 0.10418956 0.1067949 0.031126386 -0.21004225
0.032666996 -0.06565608 -0.10084242 0.08468262 0.101977974 0.047423407 -0.03211386 0.14966512
0.048667744 -0.006839359 0.029363554 -0.11665814 -0.12490067 0.11607633 0.07596888 -0.022079967
-0.14320461 -0.044307187 0.10100686 -0.018696355 0.025170168 -0.18861742 -0.09190462 0.15017425
-0.09472312 -0.14526662 0.19029365 -0.064249344 -0.009260613 -0.0627346 0.2958661 0.22738352
0.20755678 0.17004025 0.12333359 0.123894 0.119421765 0.14625436 0.22910628 0.14622857
0.15226237 0.13646948 0.025813151 0.2849718 0.10310927 0.018023983 0.13490947 0.24602668
0.18593921 0.18533625 0.10829753 0.104615405 0.19139431 0.18292476 -0.00834843 0.018524397
0.2280794 0.21598047 0.22814186 0.113420896 0.2878297 0.02402234 0.28817376 0.08037576
0.29488167 0.059615597 0.06134079 -0.08635343 0.02716991 0.3464465 0.106761 0.25370592
0.10837089 0.064663514 0.21863869 0.12143076 0.23810986 0.11498146 0.3240296 0.14282466

lstm.weight_ih_l1 f4 [200, 50]
00000000: 1a3e 49bd c3a4 c13d d4da 40bd 5c83 9f3e
00000010: c74a c7be 59a1 68bd 808a 2a3e db14 fb3b
00000020: 69df 32be 50f5 76be fe10 c0bd 60d7 1cbe
00000030: df4b 0bbd 63e3 293e 1ee9 ca3d 7976 1e3e
00000040: c771 52be c5a0 53be 3850 a73c 1a5a 5c3e
00000050: cc29 84be bf48 29bc 4122 afbe 20d6 b0bd
00000060: 7894 32bd b4bd d03c b30f 333d c01c 993c
00000070: 9001 2b3b df19 5c3e 14d4 37bd 98e1 103e
00000080: 6c7f 2e3e a74f 9fbd 886f c4bc b5d6 973d
00000090: 083d 24be 0335 4ebe 6067 34bd 7888 c03d
000000a0: 4123 413d 518f b5be 7a35 9ebd 6485 c53d
000000b0: 5fcc 8f3e 272d 703d 92d8 0f3e 1190 043e
000000c0: a7c6 92be b3f7 42be ad20 3e3e 2ed0 36bd
000000d0: 5d21 6e3d 10b5 843e 22d5 1ebe 0dea 4a3e
000000e0: b580 cb3d b5c4 903e abf8 d8bd 170e 9bbe
000000f0: f2d7 90bd 98d3 55be 0611 7f3e 7b23 ca3d
00000100: cd7a c33d f490 b03d 7086 5dbe 9a0d 043e
00000110: de6b eb3d f7e2 73be 4d3e e63d 5d05 69bd
00000120: 5df3 f4bd e10f 18be 1811 c7bb a8ca 31bb
00000130: e0bf 7d3d b5c5 06be 5fbe 053e 6475 3d3e
00000140: 6816 35be 9a65 d7bd 4d09 63bd 88f7 593e
00000150: 15a6 683e 561e 143e 7864 96bd 582e 883d
00000160: 12c3 203d 3542 05be d670 373c 3462 d1bd
00000170: 5b62 cebd 7d79 b73d 3f83 a5bb e0ff d9bd
00000180: 9b15 6e3d bfee 49bd 58e6 59be 7767 4fbe
00000190: 217d b03e f54e 46be 64c2 453e 7729 81bc
000001a0: 22c5 313e e831 7d3e cdf7 31be ff53 b23e
000001b0: cd7d 3f3d 2e43 c83d c35a 1d3e 8b64 303e
000001c0: 4b45 04bd 6f11 8ebe 39c6 66be 21b9 0fbe
000001d0: 8e6f 3e3e 14f3 5e3e 0c7f 313e 7ca2 b2be
000001e0: e9ae 643e 6226 8ebe f129 97bd be5e 5f3e
000001f0: b357 33be 4f8d 1bbe 350a a5be 1afe 603e
00000200: 0430 323e 865a 86be 64d4 943c 7d68 c5be
00000210: 2729 8cbe af0a 733e ea3c d63e 66d0 783e
00000220: a362 573e f842 663d 0e82 2cbd 407e 263e
00000230: 0c78 403e b5b7 d1bd 2262 8b3e 6a81 813e
00000240: 39b7 53be 8d97 5abe 2bda 853e ea3d 55be
00000250: eec4 133d 16d2 ab3e 9c59 a33e f8b2 29bb
00000260: 5a23 34bd d3d9 543e 6286 7abd 270f 853d
00000270: 04d5 73bd 1730 4d3e 4483 373d adee e0bd
00000280: 4e26 b63c 47a1 72be 7d68 c33d 838d aabd
00000290: eb5c 823d 5208 2a3e 17fa 7fbe 854b 2a3e
000002a0: 7fcc 373e e7d8 2fbe dcc9 173e 9924 4cbd
000002b0: a0cb 03be 8ab5 5c3c 5fe9 eebc 11dc 18be
000002c0: b710 33be c5df f6bd 391f 2c3e fec3 e2bd
000002d0: 9dae abbd 19fc 33be 5cd6 5a3b 2b03 c43d
000002e0: b0b9 343d 08d7 8bbd 93ea 983d 9fd8 e83c
000002f0: 0e88 3b3e 44e0 42be 88e9 963d b7e7 efbd
00000300: 153e d5bd 5f45 843d 3239 3bbe dba7 b83c
00000310: 47d4 443e c464 ae3b 9ef6 a8be 7a9d f43d
00000320: 8c0c d93d e57f ecbd c3e2 03bd c436 a33d
00000330: 1acc a33d 2d62 fb3d 247e ef3c 8418 f73d
00000340: 4584 963c ecd0 5fbe d966 4b3d 31a9 f03b
00000350: 7e06 883e 2fb6 1b3e b745 633d dab7 343c
00000360: 9712 6bbd d827 3cbe bae5 ce3c 9c05 18bd
00000370: a8e0 dcbd e47c e73c d5fb 77be e9f0 d63d
00000380: 3b1f fd3c 3edd 4bbc 5e24 083e bf97 57bd
00000390: 9bf0 05be 85b3 613e c5f3 2ebd 55d2 a3bc
000003a0: 060f 95bd 6bcb 8e3c 6384 eebd 74dd 3ebd
000003b0: 3b5f 35be 3777 28be bc4e 883d 35b8 c83c
000003c0: 66ab fcbd 1a72 8dbe 2d75 84bd 50f9 043e
000003d0: 7ab1 8ebc a0ca 913d 588f c83b faea d83d
000003e0: 4014 0abe 9747 1dbe 5664 9d3e 8f4c 34be
000003f0: cda0 883d e520 903e 3e65 3cbe ba53 933e
-0.04913149 0.09455254 -0.04708369 0.31154907 -0.38924238 -0.056794498 0.16654396 0.0076623983
-0.17468037 -0.24117017 -0.09378241 -0.15316534 -0.034007903 0.16590647 0.09907745 0.15474881
-0.20551215 -0.20666797 0.020423993 0.21518746 -0.25813138 -0.010332285 -0.3420582 -0.08634591
-0.043598622 0.025481082 0.043716144 0.018690467 0.002609346 0.21494244 -0.044879988 0.14148557
0.17040795 -0.07778864 -0.023978963 0.07413999 -0.16038907 -0.2013741 -0.0440439 0.09401029
0.04715276 -0.35460904 -0.077250436 0.09644583 0.2808561 0.05863681 0.14047459 0.12945582
-0.28667185 -0.19039802 0.18567152 -0.04463213 0.058137286 0.2591939 -0.15510991 0.19815846
0.09936658 0.28275076 -0.10594305 -0.30284187 -0.07072438 -0.20881498 0.24908838 0.098700486
0.09544907 0.086213976 -0.21633315 0.12895814 0.114951834 -0.23817049 0.11242352 -0.05688988
-0.1196048 -0.14849807 -0.006075036 -0.002712885 0.061950564 -0.13161357 0.13060902 0.18501812
-0.17684329 -0.10517426 -0.05542879 0.21285832 0.22719605 0.14464697 -0.07343382 0.06649464
0.039248534 -0.13013537 0.011196336 -0.10223809 -0.100773536 0.08958719 -0.005051046 -0.106445074
0.058126073 -0.04929995 -0.21279275 -0.20254312 0.34470466 -0.19366057 0.19312435 -0.015766842
0.17360356 0.24726069 -0.17379685 0.3482971 0.046750832 0.097784385 0.15366654 0.17225854
-0.032292645 -0.27747676 -0.22536553 -0.14035465 0.18597242 0.21772414 0.17333621 -0.3488959
0.22332348 -0.2776366 -0.073810466 0.21813485 -0.17513923 -0.15190624 -0.3223435 0.21971932
0.17401129 -0.2624094 0.018167682 -0.3855628 -0.27375147 0.23734544 0.4184335 0.24298248
0.2103372 0.05621621 -0.042116217 0.16259098 0.18795794 -0.102401175 0.27223307 0.25294048
-0.20675363 -0.21346875 0.2614301 -0.208244 0.03607648 0.3355872 0.31904304 -0.0025894027
-0.043979026 0.20786218 -0.061163314 0.06497031 -0.05952932 0.20037876 0.04480292 -0.10983024
0.022235062 -0.23694335 0.09541414 -0.083277725 0.06365379 0.16604736 -0.24997745 0.16630371
0.17949103 -0.17172585 0.14823097 -0.04983959 -0.12870646 0.013471017 -0.029164014 -0.14927699
-0.17486845 -0.120543994 0.16808785 -0.11072539 -0.08382914 -0.17576636 0.0033391928 0.09570917
0.044122398 -0.06828123 0.074666165 0.028423605 0.1831362 -0.19030863 0.07368761 -0.11714118
-0.10412232 0.06458544 -0.18283537 0.022540977 0.19221602 0.005322071 -0.33000654 0.11944099
0.10598096 -0.115478314 -0.03219868 0.0796943 0.07997914 0.12274585 0.029234953 0.12065223
0.018373618 -0.21857041 0.04965863 0.007344388 0.26567453 0.15206216 0.055486407 0.011030162
-0.057390776 -0.18374574 0.025256027 -0.037114725 -0.10785037 0.028257795 -0.2421716 0.10495169
0.03089868 -0.012442885 0.13295123 -0.05263495 -0.13080065 0.22041138 -0.042712945 -0.019997755
-0.07278256 0.017430982 -0.116463445 -0.046597913 -0.17712109 -0.16451727 0.066556424 0.0245019
-0.12337379 -0.27626115 -0.06467662 0.1298573 -0.017418612 0.07118726 0.0061206035 0.10591693
-0.13484287 -0.1535934 0.30740613 -0.1760733 0.06671295 0.28150097 -0.18397996 0.28774816

lstm.weight_hh_l1 f4 [200, 50]
00000000: 0862 c63c dce1 f3bc 0e27 aa3d 4043 ccbc
00000010: d08f 843c ec99 143d 8087 77bb 04bf cebd
00000020: 38c1 01be 6825 96bd dca3 823d e0bf eb3c
00000030: 8426 a73d d210 c2bd 00a8 6939 4ec1 8a3d
00000040: 509b bd3d e071 ef3c d06a fdbd 50ed 003d
00000050: 9061 9b3c c0dc d03d 641a 9cbc d299 fe3d
00000060: 808e b4bb 761b 17bd 48b5 823d 310a 02be
00000070: 8eb2 e03d 9ac5 8f3d 9098 ba3d 262a febd
00000080: f85e c43d 10bc be3c e9b5 0e3e 94cc 043d
00000090: be87 30bd 7096 c1bd 9024 a93c 644a edbd
000000a0: 5dfe fbbd d966 03be 728e b53d c232 bdbd
000000b0: 802b 3dbd 88b5 02bd 8088 dcbb fed2 963d
000000c0: 30b7 cbbd 6ca5 03be c8d5 873c 2e16 f8bd
000000d0: d4d7 c4bc 7441 f8bd 8e10 f23d b889 aabd
000000e0: c6f6 923d 8047 323c da42 67bd f6c8 e83d
000000f0: e09b 36bc 1c69 4c3d ca53 92bd 64c2 a33d
00000100: f8c7 053d a2a1 0fbe 40f8 713c 3037 febd
00000110: aa49 18bd c44d 1b3d ac2a 063d b059 af3d
00000120: 00a6 37bb 18ec a13c d42c f6bc 2e65 f6bd
00000130: 98fa 9b3d 361e 58bd c5cd 0c3e 9754 8abd
00000140: 2d2c 073e 8062 583d f2fb 9e3d 965a 9a3d
00000150: 9c27 5e3d 2387 e5bd 7230 8cbd d8bc 983c
00000160: 6f06 053e 709b 363c 2083 7ebc dea3 04be
00000170: 6c79 1ebd 9a48 ed3d 142c c73d 60f3 c7bb
00000180: e242 9f3d 8a8c 863d d16d 08be ca30 09be
00000190: 8f54 e7bd 8b5d f8bd a445 efbd 4287 07be
000001a0: 0891 ff3c d03f b63d 4cda 0c3d 30ed ce3d
000001b0: 28bd 403d 8419 273d 8e3a bf3d 2892 a63d
000001c0: 8267 0fbe 8104 0d3e 8cb8 813d 003a b7bc
000001d0: 6c2b bb3d 9eee cc3d 706e a93d 6c76 a73d
000001e0: 51c5 d0bd f3b6 f4bd cef7 63bd 201d 86bb
000001f0: d839 e73c e4a5 dd3d 78e6 2b3d 7012 723c
00000200: 0082 edba 106d d3bc 58cf 81bd 60c8 d73c
00000210: c0bd e8bb 7d90 a3bd e0fa 79bc 0231 e23d
00000220: f61f b53d e8f0 663d 364f 11bd 10b3 bebd
00000230: 4030 bb3d c421 afbd 70d6 423c 6e37 96bd
00000240: 8031 e9bb 458f 053e d612 fa3d c7cd 103e
00000250: b9b5 0f3e 2818 7e3d e06e b23b 96f4 fd3d
00000260: c0ca ba3c a6b1 d13d 98de ffbc a0d6 983b
00000270: 6830 aa3d 254d f9bd 9735 cebd 6e2b 85bd
00000280: e6b8 8a3d d2b6 e83d d311 0a3e 5e08 fabd
00000290: b731 0f3e ac32 083d bc86 ab3d fe57 adbd
000002a0: 8c36 383d 9249 0dbd 4068 6b3c 7a84 de3d
000002b0: f22f 68bd feb0 ddbd da5f 8d3d e429 4abd
000002c0: 6ca6 2cbd 7e8a 9d3d 61ce 073e 2010 ea3b
000002d0: 601f c2bb b471 163d c3bc 0d3e 5ab4 8b3d
000002e0: 821b cdbd 9886 3a3d 7daf ebbd 459d 083e
000002f0: 246d eebd 2a5e e93d 9fc6 89bd 4007 153b
00000300: c009 513d c11d 013e 1097 d3bd c8d3 853d
00000310: 5256 ef3d 801f 7d3d 80ac 333c 42ec e43d
00000320: e42a bebd ee30 7fbd 3467 12bd 48cc 0fbe
00000330: 2033 a2bd 8a0b a6bd 00c9 463a bcf6 a2bd
00000340: e276 eb3d 3cc8 013d 907a bc3c c005 ecbc
00000350: d834 84bd eca3 cd3d 733e 0d3e 3b3f 01be
00000360: 604b 243c 0676 07be ec22 d7bd d9fa e3bd
00000370: 8080 cebc 4088 c9bc 2302 0b3e 9b8e aebd
00000380: 405a 0dbb 46f5 febd 569f f73d 3062 d4bc
00000390: 926b a0bd f2a2 8e3d c38b 94bd e27c c43d
000003a0: 903c 74bc a49e 313d 2019 753d 2809 9abc
000003b0: 7d85 e9bd a94c 033e 8028 a63a 12df fc3d
000003c0: fad0 0ebe e43d 2c3d b850 84bc e09c 3b3c
000003d0: b0c8 d7bd ff16 9abd c0db 84bd 0483 ba3d
000003e0: 5eba b4bd 18dd 5ebd ba5a 7abd 2a42 8f3d
000003f0: fe43 c7bd 801d d43b b6a9 f73d 0497 5b3d
0.024216667 -0.029770784 0.0830823 -0.024934411 0.016181856 0.036279604 -0.0037769973 -0.10095027
-0.12671363 -0.073313534 0.0637891 0.028778017 0.08161643 -0.094758645 0.00022283196 0.06775151
0.09258139 0.029229105 -0.123738885 0.03147632 0.01896742 0.10198355 -0.019055553 0.12431683
-0.0055101514 -0.036891423 0.06382233 -0.126992 0.109715566 0.070201114 0.0911113 -0.12410383
0.09588426 0.023283035 0.1393658 0.032421663 -0.043098204 -0.09452522 0.020647317 -0.115864545
-0.12304375 -0.12832202 0.0886506 -0.09238197 -0.046184063 -0.031911403 -0.0067301393 0.07364462
-0.099470496 -0.12856072 0.016581431 -0.121136054 -0.024028696 -0.12121859 0.11819564 -0.08327049
0.071759745 0.010881305 -0.05646024 0.11366455 -0.011145562 0.049904928 -0.07144888 0.079960614
0.03266141 -0.14026502 0.01476866 -0.1241287 -0.037179627 0.03791596 0.03275554 0.085620284
-0.0028022528 0.019765899 -0.030050673 -0.12031017 0.07616156 -0.052763186 0.1375037 -0.067544155
0.13200445 0.052828312 0.077628985 0.07536809 0.054236993 -0.11207416 -0.06845178 0.018644735
0.12990735 0.011145458 -0.015534192 -0.12953135 -0.038690016 0.11586113 0.09725204 -0.0061020106
0.07776429 0.065697744 -0.13323142 -0.13397518 -0.11295425 -0.12127217 -0.11683205 -0.1323519
0.031197086 0.0889889 0.03438787 0.10103834 0.047055393 0.040795818 0.0933734 0.08133346
-0.14004329 0.1377125 0.06334028 -0.022366524 0.091391414 0.1000645 0.082730174 0.08176884
-0.10193885 -0.11948957 -0.055656247 -0.0040928274 0.028225824 0.10822657 0.04196784 0.014774904
-0.0018120408 -0.025808841 -0.06338376 0.026340663 -0.007102698 -0.07986543 -0.015257567 0.11044504
0.08843987 0.05638209 -0.035475932 -0.09311497 0.09140062 -0.08551362 0.011891946 -0.07334791
-0.0071164966 0.13042934 0.12210624 0.14140998 0.14034165 0.062034756 0.0054453462 0.12400167
0.022801757 0.10238962 -0.03123407 0.004664257 0.08310014 -0.12172917 -0.10068815 -0.06502424
0.06773548 0.11362995 0.13483362 -0.12208627 0.13983808 0.03325145 0.08375308 -0.08464049
0.044973895 -0.03449399 0.014368117 0.10865112 -0.05668635 -0.10824774 0.06903048 -0.049356356
-0.0421509 0.07692431 0.13262321 0.0071430355 -0.0059241503 0.03672953 0.13841538 0.06821509
-0.10015012 0.045538515 -0.11508081 0.13341244 -0.11641911 0.113949135 -0.06727337 0.0022739917
0.05103469 0.12609006 -0.10331547 0.06534535 0.11686386 0.06179762 0.01096642 0.11177875
-0.092855245 -0.062302522 -0.035742953 -0.14042771 -0.079199076 -0.0810767 0.0007583052 -0.07957217
0.114972845 0.0316851 0.023007661 -0.028811336 -0.06455392 0.10041031 0.13793354 -0.12621777
0.010027736 -0.13228616 -0.10504708 -0.1113183 -0.025207758 -0.024601102 0.13575034 -0.085232936
-0.0021568686 -0.12449126 0.12090938 -0.025925726 -0.078330174 0.06964673 -0.0725322 0.09594132
-0.014907017 0.043364182 0.059838414 -0.018803194 -0.11402414 0.12822212 0.0012676865 0.12347235
-0.13946906 0.04205121 -0.016151771 0.011450976 -0.10536325 -0.075239174 -0.064872265 0.091070205
-0.08824609 -0.05441007 -0.06112168 0.06995042 -0.09729765 0.0064732432 0.12092917 0.053610817

lstm.bias_ih_l1 f4 [200]
00000000: 5d35 a93c 0313 a23c edc9 3c3e 46f7 223d
00000010: f343 ee3d dc23 293e 8421 703d ac73 623e
00000020: 7cdb b43a baa1 903b 9058 4f3e 6b1b 223e
00000030: ff38 9f3d ba75 193e 9968 093d 3c99 45bd
00000040: 8f8d 783e ac55 713d 0625 5b3e 407e 2a3d
00000050: 9ddc 3a3e 570d c53d 0187 28bd 6a68 113e
00000060: 1615 183e 3e7c 3f3e 929b bebc 8e42 aa3d
00000070: 01b8 723d 6aaa 613e 278e 313e 5efd 9cb9
00000080: 9950 643c 6f49 323e 5f34 793e 6942 6b3e
00000090: 7a42 f93d 1870 ac3e a894 ec3d 070c 333e
000000a0: 5585 40bd 8fe1 8d3e d9b2 db3d 8648 8a3d
000000b0: aeb4 a23d a8b0 7c3e e054 723e 625b 033e
000000c0: 7928 673d 713e f33d 7008 b63c 94e3 e6bd
000000d0: 9067 5b3c 3b54 9abd a24d ba3d 1e71 c7bd
000000e0: 1499 fdbd 8c1c bcbd 1272 a5bd c426 1f3d
000000f0: 9f69 a7bd 0052 45bb b550 0ebe 780c 24bd
00000100: 046e bdbd f892 0cbe 59da 96bd c040 59bb
00000110: 6789 0c3e 671e 0b3e 622f eb3d 9902 a4bd
00000120: 9c39 c13d 68e4 6d3d 0066 993b 70b2 3c3c
00000130: 3cbc cf3d d5a5 093e d881 94bc a481 c2bd
00000140: d082 cabc ec91 b93d 0533 0d3e 33ed 83bd
00000150: 76e7 f53d 0add fa3d 5af3 c4bd a102 d4bd
00000160: d6d7 e83d b416 8fbd 9dbc 0e3e a0cb 553c
00000170: 1031 f6bc 2c74 c6bc dacc 47bd bc75 b5bc
00000180: 9669 c7bd 7158 c3bd 9645 38bd 4c8e 0abd
00000190: d1f3 ac3c 6352 933c fd83 2abd 0d39 d03c
000001a0: f1bf 76bd 3ca5 9dbd 8848 013d 09f6 abbd
000001b0: 7a64 343d f060 ab3d 83da 2c3d 6c9f 82bd
000001c0: 6119 d7bd 85b3 20be 1c99 233c d301 c9bd
000001d0: 41dd 40bd b876 c73a b154 493d e67f 0c3d
000001e0: 3de9 1d3c 8609 633d d8aa 16bc 704e 0f3d
000001f0: edb4 3ebd f342 103e 6751 e8bd 35b4 eebd
00000200: 9f76 b93d 16bc 963d 5473 003e 407b fc3d
00000210: 41bd e43d 1508 b23d 752c dbbd cc61 f03d
00000220: d881 4fbc 2963 afbd e9b7 0d3d b205 e23b
00000230: 4a22 163e 441f b13c 7bde d23d fc37 a43d
00000240: 9f58 a4bd ded0 893d 211b a3bd 7cc0 9c3d
00000250: 92fc 673d 6bd8 913b bb51 6b3e ceb8 183e
00000260: ef8b 9e3e 372e 553e 7491 433d 09e1 593e
00000270: d993 363e 6c71 cf3d f93a 30bd 0b28 72bc
00000280: 487f 3bbb 1fa3 21bc e5ed 15bd 0599 b43d
00000290: f0ae 063e d3de 5a3c 52c8 403e 0c92 b8bc
000002a0: 30a9 d33d 261d 383e 9afc ed3d cba1 ae3d
000002b0: 3a42 153e 9e8c 083d bd42 683e e619 da3b
000002c0: dbc2 7dbd 1dab 103e 8d27 0e3e 5fb8 543e
000002d0: 3dd5 753d 70f7 a8bb 91db 87ba 6ae1 7cbd
000002e0: 3c71 df3d 819e 483e 656a f83d 0144 9a3e
000002f0: 5eff 543e 1e60 f63d 21c0 643e 0b58 d33d
00000300: e65b 473e f844 513e c571 41bd ec37 f63d
00000310: e1da 7c3e cb52 983d a8ee 363e 14f1 803e
0.020655328 0.019784456 0.18436404 0.0397866 0.11634054 0.16517586 0.058625713 0.22114438
0.0013798322 0.0044138106 0.20248628 0.15830772 0.07774543 0.14986315 0.033547018 -0.04824184
0.2427275 0.058919594 0.21400842 0.041624308 0.1824822 0.09621685 -0.041144375 0.14199987
0.14851794 0.18699738 -0.023267541 0.083134755 0.05925751 0.22037664 0.17339383 -0.00029943412
0.013935232 0.17410825 0.24336384 0.22974552 0.121708825 0.3367927 0.115517914 0.17485057
-0.047002155 0.2771115 0.10727472 0.06752114 0.07944618 0.24676764 0.2366519 0.12827829
0.056435082 0.11877144 0.02222082 -0.11273876 0.01339139 -0.07535597 0.090968385 -0.09738372
-0.12382713 -0.091851324 -0.08078398 0.03885533 -0.081744425 -0.003010869 -0.13897975 -0.040050954
-0.092494994 -0.13727939 -0.07365865 -0.0033150166 0.1372429 0.13585816 0.11483647 -0.08008308
0.09434816 0.058079153 0.004681349 0.011517152 0.10143325 0.13442166 -0.01812832 -0.09497383
-0.02472058 0.090610355 0.13788994 -0.064417265 0.12007038 0.12249191 -0.09616728 -0.10352064
0.113692924 -0.06986752 0.13939138 0.013049036 -0.030052692 -0.024225317 -0.048779346 -0.022150867
-0.09736936 -0.09538353 -0.044988237 -0.03382711 0.021112354 0.017983621 -0.04162978 0.025417829
-0.060241643 -0.076975316 0.03156331 -0.08396537 0.044041134 0.08368099 0.042200577 -0.063780636
-0.105028875 -0.15693481 0.009985235 -0.09814801 -0.047086004 0.0015217876 0.049153034 0.03430166
0.009638128 0.055429004 -0.009196006 0.034986913 -0.046559263 0.14088039 -0.11343651 -0.116554655
0.09055828 0.07360093 0.12543994 0.123281956 0.1116891 0.08692948 -0.10701839 0.11737403
-0.0126652345 -0.08563835 0.03459922 0.0068976516 0.14661518 0.021621354 0.10296341 0.08018491
-0.08024716 0.067292914 -0.07964159 0.07653901 0.056637354 0.004450848 0.22980396 0.14914247
0.30966136 0.20818411 0.047746137 0.2127725 0.17829837 0.101290554 -0.04302499 -0.014780055
-0.00286098 -0.009865551 -0.036603827 0.08818249 0.13152671 0.0133587895 0.18826416 -0.022530578
0.10335004 0.17979869 0.116204455 0.08526953 0.14576045 0.033337228 0.22681709 0.0066559194
-0.061953407 0.14127775 0.13882275 0.20773457 0.060017813 -0.00515645 -0.0010365119 -0.06173841
0.109102696 0.19591714 0.12129668 0.30130008 0.2080054 0.12030052 0.22338916 0.10319527
0.1946865 0.20436466 -0.04722764 0.12022385 0.2469287 0.074376665 0.17864478 0.25183928

lstm.bias_hh_l1 f4 [200]
00000000: 50c9 683c 5383 b93d 079e 853e 44b2 b03d
00000010: 5b10 2f3e 5aa7 a63e 82e7 333e 89a8 4a3d
00000020: fde9 1e3d c369 513e 3782 6f3e 9ab1 173d
00000030: 9f5c 323b 02b9 073e baf3 0b3e 9d5d 1a3e
00000040: 7098 6b3e 8d1f 4b3d e460 803e 2ce8 d03d
00000050: f060 4f3e b01e 463e 814f 863b 2885 143e
00000060: 8432 3b3e 92fa 2d3c 67b3 c73d 2bec 373c
00000070: beb6 0e3e 51ab 513d 42fb c33d e37e 563e
00000080: 93f1 323e 54d3 933d f21a 6f3e a833 8b3e
00000090: 7868 113e de11 923e c408 aa3d 57e4 093e
000000a0: 1e5f 213d ea6a 583e a614 903d ba31 7f3e
000000b0: 687f 193e 5c15 6e3d aaac a03e 34f2 723e
000000c0: 55d0 a4bd 3c8c 8d3e ece8 0fbd 203c cc3c
000000d0: fe8c 67bd 70a6 81bd 66f7 ed3d e651 00be
000000e0: c853 d23d 0081 883c 0824 f8bc a0b3 27bc
000000f0: 20ee 9c3b 888b cdbd 0079 e4bb 9692 05bd
00000100: 2c93 5fbd 2217 a53d c0ca 113b 2a58 92bd
00000110: 985d 843c 7cf9 b83d 3b79 9dbd 8a78 b2bd
00000120: 20bc 3e3d 085e b6bd 6060 ec3b c662 cbbd
00000130: 3365 9dbd b901 09be c0b9 383c c4d1 7f3d
00000140: 306d 7e3d 04ad e7bc e672 f83d 0e10 79bd
00000150: b885 cbbd fc6f b1bd f0fa 8a3c a0b4 913c
00000160: 08d9 12bd d53b 103e ae59 cbbd 1408 7bbd
00000170: a0ae 193d 9ee3 c13d 32cd 00be 38a4 af3c
00000180: 9e07 e83d 80d4 1f3d 6e2c fcbd d8de 8b3c
00000190: 546c 3e3d 7700 a4bd 7905 8f3d 7873 bc3d
000001a0: 1065 eb3d 9732 893c fadf 413d 23c1 05bc
000001b0: 2b8b 023e 92d1 48bd ddf1 85bd 536a c7bd
000001c0: 0209 e7bd fc00 1cbd e7ff 733d d9e4 7fbd
000001d0: a8f1 583d ad6c 78bd f457 b7bc 2e02 e43d
000001e0: 7952 f33d 4661 bcbd 0a4d f53d 7771 ae3c
000001f0: e39e 863c b06e 82bc 0579 12bd 68a0 8bbb
00000200: da8b 733c 1478 a4bb 9027 95bd a9f1 d8bc
00000210: cf69 af3d 79b6 1e3e a7bf c43d bd72 13be
00000220: 7c2e 803c 5d5f fb3d 8b90 073c 8913 66bd
00000230: d3fa 2dbc f4a8 20bd 2138 483d b2e2 9cbc
00000240: 5f3e 68bd 0f2b dfbc 732f 023e a4a0 e3bd
00000250: 0d1d 393d b2d3 4dbd c234 ff3d 4f3b 3e3e
00000260: 498f 5e3e e946 ec3d 21a5 633e 3f2d 703e
00000270: 7127 d03d 6551 3b3e 58b8 55ba bae2 c83d
00000280: ee62 773d 1c64 2f3e 643b 2f3e cf18 793e
00000290: 4b57 e83c 14e6 303d d632 473d 3569 29bd
000002a0: 0e69 7a3e d202 783d feed 1f3d f235 103e
000002b0: d474 6c3d 88ac 4f3e a638 583e d995 20bd
000002c0: 9b53 1b3e 8e1c 2dbd 24d1 e33d f32e 233e
000002d0: 6a8c 453e d23a b63b 20a7 3e3e 08ab 283e
000002e0: 8ff1 8c3d 5303 2d3e f438 543d baaa 1e3e
000002f0: e06b 5b3e 5a65 923e ba70 093e d4fd a13d
00000300: 57d1 533e c3a0 e53d 18e2 72bb a6f5 123e
00000310: 4eee e53d 9d74 c13c 1f9c 843d 309b 6e3e
0.014208153 0.09058251 0.26097128 0.086277515 0.17096083 0.32549554 0.17568782 0.049477134
0.038797367 0.20450501 0.23389517 0.03703461 0.002721585 0.13254169 0.13667193 0.15074773
0.23007369 0.049590636 0.25073922 0.10200533 0.20251822 0.19347644 0.004098833 0.1450392
0.18280989 0.010618823 0.09751015 0.01122574 0.13936898 0.05118877 0.09569408 0.20946841
0.17474966 0.07218042 0.23350123 0.27187848 0.14200008 0.28529257 0.08302453 0.13466011
0.03939735 0.21134534 0.070351884 0.24921313 0.14990008 0.05812584 0.31381732 0.23725206
-0.08047549 0.27646053 -0.03513424 0.024931014 -0.056530945 -0.063305736 0.11619453 -0.12531242
0.10269886 0.016663074 -0.030290619 -0.010235697 0.004789129 -0.10036379 -0.006972432 -0.0326105
-0.054583713 0.08061053 0.0022246093 -0.07145722 0.01615791 0.0903196 -0.076891385 -0.08714397
0.04656613 -0.08904654 0.007213637 -0.09930949 -0.07685318 -0.13379563 0.011274755 0.062455907
0.062115848 -0.028280742 0.1213129 -0.060806327 -0.09937614 -0.086639374 0.01696536 0.017786324
-0.03585151 0.14085324 -0.099292144 -0.061287 0.03752005 0.09467243 -0.12578276 0.02144061
0.11329578 0.039021015 -0.12313162 0.017074034 0.04649003 -0.08007901 0.06983466 0.092017114
0.114938855 0.016747756 0.04733274 -0.008163723 0.12748401 -0.049027987 -0.065402724 -0.097370766
-0.11281015 -0.038086876 0.05957022 -0.062474106 0.052964836 -0.060650516 -0.022380807 0.11133228
0.11880965 -0.09198241 0.11977585 0.021294339 0.016433185 -0.01592192 -0.035759944 -0.0042610653
0.014864886 -0.0050191972 -0.072829366 -0.02648242 0.08565103 0.15499295 0.09606867 -0.14399238
0.015647165 0.122740485 0.008274208 -0.056170974 -0.010618883 -0.039223626 0.048881654 -0.019151065
-0.056700107 -0.027242212 0.12713413 -0.11114624 0.04519372 -0.050250717 0.12461235 0.18577312
0.21734346 0.115369625 0.2223096 0.2345476 0.10163773 0.18292768 -0.00081527745 0.0980887
0.06039708 0.17128032 0.171125 0.2432587 0.028361937 0.04318817 0.048632465 -0.0413601
0.24454138 0.060549565 0.039045326 0.14083079 0.057728603 0.20280659 0.2111536 -0.039205406
0.15168612 -0.04226356 0.11123875 0.15935878 0.19291845 0.005561211 0.1861844 0.16471493
0.06882011 0.168958 0.051812127 0.15494815 0.2142787 0.2859295 0.13421908 0.07909742
0.20685326 0.112123035 -0.0037061032 0.1435152 0.11227094 0.023615176 0.0647509 0.23301387

fc.weight f4 [1, 50]
00000000: 905e 0e3e bebc 453e 9698 923e 8937 03be
00000010: 18dd 7fbe fc6f 7c3e b3e0 333e a8f8 823e
00000020: 54b3 cfbd 92db f03d d9ca febd 0757 1f3e
00000030: 5229 97bd 2183 ca3d 86d0 683e a002 cdbd
00000040: a778 3ebe 3701 ffbd 51a4 703e 11d2 38be
00000050: edc6 06be c301 2d3e 777f a73d 7841 033e
00000060: 6b5d 59be 085a d0bd 9b02 10be dcfd c0bd
00000070: 95c1 3dbe 5eeb a1be 3c8b 84be 2ab8 4c3e
00000080: 8430 e33d 8221 8dbd f67b 88be 9439 3c3e
00000090: 4359 84be 3634 86be cb07 163e a84c 50be
000000a0: 66df 12be 34a9 68be 5fd0 f0bd 667d fd3d
000000b0: cc2e 1fbe dde0 3b3e ba67 65be b9da 72be
000000c0: 78a6 773d 45f4 603e
0.1390326 0.1931028 0.2863204 -0.12814154 -0.24986684 0.24652094 0.17566185 0.25580335
-0.10141626 0.1176063 -0.12441034 0.15560542 -0.07380928 0.09888292 0.22735795 -0.10010266
-0.18600713 -0.124514036 0.23500182 -0.18048884 -0.13161822 0.16895203 0.08178609 0.12817943
-0.21227042 -0.10173422 -0.14063494 -0.0942342 -0.18530877 -0.31624883 -0.25887477 0.19992128
0.11093238 -0.06891157 -0.26657075 0.1838134 -0.2584935 -0.2621171 0.1465141 -0.20341742
-0.14343032 -0.22720796 -0.11758494 0.123774335 -0.15545195 0.18347497 -0.2240285 -0.23716249
0.06046149 0.21968181
